checkpoint/ddpg-critic_mlp_actor-lr:0.0001_critic-lr:0.0003_gamma:0.99_tau:0.05.pth (torch, 63319 bytes, 5 tensors)

network_critic.0.weight f4 [70, 145]
0.05890888 0.3007708 0.05057852 -0.18142273 -0.11859425 -0.05850218 -0.0072661825 -0.15376124
0.141412 -0.06792534 -0.0075254636 0.029499557 -0.02150472 -0.06584602 0.0490956 -0.060727563
0.079205744 -0.04832998 -0.051743574 0.17172845 -1.0510991 0.07383206 1.3192316 -2.4254274
-0.0012618486 -0.12530032 -0.026132902 0.03410294 -0.07822807 0.34436327 0.10941991 -0.07214946
-0.0038637747 -0.06715415 -0.027616182 -0.076143675 0.12842378 0.051307283 0.004537227 0.03447094
0.07975446 -0.096758485 0.073698506 -0.07080594 -0.04786067 0.08129037 -0.045922674 0.17665696
0.55066776 0.29923493 2.119176e-05 1.6279664 -0.012991979 -0.11810617 -0.04928852 0.056961548
-0.07037983 0.2670941 0.054738246 -0.02351775 -0.093636654 0.001297528 -0.06920711 -0.14050338
0.15907584 0.047352087 -0.036996167 -0.01692463 -0.0077575576 0.013890026 0.07193646 -0.023014875
0.012025253 -0.05512855 -0.038972348 0.21389768 -1.180458 0.2541273 0.89596903 -2.4432743
0.035137117 -0.08420361 -0.016512647 0.04551655 0.0034974297 0.20795536 0.033985928 -0.038211744
-0.08674983 -0.020794375 -0.002711192 -0.1271691 0.057510413 -0.024634546 0.071762756 0.0662165
0.0045046713 0.048865613 0.05941646 0.009021972 0.009246688 -0.009715879 0.0007536115 0.23028597
-0.8143336 0.28774855 1.4068569 -2.671867 0.01864204 -0.104492955 0.0802362 0.07139424
0.00056996004 0.35331604 0.107388 -0.088333994 -0.16389285 -0.045346133 -0.15299287 -0.081158
0.0739384 0.0551173 -0.03618542 -0.025291301 0.07824109 -0.106264554 -0.019960893 -0.06624404
0.052663837 -0.044809632 0.051000785 0.11773257 0.20959465 0.07356717 0.06877886 -0.12646584
-0.06343056 -0.15890203 -0.032323897 0.048364427 -0.059964366 -0.15333726 -0.09984687 -0.05485874
-0.069943726 -0.15912043 0.8387041 -0.08645883 -0.09423353 -0.09203995 -0.07087019 -0.052149616
0.14478415 0.15688281 -0.0406136 -0.10326133 -0.038995706 -0.00543431 -0.0054596444 -0.035845157
-0.031183915 0.046885677 0.07924205 -0.022260305 -0.09911554 -1.3454527 0.02941649 0.8957229
-2.7269523 0.18705702 -0.5784459 -0.10657665 0.056807414 -0.068459935 0.7217337 0.020402739
-0.06906128 -0.21854167 -0.045842282 0.062010147 0.23010892 0.05247765 -0.13152097 0.00040253572
-0.031535793 0.025783965 0.00063245423 -0.06145031 -0.018129539 -0.0015118214 0.035768162 0.102998115
-0.098371066 -0.2391678 0.27078727 0.2552907 -1.209149 0.097417675 -0.5357603 -0.20210165
0.17727174 -0.1517134 0.6987921 -0.098660834 -0.07478985 -0.1340277 -0.09142524 -0.048316702
0.12949538 0.16117725 -0.1652593 -0.12814964 -0.07668887 0.018273992 -0.06601706 0.009484816
0.03190394 0.089243025 -0.029189441 0.0953886 -0.23285733 0.7389287 0.25624415 -0.72974503
0.4637738 0.25620398 -0.5804503 -0.13952222 0.11543828 -0.15543586 0.8432668 0.025983652
-0.05205473 -0.060621534 -0.07986531 -0.019818125 0.23426174 0.01625567 -0.1302827 -0.09048093
0.05233346 -0.015019715 -0.060185805 0.021664219 0.06667665 0.04738031 -0.071666256 0.055857077
-0.15757579 -1.3597372 0.18620217 0.19131045 -2.5342507 0.21248133 -0.5853486 -0.13160706
00000000: 704a 713d a1fe 993e 6c2b 4f3d e1c6 39be
00000010: 8be1 f2bd fb9f 6fbd 2819 eebb 9673 1dbe
00000020: 4fce 103e 711c 8bbd 2a98 f6bb 0ea9 f13c
00000030: ab2a b0bc 47da 86bd 7818 493d 77bd 78bd
00000040: 9f36 a23d a8f5 45bd 12f1 53bd 95d9 2f3e
00000050: 6a8a 86bf 4335 973d 95dc a83f 343a 1bc0
00000060: 9d64 a5ba ba4e 00be ab14 d6bc 86af 0b3d
00000070: 0a36 a0bd 6250 b03e 8c17 e03d 19c3 93bd
00000080: 6237 7dbb 1d88 89bd 553b e2bc 37f1 9bbd
00000090: 8681 033e 9627 523d 05ad 943b 6631 0d3d
000000a0: 4e56 a33d 5029 c6bd 3eef 963d b402 91bd
000000b0: 8d09 44bd 917b a63d 6a19 3cbd 90e5 343e
000000c0: 90f8 0c3f 5235 993e f5c4 b137 3461 d03f
000000d0: 4fdc 54bc a6e1 f1bd c2e2 49bd 8350 693d
000000e0: 4d23 90bd 8fc0 883e 3635 603d 4ca8 c0bc
000000f0: 93c4 bfbd d111 aa3a 75bc 8dbd 1ee0 0fbe
00000100: c7e4 223e 43f4 413d 4b89 17bd 86a5 8abc
00000110: 1c33 febb fe92 633c 6c53 933d b189 bcbc
00000120: 9105 453c 79ce 61bd 78a1 1fbd fe07 5b3e
00000130: 3f19 97bf f91c 823e 3a5e 653f 9b5e 1cc0
00000140: f0eb 0f3d f172 acbd 8845 87bc 906f 3a3d
00000150: 2235 653b 40f2 543e d434 0b3d eb83 1cbd
00000160: e5a9 b1bd f758 aabc 41ae 31bb 9e38 02be
00000170: 0a90 6b3d 63ce c9bc 5af8 923d 849c 873d
00000180: ec9b 933b 4f27 483d ad5e 733d e5d0 133c
00000190: 6c7f 173c 5a2f 1fbc 038e 453a 16d0 6b3e
000001a0: 2b78 50bf c753 933e e313 b43f deff 2ac0
000001b0: 31b7 983c 6700 d6bd e052 a43d 2537 923d
000001c0: 5f69 153a d7e5 b43e 3dee db3d 74e8 b4bd
000001d0: 87d3 27be debc 39bd 2aaa 1cbe 2a36 a6bd
000001e0: 046d 973d aec2 613d 2a37 14bd b42f cfbc
000001f0: dd3c a03d 3ba1 d9bd 0785 a3bc f5aa 87bd
00000200: 09b6 573d 4e8a 37bd 33e6 503d c61d f13d
00000210: fb9f 563e 62aa 963d eedb 8c3d 4380 01be
00000220: e2e7 81bd 37b7 22be 1066 04bd c719 463d
00000230: 329d 75bd 7104 1dbe 847c ccbd 8fb3 60bd
00000240: a83e 8fbd 77f0 22be 50b5 563f 5411 b1bd
00000250: 82fd c0bd 717f bcbd 6424 91bd d69a 55bd
00000260: 4c42 143e e3a5 203e 725a 26bd ad7a d3bd
00000270: f6b9 1fbd 4c12 b2bb d1e6 b2bb 5fd2 12bd
00000280: 6975 ffbc 320b 403d a849 a23d 3e5b b6bc
00000290: 17fd cabd cb37 acbf dafa f03c 194e 653f
000002a0: 6386 2ec0 e08b 3f3e 0815 14bf dc44 dabd
000002b0: e4ae 683d b934 8cbd 8ac3 383f a523 a73c
000002c0: 0070 8dbd 63c9 5fbe 1ec5 3bbd 5afe 7d3d
000002d0: aca1 6b3e cef2 563d 6fad 06be 6e0b d339
000002e0: ad2b 01bd e538 d33c 49cb 253a 52b3 7bbd
000002f0: 6684 94bc 4f28 c6ba a381 123d adf0 d23d
00000300: c576 c9bd 67e8 74be a1a4 8a3e 76b5 823e
00000310: 65c5 9abf eb82 c73d 9627 09bf bcf3 4ebe
00000320: b986 353e c25a 1bbe 0ae4 323f b10e cabd
00000330: 6c2b 99bd 8f3e 09be 283d bbbd bce7 45bd
00000340: 709a 043e a60b 253e bc39 29be a939 03be
00000350: 0e0f 9dbd 57b3 953c f433 87bd 3466 1b3c
00000360: b5ad 023d 0cc5 b63d b21e efbc 195b c33d
00000370: 2772 6ebe 6e2a 3d3f 6f32 833e 92d0 3abf
00000380: c273 ed3e 2b2d 833e 6498 14bf eade 0ebe
00000390: e86a ec3d 942a 1fbe 55e0 573f abdb d43c
000003a0: 5737 55bd 494e 78bd 6c90 a3bd 9f59 a2bc
000003b0: 4fe2 6f3e 9c2a 853c d468 05be 114e b9bd
000003c0: 9c5b 563d 4015 76bc 6485 76bd 2979 b13c
000003d0: c48d 883d db11 423d c2c5 92bd 64ca 643d
000003e0: 8c5b 21be de0b aebf c8ab 3e3e e3e6 433e
000003f0: 2a31 22c0 b594 593e 68d9 15bf 00c4 06be

network_critic.0.bias f4 [70]
-0.09034725 -0.12510033 -0.022838494 -0.03640143 0.0010918282 -0.027881473 -0.08911108 -0.037097342
-0.05997627 0.07386869 0.016206568 -0.124533 0.061678503 0.020824391 -0.081000656 -0.043990746
0.06259317 0.051878396 -0.07062909 0.0013381314 0.11692753 -0.08584562 -0.036123354 0.00040335138
-0.07744366 0.15085426 0.025540369 -0.05103752 0.044795964 -0.104189105 0.01157022 0.10813937
0.06772811 -0.06356863 -0.05126229 0.03503514 0.116926484 -0.021366991 0.11933327 0.053228036
0.063330196 0.08035216 -0.15877806 -0.08898549 0.09586878 -0.004409272 0.05585673 -0.072095454
0.016128821 -0.015714847 0.1467415 -0.016177544 -0.0020928879 -0.11735246 -0.059653483 -0.07254703
0.027912395 0.045120638 0.044791475 -0.044878937 -0.010821165 0.09082821 -0.0038210014 -0.1031199
-0.020204348 -0.0118123805 -0.113631286 -0.09792164 0.0066611785 -0.1237919
00000000: fb07 b9bd 4d1a 00be cb17 bbbc aa19 15bd
00000010: ad1b 8f3a b067 e4bc df7f b6bd 62f3 17bd
00000020: ada9 75bd 7848 973d a3c3 843c 280b ffbd
00000030: 99a2 7c3d ea97 aa3c ace3 a5bd a42f 34bd
00000040: d930 803d 717e 543d fca5 90bd 3d64 af3a
00000050: b377 ef3d d4cf afbd 15f6 13bd e878 d339
00000060: c89a 9ebd 8a79 1a3e 093a d13c b80c 51bd
00000070: f97b 373d 1961 d5bd 0591 3d3c 2d78 dd3d
00000080: 09b5 8a3d 4530 82bd 68f8 51bd 0281 0f3d
00000090: 2777 ef3d d409 afbc 0065 f43d a405 5a3d
000000a0: 43b3 813d ac8f a43d b796 22be 063e b6bd
000000b0: da56 c43d a87b 90bb 07ca 643d c8a6 93bd
000000c0: 9720 843c 6cbc 80bc 6743 163e c586 84bc
000000d0: d528 09bb 7d56 f0bd 3657 74bd 8a93 94bd
000000e0: 89a8 e43c 6bd0 383d 4477 373d fad2 37bd
000000f0: 414b 31bc 2404 ba3d c469 7abb 8730 d3bd
00000100: 9783 a5bc b788 41bc 85b7 e8bd 248b c8bd
00000110: 0446 da3b 9c86 fdbd

network_critic.2.weight f4 [70, 70]
-1.4329162 -0.0563732 0.07674814 0.06900386 -0.03400221 -0.43211174 -0.56372446 0.06068191
0.16498753 0.03444249 0.046510585 -0.13879639 -0.028683642 -0.6265842 -0.046172146 0.01929074
0.158892 0.05619908 -0.111604944 -0.20674996 0.08975055 0.04442653 0.30158105 0.5391733
0.014096356 -0.33913428 -0.08642644 -0.004350416 -0.046611834 0.14205077 -0.014163203 0.1526857
-0.00037819092 0.23859505 -0.055608984 0.102887325 0.025256554 -0.07136572 0.10857944 -0.15305808
0.01941302 0.103795394 0.06422338 -0.19241475 0.08443099 -0.14818826 -0.0894752 0.11766366
0.02196251 0.08319567 -0.31375334 -0.007120804 0.054084416 -0.12654217 -0.06420828 -0.10036846
-0.09327712 -0.06366763 -0.6290226 0.06950602 -0.045176283 -0.046662543 -0.16646715 -0.033641495
-0.38612068 -0.88626856 0.098276384 0.011927544 -0.010002329 0.15123245 -0.12430955 -0.9392779
-0.014853154 0.027658373 -0.09777639 0.06495365 0.12553976 -0.11339144 -0.08316585 -0.043449197
-0.05859581 -0.051982764 0.09935367 0.34007007 -0.10820127 0.12945212 -0.054592982 0.046043936
-0.078107655 -0.24077424 0.10033425 -0.124013245 0.28133452 -0.39796004 -0.031371165 -0.2154564
-1.4634988 -0.21466838 0.10169388 0.016090656 -0.09210067 0.078300156 -0.046914395 0.27981865
-0.01573597 0.08164537 0.08758367 0.052626215 -0.0320213 -0.23741122 -0.13686588 -0.36091864
0.12435456 0.17685507 0.0655557 -0.022341652 0.01849209 -0.0975907 -0.65196985 0.02074047
-0.7803968 -0.06272709 -0.04706985 0.097496696 -0.057458952 0.08208699 0.0332124 -0.06719802
-0.26814935 -0.099990115 0.05566986 0.111979805 -0.05363108 0.059934102 -0.6753583 -0.31965864
0.06789679 0.09194474 0.043119375 -0.081371196 0.024819955 -0.049173437 -0.03553031 0.12969074
0.13914758 0.06255787 0.05691379 0.108611144 0.26709315 -0.20968677 -0.076378524 -0.102480374
0.07810111 -0.029663432 0.162019 -0.08130907 -0.022010075 -0.057126373 -0.04337818 0.0033714906
0.15910472 -0.060679685 0.027990783 -0.11701515 0.04420242 0.019466916 -0.21530369 -0.029840428
0.024394091 0.3114266 -0.9938916 -0.28110355 0.09818066 -1.5519148 0.10021675 0.14364186
0.09220173 -0.03301655 0.11924588 0.08115105 -0.21555479 -0.11768432 -0.54259473 -0.037488524
0.03859257 0.0886784 0.07851697 0.12137015 -0.18835786 -0.06037136 0.11663293 0.07302084
-0.14532833 -0.1793137 -0.16344585 0.11548456 -0.09942131 0.0074966648 -0.048824046 0.1201917
0.014319252 -0.39303276 -0.08749466 -0.029316895 0.01793642 0.0041081556 0.3640606 -0.1718573
-0.14108486 0.30494925 -0.0020597768 0.022303984 0.070723474 0.261351 -0.16655697 0.22905782
-0.14272016 -0.096464545 -0.1508617 -0.16231693 -0.06926306 0.021118103 0.1622268 0.22440593
-0.06239679 -0.23188742 -1.2369902 -0.07672603 0.001513875 -0.004231987 0.118884884 -0.48422104
-0.025330096 -0.06585434 -0.099574044 0.008952292 -0.05071606 0.082353234 0.048613213 -0.05856688
0.07924169 0.07114171 0.020324567 0.016245335 -0.04575856 -0.3938365 0.2118858 -0.09217597
-0.2302047 -0.01399422 -0.19445364 -1.1566281 -0.0054091583 -0.4167781 -0.35378942 -0.115723014
00000000: cc69 b7bf 96e7 66bd 212e 9d3d e551 8d3d
00000010: e745 0bbd c03d ddbe 3f50 10bf 988d 783d
00000020: 7ef2 283e 9213 0d3d e281 3e3d a420 0ebe
00000030: f5f9 eabc d267 20bf 011f 3dbd 9d07 9e3c
00000040: 96b4 223e 0231 663d 2291 e4bd 43b6 53be
00000050: 23cf b73d 98f8 353d d568 9a3e 4307 0a3f
00000060: 67f4 663c 02a3 adbe 5800 b1bd ef8d 8ebb
00000070: 0dec 3ebd c275 113e c70c 68bc a459 1c3e
00000080: ed47 c6b9 4352 743e 3fc6 63bd 97b6 d23d
00000090: d5e6 ce3c 3128 92bd e65e de3d 42bb 1cbe
000000a0: 0e08 9f3c ae92 d43d 8c87 833d 5f08 45be
000000b0: 28ea ac3d aabe 17be c63e b7bd a5f9 f03d
000000c0: b9ea b33c 7e62 aa3d 47a4 a0be a255 e9bb
000000d0: 9f87 5d3d 4594 01be a17f 83bd fb8d cdbd
000000e0: 1308 bfbd 2d64 82bd a007 21bf 2c59 8e3d
000000f0: c40a 39bd 3921 3fbd 5d76 2abe aacb 09bd
00000100: 9cb1 c5be 7fe2 62bf 2145 c93d bf6b 433c
00000110: cfe0 23bc aedc 1a3e 0196 febd 8474 70bf
00000120: a55a 73bc d093 e23c fd3e c8bd 6b06 853d
00000130: 7f8d 003e c539 e8bd db52 aabd c9f7 31bd
00000140: 2902 70bd e1eb 54bd f079 cb3d aa1d ae3e
00000150: a198 ddbd 198f 043e e49c 5fbd 9198 3c3d
00000160: e8f6 9fbd 868d 76be 0b7c cd3d a8fa fdbd
00000170: 140b 903e 6bc1 cbbe 0d7f 00bd 9aa0 5cbe
00000180: ee53 bbbf 07d2 5bbe e244 d03d 8dd0 833c
00000190: 479f bcbd d55b a03d 4f29 40bd 6444 8f3e
000001a0: b9e8 80bc b035 a73d 115f b33d 968e 573d
000001b0: c428 03bd ed1b 73be 9226 0cbe 54ca b8be
000001c0: 9bad fe3d 7f19 353e 1142 863d d705 b7bc
000001d0: b97c 973c a2dd c7bd 7fe7 26bf ebe7 a93c
000001e0: 16c8 47bf 1077 80bd 51cc 40bd 59ac c73d
000001f0: 145a 6bbd 391d a83d ba09 083d 1e9f 89bd
00000200: df4a 89be 9ec7 ccbd 1406 643d ab55 e53d
00000210: 43ac 5bbd 767d 753d 48e4 2cbf 4caa a3be
00000220: 790d 8b3d 864d bc3d f19d 303d f1a5 a6bd
00000230: 3853 cb3c 166a 49bd 3b88 11bd a6cd 043e
00000240: b47c 0e3e 571e 803d 6f1e 693d 856f de3d
00000250: 6fc0 883e 21b8 56be 586c 9cbd 3be1 d1bd
00000260: 7af3 9f3d ba00 f3bc 4fe8 253e 5f85 a6bd
00000270: 794e b4bc 58fd 69bd 52ad 31bd 3af4 5c3b
00000280: 59ec 223e 438b 78bd ed4c e53c a4a5 efbd
00000290: 990d 353d 1579 9f3c 9278 5cbe ea73 f4bc
000002a0: 1ed6 c73c 4f73 9f3e ae6f 7ebf ceec 8fbe
000002b0: f112 c93d 25a5 c6bf 703e cd3d da16 133e
000002c0: 43d4 bc3d 5d3c 07bd 2f37 f43d 8632 a63d
000002d0: 65ba 5cbe 7a04 f1bd 7de7 0abf 918d 19bd
000002e0: 3e13 1e3d 059d b53d 81cd a03d ea90 f83d
000002f0: e2e0 40be f647 77bd 3fdd ee3d f38b 953d
00000300: f3d0 14be 039e 37be 595e 27be 2b83 ec3d
00000310: 669d cbbd 95a6 f53b b9fb 47bd 1127 f63d
00000320: 4c9b 6a3c 973b c9be 6630 b3bd fc29 f0bc
00000330: 66ef 923c b59d 863b 2766 ba3e 5cfb 2fbe
00000340: 8d78 10be 4f22 9c3e 52fd 06bb d8b6 b63c
00000350: 78d7 903d cccf 853e e98d 2abe 228e 6a3e
00000360: 3c25 12be 348f c5bd 7d7b 1abe 6936 26be
00000370: cbd9 8dbd dfff ac3c c81e 263e abca 653e
00000380: c793 7fbd e573 6dbe b255 9ebf 8922 9dbd
00000390: 376d c63a 7bac 8abb eb79 f33d d2eb f7be
000003a0: 1081 cfbc a4de 86bd 7aed cbbd a2ac 123c
000003b0: a5bb 4fbd d0a8 a83d a61e 473d d3e3 6fbd
000003c0: 7849 a23d bfb2 913d b57f a63c f014 853c
000003d0: 546d 3bbd f0a4 c9be 97f8 583e c1c6 bcbd
000003e0: c8ba 6bbe 0348 65bc db1e 47be 640c 94bf
000003f0: 4f3f b1bb f063 d5be e323 b5be 3000 edbd

network_critic.2.bias f4 [70]
-0.0070477156 -0.06253209 -0.09607891 -0.022948384 -0.0003161775 -0.01171899 -0.0904789 -0.025276031
0.031296153 -0.09818701 -0.017602459 -0.1262621 -0.030757872 0.07838496 -0.0965774 -0.06625439
0.04878134 0.0019407612 0.089010805 0.08768615 0.045449544 0.052007537 -0.09708495 0.013404957
0.011561896 -0.22719967 0.035036016 0.06878119 -0.0525712 -0.0065681725 0.017491894 0.076116644
0.016062796 -0.051723503 -0.05355239 6.850585e-05 -0.12162053 -0.026082408 0.11390536 -0.11166842
0.06680687 -0.14571445 -0.07471859 -0.038779113 0.11062866 0.04510985 -0.019350177 -0.049588032
-0.06454954 0.035809208 -0.071596526 -0.047582544 0.11844392 -0.028838886 0.07287318 0.07390938
-0.11960753 -0.09805465 -0.10877188 0.03419383 -0.013891938 0.06541447 -0.06318136 -0.0005993026
0.09815659 -0.16938683 -0.12598853 -0.04821879 -0.12316638 0.089092426
00000000: 86f0 e6bb d310 80bd 05c5 c4bd 40fe bbbc
00000010: a0c4 a5b9 0201 40bc 004d b9bd ae0f cfbc
00000020: 6530 003d 4516 c9bd 0833 90bc da4a 01be
00000030: eff7 fbbc 4b88 a03d 5fca c5bd 62b0 87bd
00000040: f1ce 473d 2461 fe3a 4c4b b63d cc94 b33d
00000050: 4d29 3a3d db05 553d 79d4 c6bd 77a0 5b3c
00000060: 1b6e 3d3c 08a7 68be ed81 0f3d 27dd 8c3d
00000070: e654 57bd d339 d7bb 294b 8f3c 0be3 9b3d
00000080: 2096 833c 06dc 53bd c059 5bbd ccaa 8f38
00000090: 2f14 f9bd c6aa d5bc 3747 e93d 6ab2 e4bd
000000a0: 0ad2 883d 2b36 15be 0f06 99bd d9d6 1ebd
000000b0: 4791 e23d 1bc5 383d 4384 9ebc d21c 4bbd
000000c0: 8d32 84bd adac 123d 33a1 92bd eae5 42bd
000000d0: ba92 f23d 873f ecbc 893e 953d cd5d 973d
000000e0: cbf4 f4bd e0d0 c8bd cbc3 debd d40e 0c3d
000000f0: 039b 63bc 06f8 853d 3b65 81bd 841a 1dba
00000100: 5206 c93d be73 2dbe 2303 01be 1181 45bd
00000110: a83e fcbd 1776 b63d

network_critic.4.weight f4 [1, 70]
-0.10455093 -0.19772114 0.23133585 -0.474205 0.28941807 -0.18133922 -0.15211067 0.109488815
-0.39859048 0.0043672547 -0.328802 -0.19357349 -0.37328225 0.16465276 -0.19975796 0.20266405
0.14483918 -0.110161625 0.0572976 -0.16742814 -0.07416908 0.073480904 -0.2549621 0.0928189
0.16527826 -0.48145005 0.32862335 -0.011629434 -0.3994163 -0.07667786 -0.1471093 0.15681738
-0.030763444 -0.061641563 0.2909322 -0.012378704 0.13639927 0.13115239 0.29128635 0.0040180157
-0.07571135 0.19799304 -0.44639754 0.14439777 -0.033472575 -0.4975652 -0.16580816 0.14032559
0.10532408 -0.31121728 0.029071014 -0.12807256 -0.53633714 -0.17999546 -0.03535439 0.06375704
0.007025956 0.33598477 -0.4246634 0.101940185 -0.07797642 -0.048010316 -0.11422811 0.6772646
0.03388515 -0.09744354 -0.09537194 0.06999767 0.23682003 -0.08592788
00000000: cc1e d6bd 6977 4abe 4ee3 6c3e ffca f2be
00000010: 9b2e 943e fdb0 39be e6c2 1bbe ac3b e03d
00000020: 0d14 ccbe 301b 8f3b bc58 a8be 2138 46be
00000030: da1e bfbe bc9a 283e 5a8d 4cbe 2a87 4f3e
00000040: b950 143e 6b9c e1bd e3b0 6a3d 4872 2bbe
00000050: f5e5 97bd 287d 963d 648a 82be d617 be3d
00000060: b43e 293e 9f80 f6be 5241 a83e 6289 3ebc
00000070: 4b80 ccbe 4809 9dbd d2a3 16be bc94 203e
00000080: 9e03 fcbc dd7b 7cbd 11f5 943e 0cd0 4abc
00000090: 40ac 0b3e d04c 063e 7c23 953e 8fa9 833b
000000a0: 8d0e 9bbd b0be 4a3e 388e e4be 02dd 133e
000000b0: 8a1a 09bd dec0 febe 9dc9 29be 83b1 0f3e
000000c0: 27b4 d73d df57 9fbe 5626 ee3c 7425 03be
000000d0: 644d 09bf bb50 38be c4cf 10bd 0d93 823d
000000e0: fe39 e63b 3206 ac3e 7b6d d9be 04c6 d03d
000000f0: 1ab2 9fbd 77a6 44bd 6df0 e9bd 3661 2d3f
00000100: 28cb 0a3d 7b90 c7bd 5d52 c3bd f05a 8f3d
00000110: f380 723e f5fa afbd
