checkpoint/ddpg-critic_mlp_actor-lr:0.0001_critic-lr:0.0001_gamma:0.99_tau:0.02.pth (torch, 63319 bytes, 5 tensors)

network_critic.0.weight f4 [70, 145]
000000 17 8a d6 3c 1e 3f a1 3d ba 4a 03 3d 55 0a 4b 3c
       0.026188893 0.07873367 0.032053687 0.0123926
000010 f9 b4 6b bd 9c a8 76 bd d9 08 2b 3d 1e 6e bd 3c
       -0.057545636 -0.060219392 0.041756485 0.023123797
000020 ad 51 99 bd 7a 8b 6e 3d f9 f5 2b bd d8 cb d4 bb
       -0.074862815 0.058238484 -0.041982625 -0.0064940266
000030 02 c3 3a bd 10 17 29 bd 07 2f c2 bb 90 d7 3e 3d
       -0.04559613 -0.04128176 -0.0059260163 0.046592295
000040 07 9b f8 3c bd 65 a4 bd 3f d3 95 bd 74 20 20 3c
       0.03034736 -0.080272175 -0.073156826 0.009773362
000050 25 bf 2b bd 1d b2 99 3d 59 f8 bd 3b e8 7b d1 bc
       -0.041930337 0.075046755 0.0057974276 -0.025571778
000060 0d 74 36 bd 2e e8 09 bd 8f 8c 92 3d c9 bc 8f 3d
       -0.04454427 -0.03366869 0.07155716 0.0701843
000070 53 e9 09 bd c9 ac 4f 3d 2b 3e a7 bd 0d 63 0d 3d
       -0.03366978 0.05070189 -0.081661545 0.03451829
000080 ab 18 a8 bd 7b 8f 93 3c ed cc 90 bd a2 07 9b bd
       -0.0820783 0.018012753 -0.070703365 -0.07569815
000090 1e 6b 2d 3b 12 dd 11 bb c2 03 7f bc 97 35 45 bd
       0.0026461552 -0.0022257012 -0.015564861 -0.04814681
0000a0 56 5e 55 bc 7c b2 5f bd 3e ae f2 bc 9c a9 07 bd
       -0.01302298 -0.054613575 -0.0296241 -0.033120736
0000b0 6c 4c 87 bd 95 4a 40 bc 68 6f 62 3c cc 88 84 3d
       -0.06606373 -0.011736532 0.013820507 0.064714044
0000c0 d5 81 62 bd 85 0d 26 bd fb b5 9a 3d 4f 9d 74 bd
       -0.0552996 -0.040540237 0.07554241 -0.059720334
0000d0 da 67 a0 3c 99 e5 a3 3d cc 70 8c 3c db c2 8a 3d
       0.01958077 0.08002777 0.01714363 0.06775447
0000e0 ce 57 71 3d e0 a5 93 3d 75 bc 9a 3d f4 23 d0 bc
       0.058921628 0.072093725 0.075554766 -0.025407769
0000f0 98 b6 2e 3c 1c 9c 4c 3d ae 81 d1 bc ef ed 2f bd
       0.010663651 0.049953565 -0.025574531 -0.04295152
000100 95 0a 98 3d ca 35 2f 3d 6e d3 a9 3c 16 1c 50 bc
       0.07423893 0.042775907 0.0207307 -0.012702009
000110 4b f7 0f 3d 01 92 64 bd 44 17 ab bb 7d fe c6 3c
       0.035147946 -0.055803303 -0.0052212793 0.024291271
000120 5c 39 8c bd b5 74 94 bd 3e 6e 23 3d f2 13 46 3d
       -0.06846878 -0.072488226 0.039900057 0.048358865
000130 91 e2 8d bd 04 4c 3a 3d 75 34 21 bd 8e 58 4a 3d
       -0.0692798 0.04548265 -0.039356668 0.04940086
000140 ed 6b 65 3b e8 1d 03 bc dd fa 35 3d 94 55 8f 3d
       0.0035006956 -0.008002736 0.044428695 0.069987446
000150 64 03 1f bd 52 2f a2 3d db 20 98 3d dd ae 22 3d
       -0.038821593 0.07919182 0.07428142 0.039717544
000160 da 8b 4c bd d0 0b 7a 3d 5b 0d af 3c b1 72 09 3d
       -0.04993806 0.06104642 0.021368673 0.033556644
000170 3e ff 41 3d e5 93 a8 3d df a7 70 bc 6e 0f 0b bd
       0.04736256 0.08231334 -0.014688461 -0.03395026
000180 20 9c 33 bd f1 f4 91 3d 59 46 09 3d e6 97 88 bd
       -0.043850064 0.07126797 0.033514354 -0.06669597
000190 96 65 7d 3d 3e 67 3a bd 1d 3c a6 bd 06 4d 91 3d
       0.061864458 -0.045508616 -0.081169344 0.07094769
0001a0 13 72 17 bd 28 a6 56 3d 6c 4a 8e 3d 96 c5 9f bd
       -0.036974024 0.052404553 0.069477886 -0.078013584
0001b0 b7 89 67 bb fb a4 73 bd d8 54 22 3d d4 ab 0f 3d
       -0.0035329887 -0.05948351 0.039631695 0.035075977
0001c0 85 45 73 bd 52 72 23 bd 97 72 03 bd 48 44 a9 bc
       -0.05939247 -0.039903946 -0.032091703 -0.020662442
0001d0 6b 9a 80 bd ba 45 a0 3d 36 46 7b 3d cb d9 04 3d
       -0.06279453 0.07825799 0.061346255 0.032434266
0001e0 d2 ef a0 bd 7c a2 50 bd 7c 9a a9 bd 64 76 d9 3c
       -0.07858242 -0.050936207 -0.08281419 0.02654571
0001f0 ce cf a2 3d bd c3 85 bd dc ba a5 bc 75 8d 8b 3d
       0.07949792 -0.06531475 -0.020230703 0.0681409
000200 50 98 8e bd 8f 6a 53 3d fc d5 55 3d de fd c4 3b
       -0.06962645 0.051615294 0.052206025 0.0060117086
000210 59 a4 8f 3d e7 ff 7a 3c 81 6c 7b bd 50 80 db 3b
       0.07013769 0.015319801 -0.061382774 0.0066986457
000220 af d1 41 3c 77 28 f8 3c aa a2 9d bc a1 58 43 3d
       0.011829778 0.030292733 -0.019242603 0.047691945
000230 b0 ab 8e 3d 86 2d 62 bd c9 7e 61 bd 27 7e 50 3d
       0.069663405 -0.055219196 -0.055052552 0.05090156
000240 36 62 8d bc 03 1a 80 3d be c6 a8 3e 30 b7 40 3e
       -0.017258745 0.06254961 0.32964128 0.1881988
000250 aa 3c 6d bb 78 8d 3d bd 68 94 8b 3d f8 12 41 3c
       -0.0036199489 -0.046277493 0.068154156 0.011784308
000260 77 0d 03 3d 57 08 83 3d 56 31 6a ba 6d b6 c9 3d
       0.031995263 0.06398075 -0.0008933743 0.09849248
000270 57 e6 ad bd 40 7e fc 3c 31 44 0f 3d f6 5b 4e bd
       -0.084911995 0.03082192 0.03497714 -0.05038067
000280 16 a1 7b 3c 29 e5 ba bd 69 74 83 3d 7a 33 a5 3d
       0.01535823 -0.0912574 0.06418688 0.08066459
000290 0e bc 11 3e 81 bd 72 3f bc bb 44 bd d9 18 29 bf
       0.14231893 0.9482041 -0.0480306 -0.6605354
0002a0 62 9b 7d 3f 1b bf 80 be fa ca e6 3d 30 19 15 3e
       0.9906522 -0.25145802 0.112691835 0.1456039
0002b0 f0 68 1e bf 31 eb a0 3d 72 2d 8d 3e a0 df 99 3d
       -0.6187887 0.07857359 0.27573735 0.07513356
0002c0 67 60 01 be 1f e2 82 bd 8a d9 4c 3d 18 13 f0 bc
       -0.12634431 -0.063907854 0.05001215 -0.02930598
0002d0 04 40 ba 3d aa 2c bd 3d 7d 9d 9a bc 2a 3e 36 bd
       0.09094241 0.092370346 -0.018873924 -0.044492878
0002e0 99 05 48 3d 3f 14 1e bc 05 7e 53 bd 70 6b 18 bd
       0.048833463 -0.009648382 -0.051633853 -0.037211835
0002f0 c9 cb 06 3d 52 3b da bd 78 ec a9 bc a4 ac a9 3d
       0.03290919 -0.10655846 -0.02074264 0.08284882
000300 4b 08 0d 3e a7 f9 28 be 71 f8 f6 bd e5 a5 ab 3e
       0.13772695 -0.16501485 -0.12059105 0.33525005
000310 99 61 c2 be f3 f1 aa be fc 57 08 3e 23 e4 c3 3d
       -0.37965086 -0.33387718 0.13314813 0.09564998
000320 50 0a 1e bf b3 67 c4 3d f5 a5 9b 3e 9f fb 45 3e
       -0.61734486 0.095900916 0.30400053 0.19334267
000330 94 e2 23 bd 5a 60 18 be c5 3d a6 3d 1f a2 cb bd
       -0.040011004 -0.14880505 0.0811725 -0.099430315
000340 b0 43 89 bd 02 ce dd bc 3b a1 74 bd 4a cd db 3c
       -0.067023635 -0.027075771 -0.059724074 0.026831288
000350 50 78 19 3d db f7 3d 3c 93 d0 19 3c d9 a9 18 3d
       0.037468255 0.011594738 0.009388107 0.037271354
000360 b1 54 d7 38 7a ec 9a bd 03 73 a2 bd 72 eb dc 3d
       0.00010267774 -0.075646356 -0.07932093 0.10787095
000370 e1 08 34 3e d6 e4 02 be 1b c2 08 be ea 9e a0 bf
       0.17581512 -0.12782606 -0.13355295 -1.2548497
000380 c7 d3 2d bd 25 16 6d be 73 6a 97 3d f7 e2 1e 3e
       -0.042438295 -0.23152979 0.073933505 0.15516268
000390 b8 9d 18 bf 91 25 9c 3d a3 94 cc 3e 88 d7 90 3d
       -0.5961566 0.07624353 0.3995715 0.07072359
0003a0 f9 db 08 be 3e c9 6c bd 08 03 a3 bc b9 be 3f 3a
       -0.13365163 -0.057809107 -0.019898906 0.00073144917
0003b0 48 b4 4b 3b ce 93 09 3d 44 f2 74 3c 2b b7 ec bc
       0.0031082798 0.033588223 0.014950339 -0.028895935
0003c0 82 30 6c bd 54 a2 1d 3b dd a7 0a 3d 91 dc 7f bd
       -0.05766345 0.0024053054 0.033851493 -0.062466208
0003d0 16 ed d4 3c 56 20 86 bd 00 ac a4 3d 75 c9 c4 3c
       0.025991958 -0.06549136 0.08040619 0.024021843
0003e0 fc 9e ae 3d 31 7b 65 bf 47 71 0f be 82 60 a7 3f
       0.085264176 -0.896411 -0.14008056 1.3076327
0003f0 c0 0e a2 bf 72 e4 64 be f7 c1 25 3e a3 56 1f 3d
       -1.2660751 -0.2235277 0.16187273 0.038900983

network_critic.0.bias f4 [70]
000000 b5 e3 4f 3d 57 39 0a 3e 16 e5 fc bc f8 0e 66 3d
       0.050754268 0.13498436 -0.030870955 0.05616662
000010 c7 34 de 3c 26 c1 c3 bd 80 59 c5 3c 3a af 2b bc
       0.027124776 -0.095583245 0.024090528 -0.010478789
000020 47 c7 bd 3c 49 43 8b 3d 34 74 82 3d ae 5b 42 bd
       0.023166312 0.06799943 0.0636982 -0.047450714
000030 74 25 d1 3b 0d d6 94 bd 73 27 4e be b5 99 93 bd
       0.0063826386 -0.072673894 -0.20132236 -0.07207052
000040 a4 e6 81 3c 8c f4 22 bd b7 54 6a bd 88 9c d1 3b
       0.015857048 -0.039784 -0.057209697 0.006396834
000050 70 ec a4 bc ad a6 e6 bc b6 a6 65 3d 12 65 6b 3c
       -0.020132273 -0.02815565 0.05606719 0.014367359
000060 29 02 ed ba 7d 01 88 bb da f2 20 ba 7c d6 fb 3d
       -0.0018082309 -0.004150568 -0.00061397033 0.12296769
000070 28 d8 20 3d 6e d7 8c bc 88 fa 13 3e 50 ea 99 3c
       0.039268643 -0.017192569 0.14451039 0.018788487
000080 7a e6 c9 bd 12 37 1d 3d 3b f2 86 bd dd de e1 3d
       -0.09858413 0.038382597 -0.065891705 0.11028836
000090 3f 00 ab 3b ba 32 37 bc e4 9e bd bd ca f7 8c bb
       0.005218535 -0.011181528 -0.092588216 -0.0043019997
0000a0 70 b7 b4 bb 12 b3 ed bd b8 b7 cb 3c 72 56 0f 3d
       -0.0055150315 -0.116064206 0.024867877 0.03499455
0000b0 51 d7 07 bc 7f 55 df 3d 7f a2 9b 3d a8 76 96 bc
       -0.0082910815 0.10904979 0.07599353 -0.018367127
0000c0 62 e7 3d 3e 10 99 61 bc fe 27 29 bd 79 bf 19 3d
       0.18545297 -0.013769403 -0.041297905 0.03753612
0000d0 7e 3b e3 3d 63 0b a8 3d 20 49 cb 3c 16 a3 1c 3c
       0.110953316 0.08205297 0.024815142 0.009560367
0000e0 80 e1 ac 3b 83 0e 18 bd c8 20 31 3e 07 9f ed 3b
       0.005275905 -0.037123214 0.17297661 0.0072516236
0000f0 6d c9 90 bd d2 13 6d bc fe cd d7 3d aa cb 07 3e
       -0.07069669 -0.014470058 0.10537337 0.13261285
000100 cb 15 20 3e e1 d6 85 bd 9a 20 25 bd 3b 1e 76 bd
       0.15633313 -0.065351255 -0.040314294 -0.060087424
000110 93 91 0b 3e 60 ca 8f bd
       0.13629751 -0.07021022

network_critic.2.weight f4 [70, 70]
000000 cf 78 0f bd a8 ca 1d 3d cf 46 bc bd c6 11 8a 3d
       -0.03502732 0.038523346 -0.09193193 0.06741671
000010 17 db 8a bd c8 9a 4d 3d 4a 9b 2b bd bf 5f 20 3c
       -0.06780069 0.05019644 -0.041896142 0.009788453
000020 0f 3d bb bd f9 7a d2 3d 46 f5 cc 3d af ba 71 bd
       -0.091425054 0.102773614 0.1000772 -0.059015926
000030 fc 91 85 3d ea fd da bd b5 0c a7 3d 50 e1 c9 bd
       0.06521985 -0.106929615 0.081567205 -0.09857428
000040 7a 60 08 be 42 dc d7 bd 5f 9e 53 bd 1e 79 7f be
       -0.13318053 -0.10540058 -0.051664706 -0.24948546
000050 72 cc 98 bc a8 4b 9e 3d e8 52 f9 3d 32 8f 14 3f
       -0.018652175 0.07729274 0.12174016 0.58031
000060 1e 03 1d ba 61 ec 06 3e 04 6c 23 3e dd e9 0c 3c
       -0.0005989539 0.13176109 0.15959173 0.008600679
000070 a0 34 40 bc 16 2c cd bd e5 38 a9 3d 4a 2d 01 3e
       -0.011731297 -0.10018174 0.08262805 0.12614933
000080 35 8f 81 3c e9 ea 44 bd 49 35 81 bd e9 bc 25 be
       0.015815357 -0.04807559 -0.063089915 -0.16185345
000090 79 15 ce bd 5c 1b 6d bd 72 aa 4f bd 81 c0 1a 3e
       -0.10062689 -0.05788742 -0.05069966 0.15112497
0000a0 9d aa 18 bc 8c 57 f8 bc cc 11 95 3d 97 b2 80 bd
       -0.009318021 -0.030315183 0.07278785 -0.06284063
0000b0 e0 1e f4 bd 0b d2 c0 3d 7e 53 ea bf a2 dd 0b bd
       -0.119199514 0.094150625 -1.830673 -0.034146912
0000c0 15 35 cd 3d 74 e7 bc 3d b1 20 02 bd 44 80 a7 bb
       0.1001989 0.09223834 -0.03176946 -0.005111726
0000d0 fe 30 a6 bd d2 5d ac bb 37 9d 5c bd 4e 1d fb be
       -0.08114813 -0.0052602077 -0.05386087 -0.49045795
0000e0 1d dc 0d bc a6 da d5 be 49 92 f9 3d bc d4 3d 3d
       -0.008658436 -0.41768378 0.12186105 0.046345457
0000f0 45 3b 83 3e c6 2e 5b bd d8 32 2b 3e 5c 57 af bd
       0.25631157 -0.053511404 0.16718614 -0.08561584
000100 07 c6 de 3d d5 67 ef be 4a e3 e6 3d 24 0b 12 bd
       0.108776145 -0.46758905 0.11273821 -0.035655156
000110 87 95 69 bd 02 95 46 be 32 5d 98 bd ac af e1 bc
       -0.057027366 -0.1939278 -0.074396506 -0.027549587
000120 37 7e e1 3c 8d c8 fc bd 87 ff 18 bd 7c 79 45 3d
       0.027526004 -0.123429395 -0.037353065 0.04821156
000130 96 7b 83 3d 68 d0 94 bd 4e 50 9a 3c 23 1a 2a bd
       0.064200565 -0.07266313 0.01883712 -0.041528832
000140 a7 7d 1c bd 62 a5 ee 3d 24 59 d8 bd 0b bc 50 3d
       -0.03820577 0.11652638 -0.10563877 0.05096058
000150 d5 e6 6c bd c7 aa 2c bd 3d 13 fa 3d 13 3f 41 bd
       -0.057837326 -0.042155053 0.12210701 -0.047179293
000160 62 5d 8f 3e 88 99 34 be 06 5b b8 3c 4c 52 0f 3d
       0.28000933 -0.17636693 0.02250434 0.034990594
000170 dc 75 86 3d 72 b8 ed 3c 65 01 90 bd 7e f1 94 bc
       0.06565449 0.029018614 -0.07031516 -0.018181559
000180 45 1c 42 bd 74 60 a9 3d a6 2d a8 3c f8 9a eb 3d
       -0.04739024 0.0827035 0.02052958 0.11504167
000190 45 3b df bd 13 20 e1 3d 60 21 a3 bd 41 e8 c2 bd
       -0.10899977 0.10992446 -0.0796535 -0.09516955
0001a0 ce 4f d7 3d 1a ea 36 3b 2b 9f d7 bd 14 06 94 3d
       0.105132684 0.0027910531 -0.10528406 0.07227722
0001b0 c8 06 13 ba cc 4b 16 3d 75 b0 f0 3c 26 e3 82 bd
       -0.00056086155 0.03669338 0.029381016 -0.063909814
0001c0 0f ec 89 3d 6a bc 3c bd 8c a3 b5 bd da 86 a6 bc
       0.06734478 -0.046078123 -0.08869085 -0.020327974
0001d0 47 3e 37 3d d3 e8 b1 39 15 37 1a bb 74 ea ab bd
       0.044737127 0.00033933538 -0.0023531367 -0.08394328
0001e0 f5 84 ea 3d 1c c5 c7 bd fc 67 0c 3d ad c8 cd bc
       0.11451141 -0.097543925 0.034278855 -0.025120104
0001f0 6d 3e 26 3c 15 86 41 bc c8 9a cb 3c b0 71 0b bb
       0.010146719 -0.011811753 0.024854079 -0.002127748
000200 66 91 ae 3b e1 bd b7 3d 37 f7 0a 3e d5 11 90 3a
       0.0053273914 0.089717634 0.13570867 0.0010991642
000210 1a e7 c1 3b b2 a8 8c bd ad ca a3 3c f4 0a 6a 3d
       0.005917442 -0.068681136 0.019994104 0.057139352
000220 4a 0a 13 3d 1a 39 10 3e dc af 5a bd 6d 71 ce bd
       0.035898484 0.14084283 -0.05339037 -0.10080228
000230 f6 01 ce bd 1e 04 d6 bd 13 ab 5c bd 6b 10 d2 3d
       -0.10058968 -0.10450004 -0.053874087 0.10257038
000240 66 8a 51 bd df 04 f9 bb 98 80 a3 bd 9e 64 a5 3e
       -0.051157378 -0.0075994576 -0.07983512 0.32303327
000250 73 be d8 ba 9e 99 fc 3d 90 4a 75 bd 56 02 eb 3d
       -0.001653625 0.12333988 -0.05988556 0.11475055
000260 16 9c cb 3d 4d 44 eb 3d f1 de 81 bd 00 f1 e1 3b
       0.099418804 0.11487637 -0.06341351 0.0068951845
000270 a2 f4 d2 bd 96 42 81 3e 04 36 c4 be 5c b3 4e be
       -0.10300566 0.25246114 -0.3832246 -0.20185608
000280 b8 be 24 bd 8e 1b 28 bd 46 cf ba bd 00 21 28 be
       -0.040220946 -0.041041903 -0.091215655 -0.16418839
000290 17 09 f8 3d 86 3a 38 3c 3f f6 1d 3e 4a d0 09 be
       0.12111109 0.011244422 0.15425967 -0.13458362
0002a0 9e bb 60 3d e8 96 1e be 6f 40 59 bd e5 5e 81 3d
       0.054866426 -0.15487254 -0.053039964 0.06316928
0002b0 53 3c 2f 3d 92 5e 8c bc ab e8 7b be e0 ff 84 3e
       0.04278214 -0.017134938 -0.24600475 0.25976467
0002c0 f7 c3 be be 65 da f4 3d ff 57 83 bd 56 af 87 3d
       -0.37258884 0.11955718 -0.06413268 0.066252396
0002d0 e9 22 08 be d1 3b eb bc 8b b4 cb be 12 a6 9c bc
       -0.13294567 -0.028715046 -0.3978618 -0.019122157
0002e0 7c e4 97 bd f1 3a 5a 3c ec c6 0e bf 72 f3 01 3d
       -0.07416627 0.013319717 -0.5577228 0.03172631
0002f0 ab 81 f4 3d 4c ae 79 bd 21 71 1a 3d 37 ce 35 3d
       0.11938795 -0.060957238 0.037705544 0.044386115
000300 a8 64 12 3a 26 3e 5c bd 01 41 1b bd 8b 1f cc 3d
       0.0005584457 -0.053770207 -0.03790379 0.09966954
000310 bf 54 8c bd 52 0e 0e 3e 84 55 6f 3d d6 37 92 bd
       -0.068521015 0.1387265 0.058431163 -0.07139556
000320 f4 23 6a 3d f6 35 cd 3e 23 fc bb 3c 63 a2 1d 3d
       0.057163194 0.4008023 0.022947377 0.038484942
000330 30 8f 46 3d cc 90 e1 bc 77 52 54 ba 9e 5f 07 be
       0.048476398 -0.027534865 -0.00080994464 -0.13220069
000340 92 41 e5 3c 43 08 3a be 21 49 12 bd 9a ae 65 3e
       0.027985368 -0.18167214 -0.035714272 0.22429886
000350 c7 aa af 3c 3d a2 af bd 45 c5 61 3e 7b e5 f5 bd
       0.021443738 -0.08575866 0.22047909 -0.120066606
000360 01 6f 34 3d a2 11 cc 3b 10 c0 52 3e 6b 8b a0 be
       0.044051174 0.006227688 0.20581079 -0.31356367
000370 ef 56 3b 3d 81 7b 12 be 34 cd 5d 3d cd 7c 89 bd
       0.045737203 -0.14304926 0.054150775 -0.06713257
000380 8a a3 88 be 41 60 38 bf d8 bc c5 be 03 b5 e3 3d
       -0.2668727 -0.7202187 -0.3862064 0.111185096
000390 82 5a 59 be 03 f9 e7 be e8 22 ae 3d 7f 85 e1 3d
       -0.21225932 -0.45307168 0.085027516 0.110117905
0003a0 b6 ca 38 3d 4b a4 47 3d 63 53 29 be fa c4 df bc
       0.045115195 0.048740666 -0.16535716 -0.027315605
0003b0 38 4d be 3e a4 26 0c 3d c4 fd 47 be 0a 5f 76 3d
       0.37168288 0.034216538 -0.19530398 0.06014923
0003c0 b9 e4 6d 3d 70 3c 61 3e a1 ce 57 be b5 4b b4 3e
       0.058079455 0.21995711 -0.21074916 0.3521401
0003d0 10 b1 7b bd e5 3b 45 3e 00 3c e3 3d 43 00 6a 3d
       -0.061448157 0.19261129 0.110954285 0.057129156
0003e0 a9 ec 20 bf e8 1c 1a 3e 3c b7 13 3c 3c 7d ec be
       -0.62861115 0.1505009 0.009015854 -0.46189296
0003f0 84 37 11 be f4 49 67 bc 5b 58 bd 3d 82 1e b4 bd
       -0.14181334 -0.014116753 0.09245368 -0.087948814

network_critic.2.bias f4 [70]
000000 5f 55 12 3e 0f cd da 3d 83 be 8a 3d 51 7b 7f 3d
       0.14290379 0.10683643 0.067746185 0.062373463
000010 bc 5b f9 3d 36 ca 0f 3e c3 ca 5d 3d e3 b7 87 3d
       0.121757 0.14041981 0.054148447 0.066268705
000020 3c da f4 bd 88 71 eb bb d7 19 95 bc 90 d7 88 3d
       -0.119556874 -0.007185165 -0.018200798 0.0668174
000030 7c fd 80 bd 51 20 2b be d5 e3 de 3d f5 75 cf 3d
       -0.06298348 -0.16711546 0.10883299 0.101299204
000040 66 d1 ea bd 88 80 6a bd ad d2 f4 bc 0c 72 2d 3d
       -0.11465721 -0.057251483 -0.029885614 0.04234509
000050 9d 5c 8e 3d c7 1f 92 3d f8 50 61 bd 70 ef 66 bd
       0.06951258 0.07134967 -0.05500886 -0.05638069
000060 be 2f 0c 3c 62 f9 b5 bc 4b a5 53 3c f3 88 6d bd
       0.0085563045 -0.022213642 0.012917827 -0.057991933
000070 f0 8c be 3d 48 70 84 3b 48 9e 2e 3d ff ff 58 3d
       0.093042254 0.0040417053 0.042631418 0.052978512
000080 45 e0 ef 3d 66 b8 c4 3d 90 35 e1 bd 83 3f d3 3d
       0.11712698 0.09605484 -0.10996544 0.10314848
000090 7f 96 bf 3c f1 7c c2 3b 19 4f 78 3c cd 4b f2 3d
       0.023387192 0.0059353043 0.015155577 0.11830864
0000a0 d3 44 c6 3b 8a eb e4 bd e4 3c 77 3d fa 2b ef bb
       0.006050685 -0.11177738 0.060360804 -0.0072989436
0000b0 ab f8 7f 3d 16 c0 ca bd 77 36 b7 bd 51 1d 0d be
       0.062493008 -0.09899919 -0.08945935 -0.13780715
0000c0 1a d0 ac bc 5b ef bd 3a 7b a8 67 3c fe 7c 0b be
       -0.021095324 0.0014490889 0.01413929 -0.136219
0000d0 52 16 59 bd 30 59 d0 bd e4 68 13 bd 5d ad c6 bb
       -0.052999802 -0.10173261 -0.035988703 -0.006063147
0000e0 d7 d1 25 bc 5d b7 03 bd 22 3e 52 3d 58 04 d3 bd
       -0.0101208305 -0.03215729 0.051328786 -0.10303563
0000f0 87 60 4f 3d d4 99 15 3e 67 e5 ce 3c ee 61 7a bd
       0.050629165 0.14609462 0.025255872 -0.06112855
000100 10 63 89 3d 82 c7 04 3e e1 b2 91 bd 71 99 ea bc
       0.06708348 0.12966731 -0.071141966 -0.02863762
000110 37 b4 b9 3d 37 33 89 3c
       0.090675764 0.016748054

network_critic.4.weight f4 [1, 70]
000000 f8 b6 03 be be 13 60 bd a0 c4 1f 3e 2d 21 87 3e
       -0.12862766 -0.054706328 0.1560235 0.263925
000010 58 95 ac 3d 8d fb b2 3e db 30 92 3e e5 21 6c 3e
       0.084269226 0.34957543 0.285529 0.23059805
000020 b4 ee d5 be ed d4 f4 bd 88 41 17 be 63 c9 04 3e
       -0.4178368 -0.11954675 -0.14771092 0.12967448
000030 62 92 de bd a2 22 c8 bd ef 73 c5 3d 82 f6 a9 3d
       -0.10867764 -0.09772231 0.09641253 0.08298971
000040 c7 19 07 3e 8a c4 a5 be d6 22 38 bf b0 ca 5a be
       0.13193427 -0.3237651 -0.71928155 -0.21366382
000050 d3 f9 91 bd fb a6 24 bf 13 5a 07 be 88 37 07 3f
       -0.07127728 -0.6431729 -0.13217954 0.5281911
000060 d6 bf 67 3e af 2a be 3d b3 57 ee be 5b 22 a2 be
       0.22631773 0.09285485 -0.46551284 -0.31666836
000070 c5 e7 cd 3c ee 17 02 bf 52 1c ce bd 47 1c 0d be
       0.02513493 -0.50817764 -0.100639954 -0.13780318
000080 3e 41 01 be 67 78 c9 bd 8e db d3 3d 84 16 a2 3d
       -0.12622544 -0.09837418 0.10344611 0.07914451
000090 d8 60 d8 3d d3 ec 48 3e 94 87 b9 3d 6a c2 d9 3d
       0.105653465 0.19621591 0.090590626 0.10632785
0000a0 92 1d 8f bd 27 08 da bd 91 dc 3d 3f 15 71 02 be
       -0.06988062 -0.10646086 0.7416468 -0.1273845
0000b0 51 01 06 3e f0 1a db bd b9 5b 69 be 45 b8 a7 be
       0.1308644 -0.10698497 -0.22788896 -0.32757774
0000c0 5a 86 d2 3d 2c da 76 3f 87 47 9a 3e 68 66 7c be
       0.10279532 0.96426654 0.30132696 -0.2464844
0000d0 86 e6 d5 bc 32 c2 05 3e cc a9 8d 3e 76 aa 58 bd
       -0.026110899 0.13062361 0.27668607 -0.05289694
0000e0 08 cf 8c 3d ec 51 16 bf 06 ff 95 3e 02 dc 16 be
       0.068754256 -0.5871875 0.2929613 -0.14732364
0000f0 bb fe 90 3e b2 e6 bb bd 70 27 08 be 65 f7 8f be
       0.28319344 -0.09174861 -0.13296294 -0.28118435
000100 e2 f2 f5 3c 96 22 61 3e 31 bc 53 bd 4b 9d 68 3d
       0.030023042 0.2198585 -0.051693145 0.05679063
000110 72 16 ba bd 18 41 6c bd
       -0.09086312 -0.057679266
