checkpoint/ddpg-actor_mlp_actor-lr:0.0001_critic-lr:0.0001_gamma:0.99_tau:0.03.pth (torch, 63063 bytes, 6 tensors)

network_actor.0.weight f4 [70, 140]
000000 d6 83 2f bb 18 e3 2b bd 79 22 80 3d ea 47 80 bc
       -0.0026781461 -0.04196462 0.06256575 -0.015659291
000010 27 5a 5e bd 0e d0 64 bd e5 42 27 bd 96 13 6b 3d
       -0.054285195 -0.05586248 -0.04083528 0.057391725
000020 c4 75 38 bd 32 73 c2 3c c1 20 a2 3d 1e f1 f2 bc
       -0.045034185 0.02373657 0.079164036 -0.02965599
000030 6c fd 4d bb 01 60 88 3d f4 13 02 bd d9 c4 b9 3d
       -0.0031431569 0.06658936 -0.03175731 0.09070749
000040 dd 63 7c 3c dc 9b 23 3d ad ca 50 3d 02 d6 bc bc
       0.015404669 0.03994356 0.050974537 -0.023051266
000050 bf 9f f4 bc 7a bc 95 bc 14 0e a2 3d 40 a3 44 3d
       -0.02986133 -0.01827835 0.079128414 0.04800725
000060 9f 53 b8 3d 3e 9b 04 bd ee 47 13 3c 2e 55 d9 3d
       0.090003245 -0.032374613 0.008989317 0.1061195
000070 7f 4c 00 bd 49 79 8d bd 13 f0 28 3d 61 db 9e bb
       -0.031322952 -0.06907899 0.041244578 -0.0048479293
000080 ff 1f 81 bd 26 b2 4d bc 0f 6c b5 bd 33 08 f3 3b
       -0.06304931 -0.012554681 -0.08858501 0.007416749
000090 1f e9 d6 3c bc 16 61 bd 8a 33 86 3a 1e 96 6f 3d
       0.026234208 -0.05495332 0.0010238749 0.058492772
0000a0 a2 f4 44 3c 38 fe e2 3b 6b 4c 61 bd 4d f9 fd 3a
       0.012021216 0.006927278 -0.05500452 0.0019376666
0000b0 04 c9 d1 bb 1d 98 54 bd 8c 67 a7 3c bd 62 86 bd
       -0.0064021368 -0.05190288 0.020435117 -0.065618016
0000c0 d8 18 a4 bd df d6 1a 3c 30 39 b4 bd dc 2a 16 be
       -0.08012551 0.009450643 -0.0879997 -0.14664787
0000d0 7b 11 eb 3d c6 7f 26 bd e1 24 a8 bd a1 3c 66 3c
       0.114779435 -0.040649198 -0.08210159 0.014052541
0000e0 70 73 8a bd fe 57 f3 bd de 98 3a 3d 69 6c 7f 3d
       -0.06760299 -0.118820176 0.04555594 0.062359247
0000f0 2f c5 df bc 63 c8 91 bd fa e1 20 3d d1 85 97 bc
       -0.027315704 -0.07118299 0.039278008 -0.018496426
000100 d9 ea be bd 68 43 a4 bd 0e 6e 03 bd cc 19 08 3d
       -0.093221374 -0.08020669 -0.03208738 0.033227727
000110 6a 88 9a bd 8b 20 93 3c 84 7a 68 bc a5 bc a0 3d
       -0.0754555 0.017959854 -0.014189366 0.07848481
000120 4f a6 f0 bd 53 02 8c 3d 00 c9 e7 bc 29 b3 9b 3c
       -0.11750471 0.06836381 -0.028294086 0.019006329
000130 0c 0a 83 bc ea eb 65 3a d8 e9 39 3d 93 6f bf 3d
       -0.015996002 0.00087708107 0.045389026 0.09347453
000140 97 30 8f 3d 9a f7 09 3d ec 52 c0 bd 2a 10 a9 bb
       0.0699169 0.033683397 -0.09390816 -0.0051593976
000150 4a 01 7d 3d e7 4e 89 bb 97 1a 32 3b 40 53 5b bd
       0.061768807 -0.004190314 0.0027176493 -0.05354619
000160 23 6a b2 bd 57 12 87 bd b4 29 c8 bd 02 5b 7b 3b
       -0.0871165 -0.06595295 -0.09773579 0.0038353805
000170 15 a0 ff bc be 59 e2 3c 85 47 11 bd 0d 0b 15 bc
       -0.031204263 0.027630683 -0.035468597 -0.009096873
000180 fb b3 96 bd 41 1c 08 bd 2a 5a 8f bd d8 68 a3 3d
       -0.07358547 -0.03323007 -0.06999619 0.07978982
000190 69 d8 1f 3a e8 ea 2e bc 35 f1 9e 3b 5d f9 04 bd
       0.0006097616 -0.010676123 0.0048505315 -0.032464374
0001a0 5f fa 90 be 65 22 45 3c 57 ea cb bd 14 ab 86 be
       -0.28316018 0.012032126 -0.09956806 -0.26302397
0001b0 09 8a 98 3d 80 b1 4d bc b2 fd 22 bd 8a 8f b3 3d
       0.07448203 -0.012554526 -0.039792724 0.08767612
0001c0 e5 25 6a 3d 4d a4 09 bc 76 79 94 bd 30 0c 54 bd
       0.057165045 -0.008400989 -0.07249729 -0.051769435
0001d0 d9 78 fa bc b9 7b 87 3d 22 7f 5b 3d a9 47 03 3d
       -0.030575203 0.06615395 0.05358804 0.032050762
0001e0 ec 1a 05 3c 0d c9 c6 bd 07 fb 97 3d 7f f3 95 bd
       0.008124094 -0.09706316 0.074209265 -0.07321834
0001f0 a8 5b 7e bd fd cc 64 bd 75 f1 99 3c 0d 57 3f 3d
       -0.06209913 -0.055859555 0.018791893 0.046713877
000200 9e 6e b8 bb 44 62 7c 3d c2 3b 91 3d be 20 bb bd
       -0.005628421 0.06161715 0.07091476 -0.091371045
000210 5c 1b d3 bb 27 6a 1f 3d f7 3d e5 3c 78 be 2b 3e
       -0.0064424705 0.038919594 0.027983649 0.16771877
000220 b3 28 4b bc b6 33 e2 bd b1 cf cc 3b 89 9f 75 3d
       -0.01239984 -0.11045019 0.0062503447 0.059966598
000230 4e 87 cd bd cc 4b 05 be 10 62 c2 bd dd 48 e2 bc
       -0.10035573 -0.13017195 -0.0949136 -0.027622635
000240 31 64 2c 3d 75 d0 bb bd d2 26 64 bd 18 f5 24 3a
       0.042087737 -0.091706194 -0.055701084 0.00062926253
000250 b8 a5 ab bd 52 9d 89 bc 1d a3 0e 3b 7e 99 62 3b
       -0.08381218 -0.016798649 0.0021764704 0.0034576352
000260 08 cf f6 3c 62 c6 a2 bd 51 e7 04 3d ca 2c 78 bd
       0.030128017 -0.07947995 0.032447163 -0.06058959
000270 ed a1 33 3d 3b 91 74 3c c4 d7 7d 3d 8a 5f 70 3d
       0.043855596 0.014927204 0.06197335 0.058684863
000280 3b 05 98 bd a0 3c 00 bd 42 80 44 3d f4 9c be bd
       -0.07422873 -0.031307817 0.04797388 -0.0930728
000290 7a 18 24 bd c3 54 7c 3b f1 88 74 bd 9b a9 0c 3d
       -0.040062405 0.003850267 -0.05970091 0.034341436
0002a0 69 dd 31 3d 83 bb 0b be 1f 39 26 ba e9 d7 b9 bd
       0.043424044 -0.13645749 -0.0006340909 -0.09074385
0002b0 36 6c d4 3c ac 4f 0a 3d 58 52 33 3c 6e 1b ca bd
       0.025930505 0.033767387 0.010944925 -0.09868513
0002c0 d5 09 53 bb b9 f4 c6 bd e7 cd 8e bd ac a6 68 3c
       -0.0032201905 -0.09714646 -0.069728665 0.014199894
0002d0 22 ae ce 3d db ee 8d 3d 4b 21 75 39 dd f6 a7 bb
       0.10091807 0.06930324 0.00023377423 -0.005125864
0002e0 57 c9 1e 3e 55 73 32 3d d5 63 9a bd 78 d8 13 bd
       0.15506493 0.04356702 -0.07538573 -0.036095113
0002f0 0d 21 67 bd 3b d8 82 bd 06 75 31 bc e6 97 06 be
       -0.056428004 -0.06388899 -0.010831123 -0.13143882
000300 e0 dd 9d bd d3 ee 67 3d 43 84 25 3d 62 f0 5e 3c
       -0.07708335 0.056624245 0.040409338 0.013607116
000310 bb 3e 00 3c 5d 19 c2 bd 39 88 bd bd de 6e 75 3d
       0.007827456 -0.09477494 -0.09254498 0.059920184
000320 8a 57 9f bd 6b 71 86 3d cd 94 60 bd b4 b9 01 bd
       -0.077803686 0.065646015 -0.054829407 -0.03167124
000330 ac 6a f6 3a 94 45 21 3d 36 2f 77 3d 08 75 d2 3d
       0.0018800101 0.039372995 0.06034776 0.10276228
000340 9b c2 94 bc 2f 41 a2 bd 06 8a 1e 3d 35 80 58 bd
       -0.018159201 -0.07922589 0.03870585 -0.052856643
000350 c9 cf f6 3d 60 79 7f 3d d8 89 b4 bd a1 d6 75 3d
       0.120513506 0.06237161 -0.08815354 0.06001914
000360 76 0a e9 bd 46 17 ce 3c 4f a7 b1 bc b9 34 c8 bc
       -0.113789484 0.025157582 -0.021686224 -0.024439203
000370 10 b9 59 bd 13 19 39 bd 58 b2 30 bc 86 3a 3a 3d
       -0.053155005 -0.04518993 -0.010784708 0.04546597
000380 b8 3a 15 bd 5f 9d b9 bd 23 bf b1 bd b9 46 b2 bd
       -0.03643295 -0.09063219 -0.086790346 -0.087048955
000390 29 57 c5 3c 6b 3a 74 bd 86 54 b6 bd e3 72 a5 bd
       0.024089413 -0.059626024 -0.0890284 -0.080785535
0003a0 95 a6 7c bd 4b 35 d3 3c 73 9d fd bc 8f 0d 0c 3d
       -0.061682303 0.025782248 -0.030958867 0.034192618
0003b0 db 53 ab 3d 9b 48 3f bd 14 72 97 bd 1c 73 80 3d
       0.083656035 -0.0467001 -0.073948056 0.06271955
0003c0 2f b9 e2 3d 94 50 d0 3b 04 8c 03 bd 40 a3 a1 3c
       0.11070477 0.006357262 -0.03211595 0.019731164
0003d0 cc 23 5e bd ed a5 9e 3b e8 24 d9 3d 1b d9 28 3d
       -0.054233357 0.0048415572 0.106027424 0.041222673
0003e0 32 4e 88 bc dd 23 23 bc 69 0d 42 3c fe 18 00 3d
       -0.016638849 -0.009957281 0.011844018 0.031273834
0003f0 40 51 f8 bc d3 68 d8 bd 26 2a 1b 3d 1f 2d da bd
       -0.03031218 -0.10566869 0.037881993 -0.106531374

network_actor.0.bias f4 [70]
000000 29 ff cb bc e2 a7 09 3d 3f 2f 81 bd 5b 0f 28 bd
       -0.024901943 0.03360737 -0.063078396 -0.04103027
000010 ea 36 6c 3d 8e 23 95 3c 15 c5 72 3c 5c 90 81 3d
       0.057669558 0.01820543 0.014817496 0.063263625
000020 cf 07 a4 3b 80 a0 9f 3d 22 fd 29 bc 81 ed 05 bd
       0.0050058137 0.07794285 -0.010375293 -0.032697205
000030 83 27 ed 3c af a3 9d 3d aa 5d ad 3d 2d 1a 22 bb
       0.028949505 0.07697236 0.084651306 -0.002473484
000040 6e cf 58 3d ed 1c 87 3d e3 79 3f bd ba c0 23 bd
       0.052932195 0.06597314 -0.0467471 -0.03997872
000050 f0 8d a7 bd f4 52 90 3d 0e cb 95 bc eb 2c 50 bd
       -0.08181369 0.07047072 -0.0182853 -0.050824087
000060 56 82 3e bc 46 bb c8 bc 31 3a 19 39 6e bc 09 3b
       -0.011627754 -0.024503361 0.00014612895 0.0021016854
000070 dd af b4 bc a8 71 88 3d 99 ff 83 bd c6 ff 18 3d
       -0.022056514 0.06662303 -0.06445236 0.0373533
000080 67 46 70 3d 3b 20 a2 3d 9a de ad bd 41 93 94 3c
       0.05866089 0.07916304 -0.084897235 0.018136622
000090 b0 ec 81 3d 20 dd a5 bd ad f9 a4 bd f0 0e 22 bd
       0.06343973 -0.08098817 -0.080554344 -0.039565027
0000a0 ba 10 69 bd 1a 9c 72 3d 3c 4d 10 bd 2a aa ac bd
       -0.056900717 0.0592309 -0.035229906 -0.08430894
0000b0 72 71 50 3d 71 bc 25 3d 1b 1a b5 3d 77 48 9d bd
       0.05088944 0.040462915 0.0884287 -0.07679837
0000c0 51 61 c7 3d 04 f0 b1 bd 6b d6 66 bd df ef 98 bc
       0.097353585 -0.086883575 -0.05635683 -0.018669067
0000d0 ce 7f 47 bd 44 55 85 bd 51 27 26 3c 95 1d 13 3d
       -0.04870587 -0.06510404 0.01014121 0.035916883
0000e0 70 04 65 bd fe 52 66 bd e9 b2 1e bd 2e 2a 1b 3d
       -0.055912435 -0.05623149 -0.03874484 0.037882023
0000f0 de fb 02 bc 9a 6a 71 bd 48 05 88 bc 45 27 2a bd
       -0.00799462 -0.058939554 -0.01660408 -0.041541357
000100 2a b9 23 3d 5d 6a 8d 3d 6d 1b b3 bc d3 99 21 3b
       0.039971508 0.06905053 -0.021863664 0.0024658337
000110 6c 4e a3 3a 4a 5c 5e 3c
       0.0012459285 0.013571808

network_actor.2.weight f4 [70, 70]
000000 0e b3 6b 3d 41 08 0c be aa 23 57 3d 26 91 b7 3d
       0.057543807 -0.13675024 0.052524246 0.08963232
000010 df 73 b1 3d 1a 8a d7 3d 13 11 80 3d 39 ad 68 3d
       0.08664679 0.10524388 0.06253257 0.056805823
000020 a9 54 20 3d 6a c2 69 3d ce d0 5b bd cc ae 81 3d
       0.03914324 0.057070173 -0.05366593 0.06332168
000030 7c 17 b8 3d b3 2b 10 3e cd d5 98 3d 76 04 e4 3c
       0.08988854 0.1407917 0.07462654 0.027834158
000040 02 ec 1a be 82 17 9e 3d e0 be 96 bc a7 8b dc 3c
       -0.15129092 0.077193275 -0.018401563 0.02692206
000050 c9 89 93 3d 16 f9 e5 3d b2 2c 37 bd 85 11 36 3c
       0.07204015 0.1122915 -0.04472036 0.011112575
000060 d7 e9 d5 bd c4 ff b1 bd e4 a6 a8 3c 95 0d 9c bd
       -0.10444992 -0.086913615 0.020587392 -0.07619778
000070 1f 6c 9b 3d 5c ae d4 bd 97 53 a6 3d 29 80 6f bb
       0.07588982 -0.10384819 0.08121412 -0.0036544895
000080 ee ab c0 bb ab 81 7b bd 61 73 99 3d 85 70 5e bc
       -0.0058798706 -0.061402958 0.0749271 -0.013576631
000090 ae a4 cf bb b7 24 c7 3d a1 9c d2 3c 26 33 b2 3c
       -0.00633677 0.097238 0.025709452 0.021752905
0000a0 96 ef 74 bd 56 bb ca 3b e9 52 fa bd f0 38 eb bd
       -0.0597988 0.006186883 -0.12222845 -0.11485469
0000b0 e8 4d ed bc cd 94 81 3d 00 21 4a 3c 76 cd d8 bd
       -0.028967813 0.063272096 0.012336969 -0.105860636
0000c0 60 a0 a8 3d 08 ad 8e bc 22 21 a7 3d 2d b6 8f bd
       0.08233714 -0.017416492 0.081606165 -0.07017169
0000d0 91 cc 0b be 8f 4d a8 3d 3d ca c5 bd cd 02 62 3d
       -0.13652255 0.08217918 -0.096577145 0.055178452
0000e0 d6 87 fd bc bd f4 1a be 5f 88 ab bc 95 ba a7 3d
       -0.03094856 -0.15132423 -0.02093905 0.081898846
0000f0 49 85 e4 3d 52 1d b5 3c 39 6c 82 bc 06 d6 93 3d
       0.111582346 0.022108708 -0.015920745 0.07218556
000100 17 7a aa bd 0e e5 52 3d f3 de 14 3d d5 38 10 bd
       -0.08324068 0.051487975 0.036345433 -0.03521045
000110 d2 09 9b ba ed 24 ae bd 82 d1 4d 3d f1 57 0d 39
       -0.0011828488 -0.08503137 0.05024863 0.00013479569
000120 ec 3c 23 3d 6a be 83 3d fb 88 6f 3d 31 d4 c1 3d
       0.03985302 0.06432803 0.058480244 0.094643004
000130 6d 6c c7 bd 2d 05 df bd 8d 22 fc 3c 27 bb ea 3d
       -0.097374775 -0.10889659 0.030778194 0.11461478
000140 4e 59 90 3c 1f aa ca 3d 37 0d 64 3d 8c 7c 63 3d
       0.017620709 0.09895729 0.055676665 0.0555387
000150 62 d2 5f 3d 05 a9 03 bb 76 ba 89 bd 8f 0f 10 3d
       0.054643996 -0.0020089757 -0.06725018 0.035171088
000160 55 e6 94 bd fa 3a b8 bd d5 cb 95 bd f6 b4 a4 3d
       -0.07270495 -0.08995624 -0.073142685 0.08042328
000170 68 1a fc bc 0a b0 57 3d 86 a1 36 3c ea 73 a4 3d
       -0.03077431 0.05265812 0.011146909 0.08029921
000180 c5 aa ec 3c c3 ae 41 bd 70 4c e1 bd b1 03 d4 bd
       0.028890023 -0.047285806 -0.110009074 -0.103522666
000190 1b 8b be 3d c0 0f e3 bc 7c 75 5c 3d a6 4f fb bc
       0.09303876 -0.027717471 0.05382298 -0.030677628
0001a0 81 65 85 bd 4f 82 c1 bc ad 84 a6 3d f0 1c 31 bc
       -0.06513501 -0.023621706 0.08130775 -0.010810122
0001b0 fa 85 a8 bd 13 63 81 3b 84 a3 e7 3d ff 1e ce 3d
       -0.08228679 0.003948578 0.11310485 0.10064506
0001c0 3a 2c 3c bb ca 3b 8f 3d 51 39 89 3d 9b a9 b4 3c
       -0.0028712885 0.06993826 0.06700385 0.02205353
0001d0 67 d1 5d bd 8e 1a 43 bd 61 23 95 bd a8 ab a5 3d
       -0.05415478 -0.047632746 -0.072821386 0.080893815
0001e0 ca 0f 00 3d e6 c3 b2 3c d5 5c d2 bd 6b e0 90 ba
       0.031265058 0.021821927 -0.102716126 -0.001105321
0001f0 00 fc a6 3d 4c 14 2a 3d b4 94 f1 bd 2a fa 30 bd
       0.08153534 0.041523263 -0.11795941 -0.043207325
000200 20 05 5e bc aa 0e 74 bd 77 8f 3d bd 26 08 6c bd
       -0.013551027 -0.059584297 -0.046279397 -0.05762496
000210 6c 94 1a bd c9 79 07 bd 96 6c 82 bc 4b 92 26 bd
       -0.037739202 -0.033075128 -0.015920918 -0.04066686
000220 38 3f 5b 3c bb 55 f0 bd 76 1f c5 bd 0c 7a f7 bd
       0.013381772 -0.11735102 -0.09625141 -0.120838255
000230 c9 42 d9 3d ed 63 e8 3d 38 db c5 3c 2e 9e fd 3d
       0.106084414 0.11347184 0.024152383 0.12383686
000240 22 74 32 bd 0f 90 96 bd a7 3d 40 3e 50 d0 d0 bd
       -0.043567784 -0.07351696 0.18773519 -0.101959825
000250 e6 a7 1b bd d5 0c 4c bd d7 7d c7 3d fd c2 03 3e
       -0.038001917 -0.049816925 0.09740799 0.12867351
000260 72 fd 26 3e ab b9 0a be 4c f5 26 bc ba a0 a3 3d
       0.16307619 -0.13547389 -0.010190319 0.079896405
000270 53 54 99 bc 11 1b f2 3b b3 46 ff bd 25 56 38 3d
       -0.018716967 0.0073884805 -0.12464657 0.04500403
000280 5a f6 82 3d a7 36 94 3c 25 51 be bc 04 58 d9 3d
       0.06394644 0.018092467 -0.023232052 0.10612491
000290 6b 37 8c bd de 1a da 3d 5d 14 ef 3d aa d7 ce bb
       -0.06846508 0.10649656 0.11673806 -0.0063123303
0002a0 50 a7 05 3d 8e e6 de 3b 9b 08 07 3e 7e f2 7f 3c
       0.032630265 0.0068023866 0.13186876 0.0156217795
0002b0 87 7b 48 bd f3 28 a1 3c b9 f6 d0 3c ce b7 65 bd
       -0.04894593 0.019672846 0.025508272 -0.056083493
0002c0 ce bb cb 3d 59 31 76 bd d5 5a 3f bd ba 1b 73 bb
       0.0994793 -0.060105655 -0.046717484 -0.0037095384
0002d0 d0 76 17 3d 20 59 69 3d d1 d2 d4 3d 70 6a 1b 3d
       0.036978543 0.05696976 0.103917725 0.037943304
0002e0 02 b7 a4 bd 38 0e 1f 3e bb fa d9 3d 57 20 4d 3d
       -0.080427185 0.15532768 0.10643526 0.05007967
0002f0 b8 f6 79 ba 70 1c 64 bd ce f1 b1 3c 79 59 18 3e
       -0.000953536 -0.055691183 0.021721747 0.14877881
000300 6a 33 3f bd 17 a9 31 3e 51 7d 04 be 04 94 29 bd
       -0.04667989 0.17349659 -0.1293843 -0.041400924
000310 33 45 e2 3d 20 06 70 3d 0b 35 01 3d fb b5 aa bd
       0.11048355 0.05859959 0.031544726 -0.08335491
000320 f0 59 75 bc c8 83 32 3d 4d 1c a5 bd 1e f6 03 3d
       -0.014975056 0.043582708 -0.080620386 0.032217138
000330 ab f3 3f 3d a7 aa da 3c 7c e5 d3 bd a0 fe be 3d
       0.04686324 0.026692702 -0.10346505 0.093259096
000340 0b 61 8a bd 63 f4 8f 3d 77 6c cc 3d 25 81 3d bd
       -0.06756791 0.07029035 0.099816255 -0.04626574
000350 77 80 06 3e d0 34 b1 3d 68 3e 47 bc 8b 10 b3 bd
       0.13134943 0.08652651 -0.012160875 -0.0874339
000360 ed 2b 51 3d 44 d9 56 3d a9 22 0c bc c3 b3 ec 3d
       0.05106728 0.052453294 -0.0085531855 0.11557724
000370 e5 82 b3 bd fc 8f 68 3d 6c db ab 3d 81 6e 07 3e
       -0.087652005 0.05677794 0.08391461 0.13225748
000380 5b 0c 48 bc b1 9e e9 3d f9 f2 05 3e bf f8 76 3d
       -0.012209977 0.11407221 0.13080968 0.060295817
000390 0c f6 c7 bd 0e 33 aa 3d 97 77 79 ba b1 da a6 bd
       -0.097637266 0.08310519 -0.00095164165 -0.08147181
0003a0 7e 0b be bd c3 45 5d bc 72 df bb 3d e2 38 b2 bd
       -0.09279536 -0.013505402 0.09173478 -0.08702256
0003b0 56 84 04 3e 85 a3 8d 3d 09 73 74 bd 0a 13 91 bd
       0.12941107 0.069159545 -0.05968002 -0.070837095
0003c0 82 9e a0 bd 84 5f f9 bd d1 cc 6f bb 8c b4 bf bd
       -0.07842733 -0.12176421 -0.0036590586 -0.093606085
0003d0 cd 7c 71 bd df 17 67 bd f2 be 28 bc 54 1f 89 3d
       -0.05895691 -0.05641925 -0.010299431 0.066954285
0003e0 dd b1 a3 3d 65 4e 06 3d 3e 4f 12 bd 00 55 b8 bd
       0.07992909 0.032789607 -0.035720102 -0.090005875
0003f0 5a 76 bd 3d 49 4d 79 3d 8c 0b 7e bd 5f a6 fe bc
       0.092510894 0.06086472 -0.06202273 -0.031085191

network_actor.2.bias f4 [70]
000000 58 82 3f bd b6 d1 9a bc 38 44 89 3d 8f f9 d8 3d
       -0.046755165 -0.018898826 0.06702465 0.105944745
000010 6d d5 c0 3d db 6d 5a 3d 45 7f 30 bd a8 76 a3 3d
       0.09415708 0.053327423 -0.043090124 0.07981616
000020 6c f1 f6 3d 2b 36 cf 3d b9 63 ba 3d 69 78 b1 bd
       0.12057766 0.101177536 0.09101052 -0.086655445
000030 78 a9 a8 3d d5 36 c6 bd ea 4e c3 bd d6 21 94 bd
       0.082354486 -0.09678427 -0.09536536 -0.07233016
000040 b4 b7 d7 3d ff 4c b2 bd 4e 8e 86 3d 41 61 a4 bd
       0.105330855 -0.08706092 0.06570111 -0.08026362
000050 db 99 0e 3e b3 06 30 3d 15 1e ce 3d 80 2e 0d be
       0.13925879 0.04297514 0.100643314 -0.1378727
000060 9c c8 36 bd 89 db ca bd bb 98 40 bd 5f 02 6c bd
       -0.04462491 -0.09905154 -0.047020655 -0.05761945
000070 1a ed a9 3d ee 4b 62 3d 97 e0 61 3d c2 90 bb bc
       0.08297177 0.055248193 0.055145826 -0.022896174
000080 72 12 fa bd 73 ae 20 3d 9a a7 80 bd de d8 85 3d
       -0.122105494 0.039228868 -0.062819675 0.06535505
000090 79 77 8b 3d 6e af a6 bd bc 6b 82 bd a3 4e bc 3d
       0.06809897 -0.08138929 -0.06368205 0.09194686
0000a0 a8 d9 00 3e 49 b5 b2 3d 36 bb 67 3c 6e ce 9d 3d
       0.1258303 0.08725984 0.014143756 0.07705389
0000b0 e0 66 37 bc 84 74 d2 b8 31 2c c9 bd a5 76 d9 b8
       -0.011193961 -0.00010035283 -0.09822882 -0.000103694656
0000c0 61 89 5a 3d ea 87 13 bb cb 65 56 3d a2 f0 46 3c
       0.05335367 -0.002251143 0.05234317 0.012142332
0000d0 be 3c 07 3e 7e 54 5a bd aa d2 fc 3c 1c 30 e6 bd
       0.13206765 -0.053303234 0.030862171 -0.11239645
0000e0 4e 6f 17 3e 84 fd 89 3d e0 82 b2 3b 9c 25 3c bd
       0.14788553 0.067378074 0.0054477304 -0.045934305
0000f0 61 11 0b 3e 93 dc c6 bd e9 0b f2 3d 87 f0 89 bd
       0.13580848 -0.0971004 0.11818678 -0.0673533
000100 0a 8b 1f bd 6e de f1 3d 03 9e 9c bc ed 85 b4 3d
       -0.038950957 0.11810003 -0.019118315 0.08814607
000110 f8 1a 62 3c 1a 71 d4 bc
       0.013800375 -0.025932837

network_actor.4.weight f4 [5, 70]
000000 41 d5 ef 3d 01 b7 14 3d 7d 37 5e be 3a b6 95 bd
       0.11710597 0.03630734 -0.21700855 -0.073101476
000010 36 e3 1d 3e 35 0b 19 3d 42 2d b9 3c f0 a5 2d 3e
       0.15418705 0.037364203 0.022604588 0.16957831
000020 b9 1d c9 3c 21 80 93 3e 93 8e 2f be ba c2 91 bd
       0.024550306 0.28808692 -0.17144231 -0.07117219
000030 33 b9 b3 bd 60 ef de bd 1a df fd 3d 41 cc 7c bd
       -0.08775558 -0.10885501 0.12396069 -0.06171823
000040 79 e3 ff 3d a0 29 14 bd c3 35 17 be d8 20 48 be
       0.12494559 -0.03617251 -0.14766602 -0.19543779
000050 92 9a 14 3c 7f 7d 4d 3c 8a f7 21 3c 7a 20 96 bc
       0.009070056 0.012542128 0.009885678 -0.018326033
000060 a8 5c a2 bd 42 1f af 3d d2 c2 65 3d 95 f0 18 be
       -0.07927829 0.08550884 0.056094 -0.14935525
000070 bb 5f 1a be be 50 c1 3c 28 90 cd 3d 4c 67 8d 3d
       -0.15075581 0.023598071 0.10037261 0.06904468
000080 3f fd e2 bd d4 46 28 3e cb b0 ef bd d5 ab db bd
       -0.11083459 0.16433269 -0.117036425 -0.10726134
000090 51 be d5 3d 0c f2 09 bd 80 d4 6a be 7a e8 b1 bd
       0.104366906 -0.0336781 -0.22932625 -0.086869195
0000a0 b3 32 4a 3d dc 36 c0 bd 63 c8 a0 3c 4c e7 10 bc
       0.049364757 -0.093854636 0.019626802 -0.008844208
0000b0 ea 2b bb 3d 47 e0 02 bd d1 41 0c 3d a5 8d d2 3d
       0.09139235 -0.03195217 0.034242455 0.10280923
0000c0 a7 b7 a4 be ee a7 1b bc 59 a0 46 3d 49 a2 8e be
       -0.32171366 -0.009500487 0.048492763 -0.2785819
0000d0 ad 7f d0 bd d0 25 b9 3c 54 36 1f bd 78 f7 20 be
       -0.10180602 0.022601038 -0.03887017 -0.15719402
0000e0 98 1a 33 bd 44 24 51 be 9f 6e 96 bc 01 07 bd 3d
       -0.043726534 -0.2042399 -0.018363295 0.092298515
0000f0 50 02 f7 3d b0 e7 7c bd ea 1c 10 bd 5e 46 a5 bd
       0.12060988 -0.061744392 -0.035183825 -0.08070062
000100 58 e1 eb 3d 6b b7 81 3d 9d d2 06 bd ce 51 5c 3d
       0.1151759 0.06333812 -0.0329157 0.053788953
000110 bc 27 cb 3c 54 e8 38 bd c9 39 83 bd 86 5c 5d bd
       0.02479922 -0.04514344 -0.06407506 -0.054043315
000120 43 82 cc bc 44 ea 3d 3e 41 15 f8 3d 49 4f bd bd
       -0.024964457 0.18546396 0.12113429 -0.09243638
000130 95 1e 20 3e f2 24 d2 3d c4 81 c1 bd 6a d4 86 be
       0.15636666 0.10260953 -0.09448579 -0.26333934
000140 ad 42 81 3b ff c1 68 3e 2c 7d 06 be 35 7d 58 3e
       0.003944716 0.22730254 -0.13133687 0.21141513
000150 d9 98 c8 bd dd d1 73 bd 84 39 3d bc ac 17 cc 3c
       -0.097947784 -0.059526313 -0.011549357 0.024913631
000160 99 e9 e0 bb 57 52 9b 3d f2 14 f9 3d 7f 21 0b be
       -0.0068637845 0.075840645 0.12162198 -0.13586996
000170 2a cc c3 3d b5 53 bf 3d 92 58 6e 3d 25 65 cc bd
       0.095604256 0.09342138 0.058189936 -0.09980229
000180 08 55 10 3c 9d 24 d8 bd 74 26 d7 3d db 86 e6 bd
       0.0088093355 -0.105538584 0.10505381 -0.112561904
000190 72 2b 2a 3e d1 05 23 be e3 8c b8 3d e5 d6 7b 3e
       0.16618136 -0.15920188 0.09011247 0.24593695
0001a0 c4 f0 71 3d bb 26 f2 bd 46 69 aa bc 99 c6 e3 3d
       0.059067503 -0.118237935 -0.020802151 0.11121864
0001b0 52 16 b5 3d bd 33 8d bd 39 03 33 3d 16 b2 7b 3e
       0.08842148 -0.06894634 0.043704245 0.24579653
0001c0 71 75 68 bd 2c 47 eb 3d 27 df 1d 3e 91 fe d3 bd
       -0.056752626 0.11488184 0.15417157 -0.10351289
0001d0 6b 52 3d 3b c2 52 47 3d f7 51 45 bd 6e d9 a5 bd
       0.0028888236 0.04866291 -0.04817387 -0.08098112
0001e0 81 cf 6b 3d 2f 26 db bd 8e 13 85 3d a7 4e 72 3d
       0.057570938 -0.10700642 0.064978704 0.05915704
0001f0 85 07 8d 3d d2 aa 0b bd 9e 6d 99 3d 8c d4 3e bd
       0.068862 -0.034098454 0.07491611 -0.04658942
000200 4f 67 44 bc 0d cc b6 3d f5 a8 a1 3d 0e ae bd bd
       -0.011987521 0.08925638 0.07893554 -0.09261714
000210 bf eb 7b bd 6b 1f 01 bc af e3 2d bd a8 88 a6 bd
       -0.061504122 -0.007881026 -0.042453464 -0.08131534
000220 4d 63 49 be 3a bd 92 3d b3 51 6f 3e 59 20 fc bd
       -0.19666786 0.07164998 0.2337101 -0.12310857
000230 3f 5a 30 3e cc 48 11 3d 05 3a 5b be d9 c3 21 be
       0.17221926 0.035469815 -0.21408851 -0.15797366
000240 df f6 37 bd 3f 6c 0e 3b 9d 01 66 3e 34 18 1c 3d
       -0.04491317 0.0021732 0.22461553 0.03810902
000250 37 fc 08 3e a4 ec 09 3e 06 5d 7b bd cc cb 59 3e
       0.13377462 0.13469177 -0.06136801 0.21269149
000260 42 b6 8c bd cf 41 dd 3d b4 d4 60 be b3 37 21 3e
       -0.068707004 0.108035676 -0.2195614 0.15743904
000270 23 71 65 bd 7d 6a b8 bd 41 a3 9b 3d 13 18 a7 3d
       -0.0560161 -0.09004686 0.075994976 0.08158889
000280 8b 37 b6 bc b0 b9 a1 3e de e4 ce bd a1 6f a3 bc
       -0.022243282 0.3158698 -0.10102247 -0.01995069
000290 17 00 38 3d 3a 1c 7f bc c3 46 0b 3e 90 e2 01 be
       0.04492196 -0.015570695 0.13601212 -0.12684083
0002a0 db 56 c3 be 64 95 19 bc 60 82 e4 3d d7 55 18 be
       -0.38152203 -0.009373996 0.111576796 -0.14876495
0002b0 1b 25 93 3c a9 6d 83 3e 47 e3 1f bd 64 eb 13 3e
       0.01796203 0.25669602 -0.039035108 0.14445263
0002c0 f3 3f e7 3a fc 5d 94 bd 8d a1 e3 bd 83 f4 f9 bd
       0.001764296 -0.072444886 -0.11114798 -0.1220484
0002d0 21 4a 9a bd 89 a0 a3 3d f1 e8 58 be dd b9 ee 3d
       -0.0753367 0.07989604 -0.2118261 0.11656544
0002e0 bf 71 a6 bd 44 66 58 bd 93 2c 0c 3d cf c2 a5 bd
       -0.08127164 -0.052831903 0.034222197 -0.080937974
0002f0 5e 86 be be d8 e1 5b 3d 49 90 d9 3d 24 e0 9d 3d
       -0.3721189 0.05368218 0.10623223 0.07708767
000300 73 20 e4 bd 27 93 46 bc 44 a3 09 3e 6b b4 3f bd
       -0.11139002 -0.012120045 0.13441187 -0.04680292
000310 17 53 37 be 08 03 73 bc bf 6c 9e bd 6d 38 81 3d
       -0.1790279 -0.014832266 -0.077355854 0.063095905
000320 8d 91 9e 3c bc 2c ba 3d 8e ec 02 bd 2a 11 96 be
       0.019356513 0.09090564 -0.031963877 -0.2930997
000330 20 25 03 3d 51 42 90 bd d8 a9 02 3e 88 dc 1c bd
       0.032017827 -0.07043899 0.12760103 -0.038296252
000340 28 f3 f1 3d 35 7b ec 3d 6c bd f5 3d cd ae 0f 3d
       0.118139565 0.115469374 0.1199902 0.035078812
000350 37 13 c7 bd ac 50 93 3c 01 e0 c5 3d f7 75 32 3d
       -0.09720462 0.017982803 0.09661866 0.04356953
000360 e8 c0 6e be cd 9f ef bc ff d2 6b bd 51 17 99 bd
       -0.23315775 -0.029251004 -0.05757427 -0.074751504
000370 47 b0 f7 bd 59 4f 08 be 8c 08 a0 bd d9 52 a8 3d
       -0.12094169 -0.13311519 -0.0781413 0.08218927
000380 e5 9b 12 3d c1 fe 04 3d c1 36 79 bd 88 99 fa bd
       0.035793204 0.032469515 -0.060843233 -0.12236315
000390 a3 23 8d bd 7a e4 24 be 4a 01 19 bc 37 f1 07 be
       -0.06891563 -0.16102782 -0.009338686 -0.1327561
0003a0 b1 92 2a be 26 02 65 3d 3f f4 8b 3d 6b b2 0a be
       -0.16657521 0.055910252 0.068336956 -0.13544624
0003b0 93 bc d3 bd af 3a 05 3d 48 3e c4 3c 6b d9 ef b9
       -0.10338702 0.03252667 0.02395548 -0.0004574762
0003c0 7f a0 c1 3d 40 8e 0e 3d 23 95 ef 3c 99 ef 16 3e
       0.0945444 0.03480363 0.029245919 0.14739837
0003d0 c7 d7 02 3d 8d 28 0e 3e e2 2f d9 bd 16 87 3f 3b
       0.031944063 0.13882656 -0.10604836 0.0029224805
0003e0 be ae 89 bd 25 c6 9c 3d 97 43 f1 bd 5e 0f 09 be
       -0.067227826 0.076549806 -0.1178047 -0.13384768
0003f0 1f 82 51 3d 05 65 c6 3d b5 d2 9f bc f1 69 8e bd
       0.051149484 0.09687237 -0.019509653 -0.069538005

network_actor.4.bias f4 [5]
000000 e9 92 5b 3b 41 3c 8e 3d 62 a2 d9 bd 17 47 2d bc
       0.0033504313 0.06945086 -0.10626675 -0.010576031
000010 05 d2 73 3c
       0.0148816155
