checkpoint/ddpg-actor_mlp_actor-lr:0.0001_critic-lr:0.0002_gamma:0.99_tau:0.05.pth (torch, 63063 bytes, 6 tensors)

network_actor.0.weight f4 [70, 140]
0	0x3df37f51	0.11889518
1	0x3eabd8a3	0.33563718
2	0x3c5823e5	0.013192152
3	0x3cb4c8eb	0.022068461
4	0x3d4f434e	0.050601296
5	0xbcd4df8d	-0.025985504
6	0x3d77501d	0.060379136
7	0x3d8f26ea	0.06989844
8	0x3d9488b8	0.072526395
9	0x3c47a8d4	0.012186248
10	0x3ccdb86b	0.025112351
11	0x3dc066b7	0.09394591
12	0xbe06aae4	-0.13151127
13	0xbd09bc79	-0.033627007
14	0x3d136edf	0.035994407
15	0x3c9d6709	0.01921417
16	0xbda56fa5	-0.08077935
17	0xbca4bb7a	-0.020108927
18	0xbdfcd9be	-0.123462185
19	0x3d9e7f2d	0.077391006
20	0x3e069b33	0.13145141
21	0x3d176af6	0.03696724
22	0xbd74ce4b	-0.05976705
23	0x3e0fc7cf	0.14041065
24	0x3cc86c6c	0.024465762
25	0x3c766727	0.015039242
26	0x3d66bfaa	0.05633513
27	0x3d589e22	0.052885182
28	0x3d0758a0	0.033043504
29	0x3ec1f7fd	0.37884513
30	0x3dde13f6	0.10843651
31	0x3cbf90f5	0.02338455
32	0x3dc96cef	0.098352306
33	0x3d620f93	0.055190634
34	0x3dddeecb	0.10836562
35	0xbc8b593c	-0.017010324
36	0x3d4b07a8	0.04956785
37	0xbd8497e4	-0.06474283
38	0x3ce96986	0.0284927
39	0x3b6115c2	0.0034345244
40	0xbd2e97d7	-0.042625275
41	0xbc5ab497	-0.01334872
42	0xbd2774ee	-0.040882997
43	0x3c885059	0.016639875
44	0xbe059030	-0.13043284
45	0xbd53ac4b	-0.051677983
46	0xbd0c3906	-0.03423407
47	0x3d29865f	0.041387912
48	0x3e257a9c	0.16160053
49	0xbd5fe8b9	-0.0546653
50	0xbba67e27	-0.0050809565
51	0x3e54fadf	0.20798825
52	0xbccb50e0	-0.024818838
53	0xbcb0ed52	-0.021597538
54	0xbcea2490	-0.028581887
55	0x3c8afaa9	0.016965227
56	0x3d4283dc	0.047489032
57	0x3eb13159	0.34607962
58	0x3ddb4b72	0.107077494
59	0x3d861b49	0.06548173
60	0xbcb8322f	-0.022484867
61	0x3db8e36a	0.09027751
62	0x3dd55ea3	0.10418441
63	0x3e0a4c1b	0.13505594
64	0x3e0c8699	0.1372322
65	0xbd0655f6	-0.032796822
66	0x3c0f811b	0.0087588085
67	0xbd6e1a54	-0.058130577
68	0xbdaea6ad	-0.08527885
69	0xbc5f7792	-0.013639348
70	0x3d6e8f2d	0.05824201
71	0x3df8dc49	0.12151391
72	0xbd8f8d9f	-0.07009434
73	0x3ceac904	0.028660305
74	0xbd09c19a	-0.0336319
75	0x3d83667c	0.06416032
76	0x3e2655ee	0.16243717
77	0x3ca5dec4	0.020247824
78	0xbec09e05	-0.3762056
79	0x3e49f7e9	0.19723476
80	0x3d46e59a	0.04855881
81	0xbd554329	-0.052066002
82	0x3d9228e2	0.07136704
83	0x3d6f5f17	0.058440294
84	0x3d6c7e00	0.05773735
85	0x3ef2680e	0.47345012
86	0xbd1a905e	-0.037735336
87	0x3cd2b165	0.025719354
88	0xbbf035a0	-0.0073306113
89	0x3d47866b	0.048712175
90	0x3d5ce535	0.053929526
91	0x3dcbb905	0.09947399
92	0x3d6b7706	0.057486556
93	0xbd7750fa	-0.06037996
94	0xbc09a302	-0.0084006805
95	0xbd0d252d	-0.03445928
96	0xbd1450eb	-0.036209982
97	0xbcc85638	-0.024455175
98	0xbc291471	-0.010319815
99	0x3d0ffaf2	0.03515143
100	0xbdcea8a6	-0.10090761
101	0x3c290e99	0.010318422
102	0xbe081e2e	-0.13292763
103	0x3da04832	0.0782627
104	0x3d191c38	0.037380427
105	0x3d5b0d71	0.053479616
106	0x3d466e7d	0.048445214
107	0xbcdaea4b	-0.026723048
108	0x3dc02ec4	0.0938392
109	0x3ce5a1a2	0.028031174
110	0xbd861886	-0.06547646
111	0xbce55d94	-0.027998723
112	0xbd31f0ad	-0.043442417
113	0x3ed27135	0.41101995
114	0x3dabc76c	0.08387646
115	0x3d2b0612	0.041753836
116	0x3d8f1e6e	0.06988226
117	0x3d22d7f4	0.03975673
118	0x3de269fd	0.11055372
119	0x3dfe88e2	0.12428452
120	0x3dc2fd8e	0.09521018
121	0x3d65ee6b	0.056135576
122	0x3e0c54f7	0.13704287
123	0x3bbf8af1	0.0058454205
124	0xbe21f7b2	-0.15817145
125	0x3da172e1	0.078832395
126	0xbd869654	-0.065716416
127	0x3cbe12c2	0.023202304
128	0xbe0a3dc2	-0.13500121
129	0xbdc3812f	-0.09546124
130	0xbe179415	-0.14802583
131	0x3cb6a49c	0.022295289
132	0x3e020c9c	0.12700123
133	0x3c979378	0.018502936
134	0xbd944dae	-0.07241379
135	0x3df5b136	0.11996691
136	0x3a913451	0.0011078214
137	0x3d2af66c	0.041738912
138	0x3d91e724	0.07124165
139	0xbdaeb1be	-0.085299954
140	0xbdd1f135	-0.10251085
141	0xbdfb04f2	-0.122568026
142	0xbdd1fc66	-0.10253219
143	0xbd516761	-0.05112398
144	0xbcdea440	-0.02717793
145	0xbddd4b4b	-0.108053766
146	0xbcf88470	-0.030336589
147	0x3c86dae7	0.016461803
148	0x3c4aed32	0.012385653
149	0xbd85b3c2	-0.06528427
150	0xbdecbd63	-0.1155956
151	0xbd0034d5	-0.031300385
152	0x3d8f1d9b	0.06988069
153	0x3d9233a1	0.07138754
154	0xbcee68c8	-0.029102698
155	0xbc7d3f05	-0.01545692
156	0xbdb1afcc	-0.08676109
157	0xbd32748b	-0.043568175
158	0x3dda1c2f	0.10649907
159	0xbd539b4a	-0.051661767
160	0x3e292e29	0.16521515
161	0xbdb285e1	-0.087169416
162	0x3cf22c1d	0.02956205
163	0x3e5f93bb	0.21833698
164	0xbdd04482	-0.10169317
165	0xbd6d3421	-0.057911042
166	0xbd25a45c	-0.04043995
167	0xbe438359	-0.19093074
168	0xbd3da266	-0.046297453
169	0xbe2235a9	-0.15840782
170	0xbd158e3c	-0.0365126
171	0xbd23de94	-0.04000719
172	0xbe02b997	-0.1276611
173	0xbdb1904e	-0.08670102
174	0xbddd54f7	-0.108072214
175	0xbcb6a47f	-0.022295235
176	0xbb4d0097	-0.003128087
177	0xbdb453c6	-0.08805041
178	0xbe0e8c6a	-0.13920751
179	0x3ca786a9	0.020449953
180	0x3ddbd197	0.107333355
181	0x3cd7a972	0.026325915
182	0xbd41398b	-0.047174018
183	0xbc9ddade	-0.019269403
184	0xbc8cdada	-0.0171942
185	0x3d8f6b93	0.0700294
186	0x3dee3bc6	0.11632495
187	0xbcb34963	-0.02188558
188	0xbe1aa6e3	-0.15102725
189	0xbde573e0	-0.11203742
190	0x3dc8313d	0.097750165
191	0xbe1cb29b	-0.15302508
192	0xbe4e3a30	-0.20139384
193	0xbe1acf0e	-0.15118048
194	0xbd911cbc	-0.07085559
195	0xbde1b364	-0.11020544
196	0xbdb6a580	-0.08918285
197	0xbd860f19	-0.065458484
198	0xbc732c2e	-0.014842076
199	0xbe105a1e	-0.14096877
200	0xbd283796	-0.041068636
201	0xbc1a3685	-0.0094124125
202	0xbb244abf	-0.0025068966
203	0xbcb8fc51	-0.022581251
204	0xbd105188	-0.035234004
205	0xbbb65658	-0.005564492
206	0xbe09c233	-0.13452987
207	0xbd609541	-0.05482984
208	0x3d43f3b6	0.047839843
209	0x3daaa92c	0.08333048
210	0x3cc69d56	0.024244945
211	0x3dc5d7ba	0.09660287
212	0xbcc783d2	-0.024354849
213	0xbd1379dc	-0.036004886
214	0x3d8c5645	0.06852392
215	0xbe0adc44	-0.13560587
216	0xbe2ae235	-0.16687854
217	0xbde40844	-0.11134389
218	0x3e11f0e9	0.14252056
219	0xbe2a25ca	-0.16615978
220	0xbe2d456a	-0.1692101
221	0xbb6f0f5d	-0.0036477663
222	0xbd12a60f	-0.035802897
223	0xbe286a59	-0.16446818
224	0xbdff9c06	-0.12480931
225	0xbd5735a4	-0.05254139
226	0xbdf0b095	-0.1175243
227	0xbd88c2e3	-0.06677797
228	0xbdd8f1c7	-0.1059299
229	0xbc3b39de	-0.011427371
230	0xbc6a66b8	-0.014306717
231	0xbe046aca	-0.12931362
232	0xbde6fd62	-0.11278798
233	0xbcca792e	-0.024715986
234	0xbdbdc42d	-0.09265933
235	0x3c6c12f7	0.014408818
236	0x3dd912a8	0.105992615
237	0x3dcdd567	0.10050469
238	0xbdb2f7c0	-0.08738661
239	0x3dbae7ed	0.091262676
240	0x3d0ab755	0.033866245
241	0xbd8b2e54	-0.06795946
242	0x3cd37be5	0.025815913
243	0xba8d3fca	-0.0010776457
244	0x3e9e9ede	0.3098058
245	0xbcd6f724	-0.026240893
246	0xbc77a638	-0.015115313
247	0x3f1252a7	0.5715737
248	0xbe5a4cf9	-0.21318425
249	0xbdd6d399	-0.10489578
250	0xbca56bf5	-0.02019308
251	0xbe306833	-0.17227249
252	0xbdb910cf	-0.09036409
253	0xbb8882d9	-0.004165989
254	0xbc86f498	-0.016474053
255	0xbd22e1b7	-0.03976604

network_actor.0.bias f4 [70]
0	0x3dc8d654	0.09806505
1	0xbe0d16b9	-0.137782
2	0x3d25abda	0.040447094
3	0x3bcd0c64	0.0062575806
4	0xbb8e18aa	-0.0043364363
5	0x3cb08ff9	0.021553027
6	0x3cd2573a	0.025676358
7	0xbd918752	-0.071058884
8	0xbd38e79e	-0.045142762
9	0x39fbc359	0.00048019996
10	0x3d2d94ac	0.042378113
11	0xbcbd7eb9	-0.023131715
12	0xbd44e6ae	-0.048071556
13	0xbd7fcbc4	-0.062450185
14	0xbd14c766	-0.036322974
15	0xbd409b13	-0.04702289
16	0x3cbee9ec	0.023304902
17	0xbdbac682	-0.091198936
18	0x3cb74bba	0.022374976
19	0x3c7b9c24	0.015357051
20	0x3d37f541	0.044911627
21	0x3c83ec96	0.016104024
22	0x3cafb80f	0.02145007
23	0x3bfc5d4a	0.0077015506
24	0x3b7f23e4	0.0038931305
25	0x3d4a4109	0.04937843
26	0xbccb8c56	-0.02484719
27	0x3d08179e	0.033225648
28	0x3cf4bb48	0.029874459
29	0x3c7fda27	0.015615976
30	0x3d89b3b1	0.067237265
31	0xbde29dea	-0.11065276
32	0xbdeab800	-0.114608765
33	0x3ce6f853	0.028194582
34	0xbc0e8026	-0.008697545
35	0x3d380c48	0.044933587
36	0xbcf9867c	-0.030459635
37	0x3c3d4cdd	0.01155397
38	0xbc1aa38e	-0.009438409
39	0xbdc8645f	-0.09784769
40	0xbd01cdd3	-0.03169043
41	0xba6b6c7c	-0.0008980704
42	0xbdeba780	-0.115065575
43	0xbc6d775a	-0.014493788
44	0x3d9d6adb	0.07686397
45	0xbdb31d87	-0.08745866
46	0xbd315642	-0.043295152
47	0xbc87cf73	-0.016578412
48	0xbcb3b4da	-0.021936823
49	0x3c51179a	0.012761975
50	0xbc79e6f6	-0.015252819
51	0x3bba3421	0.005682484
52	0x3cf99f77	0.030471547
53	0xbcbdc9c6	-0.023167502
54	0x3cd437f2	0.025905583
55	0xbdbcfc49	-0.09227807
56	0xbdb55b88	-0.08855349
57	0x3cc88439	0.024477111
58	0x3cd66870	0.026172847
59	0x3c18cf4b	0.009326766
60	0xbd2de436	-0.042453967
61	0x3d75ad21	0.05997956
62	0x3d40a749	0.047034536
63	0x3c21316f	0.009838446
64	0xbd29fc6d	-0.041500498
65	0xbd5ca2a8	-0.05386606
66	0x3d800fea	0.06253035
67	0xbce7cbf5	-0.028295496
68	0xbd1c535e	-0.038165443
69	0xbcf52ac4	-0.029927619

network_actor.2.weight f4 [70, 70]
0	0xbdc9828b	-0.09839352
1	0xbe148aec	-0.1450612
2	0xbd0a97f9	-0.03383634
3	0xbd688c67	-0.056774523
4	0x3d16af04	0.036788
5	0xbe1a67ed	-0.15078707
6	0xbdc63e26	-0.096798226
7	0xbc45ae54	-0.012065489
8	0x3d4d9878	0.050194234
9	0x3cc44fb1	0.023963781
10	0x3d827ffd	0.06372068
11	0x3e2f1e16	0.1710132
12	0xbe0ffb8b	-0.140608
13	0x3c1ad240	0.009449542
14	0x3d26d7b9	0.040733073
15	0xbd818570	-0.06324279
16	0xbde66513	-0.11249747
17	0xbdefd309	-0.11710174
18	0xbec0f2f5	-0.37685362
19	0x3cb357fc	0.02189254
20	0x3b3851ea	0.0028124996
21	0xbd013bdd	-0.03155123
22	0x3e47c7d9	0.1950983
23	0x3d24080f	0.040046748
24	0xbdb99114	-0.090608746
25	0xbc564f03	-0.013080361
26	0x3c12b9a5	0.008955394
27	0x3d3406a5	0.04395165
28	0xbcb03274	-0.021508433
29	0x3e0e2c88	0.13884175
30	0x3e1cde39	0.15319146
31	0xbb82325f	-0.00397329
32	0xbe59ac9b	-0.2125725
33	0xbdc7b807	-0.09751897
34	0x3cc51ec8	0.02406253
35	0x3dfd0ecf	0.1235634
36	0x3cecb65d	0.028895551
37	0x3dca65ff	0.098827355
38	0x3d269a5e	0.04067456
39	0xbdc6bb66	-0.09703712
40	0xbd7dc9a4	-0.061959878
41	0xbc909146	-0.017647397
42	0x3dba90a9	0.09109623
43	0xbe05a133	-0.13049774
44	0x3dce993e	0.100878224
45	0x3d903267	0.070408635
46	0x3df8227b	0.12115952
47	0xbde51375	-0.11185352
48	0xbd2a665a	-0.041601516
49	0xbdd9be7d	-0.10632036
50	0xbdaf7c83	-0.085686706
51	0x3d9f4725	0.077772416
52	0xbe589ff2	-0.21154764
53	0xbd6e64c7	-0.058201578
54	0x3d7922fb	0.060824376
55	0x3bb05cc7	0.0053821537
56	0x3e6e34d8	0.23262346
57	0x3b61d77c	0.0034460714
58	0x3d31cfcc	0.04341106
59	0x3c152bad	0.009104651
60	0xbe90ee2b	-0.28306708
61	0x3df163f4	0.11786643
62	0xbcf12274	-0.029435374
63	0x3dbef956	0.09324901
64	0xbc71c78a	-0.0147570465
65	0xbd85985f	-0.06523203
66	0xbccc6645	-0.02495111
67	0xbdb6d5ca	-0.08927496
68	0x3d9f06bc	0.07764956
69	0xbe263490	-0.16230989
70	0x3e2e93a1	0.17048503
71	0x3d2d62a0	0.042330384
72	0x3dbb8435	0.09156076
73	0x3dc9467b	0.09827896
74	0x3da67159	0.08127088
75	0x3d13e670	0.036108434
76	0xbc01c45d	-0.007920352
77	0xbcc37a6e	-0.02386209
78	0xbde2e00d	-0.110778905
79	0xbd4821ba	-0.04886029
80	0x3cb81385	0.022470245
81	0x3e93c9b3	0.28864822
82	0x3a4e6f09	0.0007874822
83	0xbdcae790	-0.09907448
84	0x3e03b6b5	0.12862666
85	0xbcdc5dfd	-0.026900286
86	0xbc2d3dc4	-0.010573808
87	0x3d7af573	0.061269235
88	0x3db0bcb3	0.086297415
89	0x3db8896d	0.09010587
90	0x3dcdff9a	0.10058518
91	0xbdc91231	-0.09817923
92	0x3da9dfb5	0.08294622
93	0xbcedbd15	-0.029020825
94	0xbdb32b24	-0.08748463
95	0xbc3416dc	-0.010991778
96	0x3e2996c5	0.1656142
97	0x3d9ebd4d	0.0775095
98	0x3dc31818	0.0952608
99	0xbd87662b	-0.06611284
100	0x3c8fed50	0.017569214
101	0xbc866bbc	-0.016408794
102	0xbc8b6669	-0.017016606
103	0x3cc7083f	0.024295924
104	0xbda6e192	-0.08148493
105	0xbe2795f6	-0.163658
106	0xbd42c876	-0.047554456
107	0x3e0ed721	0.13949253
108	0xbbff4c4a	-0.007791077
109	0xbd031581	-0.03200293
110	0xbcbddf79	-0.02317785
111	0x3df10056	0.11767642
112	0x3d06bca8	0.03289476
113	0x3dc80667	0.09766846
114	0x3e0e2373	0.1388071
115	0xbd69eec9	-0.05711249
116	0xbd19087e	-0.037361614
117	0x3def2c95	0.11678425
118	0x3d81617e	0.06317423
119	0xbd8a4269	-0.06750948
120	0xbe020afe	-0.12699506
121	0xbd2cf460	-0.04222524
122	0x3d3b8c94	0.045788363
123	0x3c250798	0.010072611
124	0xbd091b94	-0.033473566
125	0x3aba1f38	0.0014199978
126	0x3dce26f9	0.10066027
127	0x3dda41c7	0.10657077
128	0xbc9af612	-0.018916164
129	0x3dce49bc	0.100726575
130	0xbde36dad	-0.11104903
131	0x3dd4916f	0.10379302
132	0x3d0b5103	0.034012806
133	0x3e1688e6	0.1470066
134	0xbde4a5ca	-0.11164434
135	0xbd932e29	-0.07186539
136	0xbcec07f7	-0.028812392
137	0x3e0a6b55	0.13517506
138	0xbc2e68ee	-0.010645134
139	0x3decd6db	0.11564418
140	0x3d9a367c	0.07529923
141	0xbd8d5236	-0.06900446
142	0xbd612742	-0.05496908
143	0x3d4b540b	0.049640696
144	0xbc18b9d8	-0.009321652
145	0x3d2d013e	0.042237513
146	0x3dee6326	0.11640005
147	0x3da9ca26	0.0829051
148	0xbde614d5	-0.11234442
149	0xbd8b6b6c	-0.068075985
150	0x3df1dab3	0.11809292
151	0xbd2c9e86	-0.042143367
152	0xbc641d42	-0.013922991
153	0x3d57fbe1	0.052730445
154	0xbcdf3ea6	-0.027251553
155	0x3d818bf8	0.06325525
156	0xbe14827f	-0.14502905
157	0x3d371634	0.04469891
158	0x3d9bddb9	0.076106496
159	0xbdfb9ca8	-0.12285739
160	0xbd36c2b6	-0.044619285
161	0x3df827a4	0.12116936
162	0xbdd199b9	-0.102343984
163	0x3d3a7373	0.045520257
164	0xbd0b71ae	-0.03404396
165	0xbdab5890	-0.08366501
166	0xbd5ce694	-0.053930834
167	0x3ce35cce	0.027754214
168	0x3dd3affc	0.10336301
169	0x3e0c7a41	0.13718511
170	0x3c9ee4f5	0.019396285
171	0xbdcc7016	-0.09982316
172	0x3d9f506c	0.07779011
173	0xbdac9122	-0.084261194
174	0xbb134ac4	-0.0022474984
175	0xbd39112b	-0.04518239
176	0x3d89f660	0.067364454
177	0xbc833bd4	-0.01601974
178	0x3e51248d	0.204241
179	0x3deebb80	0.116568565
180	0x3d8344a6	0.06409578
181	0x3cb35b86	0.021894228
182	0xbd01ba01	-0.031671528
183	0x3c16619b	0.009178544
184	0x3da8564b	0.08219584
185	0xbdb07b82	-0.08617307
186	0x3d738190	0.059449732
187	0xbd5500b6	-0.05200263
188	0x3d1eda2f	0.038782295
189	0x3bf72093	0.007541725
190	0x3d637923	0.055535447
191	0x3d3caabc	0.046061262
192	0x3d0c966b	0.034323137
193	0xbd6fe055	-0.05856355
194	0xbcb38565	-0.021914193
195	0xbdbfa922	-0.093584314
196	0xbde5ba5e	-0.11217187
197	0xbd6cf8c2	-0.05785442
198	0xbe07992d	-0.13242026
199	0xbd662d63	-0.056195628
200	0x3b4c3021	0.0031156617
201	0xbdef1c26	-0.11675291
202	0xbde23ba4	-0.11046532
203	0x3d6afa0f	0.05736738
204	0x3d9fd5c0	0.078044415
205	0xbd8f5cfc	-0.07000157
206	0x3dbf00af	0.09326302
207	0x3ddf05cf	0.1088978
208	0x3df49f16	0.11944406
209	0xbdc7ad3c	-0.09749839
210	0xbc3416ed	-0.010991794
211	0x3d424264	0.047426596
212	0xbd09cdb9	-0.033643458
213	0xbdd5274d	-0.10407887
214	0xbe42e2bf	-0.1903181
215	0xbde7ed0b	-0.11324509
216	0x3a8dbcc0	0.0010813698
217	0xbd2e4f78	-0.042556256
218	0x3d83833b	0.064215146
219	0x3e11ad25	0.14226206
220	0x3e405a81	0.18784525
221	0xbd110023	-0.03540052
222	0x3ca846c5	0.020541558
223	0xbdb770b0	-0.0895704
224	0xbb09a654	-0.002100368
225	0xbc487780	-0.012235522
226	0xbc28ece6	-0.010310387
227	0xbd6093a2	-0.054828294
228	0xbd5c5637	-0.05379316
229	0x3d80f6b3	0.06297054
230	0x3c17d20a	0.009266386
231	0xbd6f1fa3	-0.05837978
232	0xbd20abe5	-0.03922643
233	0x3d6735f5	0.05644794
234	0xbdba6c4b	-0.091026865
235	0xbd11ef80	-0.035628796
236	0x3dea9080	0.114533424
237	0x3e2d01a9	0.16895165
238	0x3c452857	0.012033544
239	0xbd79f3a2	-0.061023362
240	0xbc423e6e	-0.011855705
241	0xbe1eb02e	-0.15496895
242	0xbd31191e	-0.043236844
243	0xbde358db	-0.11100932
244	0x3d0ebe92	0.03484971
245	0xbe044e3b	-0.12920468
246	0xbdda3b5b	-0.106558524
247	0x3d55a2bc	0.05215715
248	0x3dd26e75	0.10274974
249	0xbc9ebf14	-0.019378223
250	0x3e3e1b26	0.18565044
251	0x3e0d1153	0.1377614
252	0xbe287c9d	-0.16453786
253	0xbdfe1df9	-0.124080606
254	0xbdcb4272	-0.09924783
255	0x3c818c83	0.015814072

network_actor.2.bias f4 [70]
0	0x3e466780	0.1937542
1	0x3d549a1c	0.051904783
2	0xbc5bb4cb	-0.013409804
3	0x3d6a07da	0.057136394
4	0xbdd04fde	-0.101714835
5	0x3db97486	0.09055428
6	0xbd4741cf	-0.048646744
7	0xbdad7619	-0.08469791
8	0xbd343abd	-0.04400133
9	0xbd2da2ef	-0.042391714
10	0x3db65976	0.08903782
11	0x3d9b5c1a	0.07585926
12	0x3d18c757	0.03729948
13	0xbd16699e	-0.03672182
14	0xbda0344a	-0.07822473
15	0x3dd63bf3	0.10460653
16	0xbd874d04	-0.066064864
17	0x3d56c1de	0.05243098
18	0x3dd747e6	0.105117604
19	0x3d98d2b1	0.07462061
20	0xbd86e920	-0.06587434
21	0x3db1757d	0.08664987
22	0xbdc0821a	-0.09399815
23	0x3d7daa0c	0.061929747
24	0x3da50244	0.08057073
25	0x3d663f95	0.05621298
26	0x3e11452c	0.14186543
27	0xbd85583e	-0.065109715
28	0x3c1ab53f	0.0094426265
29	0xbdb17da4	-0.08666542
30	0x3db74651	0.08948959
31	0xbd05ed09	-0.032696757
32	0xbd0efcb3	-0.03490896
33	0x3d24b368	0.040210158
34	0xbdeb45b6	-0.11487906
35	0xbdd72b50	-0.10506308
36	0x3d8a4c32	0.06752814
37	0x3dbd7dd8	0.092525184
38	0xbd3cd5a4	-0.04610218
39	0x3bee6159	0.0072747883
40	0xbdc43ed6	-0.095822975
41	0x3c74f11a	0.014950061
42	0xbd9c8d78	-0.076441705
43	0xbda16779	-0.07881064
44	0x3d62ef61	0.05540407
45	0xbc633795	-0.013868232
46	0x3ce1cdaf	0.027563898
47	0xbcb70d9b	-0.022345355
48	0x3c9bd4b6	0.019022327
49	0xbd376648	-0.044775277
50	0xbde99e8f	-0.11407196
51	0xbd2f316e	-0.04277175
52	0x3dafacbe	0.0857787
53	0x3d080f78	0.033217877
54	0x3d68889b	0.056770902
55	0xbdefff72	-0.11718644
56	0xbe0ff8e7	-0.14059792
57	0x3b89fbf8	0.004210945
58	0x3d86c142	0.0657983
59	0x3d2bc0a4	0.041931763
60	0xbd428cf8	-0.04749772
61	0xbe181294	-0.14850837
62	0x3d963eae	0.07336174
63	0xbd427c00	-0.047481537
64	0xbcc5399b	-0.02407532
65	0x3cf26456	0.02958886
66	0x3d7da4ab	0.061924618
67	0x3e1bf1cb	0.15228955
68	0x3a49e0a2	0.00077010144
69	0x3dd5c6b8	0.10438293

network_actor.4.weight f4 [5, 70]
0	0x3dcf06ce	0.1010872
1	0xbc240c85	-0.0100127505
2	0xbe062153	-0.1309865
3	0xbcd543cb	-0.026033303
4	0x3d8e44ab	0.06946691
5	0x3ddc139a	0.10745926
6	0xbc8f8127	-0.01751764
7	0xbd61adcd	-0.05509739
8	0xbe25a12d	-0.16174765
9	0x3d805246	0.062656924
10	0xbd14900d	-0.03627019
11	0xbccf60a1	-0.025314631
12	0x3d1aa21c	0.037752256
13	0x3cff0d25	0.031134197
14	0xbd127380	-0.03575468
15	0xbc88278a	-0.016620416
16	0xbd18aea4	-0.037275925
17	0x3cc05918	0.023479983
18	0xbd4f3af3	-0.050593328
19	0xbd540ad6	-0.051768146
20	0xbc5315e9	-0.012883642
21	0xbc58eaa2	-0.013239535
22	0xbd0be5df	-0.03415477
23	0xbcd1b961	-0.02560109
24	0x3cb1aa33	0.021687603
25	0xbd045f72	-0.032317586
26	0xbbc4d9e7	-0.0060074213
27	0xbdcd2619	-0.10017032
28	0xbdd9cf9f	-0.10635304
29	0x3d115302	0.035479553
30	0xbd66b9bd	-0.056329478
31	0xbd5a9c9f	-0.05337202
32	0x3dbf33e5	0.0933607
33	0x3d910507	0.07081037
34	0xbe07c528	-0.13258803
35	0x3db85540	0.09000635
36	0xbd8c6547	-0.068552546
37	0xbc24bea7	-0.010055221
38	0xbcbc6c1c	-0.02300077
39	0x3a37e629	0.00070151925
40	0x3cfa4947	0.03055252
41	0x3dbeeb47	0.09322219
42	0xbd6bf990	-0.05761105
43	0xbe05847c	-0.1303882
44	0x3d2dcd76	0.04243227
45	0xbb956ba6	-0.004559952
46	0x3db594e7	0.088662915
47	0xbd3f8589	-0.04675821
48	0x3d5be62f	0.053686317
49	0xbdab30f9	-0.0835895
50	0xbde5b8c2	-0.112168804
51	0xbdd8bf86	-0.10583405
52	0xbd6dd786	-0.058066867
53	0x3d43064e	0.047613434
54	0x3bbc4d23	0.0057465
55	0x3ca90269	0.020631032
56	0x3d690fbc	0.05689977
57	0x3d92357a	0.07139106
58	0x3d5a1f39	0.053252432
59	0xbd9b9b9b	-0.07598039
60	0xbacef2a0	-0.0015788861
61	0x3c2f2da5	0.010692035
62	0xbd2f05be	-0.042730086
63	0xbc8bcf89	-0.017066734
64	0x3b8cb3dd	0.0042939023
65	0x3d8d70ee	0.06906305
66	0x3d0f544d	0.034992505
67	0xbd843794	-0.06455913
68	0x3d4ab630	0.049490154
69	0xbdbbb20e	-0.091648206
70	0xbe662048	-0.22473252
71	0x3de7d776	0.11320393
72	0x3dc5512a	0.096346214
73	0x3e0ff4e3	0.1405826
74	0x3db09d5a	0.086237624
75	0xbe178120	-0.14795351
76	0xbe4663b2	-0.19373968
77	0xbd472256	-0.04861673
78	0xbdadb6b5	-0.08482114
79	0x3dc6ad0a	0.09700973
80	0x3d880301	0.06641198
81	0xbe4dfb2f	-0.2011535
82	0x3e49bbe7	0.19700585
83	0x3e123084	0.1427632
84	0xbdeedfe2	-0.11663796
85	0xbe343e26	-0.17601833
86	0xbe08e32e	-0.13367912
87	0xbd062bea	-0.032756723
88	0xbe8d610b	-0.276131
89	0xbd3c24b1	-0.04593343
90	0x3e1c0d76	0.1523951
91	0x3e049e84	0.12951094
92	0xbdfafb56	-0.1225497
93	0x3e0fb10c	0.14032382
94	0xbe57ede6	-0.21086845
95	0xbe00dd92	-0.12584522
96	0x3e0f8df6	0.14018998
97	0x3e006590	0.12538743
98	0x3c6dce77	0.014514557
99	0x3dc78320	0.09741807
100	0x3cb63ca2	0.022245709
101	0x3ccb2726	0.02479894
102	0xbdb2ded3	-0.087339066
103	0x3d46cda2	0.04853595
104	0xbd5aad5d	-0.05338799
105	0x3d38e1f2	0.045137353
106	0x3d14ec05	0.0363579
107	0xbdef98d0	-0.116990685
108	0x3d0b4b52	0.034007378
109	0x3d8e4cd1	0.06948245
110	0xbe4b5b3e	-0.19859025
111	0x3d927ef8	0.071531236
112	0xbdad0036	-0.08447306
113	0x3bd02a5b	0.0063527054
114	0xbdd18a55	-0.10231463
115	0xbdf52dda	-0.11971636
116	0x3db0c130	0.086305976
117	0xbd445c38	-0.04793951
118	0x3cfa8493	0.030580794
119	0x3e2051ee	0.15656254
120	0xbe11b803	-0.14230351
121	0x3d4e1485	0.050312538
122	0x3cc33271	0.023827763
123	0xbd2405e1	-0.04004467
124	0xbdd143d9	-0.10218019
125	0xbd954648	-0.07288796
126	0xbb4934c6	-0.0030701621
127	0x3e0e946f	0.1392381
128	0x3dae2468	0.08503038
129	0x3ce2d785	0.027690658
130	0xbb42a01d	-0.0029697486
131	0xbe9afd57	-0.30271408
132	0xbda5e4c9	-0.08100278
133	0x3d6f4ac2	0.058420904
134	0x3de2fba5	0.11083154
135	0x3d6bf065	0.057602305
136	0x3dd39d9d	0.10332797
137	0x3da2f207	0.07956319
138	0x3dd91111	0.10598958
139	0x3ccef3a2	0.025262658
140	0xbd8d30a7	-0.06894045
141	0x3cf635c6	0.030054938
142	0xbe4b19d6	-0.19834074
143	0xbd94fe6d	-0.0727509
144	0x3db2a9d0	0.087237954
145	0x3d897ea4	0.06713608
146	0xbec2a815	-0.3801886
147	0xbe027226	-0.12738857
148	0xbe0fe3fb	-0.14051811
149	0xbdf8f34e	-0.12155782
150	0x3dce7f72	0.10082902
151	0x3e024f07	0.12725459
152	0x3cd9f2b5	0.02660499
153	0x3d893732	0.06699981
154	0xbe2368e4	-0.15957981
155	0xbc7a79a0	-0.015287787
156	0xbe04d62d	-0.12972327
157	0xbd26f69b	-0.040762525
158	0xbccfe090	-0.025375634
159	0x3dcd0929	0.10011513
160	0xbd309b39	-0.04311678
161	0x3dd91d7d	0.106013276
162	0xbd5f7a32	-0.054559894
163	0xbc2e17e6	-0.010625815
164	0x3d9dae81	0.076992996
165	0x3cc74f0e	0.024329688
166	0x3d67a5ab	0.056554478
167	0x3e01e18c	0.12683696
168	0xbc72ab07	-0.014811284
169	0xbd6d88fd	-0.05799197
170	0xbe3ba72d	-0.18325491
171	0xbba98998	-0.005173873
172	0x3ca67c9b	0.020323088
173	0xbe0e0cbf	-0.1387205
174	0xbdb0ed77	-0.08639043
175	0xbdec81ef	-0.1154822
176	0xbd8fb7a5	-0.07017449
177	0xbd877751	-0.06614555
178	0xbd9acbca	-0.07558401
179	0xbe072a26	-0.13199672
180	0x3c5d9d1f	0.01352623
181	0x3df14cbd	0.11782215
182	0x3d91147f	0.070839874
183	0x3c8ff9f0	0.017575234
184	0x3d37148e	0.044697337
185	0x3bc0b9ce	0.0058815246
186	0x3bf97d3b	0.0076138056
187	0xbde7ec92	-0.11324419
188	0x3e31876c	0.17336816
189	0xbd98b4e1	-0.07456375
190	0xbc8f62ee	-0.017503228
191	0xbd69de1e	-0.057096593
192	0xbe0a04d7	-0.13478409
193	0x3e4e9592	0.20174244
194	0x3add4484	0.0016881381
195	0xbdda4db7	-0.10659354
196	0x3dc55a48	0.096363604
197	0x3e173a5a	0.14768353
198	0x3df1c163	0.11804464
199	0x3d551634	0.052023128
200	0xbcac8bb1	-0.021062704
201	0xbc84cf57	-0.016212149
202	0xbe1f075a	-0.15530148
203	0x3de00d93	0.10940089
204	0xbe85c876	-0.26129502
205	0x3d99bd1b	0.07506772
206	0x3dcec8ec	0.100969166
207	0xbdc7c4ea	-0.09754355
208	0x3db95396	0.09049146
209	0xbe4b75f6	-0.19869217
210	0xbeaf1bd6	-0.34200925
211	0xbe02e05c	-0.12780899
212	0x3da36d46	0.07979827
213	0x3e1f6a62	0.15567926
214	0x3e45b088	0.19305623
215	0x3e102e2a	0.1408011
216	0xbe60057b	-0.2187709
217	0xbe132d7a	-0.14372817
218	0x3af6ca12	0.0018828532
219	0xbe5e398e	-0.21701643
220	0xbd9ebcfb	-0.07750889
221	0x3e355c15	0.17710908
222	0xbe1efc4d	-0.15525933
223	0x3df4dbe3	0.119560026
224	0x3d5f9481	0.054584984
225	0xbe4e5920	-0.20151186
226	0x3df40bdc	0.119163245
227	0x3db99338	0.09061283
228	0xbe964903	-0.2935258
229	0x3da230aa	0.07919438
230	0x3b31d795	0.0027136554
231	0x3e191312	0.14948681
232	0x3e95cf51	0.29259732
233	0xbeb9b920	-0.36274052
234	0x3e36aaa4	0.17838532
235	0xbde2e9e3	-0.110797666
236	0x3d27860b	0.040899318
237	0x3d4fac14	0.050701216
238	0xbd935d79	-0.07195563
239	0xbe4359b6	-0.19077191
240	0x3c4b923a	0.012425
241	0xbdc8e4c4	-0.098092586
242	0x3d1e013c	0.038575396
243	0x3b28f18d	0.002577874
244	0x3d2425d7	0.04007515
245	0x3e4099ad	0.18808623
246	0xbdd20b73	-0.1025609
247	0x3e170517	0.14748035
248	0xbd15366a	-0.036428846
249	0xbc8efa40	-0.017453313
250	0x3dd6886a	0.10475238
251	0x3d8a42e1	0.067510374
252	0x3ba98ba4	0.005174117
253	0x3cd78107	0.026306642
254	0xbe0aea6e	-0.1356599
255	0x3dc2190e	0.09477435

network_actor.4.bias f4 [5]
0	0x3d7ec040	0.062195063
1	0x3d10a8c2	0.03531719
2	0xbd1da773	-0.03848977
3	0x3c86ef11	0.016471418
4	0xbcadb833	-0.021205997
