checkpoint/ddpg-actor_mlp_actor-lr:0.0001_critic-lr:0.0001_gamma:0.99_tau:0.02.pth (torch, 63063 bytes, 6 tensors)

network_actor.0.weight f4 [70, 140]
00000000: 646b 66ba 2f59 903d b45e 63bc f6b2 9d3d
00000010: 4fb6 9a3c 8413 a63c 80c4 4a3d 42f7 133c
00000020: 3b81 9ebc 594e bd3c abb0 6f3d 466a 71bd
00000030: e29f 5d3d 9c6d cf3c 419d a3bb 4759 ac3c
00000040: 8396 2fbd e24b ac3c e205 fabc e176 a9bc
00000050: 8c7c 85bc b28c 703c b80b 41bd 69de 713d
00000060: c71f 7ebc 4345 a0bd 8eaf 24bd 827e 3f3d
00000070: 19b7 9cbb 7f7c 843d a983 acbb e6a1 4bbd
00000080: 2f95 243d 0e41 83bc 64f2 af3c efbe 57bd
00000090: bef7 813d 0638 5abd 9429 6fbd a07b 2cbd
000000a0: 34d6 57bd 40d2 9a3d 5d11 953d 3ce8 b3bc
000000b0: dd13 0b3d be1f a93d d375 763d 2d09 e2bc
000000c0: e762 8a3d 2567 73bd ac5b 8cbc c102 923c
000000d0: ef05 80bc 4d7d d6bc ce6d 903d c87c a3bc
000000e0: e21d 5ebc 6e3c 1e3d e5f4 3abd 2862 93bd
000000f0: d260 b43c 2b21 1ebd ba61 e3bb 7729 143d
00000100: 1de3 42bb 75c7 61bd 8dc0 a1ba 65e5 88bd
00000110: 3dbd 92bd c9d9 f4ba 3a4e 7a3d 2404 3cbd
00000120: 6fae 5bbd 0f64 fdbb 2bd7 623d c9ba 3f3d
00000130: 47be 47bc d23f 77bd 4c79 8c3c 8b0e d23b
00000140: 3518 31bd 102b fe3c ba4e 303d 01bb b3bc
00000150: a47d 8dbd d034 663c e05b 43bd f372 7ebd
00000160: 13d4 023d b1d9 94bd e32d 54bd a06b 9b3d
00000170: 2f7e 91bc 2f25 883d 2dd1 923b d526 21bb
00000180: 3e71 573c ab84 08bd be73 76bc 1210 963c
00000190: 8673 a3bd d4b3 ac3d 6506 e4bc a190 90bd
000001a0: 6b88 813c aed3 dd3b 395f 9a3d 52c2 93bd
000001b0: 37b2 9f3d e572 273d 34c3 863c 68b9 a63d
000001c0: 67e2 143d f4eb 07bd 5b1d 6c3d 31f8 253d
000001d0: e06b 163d 4ae9 9abd ad6c 293d 2d4e b73c
000001e0: bec3 62bd a57f 5cbd eb55 84bc eadf a63d
000001f0: f0c3 81bd e773 863d b0f8 18bd aefd 2abd
00000200: d0ae 1e3c 98d4 74bd 72c6 093d ab27 bd3c
00000210: 05e2 003c 314b 3cbd 9f54 92bd 7006 013a
00000220: 5bc6 05bd 9073 9bbd 1c11 8bbc b0c3 26bd
00000230: accb 64bd b4ae a13d 0d46 8ebc 063c b0bc
00000240: ac1a 873c 75c6 80bd ede5 41bd d6be a5bd
00000250: 83d8 803d 63e5 ef3c 6d55 96bc 0481 a33c
00000260: 41e1 e1ba 0984 aabd d0de a33c 9d2f 9fbc
00000270: 3ff6 113d 9d60 f13c 7cfb 5fbd ffbb 01bb
00000280: b988 6abd 2b2c 633c c01a ab3d f54d 9d3d
00000290: 9263 a43c 2369 9e3d f107 243d b0b1 173d
000002a0: 9889 77bc beaa 713d 9a3f 8abd db79 96bd
000002b0: ba3a 99bd 5684 803d 336e f9bc 62bb 603d
000002c0: ad72 88bd b302 323d eace 57bd 77bb 753b
000002d0: 4c0a 3fbd 1e67 9fbc 56e6 9cbd c132 773d
000002e0: be62 4c3c 54ae 3a3c 088a 003c f5f8 12bc
000002f0: 16f0 a43d 20d5 97bd c694 87bd bee2 12bd
00000300: 63bd 41bd 320b 79bc b317 0b3d ac58 6b3d
00000310: 7767 4a3d 4824 acbd 9c39 28bc 40dd 86bd
00000320: ecde a4bd a343 7d3d 375c 423d 9427 a03d
00000330: 6d2f 78bd 16b7 a1bd 585a a63d 5c23 44bd
00000340: 3c5c 343c 3751 ba3c 6953 4ebd daf8 b7bc
00000350: 8f15 5f3d 9e31 263d 4078 c83b 5add 6cbd
00000360: 5c60 8d3d aa5f 623d c407 71bd f178 15bd
00000370: 6b5a d1bc 24d4 19bd a84f 33bd 739a 76bb
00000380: 437c 403d d317 64bc 659b 2b3b d7e3 a43d
00000390: 52bd 093d 0497 acbd 64b8 833d 094d 13bd
000003a0: 6c0b ab3d 090e 843d 5d9a a53c 7668 2c3d
000003b0: a704 403d 315f 25bb 37aa 21bd 04e5 0a3d
000003c0: ca49 873d 3c78 22bd 8244 60bd 12a9 0bbd
000003d0: 4ccf 53bd ac01 5f3c 5c41 2e3d 4d34 a23d
000003e0: 6984 92bd a99a 8ebc 948e 18bd 4cb3 343d
000003f0: bccd df3b 2cfa 033d a510 853d 5696 4f3d
-0.0008789806 0.070482604 -0.013877559 0.0770015 0.01888576 0.020272978 0.049503803 0.009031119
-0.019348731 0.023108648 0.058518093 -0.05893924 0.054107554 0.02532082 -0.0049931114 0.021038665
-0.04286815 0.021032277 -0.030520383 -0.020686569 -0.01629474 0.014681982 -0.047130316 0.059049997
-0.015510506 -0.078257106 -0.040206484 0.046751507 -0.004782569 0.06469058 -0.0052647186 -0.049714945
0.040181335 -0.016022231 0.021477886 -0.052672323 0.06346081 -0.053276084 -0.05838926 -0.042110085
-0.052694514 0.07559633 0.072787024 -0.021961324 0.03395449 0.082580075 0.06017096 -0.027592266
0.067571454 -0.05942454 -0.017133556 0.017823579 -0.01562783 -0.026182795 0.070521936 -0.019956961
-0.013556929 0.03863185 -0.045643706 -0.07196456 0.022018824 -0.03860585 -0.00693914 0.036172356
-0.002973742 -0.055121858 -0.001234071 -0.066843785 -0.071650006 -0.0018680628 0.06110976 -0.045902386
-0.05363315 -0.007732875 0.05538098 0.04680899 -0.012191362 -0.0603636 0.017147683 0.006410425
-0.043235976 0.031026393 0.04304383 -0.021939756 -0.0690873 0.014050677 -0.04769504 -0.062121343
0.03194053 -0.07268084 -0.051801573 0.07588887 -0.017760364 0.06647717 0.004480502 -0.0024589796
0.013149558 -0.033329647 -0.0150422435 0.01831821 -0.07981019 0.08432737 -0.02783508 -0.07058836
0.01581212 0.006769619 0.075376935 -0.07214798 0.07797664 0.040881056 0.016450502 0.08140832
0.036348727 -0.033184007 0.057645183 0.040519897 0.03672397 -0.075640276 0.041363407 0.022376144
-0.055362456 -0.05383267 -0.01615425 0.08148177 -0.063362 0.06565075 -0.037346542 -0.041745834
0.009685233 -0.059773058 0.033636518 0.023090204 0.007866387 -0.045970146 -0.071450464 0.0004921919
-0.03265987 -0.07590401 -0.016975932 -0.040713966 -0.0558583 0.0789465 -0.017367387 -0.021512996
0.01649221 -0.06287853 -0.047338415 -0.0809304 0.06291296 0.029284185 -0.018351281 0.01995898
-0.0017233269 -0.08325965 0.020003706 -0.019431883 0.03563523 0.029465014 -0.054683194 -0.0019795892
-0.057259295 0.013865511 0.083547115 0.07680885 0.02006701 0.07734897 0.040046636 0.03703469
-0.0151084885 0.059000723 -0.06750412 -0.07347461 -0.07481904 0.06275241 -0.030448055 0.054866202
-0.06662498 0.043459605 -0.052687563 0.003749577 -0.04664068 -0.01945835 -0.076611206 0.060351137
0.012474714 0.011394102 0.007845409 -0.008970489 0.08053605 -0.07413697 -0.06620173 -0.03586077
-0.047299754 -0.015200423 0.03395815 0.05745761 0.049415078 -0.084053576 -0.010267641 -0.06585169
-0.080503315 0.06183208 0.047451224 0.07820049 -0.060592104 -0.07896249 0.081227005 -0.047885284
0.0110083185 0.022743804 -0.050372515 -0.022457529 0.05446392 0.040574662 0.0061178505 -0.057828285
0.06903145 0.055267014 -0.058845297 -0.03649229 -0.02555581 -0.03755583 -0.043777138 -0.003762868
0.046993505 -0.013921696 0.0026185152 0.080512695 0.033627816 -0.084272414 0.06431654 -0.03596214
0.08351788 0.064479895 0.020215208 0.04209181 0.046879437 -0.002523374 -0.03946897 0.033909813
0.06605871 -0.039665446 -0.054752834 -0.034096785 -0.051711366 0.013611238 0.0425428 0.07920132
-0.071541615 -0.017407732 -0.037245348 0.044116303 0.0068299454 0.032221004 0.06497315 0.05068048

network_actor.0.bias f4 [70]
00000000: d97b eaba 6480 12bd df54 55bd 6373 2cbd
00000010: 1a7a 26bd 24fa 5bbd 880d 883c 3c66 8dbd
00000020: dd62 993c 7dd1 cebc 9bde 9a3d caff 773d
00000030: da59 123d 6c76 fb3c 8b38 8b3d 5640 58bd
00000040: 00cd 853d 9974 89bd e8a8 543d dc92 89bd
00000050: 3271 1d3d d394 903d 7a88 fd3c 5316 f53b
00000060: 67d9 e2bc a3ba 8039 f3c8 7d3d da93 52bd
00000070: dc52 9c3d b421 a8bd c9d7 50bd c892 1bbb
00000080: d11c 3d3d 6753 ac3c 84f8 97bd dbe1 483d
00000090: a82a bebc e6c0 aa3d 3077 13bd 54cb 8ebd
000000a0: a2f6 823d face 49bd f214 76bd 0438 f1bc
000000b0: ffec 173d 24bc cfbc 55fc a3bd 2542 28bd
000000c0: 9931 1bbd 6b6e 66bd c86e 3fbd 2b21 d23c
000000d0: 8624 c5bc b49b 123d 9c20 b3bc 13a4 873c
000000e0: 28d6 1e3c e747 b43b 4bfb 94bb 38a7 dc3b
000000f0: 8f26 7cbb 6347 0e3d ca90 863d c6c1 d0bc
00000100: b98b 613d 035c 233d 077d 973d 1981 ab3d
00000110: 3e94 29bd e284 753c
-0.0017889693 -0.035766974 -0.052082893 -0.04210223 -0.04064379 -0.05370535 0.016608015 -0.06904265
0.0187239 -0.025246376 0.0756199 0.060546674 0.03573022 0.030696116 0.06797894 -0.05279573
0.06533241 -0.06711692 0.051918894 -0.06717464 0.03843803 0.07059636 0.030948866 0.007479468
-0.027691556 0.00024553118 0.06195922 -0.051410533 0.07632992 -0.08209553 -0.05098704 -0.0023738611
0.04617006 0.021035863 -0.074204475 0.049043518 -0.0232137 0.08337574 -0.036002338 -0.069723755
0.06394698 -0.049269654 -0.06007857 -0.029445656 0.03709125 -0.025358267 -0.08007113 -0.041078705
-0.037889097 -0.056257647 -0.04673651 0.025650581 -0.024065267 0.03579302 -0.021866135 0.016557729
0.0096946135 0.0055017355 -0.004546558 0.006733801 -0.003847513 0.03473605 0.06570585 -0.025483023
0.05506489 0.03988267 0.07396894 0.08374233 -0.04140114 0.014985295

network_actor.2.weight f4 [70, 70]
00000000: e5d5 b43d a9ad 58bd 3f95 603d 594e 85bd
00000010: 6e0e ef3d c355 1fbd 6011 ee3d 5188 fc3c
00000020: 1eba 493d 3360 b0bd 3e54 7e3d b6fe b5bd
00000030: d06f e13d 8ed8 033e 815b 893c d289 563d
00000040: c3d0 ce3d 0cac b7bd b2da 8a3d b0b4 b7bd
00000050: 7283 df3d 1d55 83bd eb78 263d ec9f 60bd
00000060: dd3f 71bd 265a ed3d 92bd 243c 1f44 3e3d
00000070: b837 a0bb 6641 993d c2a8 993d e20e a5bd
00000080: e647 8a3c 9c73 ab3d 7c8f 09bd 1579 b73d
00000090: 46c6 89bc 2d3a e23d 24a3 54bc 97a6 6bbd
000000a0: 4367 b8bd 1bbb 293d 6657 273d ccfc b23d
000000b0: 766f f43d 08ae dcbd 054f 0b3d e5c0 d13d
000000c0: 3dc7 ce3d 16e7 4a3d 6591 eabd 736f 803d
000000d0: c464 ed3d d979 7c3d 6508 db3c abe6 b3bd
000000e0: 1e5c a5bd dd14 f93c 3b4e 393c 76d0 9c3d
000000f0: e20e b03d e3d8 b53d 6d8b 993c 61a9 c53d
00000100: 5cfa 93bd 1efd b73d c304 df3b 69e0 a13d
00000110: aa1d a1bc 892d 90bd 02d8 9bbb a5de 7f3d
00000120: e1fd 463b dc17 a23d ffbc aebd 4450 c53c
00000130: da39 9c3d e9df 08bc 98a5 95bc 6801 74bd
00000140: 0d37 c13c b0a1 b4bd 07a6 d53d 43cd 113c
00000150: f04a 363d 2eeb d33c b76b ec3d e701 903d
00000160: 5d67 d1bd 4bb8 883d cc8a 8bbd 640d cdbd
00000170: ab0c f23c eea2 9b3d 3bdc 2fbd aa1d 5ebc
00000180: ad5d ee3d 3eba 743c dae7 d2bd 8909 a5bd
00000190: c1de e13b 540f e3bc 5495 973d eea2 973d
000001a0: ddc5 e53b 593d d6bd c899 e53d ef3a 89bd
000001b0: c47b 473d 5a64 543d b750 90bc f6d0 bebd
000001c0: c830 433c 7dfc 83bc 0d49 cbbc cae6 da3d
000001d0: a483 b7bd b124 ac3d 7add 9bbd eb0f 853d
000001e0: d311 7d3d 9a3a f3bd 78ee 3fbd 2eeb efba
000001f0: ebf5 873d 3f83 9dbd 58f0 e13d a9f1 9d3d
00000200: 20e2 ab3d 9c99 193c f78d ecbc c60c e33d
00000210: 4a3a 9bbd a5d5 483d 339d e23d eb0a bdbd
00000220: 096f 05bc 43e5 41bd 733c af3d 288c bd3c
00000230: c8be 10bd 76f6 79bd 0b61 8ebc 6791 8fbb
00000240: e248 d5bd 3fbf 8e3c 9c43 803d 9278 8e3d
00000250: 350c 89bd 4567 82bd 7c83 e1bc bf2d fbbd
00000260: 1eb0 1e3c 495e 2dbd 0827 96bd fac6 bc3d
00000270: 3573 1e3d 13b2 54bd e458 d1bd b831 9b3d
00000280: 6f65 99bd d89b 38bb 9324 743d e4ab 2cbc
00000290: e325 30bd 1ae1 bdbd 2af5 dbbd 90c5 d33d
000002a0: fbdc 723d 9bd4 c83d 9989 24bd 0c1b 89bd
000002b0: 76b6 dc3d 7a38 b93b d2a6 e63d 4ccd 83bd
000002c0: e532 7fbd 267d b53d 7814 883d cf98 b8bd
000002d0: 4b8b 4cbd 9568 c53c 4ef3 36bd ad69 4b3d
000002e0: f012 adbc e5c1 bdbd fa04 b1bd 4b09 8abd
000002f0: 3725 df3d 063e e83d 01bd 213d 6e85 adbd
00000300: df50 973d 515e 40bd 5212 53bd cce3 2dbd
00000310: e4ee ebbd 2ef8 763d a2f8 153c 0839 c93d
00000320: 36ec c8bc 2585 d6bd 2b5f 53bd fec9 5c3d
00000330: d92c b23d 7f82 f2bd 31dd dfbc 7270 403d
00000340: 64ae da3d 2671 613a f052 47bc 32ff d83d
00000350: e212 b6bd 32b6 cabd b263 b63c e8f4 f1bd
00000360: 7ab4 7f3d b619 89bd 0a46 bebd 613e f3bd
00000370: 4df0 b1bd 877c 633d fd2e 3c3d 8e6f 2bbd
00000380: a284 b4bd c17f 0ebd 6aef e63c 705a 8ebd
00000390: d8f2 29bd 33e6 e03d 3938 77bd 6bdb 87bd
000003a0: 8a97 23bd 9305 d4bc 191c da3d cd00 dcbd
000003b0: b597 edbd a335 40bd d1db 0ebd 4c75 97bd
000003c0: 4ada 21bd 8362 493a 9077 f2bd aea5 2e3c
000003d0: a78c 01bd 8f51 afbd 6f16 123d 5895 9ebd
000003e0: a089 12bd 6004 e53d 1ea4 f53c 283a 81bd
000003f0: b5c2 9abd 9922 4e3c 45ff e73c b11a bcbd
0.0882986 -0.05289999 0.054829832 -0.06509084 0.11672674 -0.038900148 0.11624408 0.03082672
0.04924976 -0.086120985 0.06209206 -0.08886473 0.11007655 0.12875578 0.016767265 0.05237753
0.10098412 -0.08968362 0.06779994 -0.0897001 0.10913743 -0.064127184 0.04064266 -0.054840013
-0.058898795 0.1158946 0.010054963 0.046451684 -0.0048894547 0.07483177 0.07502891 -0.08059479
0.016879987 0.0837166 -0.033584103 0.089586414 -0.016818177 0.110462524 -0.012978349 -0.05753192
-0.090040706 0.041438203 0.040854834 0.087396234 0.11935322 -0.10775381 0.034010906 0.1024187
0.100965954 0.049536787 -0.11453513 0.06271257 0.11591485 0.06163964 0.026737401 -0.08784231
-0.080742106 0.030405456 0.0113101555 0.07656948 0.08596589 0.088792585 0.018743241 0.09651447
-0.07225487 0.08983825 0.0068059876 0.07904131 -0.019667465 -0.07039935 -0.0047559747 0.06246819
0.0030363726 0.07914707 -0.08532142 0.024086125 0.07628222 -0.008354166 -0.018267438 -0.059571654
0.02358582 -0.08819902 0.10432058 0.008899036 0.04450506 0.025868978 0.115439825 0.07031613
-0.10224793 0.06675776 -0.06813583 -0.1001232 0.029547056 0.07599436 -0.042934638 -0.013556877
0.11638961 0.014936982 -0.102981284 -0.08058459 0.0068930094 -0.02771727 0.07401529 0.07404123
0.0070121125 -0.1046092 0.11210972 -0.06700694 0.048702016 0.051853515 -0.017616613 -0.093172
0.011913486 -0.016111607 -0.024815107 0.10688551 -0.08960655 0.08405436 -0.07610603 0.06497177
0.061784577 -0.11876412 -0.04685828 -0.0018304342 0.06638702 -0.07691049 0.1103217 0.07712109
0.08392739 0.009375002 -0.028876288 0.11086421 -0.07579477 0.049031872 0.110651396 -0.09230598
-0.008144149 -0.04733778 0.08556452 0.02313812 -0.035338193 -0.06102606 -0.017380258 -0.004381347
-0.10414292 0.017425178 0.062628955 0.06956591 -0.066917814 -0.06367353 -0.027528517 -0.12264585
0.009685544 -0.042326245 -0.07331663 0.09217639 0.03868409 -0.051927637 -0.10222033 0.075778425
-0.0749005 -0.0028169062 0.059605192 -0.010539029 -0.04300488 -0.0927145 -0.10740121 0.103404164
0.059292775 0.09806176 -0.040170286 -0.06694612 0.10776989 0.0056524845 0.11262287 -0.06435642
-0.062304396 0.08861761 0.06644529 -0.09013521 -0.049937528 0.02409772 -0.044665627 0.049661327
-0.021127194 -0.09265498 -0.08643527 -0.06740054 0.1089577 0.11339955 0.03948689 -0.08472715
0.07388472 -0.046964947 -0.051531143 -0.042453572 -0.11520174 0.060295276 0.009153517 0.09825331
-0.024526697 -0.10474614 -0.05160443 0.053903572 0.0869996 -0.118412964 -0.027327152 0.046982236
0.106777936 0.0008599929 -0.01216577 0.1059555 -0.0889032 -0.09898032 0.022264335 -0.1181429
0.062427975 -0.06694357 -0.09290703 -0.11877132 -0.08688412 0.05553868 0.04594325 -0.041854434
-0.0881436 -0.034789804 0.028190333 -0.06950843 -0.04149136 0.10981407 -0.060356352 -0.066336475
-0.03993944 -0.025881564 0.106498905 -0.1074234 -0.116012014 -0.046926152 -0.034877602 -0.073954195
-0.039514817 0.0007682221 -0.11839211 0.010659618 -0.031628277 -0.08560478 0.035665926 -0.07743329
-0.03577578 0.11182475 0.029985484 -0.063099205 -0.07556669 0.012581491 0.028319964 -0.091847785

network_actor.2.bias f4 [70]
00000000: d016 6e3d 41c5 8abd c774 f23c 998c 303d
00000010: 76df 1dbc db67 d93b b9e9 e5bd c407 ecbc
00000020: 45fe e5bd 1fb4 c93d 6951 d4bd 15ec 85bd
00000030: 56e0 da3c bb9f 883d b300 d4bd 20ff 813d
00000040: 6e9d 813d b9eb d63c 906b a5bd c30e 463d
00000050: cfd1 95bd 561e aa3d 956a 65bd 27e3 5f3c
00000060: 4e7c e63d d507 a03d 5c6c f7bd 3b29 b4bc
00000070: 984f abbd 893e 1f3d ec1f 8bbd 4e4b 5d3d
00000080: 4c20 61bd 288a 5a3d b19d 2fbc 5fed 1dbd
00000090: 3542 cc3d 0fca d9bd 4aa9 323d 769f d6bd
000000a0: 8605 773d 0c43 473d 8748 2ebd f8ac 933d
000000b0: d522 923d e2d1 46bd 1c7d ef3d e676 5a3d
000000c0: e300 e63d 6b44 b43d 60e7 253d 4973 97b8
000000d0: ae80 6cbd bb4d 293d 2b3d aa3d 83fe eabd
000000e0: 61d4 abbd 8790 4c3d 8b1b 5ebd 42f8 623c
000000f0: f839 ffbc 180b cb3d febd 4c3b c841 e03d
00000100: e5e8 273d 7c25 ee3d ab02 373d bb51 8b3c
00000110: aef1 a23d 4ce5 f13d
0.058127224 -0.067759044 0.0295967 0.043102834 -0.009635797 0.006634695 -0.1122622 -0.028812297
-0.11230139 0.098488085 -0.1036709 -0.0653917 0.0267183 0.06671091 -0.10351696 0.06347489
0.063288555 0.026235448 -0.080771565 0.04835392 -0.073154084 0.08306567 -0.056009848 0.013664997
0.11254178 0.07813994 -0.12081215 -0.021992316 -0.08364791 0.038877998 -0.06793198 0.054026894
-0.05496244 0.053354412 -0.010718749 -0.038556453 0.099735655 -0.10634243 0.043618478 -0.104796335
0.060308002 0.048647925 -0.042549636 0.072107255 0.0713555 -0.048540004 0.116937846 0.053336047
0.11230638 0.08802112 0.04050386 -7.2217146e-05 -0.057739906 0.041333895 0.08312448 -0.114743255
-0.083901174 0.04994252 -0.054225486 0.013853135 -0.031155571 0.09914225 0.0031241174 0.10950047
0.04099359 0.11628243 0.04468028 0.017006746 0.07956253 0.11811313

network_actor.4.weight f4 [5, 70]
00000000: 3045 0abd 6e71 a43d 5c97 b93d 5360 693d
00000010: c3e3 863d 7d4b 8ebd ac9f a73d 457e 17bd
00000020: fdd1 a03d a1ca 763d da16 c5bb 1df1 9d3d
00000030: 545e 8dbb baed dd3d 26b5 0cbd 46c5 3cbd
00000040: b072 363d b100 ecbd 8276 bc3d 83b8 d83c
00000050: f21f c13c 978f 05be 0d0f febd 7664 cc3c
00000060: 1732 af3d ccf4 3e3d 2517 23bb 8fa3 043e
00000070: c7a5 cbbb f46a c03d a72b 573d 15e9 68bd
00000080: 53fa abbc bef0 933d cc05 e3bc 1e18 e4bc
00000090: 0f79 0e3d be8e 893d 952c 41bd 69c9 083c
000000a0: c1af 01be 6e74 cdbd e1d1 55bc 5502 8e39
000000b0: ccbd 7e3d 686f 683d 53a1 fc3a 706f ea3c
000000c0: 9730 87bd 5afe 3a3d c213 13bc 3f5d 4c3d
000000d0: 9a77 7d3d 0de0 c3bd 55d6 efbd 1c39 aebd
000000e0: c993 85bd 5c31 5cbd 26d7 10bd 6c65 f23d
000000f0: 53ab ce3d 388d 973d 7bff f0bd e1a8 943d
00000100: 2856 863d 8a3f 813c 714a cc3c e188 d13d
00000110: 8bb7 983d 97f6 1dbd eb6e 77bd b8d4 c93c
00000120: 0c2a e93d 5b50 c03d 9fb0 90bd 0673 a73d
00000130: a52c 4e3d 2de4 e3bd ec5b 99bd 60b7 023d
00000140: e42f e73c b2f4 34bd d971 153d 0bfa eb3d
00000150: 3616 febc 2685 e2bb a73f b83d 8ce6 24bc
00000160: 2a86 b9bc f518 3e3c 4e38 bcbd e328 a43d
00000170: dce6 dfbc ae37 d93d 849e a2bd d525 053b
00000180: 5e3c 7d3d 7d9e 9f3d 28b6 a03d b2c9 76bd
00000190: 4908 423d bad5 2a3d d4cf 25bc d13e 50bd
000001a0: 86d9 69bd 6f53 203d 1574 8d3d 79a3 3cbd
000001b0: 3161 c03d 5d8e 603d a340 6fbd ec8f 943c
000001c0: 1185 2a3d 3b79 a53c 4c42 253d 35a6 ad3d
000001d0: 5135 46bd 3ac5 a3be 5974 d8bd 0c57 523d
000001e0: b549 35bd 2d20 eb3d e11a aebc 88fb 153d
000001f0: c097 33bd 2ae7 b93d 9d6e c83d af60 8fbd
00000200: 408c cdbd fdbe 94bc a67e f13d 23f7 713d
00000210: ed0a 743d ca48 acbd b168 ab3d f9af c33c
00000220: a89e 1f3d 89b8 b23d 0672 abbd abeb debd
00000230: f3f1 87ba bcfb 8b3c 3b9b 913d 532e c63d
00000240: 3ad2 e53d 3c17 533d e893 d6bb 739d 96bd
00000250: cd10 abbd 20eb c2bc 7bfd 8a3d 5023 c73d
00000260: 9b1c b5bd e830 ec3d f52a 863c e648 183b
00000270: 8043 90bd fade ea3d 100b 983d 7d9a a7bc
00000280: df89 b6bb 9d29 86bd c59d c33d 04cd 5cbc
00000290: 5a9c 20bd f503 953d 4d08 af3d e35e 0dbd
000002a0: 6e20 94bd 3ca0 d8bd e04a 01be 258d 9fbd
000002b0: 7a5c 8e3d abf9 9bbd e5dd d43d 93a2 b0bc
000002c0: 56be e4bd 69e5 223c 0711 87bd cff4 753c
000002d0: 5bfa 9fbd b599 1f3d 033e 993d fbce 72bd
000002e0: be7b 9f3d 3bbb 943d c6e5 a43d 336b 90bd
000002f0: 223e cbbd 2701 e0bd 3702 a6bd 2941 213d
00000300: 80e7 e6bd 9ee9 cebc 6029 82bd 4866 90bd
00000310: 33ce b1bc a173 6abd 7a26 8abd 195a e73d
00000320: 77b6 0e3d 775e 303d 936d d93d a9ac 3a3d
00000330: 60bf b03d 1e7f 873d fa3d a5bb 5150 553d
00000340: 7599 50bd 2065 cdbc fac4 f03a 9936 b23d
00000350: 94a5 c6bd 1941 f03d 05bd 52bd c996 d2bd
00000360: dfbf cdbd 8831 d83d f4e5 48bc 6e4b 9c3d
00000370: 56ff bd3c 5b07 673d 2437 9f3d 9f5d 473d
00000380: 843d d4bd 6a55 7a3d 750a e3bd 862f 993c
00000390: cef8 d4bc 8a3f 933b f498 51bd be06 dd3b
000003a0: 6985 3fbd 9139 8ebc 4d1c de3d a2c0 ca3c
000003b0: 58e3 abbd 84bb 8ebd e7f7 623d 86e9 093d
000003c0: 490b a6bd 6f6a a9bd 8d6a e6bd f946 a53a
000003d0: c7f4 7b3d 1d57 163b 9dd4 183b d8e1 643d
000003e0: 8d60 0ebe 9ffc 03bd e34e a33b faea 543d
000003f0: 53cd e9bd 6974 71bd 91e0 ef3d a373 9fbd
-0.03375739 0.080294475 0.09062073 0.056976628 0.06586411 -0.06947992 0.08184752 -0.036985654
0.07852552 0.060251836 -0.006014687 0.07712004 -0.0043142233 0.10836358 -0.034352444 -0.046086572
0.04454297 -0.115235694 0.09202291 0.02645517 0.023574803 -0.13043056 -0.124052145 0.024950247
0.08554476 0.046620175 -0.0024885621 0.12953018 -0.0062148306 0.093954 0.052531864 -0.05686291
-0.020993387 0.07223652 -0.027712725 -0.027843531 0.03478342 0.06716679 -0.047161657 0.008348801
-0.12664701 -0.10031973 -0.013050527 0.00027086088 0.062192723 0.05674687 0.0019274153 0.02861759
-0.06601065 0.045652725 -0.008976879 0.049893614 0.06188164 -0.09564219 -0.117108025 -0.085069865
-0.065223284 -0.05375801 -0.03536143 0.11835751 0.10091271 0.07399982 -0.11767479 0.072587736
0.06559402 0.015777368 0.02493784 0.10231186 0.07456883 -0.038565245 -0.060408514 0.024637565
0.11384973 0.093903266 -0.07064938 0.08176236 0.050335545 -0.111275055 -0.07488236 0.03191316
0.028221078 -0.044178672 0.036485527 0.11522301 -0.03101645 -0.006912845 0.08996516 -0.010064732
-0.022646982 0.01160263 -0.09190427 0.08015611 -0.027331762 0.10606323 -0.07940391 0.002031674
0.06182515 0.07793901 0.078472435 -0.060250945 0.047371183 0.04170773 -0.010120351 -0.050841156
-0.057092212 0.03914207 0.069069065 -0.046054337 0.09393538 0.05482327 -0.05841125 0.018135034
0.04163081 0.020199409 0.04034643 0.08478967 -0.04839069 -0.3198641 -0.105690666 0.051352546
-0.044259746 0.114807464 -0.021253051 0.036616832 -0.043845892 0.09077294 0.09786723 -0.07000863
-0.10036516 -0.018157477 0.117917344 0.05907358 0.059580732 -0.08412321 0.08369578 0.023887621
0.038969666 0.087266035 -0.083713576 -0.10884794 -0.0010371789 0.01708781 0.07109686 0.096768044
0.11221738 0.05153583 -0.0065483935 -0.0735425 -0.08352814 -0.023793757 0.06786629 0.09723532
-0.08843347 0.115327656 0.016377905 0.002323681 -0.070441246 0.11468311 0.07423985 -0.020459408
-0.0055706347 -0.06550906 0.095515765 -0.013476614 -0.03921161 0.07276145 0.08546505 -0.03451432
-0.07232748 -0.10577437 -0.12626219 -0.07790593 0.06951232 -0.0761598 0.103938855 -0.021561896
-0.11169116 0.009942391 -0.065950446 0.01501198 -0.078114234 0.038964946 0.07482531 -0.059279423
0.07787274 0.07262274 0.08051638 -0.07051697 -0.0992396 -0.1093772 -0.08105891 0.039368782
-0.11274624 -0.025257882 -0.06355548 -0.070507586 -0.021704769 -0.05723918 -0.0674562 0.11296482
0.03484198 0.04305884 0.10616603 0.045574818 0.08630252 0.066160426 -0.0050427886 0.05207855
-0.050927598 -0.025072634 0.001836925 0.0870182 -0.0969955 0.117311664 -0.051449794 -0.10282666
-0.10046362 0.10556322 -0.012261856 0.076315746 0.023193043 0.0564035 0.07774189 0.04867327
-0.10363296 0.061116613 -0.11085979 0.018699419 -0.025997546 0.0044936584 -0.051171258 0.0067451885
-0.04675809 -0.017361434 0.10845242 0.024750058 -0.08392972 -0.069693595 0.0554122 0.03366997
-0.08107621 -0.08272254 -0.11250792 0.0012609652 0.061512735 0.0022940107 0.0023320087 0.055879444
-0.13904019 -0.03222334 0.0049837693 0.051981904 -0.114161156 -0.058948908 0.117127545 -0.07785728

network_actor.4.bias f4 [5]
00000000: 5f71 d23d 9325 d6bd 57f1 1d3d 0edc a3bd
00000010: c8f1 c43d
0.1027553 -0.104563855 0.038560238 -0.080009565 0.096164286
