checkpoint/ddpg-actor_mlp_actor-lr:0.0001_critic-lr:0.0003_gamma:0.99_tau:0.02.pth (torch, 63063 bytes, 6 tensors)

network_actor.0.weight f4 [70, 140]
-0.019500677 0.6169462 -0.040389907 -0.10980637 -0.0023633447 -0.02416865 -0.1222248 0.04050725
-0.048612922 -0.10785805 0.13636094 -0.0026205962 -0.08869774 0.05912506 -0.019413283 0.0041467655
0.0039437776 0.06858065 -0.189479 0.06480046 0.086039424 0.052731343 -0.64082175 0.21532205
-0.08082783 -0.046362888 -0.032211795 -0.062388837 0.04522432 0.56807315 0.086719505 -0.062523626
-0.011575922 0.017910413 -0.12113051 0.09533542 0.05231245 -0.08789245 0.050460145 0.10608075
0.011039155 -0.06598757 0.02190258 -0.03350107 0.0013360926 0.044962592 -0.1846378 -0.050906207
0.32100874 -0.018808266 0.4434071 0.11700958 -0.095642 -0.08259361 0.10926118 -0.023335654
-0.053620595 0.5404755 -0.07893873 -0.12942494 -0.057568345 0.070758246 -0.0019144134 0.08448509
0.062206566 0.03422411 0.10146413 0.07870644 0.053616215 0.0540619 -0.07671901 -0.04132069
0.07879805 0.009982795 -0.15441625 0.035395276 0.13746955 0.098933026 0.29339096 0.06234239
-0.061197404 -0.07899387 -0.018779742 0.0031923181 0.0045873593 0.62264544 0.057099767 -0.122106135
0.036345728 -0.095139965 -0.0006394315 0.06745165 0.013350622 -0.059803866 0.0775604 0.090325944
-0.016840173 -0.007693583 -0.07506684 0.0072402796 0.05105439 0.06847202 -0.10950857 -0.04948694
-0.15910146 0.028694829 -0.4745014 -0.1778229 -0.03060635 -0.069223516 -0.03855719 0.014117188
-0.039682884 0.5844825 0.05478176 -0.12626952 -0.07352598 -0.09503589 -0.028096752 0.11533963
0.07669897 0.014572562 0.123985484 0.11778108 0.035945605 -0.023488302 0.04062503 0.0772306
-0.023919487 -0.021101449 -0.15658835 -0.06225971 -0.08247437 0.03240205 0.17099983 0.055326704
-0.10390278 0.019588405 0.04642284 -0.00792549 -0.05793541 0.23200646 -0.0051025567 -0.09190687
0.009027108 -0.01831668 0.0360806 -0.08475078 0.023830075 -0.013613741 -0.027339796 -0.011483945
-0.12475449 0.043563742 -0.03843626 -0.023152255 0.004678956 -0.08254094 0.033063482 -0.06259913
0.18467493 -0.0016482135 0.3000668 0.5611564 0.0053129406 0.011055076 0.007374201 -0.0153507665
-0.069657244 0.15967692 -0.04150027 -0.057793036 -0.052932 -0.11529766 -0.09295023 -0.09717637
-0.020661186 -0.055154316 -0.09032755 -0.043479167 0.00645397 0.08616153 0.011958899 -0.07579704
0.030062074 0.0511439 0.09754499 -0.09508167 -0.06986568 -0.004589295 0.17225388 0.29993075
-0.1573537 0.009289585 0.012424843 -0.00027187917 -0.03932988 0.18051602 0.040579513 -0.12516414
-0.046372116 -0.07921222 -0.04756332 -0.08882447 0.022382809 -0.045346357 -0.0519529 -0.0051400377
-0.0025671672 0.09668653 0.062165156 -0.052358795 0.074577324 -0.11017332 0.12194865 -0.05340011
-0.3751364 -0.07698767 -0.2526873 -0.37713957 -0.01997407 -0.020708393 -0.019802509 -0.06958997
0.011925155 0.15606344 -0.11176262 -0.07547244 0.005656182 -0.062461957 0.02742093 -0.06380613
0.012286637 -0.021734158 -0.102340184 0.049599763 -0.09036995 0.07808096 0.04492795 -0.03624305
0.094714105 -0.09776606 0.09189046 0.0104426015 0.07924598 -0.022876382 0.17286244 0.035579335
-0.14363627 -0.08363345 -0.0793811 -0.014177701 -0.12905923 0.28179246 -0.058878906 -0.060439188
00000000: e2bf 9fbc 30f0 1d3f e36f 25bd 2ae2 e0bd
00000010: 58e2 1abb 55fd c5bc ff50 fabd eeea 253d
00000020: 581e 47bd aee4 dcbd 34a2 0b3e 4fbe 2bbb
00000030: 29a7 b5bd 1e2d 723d 9b08 9fbc 97e1 873b
00000040: ce3a 813b 0374 8c3d c806 42be 1bb6 843d
00000050: 7035 b03d d2fc 573d e50c 24bf 627d 5c3e
00000060: 1089 a5bd 03e7 3dbd 84f0 03bd 708b 7fbd
00000070: 233d 393d 3e6d 113f ff99 b13d 630c 80bd
00000080: f0a8 3dbc dcb8 923c 4613 f8bd 373f c33d
00000090: 9445 563d f500 b4bd 4caf 4e3d dd40 d93d
000000a0: 92dd 343c 7e24 87bd 0a6d b33c 6b38 09bd
000000b0: d41f af3a b22a 383d b111 3dbe 0783 50bd
000000c0: 425b a43e cb13 9abc 4106 e33e b8a2 ef3d
000000d0: f4df c3bd d726 a9bd 53c4 df3d 6a2a bfbc
000000e0: 45a1 5bbd 9a5c 0a3f a1aa a1bd f987 04be
000000f0: c9cc 6bbd b3e9 903d 0eed faba 8506 ad3d
00000100: 50cc 7e3d 952e 0c3d 6dcc cf3d d830 a13d
00000110: ad9c 5b3d 0370 5d3d db1e 9dbd e23f 29bd
00000120: df60 a13d e18e 233c 4b1f 1ebe a3fa 103d
00000130: d1c4 0c3e 669d ca3d 5737 963e bc5a 7f3d
00000140: 21aa 7abd 8ac7 a1bd f9d7 99bc 3636 513b
00000150: 8f51 963b b165 1f3f 72e1 693d c812 fabd
00000160: 42df 143d bed8 c2bd 869f 27ba 1724 8a3d
00000170: 91bc 5a3c e6f4 74bd fdd7 9e3d cffc b83d
00000180: 67f4 89bc 741a fcbb a5bc 99bd de3f ed3b
00000190: 681e 513d 0f3b 8c3d 0746 e0bd d1b2 4abd
000001a0: 7eeb 22be 6b11 eb3c d9f1 f2be 3517 36be
000001b0: 2bba fabc 0fc5 8dbd 25ee 1dbd c74b 673c
000001c0: 858a 22bd a5a0 153f d762 603d cc4c 01be
000001d0: ca94 96bd 2da2 c2bd 292b e6bc 2f37 ec3d
000001e0: 5914 9d3d c1c1 6e3c 1aec fd3d 3537 f13d
000001f0: b33b 133d 8a6a c0bc 6e66 263d 142b 9e3d
00000200: cdf2 c3bc f2dc acbc b258 20be 0a04 7fbd
00000210: 53e8 a8bd 03b8 043d 941a 2f3e 419e 623d
00000220: fbca d4bd dd77 a03c e025 3e3d ead9 01bc
00000230: ae4d 6dbd 1a93 6d3e 5933 a7bb ab39 bcbd
00000240: 6fe6 133c dd0c 96bc 40c9 133d d191 adbd
00000250: 4a37 c33c 2b0c 5fbc b5f7 dfbc 2827 3cbc
00000260: 487f ffbd e56f 323d 576f 1dbd cca9 bdbc
00000270: ed51 993b 390b a9bd 936d 073d f933 80bd
00000280: 6d1b 3d3e de08 d8ba 5ba2 993e f2a7 0f3f
00000290: 2d18 ae3b 5920 353c 48a3 f13b c881 7bbc
000002a0: 75a8 8ebd 5982 233e 30fc 29bd 64b8 6cbd
000002b0: 3acf 58bd 2e21 ecbd b15c bebd 6804 c7bd
000002c0: a641 a9bc 7ee9 61bd a7fd b8bd 3617 32bd
000002d0: d37b d33b 7575 b03d 42ef 433c 7a3b 9bbd
000002e0: bd44 f63c 447c 513d abc5 c73d 2eba c2bd
000002f0: bd15 8fbd cc61 96bb 5263 303e 8690 993e
00000300: 5421 21be 5833 183c 9291 4b3c 018b 8eb9
00000310: 5e18 21bd 31d9 383e b436 263d 072b 00be
00000320: b0f0 3dbd 043a a2bd c1d1 42bd 9be9 b5bd
00000330: 275c b73c 1abd 39bd 90cc 54bd c36d a8bb
00000340: eb3d 28bb 9603 c63d e4a0 7e3d 2d76 56bd
00000350: ffbb 983d 8da2 e1bd 37c0 f93d 13ba 5abd
00000360: e111 c0be b6ab 9dbd 3b60 81be 7018 c1be
00000370: a9a0 a3bc a6a4 a9bc df38 a2bc 3085 8ebd
00000380: ba61 433c 18cf 1f3e cde3 e4bd 4b91 9abd
00000390: 7e57 b93b 1cd8 7fbd dca1 e03c caac 82bd
000003a0: e44d 493c d50b b2bc bb97 d1bd 1f29 4b3d
000003b0: e113 b9bd e9e8 9f3d 5f06 383d 9873 14bd
000003c0: 78f9 c13d 9239 c8bd 1131 bc3d 7217 2b3c
000003d0: b74b a23d 4067 bbbc da02 313e a3bb 113d
000003e0: 6315 13be 0448 abbd 8f92 a2bd 9749 68bc
000003f0: 1a28 04be 1a47 903e 022b 71bd 158f 77bd

network_actor.0.bias f4 [70]
0.06765762 -0.09247597 -0.003928848 -0.13600856 0.07452512 -0.05728777 -0.024194911 0.038501725
-0.012016283 -0.09160857 0.08110007 -0.0028571817 0.119007826 -0.034207154 -0.081922315 0.031274922
-0.022608053 -0.06933193 0.10050619 -0.088733755 0.06301922 -0.097004704 -0.03384646 -0.069748424
-0.059622753 -0.05098145 -0.05572989 0.017886061 0.075992756 -0.009021871 0.021746958 0.020301273
0.09994658 -0.040201765 0.10287448 -0.06375181 -0.07205763 -0.07777129 -0.04898143 0.12229922
0.048835773 0.0047906046 0.04287602 -0.039416805 0.009398868 0.031293396 -0.0040530325 -0.049122427
0.034350745 -0.062474556 -0.027878966 -0.06536969 -0.07033011 0.025162447 0.09216457 0.010684707
-0.020391932 -0.07486455 -0.02134072 -0.008278871 -0.08404742 -0.09909278 -0.061797947 -0.037827667
0.061539307 -0.10620647 0.084925875 0.07126677 -0.058834665 0.06250377
00000000: 1490 8a3d 0b64 bdbd 91bd 80bb d445 0bbe
00000010: a0a0 983d 95a6 6abd 6834 c6bc fcb3 1d3d
00000020: f2df 44bc 469d bbbd cb17 a63d 8e3f 3bbb
00000030: 60ba f33d cd1c 0cbd e3c6 a7bd 221a 003d
00000040: 8634 b9bc e6fd 8dbd 30d6 cd3d 0bba b5bd
00000050: 3910 813d 67aa c6bd 96a2 0abd 43d8 8ebd
00000060: fd36 74bd edd1 50bd 0645 64bd ca85 923c
00000070: 17a2 9b3d 78d0 13bc ad26 b23c db4e a63c
00000080: cbb0 cc3d 9baa 24bd dbaf d23d 4f90 82bd
00000090: f392 93bd 8e46 9fbd c0a0 48bd 0378 fa3d
000000a0: 0508 483d 81fa 9c3b c49e 2f3d 8473 21bd
000000b0: b6fd 193c 812d 003d 4dcf 84bb 9934 49bd
000000c0: 5eb3 0c3d 52e5 7fbd 6e62 e4bc 8be0 85bd
000000d0: 3c09 90bd 7a21 ce3c c7c0 bc3d e90e 2f3c
000000e0: fb0c a7bc 9652 99bd bcd2 aebc 1aa4 07bc
000000f0: 0e21 acbd 28f1 cabd d81f 7dbd 2ff1 1abd
00000100: a410 7c3d c782 d9bd 9eed ad3d 50f4 913d
00000110: 9efc 70bd fa01 803d

network_actor.2.weight f4 [70, 70]
-0.08704396 0.030382657 -0.03837469 0.05039325 -0.10089242 -0.06043151 -0.08961508 0.011935106
0.06427313 0.05632604 0.015017365 0.039193746 -0.11054764 0.019430812 -0.08896524 0.08960588
0.05557567 -0.12573867 0.05198142 -0.15504147 -0.06890792 -0.041676056 -0.11001454 -0.072403856
-0.19925356 -0.099187195 -0.06337153 -0.034716967 -0.10804323 0.053680927 -0.11759004 0.075603865
-0.17138164 0.05285581 -0.17828657 0.02472621 0.060530048 -0.113373965 -0.11575292 -0.11147714
0.019730588 0.04149978 0.07397809 0.024134388 0.12326047 -0.11437641 -0.0132115325 -0.03314971
-0.0878432 0.09271123 -0.048755098 0.07236497 0.025385909 -0.24143092 -0.011356401 -0.058801282
-0.09747441 0.021269644 -0.066600345 -0.13474932 -0.06372665 0.0719321 -0.08584999 -0.095457084
-0.021198845 -0.07204894 -0.099910356 0.10244753 0.14431295 0.15011473 -0.054200646 0.07717565
-0.073294036 0.010847175 0.018333947 0.070331246 -0.079145275 0.011179539 -0.30512017 -0.052527755
-0.042045042 -0.050168183 0.010766375 0.08175899 -0.12520424 0.031126259 0.063286 0.040925022
0.02955045 0.07465989 0.068303615 0.018755164 0.05641807 -0.25046778 -0.008202004 0.034720596
0.11725246 0.05384516 0.057190936 -0.05020376 -0.10188846 -0.09311424 0.115969345 -0.20525248
0.15409078 -0.11169396 0.15695488 0.030469714 0.012860728 0.1745842 -0.04517418 -0.09444327
-0.008789884 0.03075681 0.022459041 0.11126058 0.012901272 0.0036169353 -0.011677841 -0.06613377
0.10400566 -0.051165912 -0.11654437 0.0817218 0.09158066 -0.075031295 0.07626437 -0.0050553554
0.16789047 -0.06945374 -0.061349697 -0.034435827 -0.047078192 0.051195573 -0.060305152 -0.0426976
0.1402283 0.005973681 -0.13257158 -0.058956653 -0.013406286 -0.06300016 0.15594481 -0.045517802
0.04412731 -0.031509526 -0.025433332 0.07510295 0.115529634 0.038817246 0.049692094 -0.13110876
-0.0053788507 0.00076167623 0.014504183 -0.06702362 -0.050104972 0.059730157 -0.022549553 0.21567781
0.03021023 0.04638422 0.008888376 -0.20441428 -0.09147063 -0.043407295 -0.08767054 -0.06449178
0.10514002 -0.0017885492 0.21209115 -0.035026472 -0.060812026 -0.020383801 0.26878324 -0.005608324
0.1019519 -0.015896177 -0.16230004 0.009903732 -0.039642643 -0.11999059 0.16308758 -0.028760092
-0.006692911 0.03944825 -0.10106783 0.11272353 -0.02228824 -0.10559845 0.02702019 0.09583591
-0.15527219 0.091358565 -0.0037678604 0.022098428 0.13498504 -0.04225075 -0.050976995 0.008063454
0.117661335 0.012942465 -0.09124282 0.00971909 -0.070337325 -0.057426535 -0.072011776 0.09614118
0.04245206 0.17885053 -0.056267105 -0.005465615 -0.34792185 -0.0076206424 -0.08026857 -0.033531
0.10640964 -0.031095829 -0.20384106 -0.14056696 -0.040193234 -0.010050838 -0.05808042 0.03637402
-0.08942767 -0.094454825 0.094340004 -0.09377201 -0.023937376 -0.04065505 0.0066210655 0.009928326
0.11601184 -0.09334241 0.020670677 -0.07025539 0.08890722 -0.10103457 0.023340248 0.13078395
-0.094639786 0.12350207 -0.037784215 0.048816413 -0.21205704 0.14600895 -0.073555805 -0.08611483
0.009051461 0.08579751 0.023360644 0.14100106 -0.08258859 0.118853964 0.06193042 -0.041071806
00000000: 1b44 b2bd 0de5 f83c c72e 1dbd 2769 4e3d
00000010: afa0 cebd 0887 77bd 1c88 b7bd 768b 433c
00000020: a1a1 833d 22b6 663d 650b 763c 9f89 203d
00000030: cd66 e2bd 5e2d 9f3c 6833 b6bd 4a83 b73d
00000040: 50a3 633d a3c1 00be 78ea 543d 31c3 1ebe
00000050: 981f 8dbd 83b4 2abd 4e4f e1bd 7948 94bd
00000060: 2009 4cbe a822 cbbd efc8 81bd 6133 0ebd
00000070: c545 ddbd 88e0 5b3d 0cd3 f0bd 33d6 9a3d
00000080: ab7e 2fbe 557f 583d c190 36be 9f8e ca3c
00000090: 5bee 773d 9c30 e8bd de0f edbd 204e e4bd
000000a0: 0ba2 a13c acfb 293d d381 973d 7bb5 c53c
000000b0: fc6f fc3d 2e3e eabd 2f75 58bc fec7 07bd
000000c0: 23e7 b3bd 63df bd3d 6db3 47bd 1634 943d
000000d0: 1cf6 cf3c ab39 77be 3310 3abc 9dd9 70bd
000000e0: aaa0 c7bd ad3d ae3c c365 88bd bafb 09be
000000f0: 1e83 82bd 2351 933d 1fd2 afbd 017f c3bd
00000100: 33a9 adbc 658e 93bd cd9d ccbd 03d0 d13d
00000110: c6c6 133e adb7 193e 7f01 5ebd 440e 9e3d
00000120: 2f1b 96bd 59b8 313c 1331 963c d409 903d
00000130: eb16 a2bd 632a 373c b638 9cbe 5827 57bd
00000140: 6c37 2cbd 277d 4dbd 7365 303c 4271 a73d
00000150: 8a35 00be 7ffc fe3c 179c 813d ffa0 273d
00000160: c913 f23c 49e7 983d c4e2 8b3d 6ea4 993c
00000170: a216 673d 503d 80be b361 06bc 2f37 0e3d
00000180: 0f22 f03d be8c 5c3d 0b41 6a3d 75a2 4dbd
00000190: e6aa d0bd aeb2 bebd 5681 ed3d b52d 52be
000001a0: f9c9 1d3e cebf e4bd c8b8 203e 9f9b f93c
000001b0: ceb5 523c 33c6 323e 9008 39bd 796b c1bd
000001c0: 7203 10bc b5f5 fb3c 06fc b73c 96dc e33d
000001d0: db5f 533c 1b0a 6d3b 6a54 3fbc 2471 87bd
000001e0: eb00 d53d 5993 51bd d1ae eebd c25d a73d
000001f0: a48e bb3d 02aa 99bd 7e30 9c3d 65a7 a5bb
00000200: 7beb 2b3e c33d 8ebd d249 7bbd 950c 0dbd
00000210: 10d5 40bd 73b2 513d 8902 77bd aee3 2ebd
00000220: 0298 0f3e debe c33b d8c0 07be 887c 71bd
00000230: 0aa6 5bbc 3a06 81bd ffaf 1f3e e070 3abd
00000240: d7be 343d 2210 01bd 9059 d0bc 93cf 993d
00000250: cd9a ec3d d5fe 1e3d f089 4b3d 6041 06be
00000260: 1241 b0bb 3aab 473a f4a2 6d3c ae43 89bd
00000270: df3a 4dbd 9ca7 743d d7b9 b8bc a5da 5c3e
00000280: 727b f73c 61fd 3d3d 8da0 113c fa51 51be
00000290: f454 bbbd d9cb 31bd 9d8c b3bd 4414 84bd
000002a0: a753 d73d c16d eaba 6c2e 593e eb77 0fbd
000002b0: 0816 79bd eefb a6bc f59d 893e 08c6 b7bb
000002c0: 28cc d03d b338 82bc fb31 26be 4343 223c
000002d0: 5360 22bd a0bd f5bd 6e00 273e 499a ebbc
000002e0: 3550 dbbb 7d94 213d a7fc cebd 98db e63d
000002f0: d495 b6bc 0044 d8bd 7259 dd3c 9e45 c43d
00000300: acff 1ebe 331a bb3d 35ee 76bb c307 b53c
00000310: 8539 0a3e 1f0f 2dbd 41cd 50bd 941c 043c
00000320: 6df8 f03d a20c 543c 84dd babd d13c 1f3c
00000330: 040d 90bd 1638 6bbd e97a 93bd abe5 c43d
00000340: 36e2 2d3d 9824 373e 5678 66bd e718 b3bb
00000350: d022 b2be 95b6 f9bb d963 a4bd cd57 09bd
00000360: 4ced d93d aebc febc b6bb 50be c9f0 0fbe
00000370: a9a1 24bd 45ac 24bc bce5 6dbd edfc 143d
00000380: db25 b7bd 8871 c1bd 5535 c13d 8a0b c0bd
00000390: 5118 c4bc e985 26bd 86f5 d83b 6baa 223c
000003a0: 9e97 ed3d 4e2a bfbd 8d55 a93c 0fe2 8fbd
000003b0: fd14 b63d 36eb cebd 0c34 bf3c 3aec 053e
000003c0: 81d2 c1bd a7ee fc3d 9fc3 1abd b8f3 473d
000003d0: 7b25 59be 5f83 153e 6da4 96bd f95c b0bd
000003e0: 944c 143c 9bb6 af3d d25e bf3c 9562 103e
000003f0: 3524 a9bd b569 f33d c1aa 7d3d e93a 28bd

network_actor.2.bias f4 [70]
-0.07479459 -0.03116256 0.02530484 -0.119710974 0.110057496 0.11110327 0.084337324 -0.07799501
0.07779137 0.15574707 -0.13641027 0.09149263 0.07530867 0.08596937 0.022155428 0.010634232
-0.05873399 -0.04375636 0.12637565 -0.01384467 -0.006586305 0.049141087 0.079694 -0.017650267
-0.08583626 0.06818229 0.040589977 -0.028095035 0.07898644 -0.038757972 -0.0065303496 0.030212747
0.04488244 0.011216204 0.009559571 -0.03213229 -0.10235561 -0.020705467 -0.09320389 -0.07967272
0.11441192 0.031203358 0.028243206 -0.027996218 0.07988373 0.049190752 -0.0055514104 0.04594809
0.047411226 0.047758326 -0.042666312 0.023932513 -0.05680987 -0.024655087 -0.085647 -0.10125286
-0.1226407 0.12480713 -0.041727807 -0.10476553 -0.008231393 -0.0076692435 0.06860289 -0.064324886
-0.067948714 -0.078617975 0.026731009 -0.08618523 0.030886142 0.15369786
00000000: e82d 99bd a048 ffbc 194c cf3c 072b f5bd
00000010: d365 e13d 1c8a e33d 0cb9 ac3d d9bb 9fbd
00000020: 1551 9f3d 297c 1f3e 22af 0bbe 7d60 bb3d
00000030: 6f3b 9a3d b610 b03d 4d7f b53c 343b 2e3c
00000040: 0d93 70bd de39 33bd 9e68 013e c1d4 62bc
00000050: eed1 d7bb 2a48 493d 9c36 a33d 4b97 90bc
00000060: ecca afbd 28a3 8b3d ad41 263d 8f27 e6bc
00000070: a5c3 a13d aec0 1ebd 8bfc d5bb b980 f73c
00000080: a6d6 373d 2bc4 373c bf9f 1c3c 269d 03bd
00000090: d19f d1bd 839e a9bc aee1 bebd 732b a3bd
000000a0: cc50 ea3d 2f9e ff3c 4c5e e73c 5358 e5bc
000000b0: 159a a33d 3e7c 493d 9be8 b5bb 1034 3c3d
000000c0: 4632 423d 3c9e 433d dfc2 2ebd 1e0e c43c
000000d0: 77b1 68bd 77f9 c9bc b267 afbd a95d cfbd
000000e0: 0c2b fbbd e19a ff3d c7ea 2abd 4f8f d6bd
000000f0: f7dc 06bc 474e fbbb ac7f 8c3d c4bc 83bd
00000100: b228 8bbd 7602 a1bd fdfa da3c e281 b0bd
00000110: ef04 fd3c f962 1d3e

network_actor.4.weight f4 [5, 70]
-0.20106849 0.1983922 0.023152126 -0.08595891 0.06862336 -0.012560111 0.13435239 -0.12882712
-0.25846073 0.09474214 -0.009118257 0.14416476 -0.25300637 -0.20592606 -0.28420278 -0.25567102
-0.0146021 0.23032363 0.34722927 -0.2784014 -0.11098782 0.21436872 0.02274526 -0.16184029
0.10037475 -0.090629965 -0.15206482 0.0029012493 -0.22069706 -0.21319178 -0.24938788 0.003017357
0.0867111 -0.040299993 -0.11572298 0.05615253 -0.08995079 -0.17519252 -0.10899311 0.047633916
0.18468949 -0.033984277 0.30243337 -0.08163414 0.15384161 0.13367689 -0.08954009 0.044136595
0.18849976 0.057937123 0.08543305 0.20104678 -0.15607454 0.10611818 -0.032283742 -0.08178767
-0.1942847 0.010610986 0.17328417 -0.19211335 0.0043711946 0.17161265 -0.07399873 0.010530839
-0.15563945 -0.1222992 0.23225823 0.039914917 -0.0055690994 0.29195794 0.089212336 -0.24290678
-0.18165405 0.094429 0.02460647 -0.15788287 0.123714715 -0.38451874 -0.21804865 -0.120082475
-0.043047883 0.070505805 0.08956738 0.1334664 0.07577436 -0.13678746 0.20285107 -0.034840625
-0.057639774 -0.115030274 -0.108738646 0.008497065 -0.091010265 0.11372011 -0.12943263 -0.12655559
-0.074926935 -0.10698245 -0.015548786 0.0036232185 -0.11013322 -0.004527607 -0.023460234 -0.094990715
-0.074899405 0.08469864 -0.13612226 0.13590021 -0.087481484 0.14988449 0.055943985 -0.030263042
0.22946729 -0.015504888 -0.061167207 -0.26220667 0.16575326 -0.1975949 -0.06452387 0.1816021
0.08824769 -0.052604407 -0.015040685 -0.0045095095 -0.004757543 -0.16227908 -0.1455884 0.08149246
0.18323213 0.0016420507 0.21460237 0.17324875 -0.28215238 -0.0892025 -0.06381552 0.1314774
-0.08236054 0.05914462 0.07250916 -0.09493934 0.012409653 -0.12908125 -0.34344268 -0.09451652
-0.1111324 -0.08623389 0.037254445 -0.10245146 0.10351409 -0.17154482 0.09330066 -0.195463
0.13547267 -0.027312465 0.08783366 0.21072666 0.25966638 0.17395051 -0.20357549 -0.09238764
0.07028458 -0.1442402 -0.24556217 0.05638274 0.008721913 -0.15554886 -0.06668645 -0.06455986
-0.027755447 -0.05767256 -0.24761933 0.12291097 -0.03943772 0.09956866 -0.017594803 0.0019015761
-0.050566893 -0.20508038 0.0111062825 -0.042755306 -0.14850432 0.0471107 -0.098361135 -0.12951507
0.17761925 -0.48362365 -0.23593174 0.012720134 -0.059382807 0.0015108876 -0.08381568 0.18334724
-0.1249206 -0.15276493 -0.10543866 0.029974163 -0.0008182469 -0.17831464 0.02249245 -0.23410468
0.017875107 -0.11988425 0.09987201 -0.0039981045 0.12018654 0.16406038 -0.21462633 0.10838766
-0.13098545 -0.2301299 0.108402885 0.16972855 -0.0538493 0.10858084 0.10811305 -0.07847624
0.09597017 -0.11325109 -0.3189335 -0.098588146 -0.14182237 0.11742388 -0.08306796 0.1506085
-0.025595175 -0.48193106 -0.22665659 -0.0947772 -0.17292285 0.1759206 0.043901615 -0.17862953
0.14921275 -0.20034225 -0.05283733 -0.009336057 -0.10373678 0.06162589 -0.1495458 -0.033508096
-0.1776939 0.19920792 0.05282378 -0.077920794 0.03663798 0.08686715 0.111090645 0.16257533
-0.04563156 0.106097646 -0.08509533 0.165482 0.07070752 -0.23361705 -0.17619136 0.20377667
00000000: e6e4 4dbe 5327 4b3e 87a9 bd3c 3a0b b0bd
00000010: 678a 8c3d ecc8 4dbc ac93 093e 42eb 03be
00000020: f754 84be 2b08 c23d be64 15bc ed9f 133e
00000030: 0d8a 81be 48de 52be 0783 91be 50e7 82be
00000040: a53d 6fbc f5d9 6b3e 09c8 b13e a18a 8ebe
00000050: 954d e3bd 7983 5b3e 4454 ba3c 76b9 25be
00000060: 4791 cd3d 349c b9bd e1b6 1bbe e322 3e3b
00000070: 69fe 61be f24e 5abe 895f 7fbe dabe 453b
00000080: 9795 b13d 9b11 25bd 2b00 edbd 3200 663d
00000090: 1f38 b8bd ab65 33be c837 dfbd c81b 433d
000000a0: 3e1f 3d3e 1933 0bbd 8cd8 9a3e cd2f a7bd
000000b0: a888 1d3e 98e2 083e cb60 b7bd 93c8 343d
000000c0: 1506 413e 7a4f 6d3d 86f7 ae3d 35df 4d3e
000000d0: 01d2 1fbe 7d54 d93d f53b 04bd 4b80 a7bd
000000e0: 92f2 46be b3d9 2d3c 6871 313e 5db9 44be
000000f0: 3d3c 8f3b 3abb 2f3e a58c 97bd 8a89 2c3c
00000100: f35f 1fbe 0178 fabd 1ad5 6d3e d37d 233d
00000110: fe7c b6bb 837b 953e f5b4 b63d 8ebc 78be
00000120: 8503 3abe fe63 c13d 8293 c93c 0cac 21be
00000130: 245e fd3d a4df c4be 2548 5fbe cded f5bd
00000140: fa52 30bd 5965 903d 1a6f b73d 6aab 083e
00000150: 962f 9b3d 0312 0cbe 31b8 4f3e 0bb5 0ebd
00000160: af17 6cbd fe94 ebbd 5eb2 debd 4637 0b3c
00000170: 9763 babd 17e6 e83d fd89 04be ca97 01be
00000180: 4b73 99bd 9d19 dbbd 56c0 7ebc 8573 6d3b
00000190: 878d e1bd 525c 94bb ad2f c0bc 7e8a c2bd
000001a0: dc64 99bd 7b76 ad3d a263 0bbe 6d29 0b3e
000001b0: 7e29 b3bd 527b 193e 8525 653d 33ea f7bc
000001c0: 79f9 6a3e 3708 7ebc 778a 7abd f43f 86be
000001d0: 39bb 293e 5156 4abe 1725 84bd e7f5 393e
000001e0: 34bb b43d b877 57bd 356d 76bc 82c4 93bb
000001f0: 2ae5 9bbb 7d2c 26be 2015 15be 85e5 a63d
00000200: 34a1 3b3e 143a d73a b9c0 5b3e 1f68 313e
00000210: 4776 90be cdaf b6bd b6b1 82bd 03a2 063e
00000220: a5ac a8bd a141 723d af7f 943d 8f6f c2bd
00000230: db51 4b3c e02d 04be b8d7 afbe e191 c1bd
00000240: 6299 e3bd 659b b0bd 1e98 183d 12d2 d1bd
00000250: 32ff d33d 72a9 2fbe 6b14 bf3d 7427 48be
00000260: 59b9 0a3e 64be dfbc 22e2 b33d bbc8 573e
00000270: fef2 843e 1520 323e 1876 50be bb35 bdbd
00000280: 5df1 8f3d b4b3 13be a674 7bbe 97f1 663d
00000290: 5be6 0e3c 3348 1fbe e892 88bd f637 84bd
000002a0: 645f e3bc 103a 6cbd ec8f 7dbe bfb8 fb3d
000002b0: 7289 21bd a7ea cb3d fa22 90bc 4e3e f93a
000002c0: 3b1f 4fbd 9700 52be 20f7 353c 3020 2fbd
000002d0: 8411 18be 26f7 403d 9071 c9bd 999f 04be
000002e0: d2e1 353e 859d f7be 1798 71be 1c68 503c
000002f0: 633b 73bd fa08 c63a 8ea7 abbd 61bf 3b3e
00000300: 5fd6 ffbd 696e 1cbe 39f0 d7bd 608c f53c
00000310: 9f7f 56ba 1d98 36be 1642 b83c 23b9 6fbe
00000320: d16e 923c e085 f5bd b289 cc3d 8802 83bb
00000330: 5c24 f63d 72ff 273e 01c7 5bbe 59fa dd3d
00000340: 0d21 06be 2ca7 6bbe 5502 de3d 52cd 2d3e
00000350: 1591 5cbd a25f de3d 606a dd3d 27b8 a0bd
00000360: 028c c43d 30f0 e7bd 404b a3be 95e8 c9bd
00000370: e239 11be ee7b f03d 891f aabd 1d39 1a3e
00000380: f9ac d1bc abbf f6be aa18 68be 8c1a c2bd
00000390: b012 31be 8824 343e 2ed2 333d a9ea 36be
000003a0: 3acb 183e 8526 4dbe f56b 58bd 43f6 18bc
000003b0: f373 d4bd 6e6b 7c3d 8922 19be c93f 09bd
000003c0: 64f5 35be 29fd 4b3e bf5d 583d f094 9fbd
000003d0: b511 163d 68e7 b13d 7e83 e33d 267a 263e
000003e0: 29e8 3abd b949 d93d 7646 aebd 1d74 293e
000003f0: 1bcf 903d 4f39 6fbe 826b 34be d5aa 503e

network_actor.4.bias f4 [5]
0.07371829 -0.042678807 -0.15382439 0.1267961 0.113348864
00000000: 9df9 963d f9cf 2ebd 2484 1dbe d6d6 013e
00000010: 7323 e83d
