checkpoint/ddpg-actor_mlp_actor-lr:0.0003_critic-lr:0.0003_gamma:0.99_tau:0.05.pth (torch, 46871 bytes, 6 tensors)

network_actor.0.weight f4 [70, 84]
0.0009331729 0.06934822 -0.0044154185 0.09167506 0.03968458 0.04145084 0.042017777 -0.02609795
-0.011363222 -0.0010118249 -0.09322995 0.10133947 0.011429439 -0.107797734 -0.08613028 -0.05605603
0.0030876452 -0.04525092 -0.10589935 -0.042563464 -0.0019355939 0.03793852 0.040847257 0.08811315
-0.079254046 -0.050227292 -0.080970064 -0.0432095 -0.10487099 0.09596541 -0.08167766 0.033731498
0.020763185 -0.055115692 0.0778255 0.100155115 -0.051368482 -0.046094175 -0.062473677 -0.08687966
-0.03440365 0.0059800195 -0.045844406 0.10115966 -0.014365192 -0.044106957 -0.10771091 -0.028959913
0.09754663 -0.0342506 0.040394362 0.07622466 -0.07658218 -0.07143315 0.06755003 0.053826444
-0.07552409 0.101763465 -0.08934755 0.013374034 -0.021310575 0.0025218104 0.03699951 0.10816265
0.012355159 0.010075431 0.09026039 -0.106687546 0.049264945 0.063213974 0.09658838 -0.071500786
0.055601247 0.10816003 -0.10197183 -0.10673566 -0.05094532 -0.055262823 -0.044590004 0.03545326
-0.029959109 0.047046687 -0.09358438 -0.02944508 0.04137272 0.09033077 -0.041330993 0.09961185
-0.06555555 0.058359068 0.056561187 -0.023384444 0.10749816 0.068706535 0.030631976 0.06994582
0.012412558 -0.02492774 -0.07304806 -0.07790008 0.0071160723 0.02653269 -0.09675081 0.033682045
-0.057741504 -0.053760096 -0.057951927 -0.0031423518 0.0131697105 0.07943301 -0.04136931 -0.067043915
0.050592955 -0.051985268 0.047421843 0.106318675 0.009477015 0.0750457 -0.05816875 0.09422214
0.0061623096 0.05056218 0.043283705 -0.07397511 0.005376634 0.06776185 -0.06938263 0.01976477
-0.06162013 -0.060353346 -0.03722666 -0.10826269 -0.008927946 -0.039055325 0.050073072 -0.09338944
0.10330112 0.03596539 0.086599156 0.061086617 0.071553245 -0.0046902783 0.07852641 -0.035494972
0.0963382 0.0030956834 0.09214146 -0.09292716 -0.03160629 -0.108747505 -0.059281625 -0.041067906
-0.03749071 -0.050411183 0.082261816 -0.07606292 -0.029457645 0.04781587 -0.038630705 -0.021940235
0.013288397 0.072624706 -0.08054066 -0.08989443 -0.07990218 -0.063476056 -0.03164981 -0.00678038
-0.09344989 -0.10414416 -0.009112876 0.09074939 -0.07178583 0.09547202 -0.07514914 0.10067218
0.069336236 -0.10526812 -0.0844209 -0.04060783 0.09637797 -0.070355535 0.10290065 -0.014940248
-0.10132512 0.046687715 -0.032034956 -0.09528209 0.09104298 -0.03758873 0.032945823 -0.011616256
-0.06054893 -0.008539147 -0.003375941 0.046538007 -0.050550472 -0.04176628 0.070899166 -0.052400626
-0.0567934 0.098347016 0.09179302 -0.049776997 -0.051493857 0.0024057769 -0.03921217 -0.061995067
-0.085751 -0.08335071 0.10659127 0.000912336 0.012705719 0.09073627 0.07965865 0.027992494
-0.004043684 -0.009866387 0.07684064 0.08008929 -0.07709556 0.10003262 0.023873968 0.061716188
-0.07421598 -0.016038788 0.067517534 -0.0013292169 -0.09101666 0.010973538 0.00039262327 -0.02408979
0.048564076 0.05801816 0.082404725 0.005608311 0.028066529 0.07293334 -0.07249841 -0.030484831
0.06814947 0.08862701 0.086146355 -0.00069042697 -0.10638441 0.09922988 -0.036489487 -0.100537635
-0.10669746 0.10124947 -0.027348528 0.04277112 -0.028018547 0.05253824 -0.024258865 0.019624425
00000000: 2ca0 743a 7106 8e3d 37af 90bb 22c0 bb3d
00000010: 4c8c 223d 5bc8 293d d51a 2c3d 5ecb d5bc
00000020: cf2c 3abc 369f 84ba 58ef bebd 118b cf3d
00000030: 8b42 3b3c 0fc5 dcbd 1265 b0bd 029b 65bd
00000040: 175a 4a3b 0759 39bd c2e1 d8bd 0757 2ebd
00000050: c1b3 fdba 6c65 1b3d 744f 273d ab74 b43d
00000060: f24f a2bd 22bb 4dbd a2d3 a5bd 72fc 30bd
00000070: 9ac6 d6bd 8389 c43d 9e46 a7bd 0a2a 0a3d
00000080: 8e17 aa3c fec0 61bd fa62 9f3d 201e cd3d
00000090: c267 52bd 3fcd 3cbd 66e4 7fbd f7ed b1bd
000000a0: d7ea 0cbd 0af4 c33b 58c7 3bbd cc2c cf3d
000000b0: fb5b 6bbc 7fa9 34bd 8a97 dcbd 573d edbc
000000c0: 87c6 c73d 5b4a 0cbd 8f74 253d ad1b 9c3d
000000d0: 1ed7 9cbd 8b4b 92bd ac57 8a3d 1e79 5c3d
000000e0: 60ac 9abd 5d69 d03d d9fb b6bd c41e 5b3c
000000f0: 8493 aebc f544 253b cc8c 173d 6184 dd3d
00000100: 4b6d 4a3c 6c13 253c 70da b83d 007f dabd
00000110: 0aca 493d 5476 813d 21d0 c53d 016f 92bd
00000120: 22be 633d 0183 dd3d 9bd6 d0bd 3a98 dabd
00000130: 0aac 50bd 455b 62bd 02a4 36bd 7037 113d
00000140: ce6c f5bc 07b4 403d 2ba9 bfbd cf36 f1bc
00000150: 7176 293d 57ff b83d b04a 29bd 4c01 cc3d
00000160: fd41 86bd eb09 6f3d b4ac 673d bc90 bfbc
00000170: ff27 dc3d 03b6 8c3d e9ef fa3c c13f 8f3d
00000180: 0b5e 4b3c 4335 ccbc 399a 95bd 148a 9fbd
00000190: f12d e93b 155b d93c 4a25 c6bd 2ff6 093d
000001a0: 5b82 6cbd 8c33 5cbd 005f 6dbd eaef 4dbb
000001b0: c5c5 573c c6ad a23d de72 29bd 524e 89bd
000001c0: 8f3a 4f3d 81ee 54bd 683d 423d 9bbd d93d
000001d0: 7b45 1b3c 8fb1 993d 5b42 6ebd 8af7 c03d
000001e0: 33ed c93b 4a1a 4f3d 414a 313d 4380 97bd
000001f0: 7a2e b03b bac6 8a3d 7b18 8ebd bae9 a13c
00000200: 6465 7cbd 1235 77bd fb7a 18bd d4b8 ddbd
00000210: 8546 12bc 7af8 1fbd 6c19 4d3d f642 bfbd
00000220: 8a8f d33d 7250 133d e65a b13d f635 7a3d
00000230: 828a 923d e8b0 99bb 74d2 a03d 2d63 11bd
00000240: f64c c53d f3e0 4a3b a9b4 bc3d 9850 bebd
00000250: 9975 01bd 03b7 debd 4ad1 72bd d236 28bd
00000260: dc8f 19bd f57b 4ebd e278 a83d e0c6 9bbd
00000270: 2951 f1bc 93da 433d 3b3b 1ebd 02bc b3bc
00000280: 94b7 593c 43bc 943d 80f2 a4bd 921a b8bd
00000290: c1a3 a3bd bcff 81bd 3ba3 01bd f32d debb
000002a0: a862 bfbd 8949 d5bd 2c4e 15bc d1da b93d
000002b0: 7304 93bd d686 c33d cbe7 99bd 372d ce3d
000002c0: 2800 8e3d d096 d7bd dde4 acbd 6554 26bd
000002d0: d061 c53d 9016 90bd 93bd d23d f1c7 74bc
000002e0: 8b83 cfbd 9e3b 3f3d 1637 03bd 4223 c3bd
000002f0: be74 ba3d a4f6 19bd 33f2 063d 1c52 3ebc
00000300: 2802 78bd c7e7 0bbc e43e 5dbb a39e 3e3d
00000310: 030e 4fbd 1e13 2bbd 9533 913d 0aa2 56bd
00000320: 32a0 68bd 296a c93d fbfd bb3d f7e2 4bbd
00000330: 39eb 52bd 3daa 1d3b f19c 20bd 8aee 7dbd
00000340: 389e afbd c7b3 aabd 864c da3d d529 6f3a
00000350: a62b 503c f0d3 b93d 1324 a33d 8450 e53c
00000360: e180 84bb a0a6 21bc a05e 9d3d db05 a43d
00000370: 47e4 9dbd e7dd cc3d 5793 c33c 1dca 7c3d
00000380: 8cfe 97bd c763 83bc a246 8a3d 1e39 aeba
00000390: f166 babd 5bca 333c 01d9 cd39 f457 c5bc
000003a0: 20eb 463d 73a4 6d3d cfc3 a83d ecc5 b73b
000003b0: c7eb e53c 135e 953d 0c7a 94bd 53bb f9bc
000003c0: f391 8b3d 1482 b53d 806d b03d c5fd 34ba
000003d0: 12e0 d9bd 0939 cb3d 0076 15bd ade6 cdbd
000003e0: 3384 dabd e25b cf3d 050a e0bc c530 2f3d
000003f0: 2787 e5bc 5632 573d 87ba c6bc 67c3 a03c

network_actor.0.bias f4 [70]
0.027463937 0.07969358 -0.047269 -0.07567678 -0.06291064 -0.10470465 0.07805179 -0.04088746
0.079627566 -0.061799873 -0.088806644 -0.03344955 -0.088149436 0.056696277 -0.07871636 0.06056769
-0.039370336 -0.010982122 -0.02237686 0.07302374 -0.05017623 -0.086482175 0.06523127 0.047468968
-0.0018348303 0.03367375 -0.06030941 0.076033875 0.04497785 0.03831392 -0.1007518 -0.020634834
-0.095609255 -0.108977854 -0.020652886 0.007445938 0.048742305 -0.027138377 -0.049933 0.10749548
-0.06789656 -0.06525193 0.07947904 0.065738186 0.09170325 -0.035472106 0.026827501 -0.077462114
-0.05422899 -0.084916756 -0.0045438088 0.044955272 -0.0030323144 -0.016133856 0.009381571 -0.036763694
-0.015545259 -0.010051811 0.06251392 -0.09574588 -0.059648495 -0.034446973 -0.036174107 0.06820278
-0.05020834 0.062238008 -0.017379634 0.02505232 0.036998805 0.008721333
00000000: 0dfc e03c 6336 a33d 249d 41bd 6dfc 9abd
00000010: 4bd7 80bd 646f d6bd 9ed9 9f3d 9c79 27bd
00000020: c713 a33d dd21 7dbd 42e0 b5bd 6502 09bd
00000030: b187 b4bd 5b3a 683d 0b36 a1bd d315 783d
00000040: ca42 21bd 5cee 33bc ad4f b7bc 788d 953d
00000050: 9785 4dbd 911d b1bd f997 853d d26e 423d
00000060: b07e f0ba 7ced 093d 0007 77bd a6b7 9b3d
00000070: b23a 383d 0fef 1c3d f656 cebd 620a a9bc
00000080: c9ce c3bd c82f dfbd 3e30 a9bc 0efd f33b
00000090: 03a6 473d 4d51 debc 8c86 4cbd 9726 dc3d
000000a0: 5a0d 8bbd cea2 85bd e8c5 a23d bea1 863d
000000b0: eace bb3d 334b 11bd 59c5 db3c 75a4 9ebd
000000c0: 381f 5ebd d6e8 adbd 3be4 94bb 0523 383d
000000d0: cbb9 46bb 262b 84bc 29b5 193c 8795 16bd
000000e0: 8bb1 7ebc 5ab0 24bc 4c07 803d 6a16 c4bd
000000f0: fb51 74bd 4518 0dbd 4d2b 14bd e6ad 8b3d
00000100: 43a7 4dbd 48ed 7e3d bc5f 8ebc 863a cd3c
00000110: 0f8c 173d ece3 0e3c

network_actor.2.weight f4 [70, 70]
-0.066147946 -0.068681456 0.06763231 -0.0059899865 -0.060079053 -0.09007771 -0.030317567 -0.07526794
-0.049106643 -0.03672715 0.060299315 -0.040761296 -0.11500362 -0.049977724 -0.104313254 0.0160371
0.019995816 0.05130479 -0.054953493 0.01003251 -0.019622214 0.11875319 -0.0030422548 -0.08781933
-0.048523106 -0.06866554 0.08292764 0.09560676 0.112756744 0.08258628 -0.06481352 -0.0035381932
-0.03710481 -0.094630666 0.108878635 -0.053489972 -0.098798744 0.09926534 0.037598357 -0.059912376
-0.022122866 0.08305482 0.022967728 0.076656744 0.097070746 -0.061778568 -0.01937431 0.07824219
0.101195455 0.055139787 0.02652849 -0.03904085 -0.03262178 -0.08629505 -0.07363904 -0.110241465
0.005748166 0.10001243 0.033114024 0.07288973 0.11755494 -0.09039189 -0.02313952 -0.06654044
0.045675583 0.027147861 -0.044180445 0.09769635 -0.074774295 -0.10850276 0.044590153 0.074217774
-0.07183732 0.11402625 0.017908122 0.09567849 0.05379444 -0.0896071 0.03890056 -0.092859544
0.07280177 -0.009277083 -0.075389035 0.080222994 -0.044973273 0.05963435 -0.042670418 -0.07422489
-0.033138275 -0.032558627 0.051758125 -0.11506428 -0.08738745 -0.043055773 0.11781242 -0.076192
-0.09192204 0.10364393 -0.011017292 0.007019479 -0.04517872 0.074253954 -0.059971195 -0.06488786
0.075038485 -0.04969444 0.066832714 0.08017153 -0.07227382 -0.05812106 0.06753403 0.055205986
0.01694567 0.050315306 0.015625456 0.004991043 0.034715097 -0.034035243 0.10241569 0.100985594
0.02427838 0.032232016 -0.0051836222 -0.04212609 0.10641902 -0.015491537 -0.036104657 0.11289598
0.0068346933 0.062165506 0.009695012 -0.044183422 0.03390047 0.08518758 0.10189927 -0.051093988
0.058228806 0.0027180077 0.079635754 -0.0061422293 -0.034209043 -0.039018054 0.0073677627 0.10599798
0.0028737267 0.0536849 -0.072476 0.09303703 -0.038394533 -0.087910146 0.011752643 -0.010057431
0.106206074 -0.046728257 0.037363533 0.04478786 0.11229194 0.056936104 -0.054787144 -0.012827772
-0.115464695 -0.071824715 -0.037001185 0.11438439 -0.008118103 -0.0416391 -0.021194506 0.016241493
-0.03282993 0.008774904 0.072852254 0.009609381 -0.023579832 -0.012353234 0.05422411 -0.11321919
0.06889787 -0.08710115 -0.05220029 -0.0028411408 -0.09664498 0.08764397 0.113185704 -0.06882033
0.112886846 -0.06990385 0.08971401 0.013219398 -0.10891824 0.085748 -0.04171265 0.05051048
-0.048544936 -0.058721595 0.07129712 -0.036908984 0.07455105 0.008336785 -0.00034258456 0.103665516
0.0747682 -0.042452317 0.08073653 0.038463965 0.02929507 -0.010535644 0.093387425 0.09296995
-0.026271837 -0.040813543 -0.09666866 -0.03216424 -0.006873491 -0.0115356 -0.05114256 -0.10004071
0.017217468 0.07607125 0.08713972 0.0006710919 0.11563173 -0.07029283 -0.11793722 0.029036464
-0.11079808 -0.059663787 -0.04302766 -0.029646803 0.08283915 0.040802203 0.06366136 0.042958844
-0.03443133 -0.058957774 -0.02376677 0.09822214 0.058355372 -0.024492946 0.075136036 0.10051678
0.09103635 -0.022506684 0.0105061075 -0.100493945 0.093729466 -0.0507963 0.08563607 0.10747884
0.063564286 0.071549185 0.013654868 0.053068522 -0.0511487 -0.0706724 -0.051047467 -0.05364818
00000000: 9378 87bd dda8 8cbd cf82 8a3d a647 c4bb
00000010: 7415 76bd aa7a b8bd 8c5c f8bc 1426 9abd
00000020: 0c24 49bd 356f 16bd 6afc 763d 51f5 26bd
00000030: 0587 ebbd 71b5 4cbd 30a2 d5bd 3d60 833c
00000040: 44ce a33c f924 523d ea16 61bd 665f 243c
00000050: c4be a0bc df34 f33d 9160 47bb 9fda b3bd
00000060: 2ac0 46bd 85a0 8cbd f7d5 a93d 7acd c33d
00000070: 02ed e63d ff22 a93d f3bc 84bd 08e1 67bb
00000080: 37fb 17bd b9cd c1bd c3fb de3d 4d18 5bbd
00000090: ff56 cabd a04b cb3d bc00 1a3d ae66 75bd
000000a0: 033b b5bc a518 aa3d d126 bc3c 36fe 9c3d
000000b0: 07cd c63d 860b 7dbd dfb6 9ebc 713d a03d
000000c0: 903f cf3d 42da 613d 4752 d93c 4ce9 1fbd
000000d0: 6a9e 05bd 76bb b0bd 11d0 96bd 47c6 e1bd
000000e0: 1c5b bc3b 51d3 cc3d 92a2 073d 3647 953d
000000f0: a5c0 f03d 621f b9bd 178f bdbc 5b46 88bd
00000100: 5216 3b3d 3165 de3c 8ef6 34bd 0615 c83d
00000110: 4423 99bd b236 debd 2aa4 363d 7dff 973d
00000120: 721f 93bd 9886 e93d 0eb4 923c 16f3 c33d
00000130: 8f57 5c3d ed83 b7bd 3256 1f3d 252d bebd
00000140: 1819 953d e8fe 17bc 9165 9abd f44b a43d
00000150: e535 38bd 2643 743d 2dc7 2ebd 3803 98bd
00000160: 00bc 07bd 325c 05bd 5400 543d d2a6 ebbd
00000170: 31f8 b2bd 405b 30bd a347 f13d 8d0a 9cbd
00000180: 9f41 bcbd 4543 d43d df81 34bc a803 e63b
00000190: 520d 39bd 7512 983d 5ba4 75bd ede3 84bd
000001a0: c7ad 993d 668c 4bbd 97df 883d f930 a43d
000001b0: 4c04 94bd 5910 6ebd 484f 8a3d ac1f 623d
000001c0: a5d1 8a3c 6c17 4e3d f500 803c e78b a33b
000001d0: 6b31 0e3d 8a68 0bbd 51bf d13d 89d1 ce3d
000001e0: 74e3 c63c b805 043d 60db a9bb 688c 2cbd
000001f0: 37f2 d93d 37d0 7dbc 7ae2 13bd 0236 e73d
00000200: 90f5 df3b 42a1 7e3d d4d7 1e3c adf9 34bd
00000210: 38db 0a3d d376 ae3d 91b0 d03d ee47 51bd
00000220: 5481 6e3d 9a20 323b 1218 a33d c144 c9bb
00000230: c81e 0cbd 65d1 1fbd 466d f13b 7815 d93d
00000240: 2255 3c3b b3e4 5b3d 4c6e 94bd 338a be3d
00000250: 9643 1dbd 3c0a b4bd 288e 403c ecc7 24bc
00000260: 9282 d93d 2166 3fbd 810a 193d 7a73 373d
00000270: 51f9 e53d d535 693d 7c68 60bd 932b 52bc
00000280: c178 ecbd d618 93bd 8e8e 17bd 5d42 ea3d
00000290: cb01 05bc c38d 2abd 1aa0 adbc e10c 853c
000002a0: ad78 06bd 9dc4 0f3c 9033 953d aa70 1d3c
000002b0: 7e2a c1bc 3865 4abc 1a1a 5e3d 76df e7bd
000002c0: 541a 8d3d 1662 b2bd f9cf 55bd 6f32 3abb
000002d0: ceed c5bd af7e b33d e8cd e73d acf1 8cbd
000002e0: 3831 e73d c029 8fbd fbbb b73d 2d96 583c
000002f0: 8710 dfbd a69c af3d e2da 2abd 14e4 4e3d
00000300: 0ed7 46bd 0e86 70bd 3904 923d e02d 17bd
00000310: 39ae 983d 0397 083c ec9c b3b9 964e d43d
00000320: 1220 993d 7be2 2dbd 3259 a53d 648c 1d3d
00000330: 37fc ef3c b29d 2cbc e841 bf3d 0767 be3d
00000340: 0938 d7bc 1a2c 27bd 38fa c5bd a6be 03bd
00000350: 063b e1bb d0ff 3cbc dc7a 51bd 25e2 ccbd
00000360: a60b 8d3c 3ecb 9b3d 4f76 b23d 37ec 2f3a
00000370: 54d0 ec3d b0f5 8fbd 1289 f1bd e1dd ed3c
00000380: 1bea e2bd 0462 74bd c63d 30bd dadd f2bc
00000390: 93a7 a93d 3620 273d e360 823d 9df5 2f3d
000003a0: de07 0dbd b57d 71bd 87b2 c2bc b028 c93d
000003b0: 0b06 6f3d 6ea5 c8bc ece0 993d bedb cd3d
000003c0: 4471 ba3d f05f b8bc cf21 2c3c c5cf cdbd
000003d0: 3cf5 bf3d c80f 50bd f761 af3d de1d dc3d
000003e0: fe2d 823d 6188 923d abb8 5f3c 615e 593d
000003f0: 4d81 51bd b1bc 90bd 2617 51bd 32be 5bbd

network_actor.2.bias f4 [70]
0.09491572 0.08724128 0.11388566 0.06875153 -0.038943104 0.051931173 -0.09325259 0.11374429
0.005043562 -0.09810581 -0.009448831 -0.019433267 0.07241595 0.027450295 0.042704713 -0.11799129
-0.11658177 0.051946074 0.068582796 0.049713504 -0.00057555747 -0.04504333 0.0077518807 0.06628919
-0.09318403 -0.07954716 -0.05543564 -0.051374078 0.05022909 0.06539685 0.10350738 -0.016248275
0.01191436 -0.036633298 0.07303979 0.0031562122 -0.018343292 0.103827335 -0.087872356 -0.11592762
0.08050675 -0.0056827376 0.08868358 -0.09507977 0.010857226 -0.07831849 0.07268117 -0.022295896
0.07014847 -0.062031817 -0.055523764 0.10669492 0.06906046 -0.0021593343 -0.11673651 0.07195688
-0.053893395 0.016814627 0.10330694 0.02724673 -0.06421181 -0.09398696 -0.11353213 -0.077920124
0.11486214 -0.094055764 -0.102179654 0.024124272 -0.06966098 -0.07466943
00000000: 2c63 c23d 8eab b23d e33c e93d 9acd 8c3d
00000010: ce82 1fbd c8b5 543d 37fb bebd c4f2 e83d
00000020: 7744 a53b b3eb c8bd 45cf 1abc 8432 9fbc
00000030: d04e 943d 71df e03c 23eb 2e3d 6ba5 f1bd
00000040: 6cc2 eebd 68c5 543d 2375 8c3d 63a0 4b3d
00000050: 02e1 16ba 5b7f 38bd 7d03 fe3b a0c2 873d
00000060: 45d7 bebd 9fe9 a2bd 7b10 63bd a06d 52bd
00000070: 05bd 4d3d c9ee 853d adfb d33d 1a1b 85bc
00000080: 7334 433c cc0c 16bd e395 953d 74d8 4e3b
00000090: ac44 96bc 6da3 d43d 6cf6 b3bd 766b edbd
000000a0: b9e0 a43d 4236 babb bd9f b53d 2fb9 c2bd
000000b0: 82e2 313c 7265 a0bd ded9 943d e2a5 b6bc
000000c0: 00aa 8f3d 1315 7ebd e36c 63bd de82 da3d
000000d0: 926f 8d3d 9e83 0dbb 8d13 efbd 215e 933d
000000e0: 52bf 5cbd d4be 893c 9792 d33d 8934 df3c
000000f0: 7b81 83bd 3c7c c0bd 8983 e8bd 9694 9fbd
00000100: d73c eb3d 4fa0 c0bd 9143 d1bd 44a0 c53c
00000110: 6aaa 8ebd 49ec 98bd

network_actor.4.weight f4 [3, 70]
0.02080241 0.025630653 -0.024735464 0.04489062 -0.03536637 -0.051166896 -0.106599994 0.10103448
-0.06205293 0.09625619 0.019817557 0.06784625 0.105292834 0.02695239 0.024488114 -0.01070611
-0.01666066 -0.06740961 -0.06453489 -0.08554034 -0.10701234 -0.03605724 0.07780734 -0.08915003
0.023733912 0.09722295 0.07304398 0.05596124 0.018219033 0.09591952 -0.057548653 -0.11289423
0.097781025 -0.082468756 0.049132947 0.029364318 -0.059132386 -0.014126869 -0.009198647 -0.05254939
-0.06398884 0.075299904 0.04767317 -0.068503976 0.057578217 -0.10102358 -0.072762445 0.09328401
0.0032616775 0.07596834 -0.009365522 0.05539271 -0.042667054 -0.0015612219 -0.063251406 0.0030187452
0.037499245 0.016110566 -0.11265308 -0.024523621 -0.046319034 0.05464892 0.09646231 -0.08906988
-0.019074583 -0.016321667 0.05457325 -0.053290226 0.022148825 0.02217876 -0.01076534 -0.010497801
-0.09689087 -0.110272594 0.0827276 0.00026676973 -0.104419544 0.020490743 -0.0005783929 -0.028721323
-0.012246088 0.038217474 0.04336479 0.010667355 -0.05743609 -0.018703017 0.105939224 -0.065937586
-0.104587235 -0.11143867 0.07524089 -0.041545887 -0.044690102 0.029277759 0.10632093 -0.053410538
-0.00052775466 0.003441761 0.053356264 -0.11846757 -0.043951247 -0.015072966 0.066198766 0.08542937
-0.05172195 0.067427635 -0.10879944 -0.04285305 -0.005445889 -0.06709387 0.037471592 -0.020021051
0.04671147 -0.00977248 -0.014068209 0.00042132032 -0.10171515 -0.003768929 0.037971932 -0.11592702
0.041294906 -0.10503136 -0.02952716 0.007850806 0.01248372 -0.05902742 -0.0983068 0.095592976
-0.017803283 -0.03213798 -0.11491391 0.058058396 -0.026502231 -0.05304497 -0.09099943 -0.032487288
-0.052453797 0.023937918 0.043896504 0.09123477 -0.07690924 -0.06404233 -0.06671891 0.05010251
-0.06644716 -0.045002267 0.005496328 -0.08688675 0.032776214 0.054552164 -0.09337742 0.04930019
-0.087251864 0.07133722 -0.042584814 0.022547292 -0.110523805 -0.048119027 0.036857706 -0.057002317
-0.07564087 0.0934724 -0.1057509 0.030902414 -0.0017320868 0.03634068 0.020446246 0.061424658
0.035043523 -0.086214475 0.103696205 0.024735222 0.075205475 0.116514206 0.08577911 0.07025249
0.06917965 -0.052091707 -0.10963708 -0.00856631 0.0872779 -0.11496794 0.08292139 0.09112658
0.040358983 -0.09073235 -0.09309856 -0.01700259 -0.011353635 0.001194914 -0.05787746 -0.016644875
0.081306815 0.1096381 -0.08457174 0.086337395 -0.06288866 0.09047102 -0.048588607 -0.02329746
-0.075962216 0.08098502 0.08383964 -0.0024837381 -0.03433531 -0.1001131 -0.08664845 0.004733805
0.101171635 -0.030175455
00000000: d169 aa3c 60f7 d13c 07a2 cabc 3adf 373d
00000010: 54dc 10bd 6194 51bd 1951 dabd 2aeb ce3d
00000020: 372b 7ebd f721 c53d 6e58 a23c faf2 8a3d
00000030: c5a3 d73d 42cb dc3c 4c9b c83c ae68 2fbc
00000040: f07b 88bc 0d0e 8abd de2a 84bd c62f afbd
00000050: 4929 dbbd c2b0 13bd 7459 9f3d 4a94 b6bd
00000060: 9f6d c23c d31c c73d 1598 953d 9d37 653d
00000070: 1540 953c 7471 c43d 23b8 6bbd 1735 e7bd
00000080: 6b41 c83d 61e5 a8bd a13f 493d 708d f03c
00000090: cd34 72bd 6274 67bc ecb5 16bc 073e 57bd
000000a0: 950c 83bd d636 9a3d f144 433d d04b 8cbd
000000b0: 23d7 6b3d 73e5 cebd 7a04 95bd b00b bf3d
000000c0: dec1 553b 4a95 9b3d d971 19bc 77e3 623d
000000d0: a6c3 2ebd eaa1 ccba f489 81bd 24d6 453b
000000e0: cf98 193d 4efa 833c a8b6 e6bd c3e5 c8bc
000000f0: 07b9 3dbd 8cd7 5f3d 088e c53d 456a b6bd
00000100: 4d42 9cbc 04b5 85bc 3388 5f3d da46 5abd
00000110: 7471 b53c 3bb0 b53c 1c61 30bc f8fe 2bbc
00000120: b86e c6bd 99d6 e1bd 176d a93d 3add 8b39
00000130: ead9 d5bd 34dc a73c 4a9f 17ba fb48 ebbc
00000140: d1a3 48bc ed89 1c3d 479f 313d 21c6 2e3c
00000150: 1b42 6bbd 1237 99bc aaf6 d83d 490a 87bd
00000160: d531 d6bd f539 e4bd e517 9a3d 052c 2abd
00000170: f80c 37bd e9d7 ef3c cabe d93d 02c5 5abd
00000180: 0459 0aba 2b8f 613b 198c 5a3d 209f f2bd
00000190: 3906 34bd 9af4 76bc 3893 873d 98f5 ae3d
000001a0: 65da 53bd 8017 8a3d 3ed2 debd ae86 2fbd
000001b0: 6e73 b2bb 8368 89bd d07b 193d 3003 a4bc
000001c0: 8754 3f3d c11c 20bc 587e 66bc a8e4 dc39
000001d0: 0850 d0bd 2300 77bb 7588 1b3d 256b edbd
000001e0: d924 293d af1a d7bd f1e2 f1bc aba0 003c
000001f0: 8488 4c3c bcc6 71bd 1355 c9bd 40c6 c33d
00000200: 31d8 91bc 1da3 03bd fc57 ebbd a4ce 6d3d
00000210: 351b d9bc af45 59bd e95d babd 6411 05bd
00000220: cbd9 56bd 7419 c43c d2cc 333d 4cd9 ba3d
00000230: 9782 9dbd a028 83bd eda3 88bd 4a38 4d3d
00000240: 7315 88bd 4c54 38bd 8b1a b43b aef1 b1bd
00000250: 5a40 063d 1772 5f3d a93c bfbd ffee 493d
00000260: 1bb1 b2bd 4019 923d 6a6d 2ebd 19b5 b83c
00000270: 4e5a e2bd 7518 45bd 1bf8 163d 437b 69bd
00000280: 9ae9 9abd 756e bf3d ee93 d8bd 0f27 fd3c
00000290: 3007 e3ba f7d9 143d e37e a73c 6c98 7b3d
000002a0: cc89 0f3d 3791 b0bd ad5e d43d 85a1 ca3c
000002b0: 5405 9a3d 009f ee3d f5ac af3d 8ae0 8f3d
000002c0: 0fae 8d3d 1d5e 55bd 6889 e0bd b559 0cbc
000002d0: c1be b23d 5074 ebbd b1d2 a93d 93a0 ba3d
000002e0: 764f 253d e2d1 b9bd 75aa bebd 0449 8bbc
000002f0: 9904 3abc a99e 9c3a ea10 6dbd d55a 88bc
00000300: 3084 a63d f189 e03d f333 adbd a9d1 b03d
00000310: c5cb 80bd df48 b93d d904 47bd 51da bebc
00000320: 1492 9bbd 79db a53d 1eb4 ab3d 36c6 22bb
00000330: 2fa3 0cbd 1908 cdbd be74 b1bd 091e 9b3b
00000340: 1333 cf3d 8432 f7bc

network_actor.4.bias f4 [3]
0.017071893 0.096409686 0.071713746
00000000: 5bda 8b3c 7172 c53d a8de 923d
