checkpoint/ddpg-actor_mlp_actor-lr:0.0003_critic-lr:0.0003_gamma:0.99_tau:0.05.pth (torch, 130391 bytes, 6 tensors)

network_actor.0.weight f4 [120, 140]
000000 b7 cf c8 bc 14 6e 10 3d 36 b6 d3 bc 00 86 49 3d
       -0.024513109 0.03526123 -0.02584372 0.049200058
000010 98 06 1d 3c 7c c4 4a 3c 5a 04 26 3c aa a2 27 bd
       0.009584092 0.012375947 0.010132873 -0.040926613
000020 fd 04 d2 bc 0d f2 8c bc 89 1d bb bd d7 47 63 3d
       -0.025637144 -0.017205263 -0.09136493 0.055488434
000030 80 1e 08 bc c0 d2 c4 bd d7 d3 b9 bd dd ec 52 bd
       -0.008308053 -0.0961051 -0.09073608 -0.05149542
000040 f6 e1 3c bc 21 4e 3f bd 28 66 c1 bd 20 5b 50 bd
       -0.011528483 -0.04670537 -0.09443313 -0.050868154
000050 ca b0 c0 bc b0 b1 75 3c b3 60 79 3c 7f 6c 42 3d
       -0.0235218 0.014995977 0.015220809 0.04746675
000060 fd 95 aa bd bc c4 6d bd 63 71 a5 bd 93 8e 61 bd
       -0.08329389 -0.05804895 -0.080782674 -0.05506761
000070 b8 0c da bd dc e0 64 3d d9 7e af bd d0 7b 8d 3b
       -0.10646957 0.055878505 -0.08569116 0.004317738
000080 ea 36 a6 bb e2 b0 7f bd d0 1c 1b 3d 90 ee 68 3d
       -0.0050724642 -0.062424548 0.037869275 0.056868136
000090 cd ef 67 bd 54 82 55 bd ff 52 8a bd 10 f2 b8 bd
       -0.056625176 -0.052126244 -0.067541115 -0.09030545
0000a0 1c 72 33 bd cd 9a 02 bc 44 d4 73 bd ca ef 8f 3d
       -0.043809995 -0.007971478 -0.059528604 0.07028158
0000b0 d5 2f cd bc fb ac 3b bd da 45 c4 bd 18 31 25 bd
       -0.025047222 -0.045819264 -0.09583636 -0.040330023
0000c0 c7 f5 6c 3d a8 05 1f bd e3 e3 3b 3c f0 e7 47 3d
       0.05785158 -0.038823754 0.011467907 0.048805177
0000d0 f7 57 a6 bd 52 86 98 bd 20 57 0c 3d 9c a0 a4 3c
       -0.08122247 -0.074474946 0.034262776 0.020096116
0000e0 99 7e ab bd 33 46 77 3d ae a9 bb bd 8a 9d 3b bc
       -0.08373756 0.06036968 -0.09163223 -0.011451134
0000f0 fc 43 1a bd c5 a3 91 bc 2d a9 cc 3b 41 2b 81 3d
       -0.03766249 -0.017778287 0.0062457533 0.06307078
000100 43 0e ee bb da 2e 0d bc 0b f0 4f 3d 47 5e d8 bd
       -0.0072648837 -0.008617127 0.050766032 -0.10564857
000110 ca 06 ac 3c 81 ef 14 3d b7 10 50 3d b8 f6 81 bd
       0.020999331 0.03636122 0.05079719 -0.06345886
000120 c6 c8 ee 3c db b3 93 3d 24 2b bb bd 0c fc cd bd
       0.02914847 0.07212039 -0.09139088 -0.1005784
000130 f3 62 5a bd e2 ba 63 bd bb a4 52 bd 6c 1b 62 3c
       -0.05331702 -0.055598147 -0.05142663 0.013800483
000140 92 c2 38 bd dc b6 8d 3c 39 74 b9 bd a3 e1 35 bd
       -0.04510743 0.017299108 -0.09055371 -0.044404637
000150 db 30 df 3b 45 00 53 3d 00 fb 5e bd 71 b4 62 3d
       0.006811244 0.05151393 -0.05443859 0.055347864
000160 8a 52 93 bd ee ab d0 3c e3 4a af 3c b1 06 1f bd
       -0.071934775 0.025472607 0.021398013 -0.03882474
000170 8d 0d 88 3d 80 b9 16 3d c1 04 96 3b c8 5e ff 3c
       0.066432096 0.036798 0.0045782034 0.031173125
000180 e4 48 f7 bb d4 b6 02 bd 06 13 a5 bd 8c 1d 8c bd
       -0.007546531 -0.03191264 -0.08060269 -0.06841573
000190 cf c1 09 bc 37 cf 11 3c d3 e2 b2 bd a1 38 06 3c
       -0.008408024 0.0088995015 -0.087346695 0.008192212
0001a0 dc 84 62 bd a7 2e 60 bd 66 07 85 bd aa 68 f1 bc
       -0.055302486 -0.05473199 -0.06495552 -0.029468853
0001b0 e3 af 3f bc 5f 9c 2d 3d bd 3b 4d bd b4 96 96 bd
       -0.0116996495 0.042385455 -0.0501058 -0.07352963
0001c0 7e 9a 64 3c d4 87 70 bd 4d 70 6a 3c f8 fb 77 3d
       0.013952849 -0.058723286 0.014309001 0.06054303
0001d0 be 56 62 bc 3f 47 1d 3d 73 2e 8a bd 9e 1b 56 3d
       -0.013814626 0.038398024 -0.06747141 0.05227243
0001e0 28 9f 45 bc 70 50 ba 3c 7f 92 6b 3c 5a 79 a4 bd
       -0.012061872 0.022743434 0.014378189 -0.080309585
0001f0 a0 ef 54 bc 66 5d 23 3d 4b 41 9f bd d1 19 ed 3b
       -0.012996584 0.039883994 -0.077761255 0.0072357436
000200 93 85 7c bd ad 38 6f bd cb ea 28 bd 31 68 d0 bd
       -0.061650824 -0.05840366 -0.04123954 -0.10176123
000210 12 70 a0 bc 18 7f 39 bd 43 dd ae 3c 00 fc ba bd
       -0.01958469 -0.04528722 0.02134574 -0.091300964
000220 92 07 6e 3d a8 d0 0e 3c c4 c4 48 3d 58 b2 d2 3c
       0.05811269 0.00871674 0.049015775 0.025719807
000230 0a 26 d0 be 8f ab 45 bd 18 fd 6d 3d 7f fc e2 bc
       -0.40654022 -0.048259314 0.058102697 -0.02770829
000240 c2 44 34 3d 46 b6 ef 3c 16 46 d3 3d 72 9a 88 bc
       0.044010885 0.02926172 0.10316102 -0.016675208
000250 c4 16 85 3d d1 37 9f bd 09 a5 91 bd e5 31 6a bd
       0.06498483 -0.07774318 -0.07111556 -0.05717649
000260 dd a8 22 3c 56 b2 c2 bd 44 c1 00 3e 99 ac d4 bd
       0.009927955 -0.09506671 0.12573725 -0.10384483
000270 5b 52 13 bd e8 52 89 3d a1 03 0d bd 6c d4 1f bb
       -0.035967212 0.06705266 -0.03442729 -0.0024388088
000280 96 6b 9f be 37 d4 0b be cd 1a 88 bc 2f 92 f5 be
       -0.3113677 -0.13655172 -0.016614342 -0.47963092
000290 dc 1a ef bc a9 2c 5c 3e 10 8e 31 3d 8b 88 0e 3c
       -0.029187612 0.21501411 0.043348372 0.008699547
0002a0 4c cb 08 bf 54 4d 00 be 6b 48 20 bc 9d 86 8f 3d
       -0.53435206 -0.12529498 -0.009782891 0.07008097
0002b0 b4 92 b0 bd 57 78 ce 3d 91 74 d8 bc 1f 7c 08 3e
       -0.086217314 0.10081547 -0.02642277 0.13328598
0002c0 51 9c 12 3e cd b2 99 bd 4c 86 b9 bd 32 bc 68 bd
       0.14317442 -0.07504807 -0.09058818 -0.056820102
0002d0 b6 b2 e8 3d e6 55 e2 bd 1c 20 11 3e cd 6b 67 bd
       0.113622114 -0.1105154 0.14172405 -0.05649929
0002e0 66 ab bb bd b7 88 87 3d 03 2d f0 bc b5 af 72 bd
       -0.09163551 0.06617873 -0.029318338 -0.0592496
0002f0 c5 77 09 be af 03 9a be d3 40 19 bd 49 2d 68 3e
       -0.13424595 -0.30080935 -0.037415337 0.22673525
000300 6b 99 68 bc f8 df 83 3e 78 a1 85 3d 9a cc 4c 3d
       -0.014196734 0.25756812 0.06524938 0.04999981
000310 94 49 00 bf b0 a6 9d bd f2 c9 55 3d 43 21 27 bd
       -0.5011227 -0.07697809 0.052194543 -0.040803205
000320 09 ca 98 bd f9 07 d3 3d 8f b8 d2 3d e2 33 89 3c
       -0.0746041 0.10304255 0.10289108 0.016748372
000330 55 14 4b 3d 58 e7 08 3c 43 9d 63 bd ca 4b 96 bd
       0.049579937 0.008355938 -0.0555699 -0.07338674
000340 db e7 e0 bc 94 f3 f6 bd 88 0d 14 3e e7 1f 35 bd
       -0.027454307 -0.120581776 0.14458287 -0.044219878
000350 33 cb 58 bb b3 68 cd 3d 38 49 6a 3d 1d 6f 14 3d
       -0.00330801 0.100297354 0.057198733 0.03623878
000360 05 ea db be 5e 45 91 be 76 1c 8e bd 7e 89 36 3e
       -0.4295198 -0.28373235 -0.06939022 0.17825887
000370 a8 4b dd bc ef ee ae 3e eb db b0 3d d7 f4 7c 3d
       -0.027013615 0.34166667 0.08635696 0.061756935
000380 ef fa 04 bf 58 ad 69 bd 45 0f 4b 3d 59 fc a2 ba
       -0.51945394 -0.05705008 0.04957511 -0.0012434825
000390 89 14 cf bd b6 d9 10 3d cf 72 03 3d a8 19 16 3d
       -0.10111339 0.035363875 0.032091912 0.03664556
0003a0 67 22 02 3e b8 ab 52 3d e8 3e 1e 3d 5f 35 ac bc
       0.12708436 0.051433295 0.03863421 -0.021021543
0003b0 09 a9 78 3d 25 6e f9 39 06 05 c0 3b f4 5e 8c bd
       0.06070808 0.00047575045 0.005859974 -0.06854048
0003c0 40 5c 22 3d 1a 10 ca 3d a6 de 7e 3d 4b ba 65 3c
       0.039638758 0.098663524 0.062224053 0.0140214665
0003d0 71 1f 54 bf ed b7 47 be 81 39 09 3f 44 ce ea be
       -0.82860476 -0.19503756 0.5360337 -0.45860493
0003e0 1f 91 4c bd 79 6a af 3e 7d 33 3f 3d 00 d9 40 3d
       -0.049943086 0.3426092 0.046679962 0.047081947
0003f0 32 a3 f7 be 03 c6 80 bb 25 40 b0 bc 11 8d 75 3c
       -0.48366696 -0.003929855 -0.021514961 0.014987246

network_actor.0.bias f4 [120]
000000 2a 91 c0 bc 35 15 3d 3d 85 96 d0 bd 74 c9 3f be
       -0.02350672 0.046162803 -0.10184959 -0.18729192
000010 90 c4 13 bd c2 80 cd bd 4f 1b f5 bd fd 6f 89 3d
       -0.03607613 -0.10034324 -0.11968099 0.06710813
000020 a9 78 36 be ba 3a 79 3d 7c 72 4d 3d ff 7a b1 3d
       -0.17819466 0.06084702 0.05015801 0.08666038
000030 93 ed 39 bd de e7 79 bd 50 06 1e 3c bb 30 07 3d
       -0.045392584 -0.06101214 0.00964506 0.033005457
000040 3b 2f e6 bd 18 b9 8b 3d bd 55 49 bd ff b4 ec bc
       -0.11239477 0.06822413 -0.049154032 -0.0288949
000050 b6 a5 ab bc 61 7a b1 bd b8 7a 8e bc 7d cb de 3d
       -0.02095304 -0.0866592 -0.017392501 0.10878656
000060 eb 11 bc ba 80 59 ab bd 5c 37 77 be be 4b 1a bd
       -0.0014348602 -0.0836668 -0.24142212 -0.03766989
000070 c3 5d 27 bd b6 9c 79 3d 92 8a 95 be a0 05 3a be
       -0.040860903 0.060940467 -0.29207283 -0.18166208
000080 ea 35 47 3e 66 c8 0c 3e 8c 09 be bd 24 20 52 3c
       0.1945416 0.13748321 -0.09279165 0.012825046
000090 3e 39 3d bc 6d 95 00 3d 35 e4 55 bd a5 7d 1c 3e
       -0.011549292 0.031392504 -0.05221959 0.15282305
0000a0 a4 cc 0c bd 76 43 78 be 95 35 43 3e 3a 7f c1 3c
       -0.034374848 -0.24244484 0.19063409 0.023620237
0000b0 cf 76 48 bd ba 61 81 be 67 55 a3 3d 8d 9d 22 3d
       -0.04894143 -0.25269872 0.079752736 0.039701033
0000c0 e0 e0 77 ba 07 ab b2 bc f1 81 5f 3d c0 ad a2 3d
       -0.0009455811 -0.021810068 0.05456728 0.079432964
0000d0 0b ac 2c be 33 c0 20 3d 61 16 42 bd fd 8b 9c be
       -0.16862504 0.039245795 -0.047384623 -0.30575553
0000e0 46 6e ff bc 28 d4 18 bd 9a cf 53 3b 79 66 d2 3c
       -0.031180512 -0.037311703 0.0032319785 0.025683628
0000f0 8d 4c 0e 3d 31 40 0a be 67 7e b7 3c 5b a9 5a bc
       0.034740973 -0.1350105 0.02239914 -0.013346042
000100 b2 21 59 bc d6 d5 d0 bd 95 d8 d0 bc 2f 25 62 3e
       -0.0132526625 -0.10197036 -0.0254939 0.22084497
000110 6d 81 d5 3d b8 0e ce 3d 78 76 c8 bb 36 30 4e 3d
       0.10425077 0.10061401 -0.006117638 0.050338946
000120 35 ab f9 3d 4a 4d 8c 3d 64 5e df bc 36 11 a9 bc
       0.12190858 0.06850679 -0.027266689 -0.02063809
000130 39 db 84 3d 59 4a 30 be da cc 9f bd 1f a3 f2 bd
       0.06487126 -0.17215861 -0.07802744 -0.11847519
000140 10 f8 41 be 13 73 c9 bd 7c 3a 63 3b fd 81 01 3e
       -0.18942285 -0.09836402 0.003467231 0.12647243
000150 91 8c 38 bd cb 9b a3 3c 77 61 c1 3d c3 d8 83 bd
       -0.04505593 0.019971749 0.09442418 -0.064378284
000160 cc 91 f3 3d 85 d0 04 3e 4b 27 ed 3d 27 cd cc bd
       0.11893043 0.12970169 0.1157976 -0.10000067
000170 42 cb 3e 3d b3 d5 ea 3b dd c8 6a be 8c f1 1c be
       0.04658056 0.007166588 -0.22928186 -0.15326518
000180 c6 8e 47 be 94 e7 a7 3d 3a 3c 91 be fa 79 c2 bc
       -0.19488057 0.08198467 -0.28366262 -0.023739804
000190 71 d4 fb bd 56 e2 71 3b 66 1f 12 be 3c 8f 8d bd
       -0.12296379 0.0036908588 -0.1426979 -0.069120854
0001a0 6d e5 c0 be 93 16 0d be 82 99 6b 3d 3e ab 9e 3d
       -0.37675038 -0.13778143 0.057519443 0.077475056
0001b0 e8 1b 0d 3d 04 c2 d0 ba 9d 45 2c 3e fb ec 90 3d
       0.03445044 -0.0015926962 0.1682343 0.070764504
0001c0 bc 6a b2 3c 66 fe b4 3c 8e e4 6a 3d d3 7b 6f be
       0.02177941 0.022093963 0.057346873 -0.23387079
0001d0 8a f1 bc 3d 90 a5 b8 bc 10 91 1c bb 2d 2c 8c 3e
       0.092257574 -0.022539884 -0.0023890175 0.27377453

network_actor.2.weight f4 [120, 120]
000000 c5 bb b0 3d ea 42 ad bc ad 7f 92 3d 5d 83 dc bd
       0.08629564 -0.021150071 0.071532585 -0.10767243
000010 d6 bc 61 3d 9d 87 29 3b 55 c9 b0 3d ad ef 7b bd
       0.05511173 0.0025868185 0.08632151 -0.06150787
000020 d9 25 11 bd 4a b1 1f 3e f6 dd a8 bd 73 6e 6c 3d
       -0.035436485 0.15594974 -0.08245461 0.05772252
000030 03 c6 df bd 96 6f 7b 3d d9 93 4e bb 27 0a 53 bd
       -0.109264396 0.061385714 -0.003152123 -0.051523354
000040 c0 ff a0 3d ab f7 c2 bd 15 be 50 3c 3d 6f 66 ba
       0.078612804 -0.09519895 0.012740632 -0.00087903795
000050 a9 70 16 3d 1c 6c 6c 3d 3c 73 8e bc 69 0d f3 bc
       0.036728535 0.05772029 -0.017388932 -0.02966948
000060 bb 02 81 bd dd cf 8f 3d 66 df 27 3d c4 f3 7e 3d
       -0.06299349 0.07022069 0.040984534 0.06224419
000070 66 72 69 be c7 8a 70 3c 01 d6 1e 3d d5 50 63 bb
       -0.22797546 0.014681525 0.03877831 -0.003468563
000080 79 6b 03 bc ae 10 e6 3d 81 7b 99 3d aa 5f 6a 3a
       -0.008021229 0.1123365 0.074942596 0.00089406467
000090 16 30 ac 3d 40 6f fb bb 43 97 e7 3c 95 ff d7 3d
       0.08407609 -0.007673174 0.02827037 0.10546795
0000a0 69 63 64 3c 2f d6 5d bd 43 4c 91 3d 9a ea 03 bd
       0.013939717 -0.05415934 0.07094624 -0.032206155
0000b0 1f 28 01 3d 0d 49 fb bd f4 d1 30 bd 56 ac 75 bd
       0.031532403 -0.12269793 -0.043168977 -0.059978805
0000c0 a7 fb 6b 3a d2 d6 76 3b 4f 06 11 3e 8c a4 8b 3d
       0.00090020377 0.0037664664 0.14162563 0.06818494
0000d0 25 3d c6 bd aa 00 90 3d f4 04 6b 3d ac 6b 2f be
       -0.09679631 0.07031377 0.05737777 -0.17130917
0000e0 1c 23 98 bd c0 4e aa 3d 50 6d d3 3c ba 5b 8e 3d
       -0.074285716 0.083158016 0.02580896 0.06951089
0000f0 7e b1 e8 3d b8 bc 15 3d 0f 40 f3 3d a9 f2 ff bd
       0.11361979 0.03655693 0.118774526 -0.124974556
000100 78 e5 b5 3c 4d 97 24 3d 6f e4 1a 3b 35 b8 c2 bc
       0.022204146 0.040183354 0.0023634692 -0.023769477
000110 07 f4 bd 3c 23 41 28 be 8e 85 4d 3d 56 92 91 3c
       0.02318765 -0.16431098 0.050176196 0.017769974
000120 08 da d1 3c 2d cf 87 3c 69 96 0a bc ff 2f 95 3d
       0.02561666 0.016578281 -0.008458712 0.07284545
000130 82 d4 75 bc 90 4b 4c bd fc 16 f8 bb 0a d6 88 bc
       -0.015004279 -0.04987675 -0.0075710993 -0.016703624
000140 76 d9 19 be 90 6a b2 bd b2 12 2b be 74 89 a0 3d
       -0.15024361 -0.087117314 -0.1670635 0.07838717
000150 a5 f0 7f 3d 90 67 1b bd a2 02 ac 3d 5d a3 4f be
       0.062485356 -0.03794056 0.0839894 -0.20277162
000160 cd ec 16 3d 9a c0 7f 3d 1a f8 c3 39 cf 2b 63 ba
       0.036846925 0.06243954 0.00037378148 -0.0008665891
000170 6a 88 71 bd 5c fd 6f bd c8 67 4b 3b 8b 9a b2 3b
       -0.058967985 -0.05859123 0.00310372 0.005450552
000180 02 4c 17 3e e7 df 4b 3d 06 e7 a7 bc 4f ab f1 3d
       0.14775088 0.049774077 -0.020495903 0.11800253
000190 24 84 b8 3d 3c 75 b4 bc 38 2b e3 bc ea fb b0 3d
       0.09009579 -0.022028558 -0.02773057 0.08641799
0001a0 08 ed 51 bf ab 4e a7 bd ea 29 59 bd 1c 84 0b bc
       -0.82002306 -0.081693016 -0.053018488 -0.008515384
0001b0 f6 8d 38 bd d5 a6 22 3b dd 08 fe 3d a1 7a 72 bd
       -0.04505726 0.0024818678 0.12404034 -0.05919898
0001c0 c0 5e 8f 3c 5d d7 74 be a2 da fa bd 18 91 16 3c
       0.017501235 -0.2391028 -0.12248732 0.0091898665
0001d0 af f7 96 be 79 9e 89 3b 65 50 f6 bc ec f5 ff 3d
       -0.29485843 0.0041997996 -0.030067632 0.12498078
0001e0 c0 bb 1a 3c 02 ff a3 bd 64 3a fb 3d ef 01 58 3d
       0.009444177 -0.08007623 0.122669965 0.05273622
0001f0 4b 9e 0d 3d 08 08 4e be ca 83 34 bc ac cb 07 bc
       0.034574788 -0.20120251 -0.011017749 -0.008288305
000200 e1 98 27 bd 35 4f 00 3c 83 36 9e bc 04 19 58 3d
       -0.04091728 0.007831384 -0.019313103 0.05275823
000210 dd 81 29 3d ab 70 67 bd 9e 73 01 3d b4 a5 9a 3c
       0.041383613 -0.056503933 0.0316044 0.018877842
000220 05 49 0d 3e 37 e1 75 bc 94 d0 46 be 5f d0 67 be
       0.13797386 -0.015007309 -0.19415504 -0.22638081
000230 7a 6f f4 3c 81 51 6a bd 52 a0 11 3c a9 8c b0 bd
       0.029838312 -0.057206634 0.008888321 -0.08620579
000240 f3 ab f2 bd 27 08 18 bd 2c 69 a4 3d 30 bb 04 3e
       -0.11849203 -0.03711715 0.080278724 0.12962031
000250 34 a9 91 3d cf 01 ab 3d 3d 14 bb bd 52 6a 50 3d
       0.07112351 0.08349954 -0.091347195 0.050882645
000260 36 b7 5c bd 47 e3 e7 bd 2e 88 00 bc 2e c3 1f be
       -0.05388566 -0.113226466 -0.007844968 -0.15601799
000270 5c c8 5f 3d af 7c b3 bd 18 05 a3 bd 37 44 39 3d
       0.054634437 -0.08764016 -0.07959956 0.04523107
000280 f8 a5 d0 bd c0 35 d8 3c fa ae ca 3d f3 ca f0 3c
       -0.10187906 0.026392817 0.098966554 0.029393649
000290 97 2c 0e 3e 2e 8c 08 3d 10 58 03 bd 91 18 d6 3d
       0.13884197 0.03333681 -0.032066405 0.104539044
0002a0 db 87 a0 bd c4 fb 00 3e 51 03 e0 bc e9 cc 37 bd
       -0.078384124 0.12596041 -0.027345331 -0.044873152
0002b0 75 ec 6e 3d 01 ac 90 bd cd ca 7b bd 5d 72 43 3c
       0.05833097 -0.07064057 -0.061472703 0.011929122
0002c0 ad 9c 37 3c 0a 16 ed bc 6d 1a bc ba b9 3b f6 bd
       0.011206788 -0.028941173 -0.0014351137 -0.1202311
0002d0 a8 de 19 be a6 19 c8 bc 85 14 d7 bd b6 33 73 bd
       -0.15026343 -0.024426293 -0.10501961 -0.059375487
0002e0 d1 34 10 bb 04 52 b2 bc 26 36 e5 bd e2 19 aa 3d
       -0.0022004137 -0.021767624 -0.111919686 0.08305718
0002f0 19 fd 31 3e b9 fa a8 bd 59 b4 3f 3e b3 93 a8 be
       0.17381705 -0.082509466 0.18721141 -0.32925186
000300 cd f7 8c be f8 70 ae bc 5d c2 0e bd ff 27 98 bd
       -0.27532807 -0.021294102 -0.034853328 -0.07429504
000310 8d 7e d5 3d 2b 00 d8 be 76 ab 4d 3b 65 9e 8b bd
       0.10424528 -0.42187628 0.0031382716 -0.06817321
000320 5e 4e b6 bc 91 d9 21 be ed eb e6 3d 24 23 be bd
       -0.022254165 -0.15805651 0.11275468 -0.09284046
000330 14 54 c7 bd 7d e6 aa bc 97 0b 51 bd 62 2c ae 3d
       -0.097328335 -0.020861859 -0.051036444 0.08504559
000340 5a 90 aa 3d c3 b2 a4 3d e4 73 6c be 1c 3c ab bd
       0.08328314 0.080419086 -0.23091084 -0.08361074
000350 55 33 37 3d 80 72 35 bd 59 77 40 3d 7b b8 a0 3c
       0.04472669 -0.04429865 0.04698882 0.019619217
000360 66 1a b2 bd a9 52 98 bd 94 07 97 bd fd 56 c2 3d
       -0.08696441 -0.07437641 -0.07374492 0.09489248
000370 22 50 01 3e ba 5c 3e bd a0 c9 ab bd 0a 90 d2 bc
       0.12628224 -0.04647515 -0.08388066 -0.025703449
000380 5a cc f8 be 3c e4 08 bd 82 18 c7 bd 51 dc b9 bd
       -0.48593408 -0.033420786 -0.09721471 -0.09075225
000390 ca 29 34 bd 50 04 96 3d db ea 19 bb b6 3a 12 bd
       -0.043985166 0.07325041 -0.0023485932 -0.035700522
0003a0 7b 77 d8 3c 85 e4 e6 3c 03 aa 27 be 63 1c 68 bd
       0.02642416 0.028185138 -0.16373448 -0.056667697
0003b0 f7 e6 ed 3d 93 b1 da bc de 0b 90 3d 33 e2 70 bd
       0.11616319 -0.026696002 0.070335135 -0.05880947
0003c0 86 15 1c 3c f8 3f 6c bb 0e 8f 8c be 92 bc 87 bc
       0.009526616 -0.003604887 -0.27452892 -0.01656941
0003d0 ce ac 6f 3e 0d d3 14 be 5f 90 4b bd d8 6c 03 be
       0.23405764 -0.14533634 -0.04969823 -0.1283449
0003e0 c7 5d 20 bd 43 f3 41 be a0 ba 74 3e 6a 68 6a 3d
       -0.039151933 -0.18940453 0.23899317 0.057228483
0003f0 f9 99 75 3d e7 b2 c3 3d 25 a9 06 3c ec 17 9c bd
       0.059961293 0.09555607 0.008219038 -0.0762175

network_actor.2.bias f4 [120]
000000 1a 6c 1e 3e cf a5 7d 3d 0e 4c 00 3d de 27 39 bd
       0.15470925 0.061925706 0.03132253 -0.045204036
000010 bb 58 ae bd 1c 07 7c be 9c 5d e5 3d 28 92 01 bc
       -0.08513018 -0.24612087 0.11199495 -0.0079083815
000020 c5 15 85 bd 0a 09 31 bd dc 54 a6 3d 1a 79 35 3d
       -0.06498293 -0.04322151 0.081216544 0.044304945
000030 cd ad 2d 3e f6 24 1a 3d 59 2c 21 3e 85 43 36 be
       0.16960831 0.037632905 0.15739574 -0.17799194
000040 00 5d 6d be 28 d0 02 3d 00 52 39 be 99 ad 98 3d
       -0.23180008 0.031936795 -0.18097687 0.07454986
000050 71 a5 36 3b cf 89 a8 3d 6b a2 1e bd 06 69 25 3e
       0.0027869607 0.0822941 -0.038729113 0.16153345
000060 19 31 0d bd a3 0f c7 3d 20 fe b0 bd 48 a8 c7 bd
       -0.03447065 0.09719779 -0.086422205 -0.09748894
000070 b5 34 94 3d b8 33 51 bd 7a 15 50 3c 9d 74 2d be
       0.072366156 -0.051074713 0.012700433 -0.16939016
000080 58 2f af bd 0a 57 59 bc 28 11 7b bc de fc 92 bd
       -0.08553952 -0.013265381 -0.015323915 -0.07177137
000090 03 f4 1f be 90 a4 53 be dd f0 3e be a7 4b 4e bd
       -0.15620427 -0.20668244 -0.1864657 -0.050365116
0000a0 1d d0 96 3d e2 cc b1 bd d4 eb bf 3d f1 9c a6 bc
       0.07363913 -0.086816564 0.093711525 -0.020338507
0000b0 5f 9a 0b 3e 0c 5d 0a bd 75 8c 80 bd a5 c2 8a 3d
       0.13633107 -0.033780143 -0.0627679 0.06775407
0000c0 4c a7 c2 bc 74 49 13 bd c3 c0 58 bd 62 93 72 bd
       -0.023761414 -0.035958722 -0.052918207 -0.059222586
0000d0 f7 3b 83 bd 87 b8 05 3a 42 36 8a bd 90 03 bb bd
       -0.06407922 0.0005101044 -0.0674863 -0.09131539
0000e0 3e 40 30 be 4d 43 9e bd bf fc c5 3c 5b 0f c5 3d
       -0.17212006 -0.0772768 0.02416837 0.096220694
0000f0 43 9f d3 3d 75 0e f5 3c f1 4b bf 3c e1 87 12 be
       0.10333111 0.02991412 0.023351641 -0.14309646
000100 0a bb 83 3b 46 f9 8d bc 6c 97 5a 3e 46 3a 1d be
       0.0040200995 -0.017330777 0.21346825 -0.15354261
000110 fb 61 44 bc eb 53 d8 3c 7f 5f 40 3d 6b 78 6e be
       -0.011986251 0.026407203 0.046966072 -0.23288123
000120 15 4e 2e 3b 11 29 09 3c f4 24 18 be 92 f0 f0 bb
       0.0026596833 0.008371607 -0.14857846 -0.007352897
000130 1d 66 d8 bd 9f 89 90 bc 63 af 8b 3d c8 4e 53 3d
       -0.105663516 -0.017643748 0.06820562 0.051588804
000140 b1 9a 60 3e 0a 78 f4 bb ea e1 54 bd 54 65 95 3c
       0.2193401 -0.007460599 -0.05197326 0.018236794
000150 ab 81 d7 3d 9f 56 a7 bd 25 c9 d2 bd 50 b8 39 3e
       0.10522779 -0.081708185 -0.102922715 0.18136716
000160 b2 7e 4c 3c 07 48 ef bd e0 95 8a bd 7b 65 59 3d
       0.012481378 -0.1168366 -0.06766868 0.053075295
000170 f9 07 fa bd 8c 92 3b bd 86 7c 38 3d 60 6d 02 be
       -0.12208552 -0.045794055 0.04504063 -0.12737036
000180 ef 3e 7f 3d 88 7b ae 3c 7c 65 d6 3d c8 0a c1 3d
       0.062315878 0.021299139 0.10468575 0.094258845
000190 f1 c2 44 bd 2d 64 24 be 8f d0 d6 3d f2 e6 98 bd
       -0.048037473 -0.16053839 0.10488998 -0.07465924
0001a0 62 7c 4c 3d f5 48 0d be 3d 07 85 3d 81 4c 5c 3e
       0.04992331 -0.13797362 0.06495521 0.21513559
0001b0 a6 d4 38 be ae 11 26 bd 02 e5 16 bd e8 2d 12 be
       -0.18049869 -0.040544204 -0.036839493 -0.14275324
0001c0 29 a3 a6 bc ef d6 5b be 37 9f 1f 3d 6c 27 fe bd
       -0.020341473 -0.2146871 0.0389702 -0.12409863
0001d0 64 32 4d 3c 67 6d 58 3e e1 43 3d 3e 77 69 55 be
       0.012524221 0.21135484 0.18482925 -0.20841013

network_actor.4.weight f4 [5, 120]
000000 71 e6 26 3e e2 3a 3a 3e 59 8f bd bd a8 bd 4e 3c
       0.16298844 0.18186525 -0.09255857 0.01261846
000010 5a 5b 84 bd 02 93 4b be d1 78 19 3e 7e dd 10 bb
       -0.064627364 -0.19880298 0.14987494 -0.0022104676
000020 dd 42 22 3e 4d ce 15 bd 43 b0 5f bd f8 2f 80 be
       0.15845819 -0.036573697 -0.054611456 -0.25036597
000030 ef 6c 1e 3e b6 34 9b bc 42 c7 38 3e 5e 1d 77 3c
       0.15471242 -0.018946033 0.18044761 0.015082685
000040 3d 7e 22 be 98 5e 78 3e 13 c6 3e bd 9d 90 38 bd
       -0.15868469 0.24254835 -0.046575617 -0.04505979
000050 01 e6 96 3e 0f 5c ea 3d ae b2 88 be dc 22 b5 bd
       0.29472354 0.1144334 -0.26698822 -0.088445395
000060 19 83 8e bd db 49 40 3e e1 8f 86 be f1 43 45 bd
       -0.06958599 0.18778174 -0.26281646 -0.048160497
000070 2e 4b 2e 3e 81 37 31 3e cd ae bd bd 28 31 08 bd
       0.17020866 0.1730633 -0.09261856 -0.033250004
000080 83 da 95 bd 98 e1 e7 3d 0c f9 6f 3e 1d f9 57 be
       -0.073170684 0.113223255 0.23434848 -0.21091123
000090 34 d1 16 bd ca e9 18 be 00 ab b6 bd 47 b4 26 3e
       -0.036820605 -0.14932933 -0.089193344 0.16279708
0000a0 a0 9a e4 3d 1a 6c 7f bc 0c 8f f9 bc 2a 07 ce bd
       0.11162305 -0.015589738 -0.030463718 -0.1005996
0000b0 c8 93 c2 3c 0a a6 24 3c c6 5e c2 bd 36 10 c9 3d
       0.023752108 0.010049352 -0.09490733 0.09817545
0000c0 9a c4 57 3e d7 fc 9a bd 53 b9 85 bd 55 3f 61 3d
       0.21071091 -0.075677566 -0.065294884 0.05499204
0000d0 e6 13 3b 3d ba 4b b0 3e 9c a4 d2 3e f8 0b 6c be
       0.045673274 0.34432775 0.41141212 -0.2305144
0000e0 b7 35 3e bd 82 2a 60 bd 3e d5 8f 3d 71 4e 5d 3e
       -0.046437945 -0.05472804 0.070230946 0.21611954
0000f0 54 82 d5 bc 21 7f 67 3e 8e 1b 5b 3e c3 34 61 bd
       -0.026063122 0.2260709 0.2139723 -0.054981958
000100 c2 9f e0 bb 1c 1b 37 3d 0e 1a 56 3e 70 a2 4a bd
       -0.006854982 0.044703588 0.20908377 -0.04947132
000110 61 24 9b 3e e3 f0 11 3e 40 36 82 3e 40 a0 17 be
       0.30301192 0.14252047 0.25432014 -0.14807224
000120 46 98 fa bd 1f 68 00 bd 79 97 0a be 8d 68 1f be
       -0.12236075 -0.031349298 -0.13534345 -0.15567227
000130 6c 8a 5d 3e d4 01 d9 3d c7 64 30 3e 39 b7 01 bd
       0.21634835 0.10596052 0.17225944 -0.031668875
000140 b9 8d 9e 3d 45 bf 51 bc 51 7a 87 bc dc 85 9d 3d
       0.07741875 -0.01280195 -0.016537817 0.07691547
000150 5d 94 31 3e 59 fc df 3c f9 04 5c be e6 87 c9 3a
       0.17341752 0.027342008 -0.21486272 0.0015375584
000160 41 fe aa be 80 f3 9c 3e c5 c5 c6 3c 88 a1 38 be
       -0.33397105 0.30654526 0.024264226 -0.1803037
000170 e8 12 a8 bd 51 54 4d 3e d3 f0 0c 3e 0b 8c 00 be
       -0.08206731 0.20051695 0.13763742 -0.12553422
000180 cb a4 0e be 34 91 14 3e 40 46 3f bd db 7e 8a 3e
       -0.13930051 0.14508516 -0.046697855 0.27049908
000190 aa 15 78 3d db 1e 01 be 6a 4b 0f 3e c0 eb 98 bd
       0.060567535 -0.12609427 0.13993612 -0.07466841
0001a0 2d 7d 10 3d d4 7f f9 bd 5d a4 fc 3d 42 e2 f8 3d
       0.035275627 -0.121825844 0.12336037 0.1215253
0001b0 8b a6 a2 bd 91 0e 2a be bf f6 a4 3d 06 7f a9 3c
       -0.07941922 -0.16607119 0.080548756 0.020690452
0001c0 0c 05 5a 3e f2 99 7a bd 22 93 d7 3d 7c 86 85 bd
       0.21290988 -0.06118197 0.1052611 -0.065197915
0001d0 41 22 b9 3d f6 0d 19 3d b2 6c 7b bd ba 59 c3 bc
       0.090397365 0.03736683 -0.061382957 -0.023846496
0001e0 91 5b ec 3c 6c f8 5f 3d b3 e9 bd 3d 88 3d 0a bd
       0.028852256 0.054680273 0.0927309 -0.033750087
0001f0 c0 b5 ef bc 63 9a 45 be f5 63 7d 3d 01 92 45 3d
       -0.02926147 -0.19297175 0.061862905 0.048234943
000200 a8 cd 82 3d c6 91 8d 3d f1 c9 0e be d0 7e a7 be
       0.06386882 0.0691257 -0.13944222 -0.32713938
000210 fb 24 5d 3e c6 6c e1 bc c6 28 5d 3e f9 21 aa 3d
       0.21596138 -0.027517688 0.21597585 0.08307261
000220 b2 dc 89 be 78 ab 59 3e 3d 02 dd bb f6 e2 02 3c
       -0.2692619 0.21256816 -0.0067446516 0.007988682
000230 03 f7 a9 3d 6b 22 ea bd 67 9a 89 bd 1b e3 27 be
       0.08299067 -0.11432346 -0.06718903 -0.16395228
000240 53 32 c8 bd c7 9b 3d 3b 3a 53 a2 3d d6 b8 cb bd
       -0.097752236 0.0028931962 0.079260305 -0.09947364
000250 0b 39 6f 3d a7 7a f3 3d 87 27 b3 be 79 03 bf bd
       0.05840401 0.118886285 -0.34991094 -0.09326834
000260 cf 21 14 be 13 89 85 3e 70 6c 58 3d ca 9c 5f be
       -0.14466022 0.26081142 0.05283779 -0.21837154
000270 33 df ed 3d 29 cf 0e be 21 43 83 bd 0a 2d 8a bd
       0.116148375 -0.13946213 -0.06409288 -0.06746872
000280 c9 24 2e 3e 75 2c 8d 3c 43 bf 42 3d e1 c8 2b bd
       0.1700622 0.017233113 0.047545683 -0.04193962
000290 5d 19 2d be 53 66 cb 3d 3d 86 7f 3d 23 58 95 bd
       -0.16904207 0.09931626 0.06238388 -0.07292201
0002a0 e3 10 41 bd bf 5c ee 3b 56 0f 09 be a7 cf 3e bd
       -0.047135245 0.00727424 -0.13384756 -0.04658475
0002b0 39 ce 4b 3e 63 3a 84 3e 53 d5 4b 3d 9f 58 44 be
       0.19902886 0.25825796 0.04976399 -0.19174431
0002c0 ba a4 2e 3c be 2c 21 be 82 b1 b2 3d e0 bb 94 3e
       0.010659391 -0.15739724 0.08725263 0.29049587
0002d0 76 fb 24 3c 69 db 5a 3e 71 9c 6c 3e ec 7c 1f 3e
       0.010069719 0.21372761 0.23106553 0.15574998
0002e0 ca 8e c8 ba 15 b0 0f be 89 d2 28 3e 83 f8 30 be
       -0.0015301344 -0.14032014 0.16486563 -0.172823
0002f0 3d 17 6b bd 95 36 a6 3b 12 b9 30 3e d5 42 21 bd
       -0.05739521 0.0050724247 0.17258099 -0.039370377
000300 f8 fd f0 3d 9f 4e a0 3d 69 e2 99 3c f1 b0 22 be
       0.11767191 0.07827496 0.018784719 -0.1588781
000310 eb b2 9c 3e f3 ac 1c be bd 28 1f 3e 49 2b ef 3c
       0.30605254 -0.1530035 0.15542884 0.029195445
000320 1f 3b 1c 3e 15 33 2b 3e bc 89 5b bd e7 1a 2c 3d
       0.15256928 0.16718705 -0.05359815 0.042017844
000330 6e 04 f8 3b 9e da cc bc 30 00 d3 3d cd fa b8 bd
       0.0075688874 -0.025006589 0.1030277 -0.090322115
000340 44 b9 66 be c0 c0 af 3d 21 5d 98 3d 41 dd 31 bd
       -0.2253161 0.08581686 0.07439638 -0.043423895
000350 52 a2 ee 3c b5 ea 03 be 3a 05 17 bc ca 55 8b 3d
       0.029130135 -0.12882502 -0.009217555 0.06803472
000360 66 ec 93 be b1 f9 6e 3d 85 6f 51 3d 58 04 4d 3e
       -0.28891295 0.058343593 0.051131744 0.20021188
000370 e9 f8 9b bd 06 62 0a be ad 20 9a 3d a6 ae de bd
       -0.07615835 -0.13513955 0.07525764 -0.10873155
000380 14 3a 90 bc 64 f1 55 be a8 c7 9c 3d c8 e6 39 3e
       -0.017605819 -0.20892864 0.07655269 0.18154442
000390 97 53 5b be 93 e4 a6 bd 92 e7 80 bd 7d a7 31 be
       -0.21418606 -0.08149066 -0.062941685 -0.17349048
0003a0 02 b6 93 bd 26 ec b5 bd 89 09 d7 bd 96 3d 09 be
       -0.072124496 -0.08882932 -0.104998656 -0.134024
0003b0 4e a9 27 3e d2 fd 3c bc 67 76 67 3b 3f 31 a4 be
       0.16373178 -0.011535125 0.0035318376 -0.32068822
0003c0 38 02 1e be 77 6d 15 be 49 17 59 bd 87 57 06 3c
       -0.15430534 -0.14592539 -0.053000722 0.008199579
0003d0 9a e4 92 3d 26 4d 79 3d 13 bf 93 be 2a f3 f3 3c
       0.071725085 0.06086459 -0.28856716 0.029779036
0003e0 c9 a1 c0 3b ed b0 40 3e 45 64 b2 bd da 0e 71 3e
       0.0058786613 0.18817492 -0.08710531 0.23540822
0003f0 a5 0e 00 be 1c af 00 bd ac b5 f4 bd 5f 9f 00 3e
       -0.12505586 -0.031416997 -0.11948714 0.12560795

network_actor.4.bias f4 [5]
000000 34 20 35 3e e6 ff 30 bd f4 78 ac bd 0c 09 83 3d
       0.17688066 -0.043212794 -0.084215075 0.0639821
000010 f7 a0 e0 bb
       -0.006855126
