checkpoint/ddpg-actor_mlp_actor-lr:0.0001_critic-lr:0.0002_gamma:0.99_tau:0.02.pth (torch, 63063 bytes, 6 tensors)

network_actor.0.weight f4 [70, 140]
00000000: 2e4b b1bc d4c4 e23d 6383 5bbd 84ed 7cbd
00000010: bba0 59bd 2e8c 5c3d 3edc 233d 0a9f 27bd
00000020: 6514 cfbc c118 a7bd a49a 2ebd bd7f d5bb
00000030: 8294 503b 4d2e 063b 2db7 b33d 7b8e 1fbd
00000040: eabb 893d 43f2 99bd 6d95 333d 1912 c4bd
00000050: 4ba3 5bbe 629f cd3d 2a88 0fbd 0102 a5be
00000060: d6bf 9b3c 1855 8ebb ba62 5fbd 5243 a4bd
00000070: 8b76 47bc a593 eb3d 81a8 133d 9804 873d
00000080: ed28 d63c deda 3d3d 7cfb ccbc e663 6dbd
00000090: 24b9 6fbd 4d8d b8bd cf56 5cbd 7a2d 69bd
000000a0: 27b9 e4bc bcc0 fd3c 03ed 41bd 6c9e 84bd
000000b0: 2988 1c3d 2362 163d 5a18 9b3d 9790 b3bc
000000c0: 4441 55be a3b2 a4bc ac77 8bbd 709e 8bbe
000000d0: 8fb2 27bd 8e65 443c 9653 513c 4728 873d
000000e0: ad91 68bd 574f bf3d 7f4d 993d 639b 463d
000000f0: 5360 373d b72f 5b3c 6260 c2bc a9ad 483c
00000100: 4a3a 5abc 1164 8c3c a62c ba3c c473 dc3c
00000110: 1fa4 a2bc cd67 173b 21e2 6e3d 7634 e1bd
00000120: 4df1 7f3d 0b33 2cbd 3563 953d b2d8 ddbd
00000130: 5053 353e a8c1 15bd ac48 973c e0e0 bd3d
00000140: e663 113d a4a1 b8bd 886d 203d 0b3d 493d
00000150: 3334 83bd 3c9d 2a3d 50c3 eabb 3f96 afbd
00000160: b8fe 313c f256 833c 0feb 72bd cd21 023c
00000170: 2744 023d 9b4e cabd efc8 563d 27cf 553d
00000180: 422c b2bd 753c 6f3b 561e 373c a0f7 f03b
00000190: d4e1 63bd cdf9 003d f66d f63c 7391 2bbd
000001a0: 484b cfbd 0d53 3cbd a62b 95be b1e1 bebe
000001b0: a622 b83c 9631 4c3d 105f 523b 7b59 5a3d
000001c0: c0ce bdbd 5734 9b3d 6bd7 04bb f456 6d3d
000001d0: 2f4b f53c 3951 4e3c c7ba 4dbd 7b94 a83d
000001e0: de1e 62bc a608 2dbc 4efd a03d ac8d 1abd
000001f0: 0ac4 63bd cb0e e33d 0df2 4d3d 50d2 f136
00000200: 1869 b1bb 0bed 1abc 43f2 513c 9438 e93b
00000210: c3ff 3cbd 06d0 903d 56d1 47be 5b23 2dbe
00000220: 23c7 c33b 7e5f e03c 6ba5 85bd cc57 2e3d
00000230: b09a 753d b0f9 be3d 7cc3 e03d 1633 8abd
00000240: e3a4 0cbd aa6f d6bc a2c4 313d 7857 ca3d
00000250: 94c9 ae3d 10ed 453d f6a1 923d 7418 143d
00000260: 44e2 ea3d 7bb5 063d f6ea 36bd 9d80 5b3d
00000270: 5fda eabc 5014 e03c f04c 07bd eb8a 83bc
00000280: aac1 fbbd f54f 2a3d 71d9 bdbd d953 3c3c
00000290: 5173 223d ec12 b7bd 9216 983d 7072 9cbc
000002a0: 9945 483c c841 b13d 13d1 ca3d 80d0 403a
000002b0: 0db0 cfbc c128 60bc 4b3e 61bd 6395 aa3d
000002c0: 91eb e93d 9c9f 38bd fa91 e93d 1052 253d
000002d0: a6ec ca3b 056a e83d b9b0 0cbd 5626 06bd
000002e0: 07c3 a13c f7d4 85bb 6e1f f1bb f0bf 97bd
000002f0: fc66 883d cd09 96bc a56b 973d 2e3e de3d
00000300: 9d1c 1f3d 7246 a9bc e8ce 9c3d 3019 4f3d
00000310: 26fd 4d3d 8ded 893d 8e00 ab3d eb06 493d
00000320: 74ee 2d3d 5875 eabc a53b 8ebd 9817 b2bc
00000330: 4f42 fabb 70fe 823d 8da7 d83d a6b5 8ebd
00000340: 32be b93d 1146 333d 4247 c9bd 8418 e7bc
00000350: 8593 be3d 92b9 47bb 7b9e 10be 4dde c83c
00000360: fda5 1e3e 98ca 323d 4f6b 203d 1b54 5c3e
00000370: 9685 643d 9ae2 60bd a71a babc a6a4 423d
00000380: f7af 01bd 836a 0f3e becd 633b 7b67 a0bd
00000390: 664a e9bc 447c 91bd 8d87 983c f504 5c3d
000003a0: b145 9e3c cffe f43c ccf7 2a3c 38a9 193d
000003b0: 75c8 173b 898b 923d c313 a63c be87 8cbc
000003c0: 800e aa3d 08d2 9b3d 28da 11be ee47 98bd
000003d0: fba1 c3bc e8f9 033c 2068 bebd 52a7 89be
000003e0: 0bf8 c8bc 4905 eabc 5f09 23ba 76db 263d
000003f0: f607 72bd 156c 173e b1e9 46bc 8c04 ef3c
-0.021642294 0.11072698 -0.053592097 -0.06174995 -0.0531318 0.053844623 0.04000496 -0.040923156
-0.02527828 -0.08159018 -0.042627946 -0.0065154717 0.0031826799 0.0020474375 0.087751724 -0.03895424
0.06725295 -0.07516911 0.043843675 -0.09573764 -0.2144901 0.100401655 -0.035041966 -0.3222809
0.019012373 -0.00434364 -0.054537512 -0.08020653 -0.012174259 0.1150277 0.03604937 0.06592673
0.026142562 0.046351306 -0.02502226 -0.0579566 -0.058526173 -0.09011326 -0.053793725 -0.056928135
-0.027920319 0.030975692 -0.047345173 -0.06475529 0.03821579 0.036714684 0.07573004 -0.021919532
-0.20825678 -0.020104712 -0.06809935 -0.27269316 -0.04094177 0.011987103 0.012776276 0.06599479
-0.056779552 0.09341305 0.07485484 0.048488032 0.044769596 0.013378075 -0.0237276 0.012248435
-0.013319561 0.01713756 0.022726368 0.02691067 -0.01985365 0.0023102642 0.058321122 -0.10996334
0.06248598 -0.042040866 0.07294313 -0.10832347 0.17707562 -0.036561638 0.01846727 0.09271407
0.03549566 -0.090152055 0.039166957 0.04913048 -0.064064406 0.041653857 -0.0071643963 -0.08573579
0.010863952 0.01603267 -0.0593062 0.007942629 0.031803276 -0.09878274 0.05243772 0.05219951
-0.08699848 0.003650454 0.011176666 0.007353738 -0.05563529 0.03148823 0.03008173 -0.041886758
-0.10121781 -0.04597764 -0.29134864 -0.37281564 0.02247746 0.049851976 0.0032100119 0.05330799
-0.0926795 0.075783424 -0.002027 0.057944253 0.029943077 0.012592607 -0.050226953 0.082314454
-0.013801305 -0.010561144 0.07860814 -0.037732765 -0.05560688 0.11086806 0.050279666 7.2068433e-06
-0.0054141395 -0.0094559295 0.012814107 0.0071173403 -0.04614235 0.07070927 -0.19513449 -0.16908018
0.0059746667 0.027389284 -0.065256916 0.0425642 0.059961975 0.09324968 0.10974786 -0.06748025
-0.034336936 -0.026176292 0.043400414 0.098799646 0.08534542 0.048321784 0.07159798 0.036156133
0.11468938 0.032887917 -0.04465767 0.053589452 -0.02866858 0.027353436 -0.033032358 -0.016057452
-0.12292798 0.04158016 -0.09269989 0.0114946 0.039660756 -0.08939156 0.0742618 -0.019097537
0.012223625 0.08655125 0.09903159 0.00073552877 -0.025352502 -0.0136815915 -0.054991048 0.083292745
0.11421884 -0.04507409 0.11404796 0.040361464 0.0061927615 0.113483466 -0.034348223 -0.032751404
0.019746317 -0.0040842253 -0.007358483 -0.07409656 0.06660268 -0.01831522 0.073935784 0.108517036
0.038845647 -0.020663474 0.07656652 0.05056113 0.05029025 0.06734762 0.08349715 0.049078863
0.042463735 -0.028620407 -0.0694497 -0.021739766 -0.007637299 0.06396186 0.10578833 -0.069682404
0.0906948 0.043767992 -0.098280445 -0.028209932 0.09305481 -0.0030475599 -0.14122956 0.024520064
0.15493007 0.04365024 0.039164837 0.21516459 0.05579146 -0.054903604 -0.022717787 0.047520302
-0.031661954 0.14005475 0.0034760083 -0.07832237 -0.028477859 -0.0710378 0.018619323 0.053715665
0.01932034 0.029906658 0.010435056 0.037514895 0.0023160253 0.071555205 0.020273095 -0.01715457
0.08303547 0.0760842 -0.14243376 -0.074355945 -0.02388095 0.008055188 -0.09297204 -0.26885468
-0.024532339 -0.028566973 -0.0006219353 0.040736638 -0.059089623 0.14787324 -0.012140677 0.029176973

network_actor.0.bias f4 [70]
00000000: 78f5 c2bd 5a6d d13d 789d 743d 346d c8bc
00000010: e36c 6fbd 2f49 4d3d 285f 84bc f145 c43c
00000020: e750 30bd 09fa ddbc 7e37 94bd 0d67 303d
00000030: 8d56 b73d 8679 bd3c dde6 983c c734 89bd
00000040: f20f 04bd b503 c83c 4811 bf39 5805 e53b
00000050: 7a21 793d 8f2c e7bc c388 4fbc a1af 1abd
00000060: 629a f53c e82b 203d 22c7 713d 6d48 8d3d
00000070: 7003 463d 98a5 103d 87f8 9c3d 5efc cebd
00000080: 6939 5bbd 5f9a 10bd aa8f 533d 3fd6 2cbb
00000090: 1692 a4bd 15c1 a8bd 9c7c f6bb 7a2f 003d
000000a0: 0bf3 01be 5e5d ca3c 968e 70bc b4d4 6fbd
000000b0: 9bf5 0f3c a962 663c ad86 a53d 4d04 753c
000000c0: 4fe2 91bc 195a 8d3d c393 0fbd c536 c8bd
000000d0: 463d 5a3d 8628 35bd d766 57bd 4bda 533d
000000e0: 673f 993d 61c2 2e3c f64b 753d 8e43 a5bd
000000f0: 7647 2bbc 0d99 893d d404 97bd 61ed 5e3d
00000100: c6a7 bebc b367 05bd a174 d33d 0f3b 2ebd
00000110: 31aa c03c 0565 973d
-0.09519476 0.10225935 0.059720486 -0.024466135 -0.05845345 0.05011862 -0.016158655 0.023959132
-0.043045904 -0.027096765 -0.07237147 0.043067027 0.08952055 0.023129236 0.018664772 -0.066995196
-0.03224177 0.02441583 0.00036443234 0.0069891624 0.06082294 -0.02821949 -0.012666884 -0.03776515
0.029980842 0.039104372 0.0590278 0.0689858 0.048343122 0.035314173 0.0766459 -0.10106729
-0.053521547 -0.03530347 0.05165068 -0.0026372818 -0.08035676 -0.082399525 -0.007522179 0.031295277
-0.1269037 0.024702724 -0.014682433 -0.05855246 0.008786584 0.014061608 0.08082328 0.014954639
-0.017808108 0.069019504 -0.035053026 -0.097760715 0.05328109 -0.0442281 -0.05258831 0.051721852
0.07482796 0.010666461 0.059886895 -0.08069526 -0.010454049 0.06718645 -0.07373968 0.0544256
-0.02327336 -0.0325696 0.103249796 -0.04253679 0.023518654 0.07392315

network_actor.2.weight f4 [70, 70]
00000000: e939 b2bd e1e4 f03d 4d3f e33c b1ca 7d3d
00000010: 322f 513d f7e4 ba3d b6de 75bd c415 8cbd
00000020: 4461 2f3e 2491 223e 6a6d 0dbe 40c6 ccbc
00000030: 7901 ea3d d2de c7bc 5b6d bcbc 87c0 9cbd
00000040: 52d1 da3d 0661 ce3c 445b ee3c 2f46 1e3e
00000050: 9108 ff3d e8be d13d d487 a9bb 9f09 acbd
00000060: 0e3a a53d f41d cb3d 39e0 93bd e00c ba3d
00000070: 39b0 8d3d b790 243c f147 8dbd 0dc9 173d
00000080: 6fda ac3d 8513 913d b848 d33c e947 93bb
00000090: 48a0 7dbd 33b9 9b3d b5c5 ffbd 1600 70bc
000000a0: cf7b 283d fcd3 153e 83db f5bb 0006 a2bd
000000b0: a4bc 0f3e 69d7 70bd 48cb 35bd f051 c3bb
000000c0: 778c a13c cc15 b6bd 2aee 9d3d b4be b33d
000000d0: c758 7fbc 9704 ecbd 0760 1c3c 8b8e c33c
000000e0: 4d34 ad3d f26e 3fbd fb74 b93c bcee 01be
000000f0: 9057 303e 4e38 13bd bccf 3dbd c974 cdbd
00000100: 4669 55bd 46ea 9fbd 4c9a d8bd 441d 30bd
00000110: d844 b63d 0038 41bc d59b a33c a41b 783d
00000120: 6b29 b4bd a1bf a3bd 66b5 b9bd 1187 2e3b
00000130: e6a2 dfbd 501a d23d 583f b8bd 2c2e 09be
00000140: aa79 a93d 3ba5 9d3d e191 7abd e9ec 42bd
00000150: 6fa5 823d cbc3 b93d edf4 b23d ee80 3bbd
00000160: 6ce6 18be 9c84 34bd a280 fbbd 6ab8 0cbd
00000170: 2dc4 d23c 776b a3ba 830b cfba 50ab 0a3e
00000180: 21a7 03bc 4f83 14bc 146c dbbd 36b2 fd3d
00000190: 2140 193e 94ba 90ba 6069 98bd 3821 a7bc
000001a0: 537c dcbd ef8e e7bd e994 0d3e 5b39 de3c
000001b0: f0eb f23c 2ad2 33be ed62 debd de0c d03d
000001c0: 0538 6fbd c2af 2b3e c5be af3d 2e85 c1bb
000001d0: 4b12 a43d dc42 86bd 1177 2abd 14a1 fbbc
000001e0: 7340 993d 45ca f93d 1262 ec3d 181a bdbd
000001f0: e16c 023e 29fe 51bc ccaa d03d 770c 523d
00000200: 74d7 8f3d 4a78 213e 98f9 85bd 5d50 a23d
00000210: 42d5 963d 1c02 313c 43fe 9d3d 0bc5 903d
00000220: 8d46 8bbc 05a0 02be ce68 b4bd 9b5d d5bd
00000230: d1e5 103e 0641 b5bd 5af8 77bc 7cc4 af3d
00000240: b06f 843d b4b2 903d ce7c 2a3d 489b 78bd
00000250: 4cea f23c bfe4 9a3d 8a30 0fbe f90f 19bd
00000260: 9d4b c23d d502 76bc a215 8fbd 67e0 ccbd
00000270: 2882 28bd c17b 873d fa8f 743d 7231 473d
00000280: cf5e be3d 2d83 2fbd 6c0d 873d 6fa4 12be
00000290: 6f1f ed3d 7f42 ca3d bc29 6b3d 899b e7bd
000002a0: 2a69 b4bd 5b7c b6bd 6865 c439 2619 283d
000002b0: 0714 283e e2ce 063a a104 0b3c 6746 38be
000002c0: cb56 d13d 0cb2 913d e2a8 77bd d53b 413d
000002d0: bfeb 53bd a96a e73d 1629 d0bd 1c01 0dbd
000002e0: 08f5 d8bc 5803 18bd f757 193d 5576 0e3d
000002f0: c70b cbbb c492 303d 9b68 0e3e b3f1 3d3d
00000300: f90d 82bd bba4 81bd f836 023d 75d5 b1bd
00000310: a65a 9b3d a86a d0bd 6ce3 0ebd 8e67 f43d
00000320: d52a bfbc 70de cdba 75ec d73d c07e 8abb
00000330: c576 d1bd 2b87 543d 08a9 94bd 4e92 5fbd
00000340: 778e b9bd 9c5f b93d 852a af3d 526d b43c
00000350: 18b4 fabd 3d83 de3d e7ab 8a3d f2a6 643d
00000360: ef17 94bb 36cd 9abd af13 d4bd 12fb 3bb9
00000370: 9f60 febd d7a0 033c a009 b93c 12a9 133b
00000380: a244 7ebd 01b1 c23d b399 38bd cdf4 1a3d
00000390: db58 283e ced9 12be 9a8c 363d e44f f5bd
000003a0: 9c22 bebc ef14 a5bd 25f4 9f3c 6e07 1f3e
000003b0: d154 fabd d668 183e fbe5 c3bd f049 18bd
000003c0: 2af2 953d 53c3 0e3d a5f5 c8bb 1491 cc3d
000003d0: cdb1 283e 8eee d0bd c23d 84bd 993e f23d
000003e0: 8840 58bd 23a6 493d 0f41 4bbd 1192 8bbc
000003f0: cd18 8d3d b638 bbbd 5577 553d 292e 83bd
-0.08702452 0.11762405 0.027740145 0.06196088 0.0510704 0.09125703 -0.060026847 -0.06840089
0.17126948 0.15875679 -0.1381127 -0.024996877 0.11426062 -0.024398241 -0.023001364 -0.07653909
0.10684456 0.025192749 0.029096253 0.1545646 0.12452806 0.102414906 -0.0051736627 -0.084002726
0.08067714 0.099178225 -0.072205015 0.09084487 0.069183774 0.010044268 -0.06898487 0.03705697
0.084401004 0.07083801 0.025791511 -0.0044946563 -0.061920434 0.07603683 -0.124888815 -0.014648458
0.041133698 0.14631647 -0.0075029745 -0.07911301 0.14036804 -0.05879918 -0.044383317 -0.0059606954
0.0197203 -0.08890876 0.07711442 0.08776608 -0.015585131 -0.11524313 0.009544379 0.02387168
0.08457241 -0.046736665 0.022638788 -0.12688726 0.17220902 -0.03594237 -0.04634069 -0.100320406
-0.05210235 -0.07808356 -0.10576305 -0.04299666 0.0889985 -0.011793137 0.019971767 0.060573235
-0.08796962 -0.07995535 -0.09067802 0.0026630799 -0.10919742 0.10258925 -0.08996457 -0.1339652
0.08275159 0.07697531 -0.061174277 -0.047589216 0.0637921 0.09070548 0.08738122 -0.045777254
-0.14931649 -0.04407178 -0.12280394 -0.03435556 0.02572831 -0.001246794 -0.0015796277 0.13541913
-0.008035452 -0.0090645095 -0.10713974 0.12387507 0.1496587 -0.0011041933 -0.07441974 -0.020401582
-0.107659005 -0.11306559 0.13826336 0.027126959 0.02965352 -0.1756064 -0.10858712 0.10158704
-0.058403034 0.16766265 0.08581308 -0.005905769 0.080113016 -0.06555721 -0.041617457 -0.030716456
0.07482996 0.12196783 0.11542143 -0.092334926 0.12736847 -0.012816944 0.10188827 0.05128142
0.07023516 0.15768543 -0.06541747 0.07925484 0.073648944 0.010803726 0.07714512 0.07068833
-0.017001415 -0.12756355 -0.088090524 -0.104182445 0.14150168 -0.08850293 -0.015134895 0.08582398
0.06466615 0.07065335 0.04162293 -0.060694963 0.029652737 0.07563161 -0.1398336 -0.03736875
0.09487078 -0.015015324 -0.06986548 -0.10003739 -0.04113975 0.06615401 0.05970762 0.04863114
0.09295427 -0.04284971 0.06594357 -0.14320539 0.11578261 0.098759644 0.057412848 -0.11308963
-0.08809121 -0.08910438 0.00037459587 0.04103961 0.1641389 0.0005142522 0.00848499 -0.17995606
0.102216326 0.07114038 -0.060463794 0.0471762 -0.051738497 0.11299641 -0.101640865 -0.034424886
-0.026484028 -0.037112564 0.037437405 0.03478082 -0.0061964723 0.043108717 0.13907091 0.04637308
-0.06350321 -0.06330248 0.031790704 -0.08683292 0.07585649 -0.10176593 -0.034884855 0.11933814
-0.023335854 -0.001570655 0.105431475 -0.0042265356 -0.102277316 0.05188672 -0.07258803 -0.054582886
-0.09060376 0.09051439 0.08553032 0.022024784 -0.122413814 0.108648755 0.06771069 0.055823274
-0.0045194547 -0.07558672 -0.10355317 -0.0001792724 -0.12420773 0.008033953 0.022587597 0.0022531194
-0.062077172 0.09506417 -0.045068454 0.037831116 0.16440146 -0.14340898 0.04456768 -0.119781286
-0.023209862 -0.080606334 0.019525597 0.15530178 -0.12223209 0.14883742 -0.0956535 -0.037179887
0.0732158 0.034854244 -0.0061327987 0.09988609 0.16474076 -0.10201751 -0.06457092 0.11828346
-0.052795917 0.049230706 -0.04962259 -0.017037423 0.06889496 -0.09141676 0.052115757 -0.06405289

network_actor.2.bias f4 [70]
00000000: dcd6 c9bc 9371 68bd 5638 e5bd c87c f93d
00000010: 3c22 d5bb 4fba 74bd b7a7 d33c 48c3 163d
00000020: 9a87 efbc e848 ef3d 0bc3 ee3c 42e3 c2bd
00000030: 2d6f a23d 8404 603d dd5f 8cbd 0a8b c43d
00000040: bd03 a93d 803a b13d a58d 7bbc 6110 333c
00000050: 9b72 6fbd 7df5 253c ffae b7bd ee64 24bd
00000060: ad3a 24bd 19d5 763d a5f3 98bd 0977 4fbc
00000070: 21b6 cdbc f3d9 e0bd 5ca7 b3bc 6888 25bd
00000080: 07b3 a43b 291a 073e ad8c 8ebd 7b26 e6bd
00000090: c356 c7bd 5bc1 81bd fd69 85bc c86b 783d
000000a0: 6a30 f0bd ffe6 653d de15 9ebd 2f17 debc
000000b0: 92c1 1a3d 136a 0f3e 5331 f43d 492d 6e3d
000000c0: fbb8 e1bd 2974 8abc e611 c2bd 6bd7 9cbd
000000d0: 0ad6 a43b 291c 523d 1adb db3d 3105 ca3b
000000e0: 0ebd 0fbe 4664 b53d 1b43 d3bd e04f 04bc
000000f0: 28f3 20bd eb10 893c 822b dd3d 98d6 dbbd
00000100: 5c9f 7c3d a6ca b9bd 0448 5fbd eb35 b4bb
00000110: fdc9 293e 4ab4 ab3c
-0.024638586 -0.056748938 -0.11192386 0.12182003 -0.006504325 -0.05974799 0.025836809 0.03680733
-0.029239465 0.11683828 0.029145738 -0.09516002 0.07931361 0.054691806 -0.06854222 0.09596832
0.08252666 0.08653736 -0.015353595 0.010929198 -0.058458906 0.01012933 -0.08968925 -0.040135317
-0.04009502 0.06026182 -0.074683465 -0.012662658 -0.02511126 -0.109790705 -0.02193039 -0.04041329
0.0050262245 0.13193573 -0.069604255 -0.11237808 -0.09733345 -0.06335708 -0.01628589 0.060649663
-0.11727984 0.0561285 -0.077190146 -0.027110664 0.03778226 0.14005308 0.1192347 0.058148656
-0.1102161 -0.016901093 -0.0947607 -0.07658275 0.0050303983 0.051296387 0.1073515 0.0061651696
-0.14036962 0.08857016 -0.10315534 -0.008075684 -0.039294392 0.0167317 0.10799314 -0.1073429
0.061675414 -0.09071855 -0.05451204 -0.0054995916 0.16580959 0.020959992

network_actor.4.weight f4 [5, 70]
00000000: 2a7c a8bd 82c8 953c ca3d 99bd 5991 0e3e
00000010: f478 26be afe4 e4bd d0c3 8bbd 87d7 303d
00000020: 1631 89bd 3f2d 0bbe cc39 0abe 096a ed3d
00000030: 14d1 fc3c 192e 6b3b 0f96 18be 2ee9 e43d
00000040: b926 c2bd 56b8 7f3d 0266 693d 5808 52bc
00000050: 1ad4 343d fb59 f73c cc2f 05be 0439 03be
00000060: e64d d03b 5605 aabd 6b16 ec3d 610b 37be
00000070: 829f cd3d 8acb fc3c a9c0 f13d f935 e7b7
00000080: 1019 853d 3621 1cbe 76ee bfbc 35ad d3bd
00000090: 8539 59bd 155e bc3d a8e7 88bc 3c59 0ebe
000000a0: 19ee 8ebb 0bc6 23bd 0115 16be 8352 e13c
000000b0: 8c05 d2bc a77d b63d 229e f8bc 2684 743d
000000c0: a64d 19be aba6 c03d 498c c0bd fade 75bd
000000d0: fe60 bf3c 6ed7 183d b1f9 4f3d 30a3 87bd
000000e0: c500 a8bc f507 343d 14e3 6d3c b414 893d
000000f0: c49d c33d eef6 683d 1e89 debd 8fed afbd
00000100: 4617 aabd 31d3 043d 4a16 8dbd 0357 5d3d
00000110: 539d 323a e968 90bd 8dfd 623d 1c5a 6fbd
00000120: 0c3a 9b3c 6d6d babd 8bc5 c73d 0664 053d
00000130: 7f1f 2e3d ba0d e5bd ed4e 49bd fa90 1b3a
00000140: eccd e5bd b157 c63d f20e 82bd f02d 26bd
00000150: 23b6 db3d cec4 b23d 2fb6 5ebc b80e 723d
00000160: cc96 c2bc 1982 19bd 9193 313d 2c4c 64bd
00000170: 4f13 efbd 0648 efbb dfc6 c63d 85c6 193d
00000180: f13f 0bbb fb68 a4bd 4141 edbb 7eda 2bbd
00000190: b783 923d f034 54bd cb08 65bd 1655 173c
000001a0: 73e3 42be 19f4 753d f399 80bd c0ee c1bc
000001b0: 58e5 82bc cd57 d2bb c7c3 1b3c 329a 9d3d
000001c0: b89d 863d 89d6 a73d 33c8 933d d5ba c6bc
000001d0: f522 86bd 2e04 483d b2c4 40bc 2fac b83c
000001e0: 316a e1bc 12c9 bebc 259a 8f3d 2d13 c0bd
000001f0: 0d97 bcbd 0ca8 fe3a f72c 973d 18c7 55bd
00000200: a0fd d0bd 0c91 8a3d e841 9c3d 0fbf bc3d
00000210: d848 66bd b6a1 05bb 0022 35be e107 7cbd
00000220: 7787 bf3d 2b27 83bd e2b3 d4bd f885 c0bc
00000230: 715d 57bc 7410 28be dd23 123d 7b5e 55bd
00000240: 055d 983c d51f ebbd fade 97bd c942 c93c
00000250: 5de2 06be 7c97 af3c 5747 6cbc 2838 68bd
00000260: 989c 4e3d e920 6dbd b432 a3bd a2d2 7c3d
00000270: 4848 b7bd d71c 9a3b 1629 edbb 3cb9 a03d
00000280: 3271 4abc 7e05 de3c b319 42be b121 abbd
00000290: 4214 b9bd 3311 b8bc 6341 6c3c 8a06 223d
000002a0: 6996 dd3c 3fb9 e5bd e3de 983d a155 8bbd
000002b0: 1330 213d 203d 3bbd d79e 753d 460c 40bd
000002c0: bce9 533d 7649 b2bd 51b0 72bd 5f29 f3bd
000002d0: 53e3 36bd 0ad8 94bc b33a bebb aff4 17bd
000002e0: 2c10 04be ab24 653d 67d6 bebc 7c15 2cbd
000002f0: a038 c5bd c10a 9d3d 0803 02be d069 583d
00000300: 08ca 713d da7b e33c d3b0 c4bc 4b82 b8bb
00000310: 0212 4cbc 847b 0cbd 3727 193c e231 663d
00000320: c457 d6bd 66f3 e33d 6f53 313d 5264 e3bd
00000330: dbae b13d 8c01 6f3c 5034 303d 820d 87bd
00000340: 7562 ffbd 6b1d cbbd 3257 03be d836 a13d
00000350: a5ac 1ebe 122f 2fbe d48c 813d e523 ad3d
00000360: aa38 473d eed0 123e 53b1 e03b 04aa 803c
00000370: 8551 b83c 949c a7bd 26ed f4bd f900 113d
00000380: dd18 353e fa98 2e3d 376f fbbd 02a1 99bd
00000390: 1d03 97bd 3960 153e 4fa8 c53d 0d5f 08be
000003a0: 80f3 04be 1bf6 8f3d d232 853a 4ac1 b1bc
000003b0: b1e7 f13c 907b 273e 8c30 a03d 3250 81bd
000003c0: 7a53 833d ce61 a33d 2975 9fbd 9b28 013b
000003d0: 0599 9ebb 4df1 013c d60c 0fbe acdf 8fbd
000003e0: 3de9 7d3c a1e6 d23c 0601 93bb b380 13bb
000003f0: 7951 0cbe e081 d4bd 0dcb e13d 2c67 0a3e
-0.082268074 0.018284086 -0.074824885 0.13922633 -0.16257077 -0.111764304 -0.06824458 0.043174293
-0.066988155 -0.13591479 -0.1349861 0.1159249 0.030861415 0.003588563 -0.14900993 0.11177288
-0.09480042 0.062431656 0.056982048 -0.012819372 0.04414759 0.030194273 -0.13006514 -0.12814718
0.0063569425 -0.08301799 0.115277134 -0.17875434 0.10040189 0.030858774 0.11804325 -2.7562479e-05
0.06498921 -0.15247044 -0.023429137 -0.10335771 -0.05303337 0.09197632 -0.016712025 -0.13901228
-0.0043618795 -0.03998379 -0.1465645 0.027505165 -0.02563741 0.08910685 -0.030348841 0.05969634
-0.14971027 0.094067894 -0.09401757 -0.0600271 0.02336168 0.037314825 0.050775234 -0.066229224
-0.02050818 0.0439529 0.014519472 0.06693402 0.09551576 0.056876116 -0.10865997 -0.085902326
-0.0830522 0.03242797 -0.06889017 0.05403806 0.0006813604 -0.0705126 0.055417586 -0.058435544
0.018948577 -0.091029026 0.09754475 0.032566093 0.042510506 -0.11184259 -0.049147535 0.0005934384
-0.11220917 0.096846946 -0.06350507 -0.040571153 0.10728099 0.08728944 -0.013593241 0.05909607
-0.023753546 -0.037477586 0.04335362 -0.055736706 -0.11673605 -0.007302287 0.097059004 0.03754284
-0.002124783 -0.08027836 -0.007240445 -0.041956417 0.07154029 -0.051808298 -0.05591659 0.009236595
-0.19032077 0.060047243 -0.062793635 -0.023673415 -0.0159785 -0.006419158 0.009507126 0.07695426
0.06573051 0.08195216 0.07215919 -0.02425901 -0.06549636 0.04883211 -0.011765646 0.022543041
-0.027516456 -0.023289237 0.070118226 -0.093786575 -0.09208498 0.0019428744 0.07381623 -0.052191824
-0.10204625 0.06765947 0.07629758 0.09216129 -0.056221813 -0.0020390577 -0.17688751 -0.06153095
0.0935201 -0.06403955 -0.103858724 -0.023501381 -0.013144837 -0.16412526 0.035678733 -0.052092057
0.018599043 -0.11480681 -0.07415576 0.024567978 -0.13172288 0.021434538 -0.014421306 -0.05669418
0.05044231 -0.057892714 -0.07968655 0.061724313 -0.089493334 0.004703145 -0.007237564 0.07847831
-0.012356089 0.027102228 -0.18955116 -0.083560355 -0.09037067 -0.022469139 0.014419886 0.039557017
0.02704926 -0.112169735 0.07464387 -0.06803442 0.039352488 -0.04571259 0.059965935 -0.046886705
0.05173658 -0.08705418 -0.05925018 -0.11873125 -0.044650387 -0.018169422 -0.0058053373 -0.037098583
-0.12896794 0.055943172 -0.023295594 -0.042012677 -0.09629941 0.07668067 -0.12696469 0.052835286
0.059030563 0.027769018 -0.024010098 -0.0056307665 -0.012455465 -0.03429748 0.009347728 0.056199916
-0.10465959 0.11130409 0.04329246 -0.11103119 0.08675929 0.014587771 0.04301864 -0.06594373
-0.12469951 -0.099177204 -0.12826231 0.07871789 -0.15495546 -0.171078 0.06325689 0.08454112
0.048638023 0.14337513 0.006857076 0.01570607 0.022499809 -0.08184162 -0.11959295 0.03540132
0.17685266 0.04262636 -0.12277072 -0.07501413 -0.07373641 0.14587487 0.09651243 -0.13317509
-0.12983513 0.07029363 0.001016224 -0.021698613 0.029529424 0.16355729 0.078217596 -0.06314124
0.06412406 0.07977639 -0.077860184 0.001970804 -0.0048400187 0.007931066 -0.1396974 -0.07025084
0.015497503 0.025744738 -0.004486206 -0.002250713 -0.13702954 -0.10376334 0.11025057 0.1351592

network_actor.4.bias f4 [5]
00000000: 4ffc d9bc 0b90 c5bd f985 133d b716 043e
00000010: 0e21 93bd
-0.026609568 -0.09646615 0.03601644 0.1289929 -0.07184039
