checkpoint/ddpg-critic_mlp_actor-lr:0.0001_critic-lr:0.0002_gamma:0.99_tau:0.04.pth (torch, 63319 bytes, 5 tensors)

network_critic.0.weight f4 [70, 145]
000000 05 b3 c6 3d 4b e2 80 3e d6 87 6f bd a9 48 71 3e
       0.09702114 0.25172648 -0.058479153 0.23562874
000010 79 f9 69 3d e2 03 1d be 6b 48 d0 3c 6d 6b 35 be
       0.05712268 -0.15333512 0.025425157 -0.17716761
000020 a5 39 48 bd ea 8c 9c 3d f0 ef 45 be 4f 1d ff bd
       -0.0488831 0.07644065 -0.1932981 -0.12456762
000030 d2 3e 13 3d d4 89 03 3d b9 4f 9e 3b bf 15 60 3c
       0.035948582 0.032113865 0.004831281 0.01367706
000040 0c 17 7d 3d c4 40 54 3d 5e ff 22 bd 19 14 84 3c
       0.061789557 0.051819578 -0.03979432 0.016122865
000050 25 32 a6 be 9f ce 7f be 48 cb f5 be 01 d2 e6 be
       -0.32460132 -0.24981163 -0.48006654 -0.45082095
000060 a3 e4 f0 3d d3 1c 86 bd 8a 52 b7 3d 43 dc 6d 3e
       0.11762359 -0.065484665 0.0895129 0.23228554
000070 c4 f1 56 3c 80 e7 9f 3e a2 6e cd bd ed 76 3c 3e
       0.013119165 0.31231308 -0.10030867 0.18404742
000080 a4 1f 16 3e 9d 01 cc bd f7 ba f2 3d 27 c0 99 bd
       0.14660507 -0.09961245 0.11852067 -0.07507353
000090 52 cc 48 bb a7 c1 9e 3c 44 c1 10 be b7 f6 c3 bd
       -0.0030639363 0.01937945 -0.14136225 -0.095685415
0000a0 06 df e7 ba 26 18 e9 3c 70 6d 19 3d 9b ba af bc
       -0.0017690368 0.028453898 0.037457883 -0.021451285
0000b0 2f b7 c6 bd 38 6e 45 bd 40 e6 99 bd ac 4c af bc
       -0.09702908 -0.048200816 -0.0751462 -0.021398865
0000c0 7a 84 86 bf e5 d7 0a 3f e4 41 97 3f 71 2a 6e bf
       -1.0509179 0.5423568 1.1816983 -0.9303351
0000d0 25 b4 15 3e 95 6c 88 3d a0 8f f8 3c 2b ff 36 3e
       0.14619501 0.066613354 0.030341923 0.17870776
0000e0 b8 9e 9d 3d b6 f6 84 3e 22 be 5d bd cb d9 44 3e
       0.07696289 0.25969476 -0.054136403 0.19223706
0000f0 9f c3 32 3e bd a7 4c bd 4e 6f a6 3d 09 ed 45 be
       0.17457436 -0.049964655 0.081266984 -0.19328703
000100 36 79 69 3d 93 ce dd bc 26 b9 51 be 3e f7 63 bd
       0.05700036 -0.027076041 -0.20480785 -0.05565571
000110 64 c0 bc bc a9 6a 85 3d 53 75 15 3e bd 21 a1 3d
       -0.023040958 0.065144844 0.14595537 0.07867763
000120 ee dc ea bc 80 04 c6 bc d8 1a 59 bd 72 9b 86 3d
       -0.0286698 -0.024172068 -0.053004116 0.065726176
000130 b9 21 2c 3f 14 99 30 3e 96 57 41 bf 33 09 2f 3f
       0.67238957 0.17245895 -0.7552427 0.6837341
000140 a5 75 44 3e 91 83 84 bd 59 21 64 3c 5e b2 47 3e
       0.19185503 -0.06470407 0.013923966 0.19501635
000150 c2 d3 7a bd b9 d3 3b 3e a6 f7 94 bd 98 6d 9e 3e
       -0.061237104 0.18342485 -0.07273798 0.30942988
000160 1e c2 99 3d 8c 5c 26 be 8b bc 99 3d 9e 09 4d be
       0.07507728 -0.16246241 0.07506665 -0.200232
000170 a1 ed 59 3d a9 15 6b bc 54 eb d1 bd ac 3f 1c be
       0.053205136 -0.014348426 -0.102499634 -0.15258664
000180 37 c1 a0 3c c1 67 e5 3c c3 9e 2b 3c 08 6d 01 3e
       0.019623382 0.028003575 0.010474863 0.12639248
000190 f8 dc 29 bd 2b a4 75 3c 7a 69 56 3d ba 12 d5 3d
       -0.041470498 0.014992754 0.052346684 0.104039624
0001a0 52 8a a1 3f 9d 0a e1 3e 3f be e0 bd 01 56 98 3f
       1.2620337 0.4395341 -0.109737866 1.1901246
0001b0 4c e4 54 3e 02 0b 5f 3d 2a 21 c6 3c 88 73 6d 3e
       0.20790213 0.054453857 0.024185736 0.23188603
0001c0 da 36 05 bd 88 80 99 3e d6 10 46 3c bd d0 8a 3e
       -0.032523014 0.29980874 0.012088975 0.2711238
0001d0 cc a5 3d 3e b0 cb f0 bd f5 35 8a 3b 99 90 05 be
       0.18520278 -0.117576 0.004217858 -0.13043441
0001e0 1f c0 07 bd c0 2e 1f 3d da 20 58 be 85 b8 1c be
       -0.033142205 0.038862944 -0.21106282 -0.15304764
0001f0 38 5f 95 3d 24 47 26 3c 3e a4 0f 3e bf 8d e7 3d
       0.07293552 0.010148797 0.14027497 0.11306333
000200 e0 98 bb 3b b2 08 9f 3d d8 95 76 bd f9 0d 66 bb
       0.005725011 0.077653304 -0.060201496 -0.0035103543
000210 7f f1 59 be 96 bf 47 bf a5 68 af 3f ca c9 74 bd
       -0.2128353 -0.7802671 1.370381 -0.059762754
000220 3c 13 4e 3e fa 99 8b bd bf 86 88 bd 6e a0 c2 3d
       0.20124525 -0.06816478 -0.06666326 0.09503256
000230 ef ca c5 3d ea 3f 03 3d 64 22 2e 3d 3a 2b 8b bd
       0.09657847 0.032043375 0.042513266 -0.06795354
000240 1a e9 f0 3a 59 aa 62 3c 1a cd 1f 3e f1 9a 38 3e
       0.0018380017 0.013834559 0.15605584 0.18027855
000250 b8 59 ed bd c1 24 da 3d 61 f7 ee bd 23 44 15 bd
       -0.11589378 0.106515415 -0.116682775 -0.036441933
000260 58 b3 5b 3e 76 6e a0 3d 83 8d 69 3c 67 33 ee bd
       0.21455133 0.07833569 0.01425493 -0.11630898
000270 ce e0 6f bd 74 43 9c bb 75 15 1f 3d de 83 77 3d
       -0.058564 -0.004768783 0.038838822 0.060428493
000280 4a 8f 1b 3d 45 f2 ab 3c c5 94 62 3d bf 27 91 bd
       0.037978448 0.020989547 0.05531766 -0.07087659
000290 3e da fd 3d 5a fb 31 c0 bc 67 f5 3d ce 74 8e 3e
       0.12395142 -2.7809663 0.119826764 0.2782349
0002a0 a6 af 91 c0 b2 77 07 3f 48 24 a9 3d 8b 9b f3 3d
       -4.5526915 0.52917016 0.08258873 0.11894902
0002b0 4f 2c 88 3e 3a a6 ed 3c 7e 4c 60 3e 8d 06 87 3d
       0.26596305 0.029009927 0.2190418 0.06593046
0002c0 0a 76 b1 bd c2 75 96 3d 2d 2b 9a 3c 39 2b de 3d
       -0.08665092 0.07346679 0.018819416 0.10848088
0002d0 04 96 11 3e 71 be ee 3d ce 6c 4a 3c f7 fe f7 bd
       0.14217383 0.116574176 0.012355043 -0.121091776
0002e0 eb f5 42 3c 3f 62 af bd 6e 62 fd bd 0c b7 8c 3c
       0.011899452 -0.08563661 -0.123722896 0.017177127
0002f0 18 4a 62 3d 93 b8 2d 3d 99 d1 2a 3d 8a 74 6b 3c
       0.055246443 0.04241235 0.041703794 0.014371047
000300 3d 26 64 3e f0 02 30 bf 03 80 95 3e c8 17 a2 3f
       0.22280212 -0.6875448 0.29199228 1.2663507
000310 7e 3c 22 c0 e7 da e2 3e b2 97 4a 3e 6a 40 04 3e
       -2.5349422 0.44307634 0.1978443 0.12915197
000320 ac 12 8d 3e 0f 6b 31 bc b9 71 66 3e 57 f2 aa 3d
       0.27553308 -0.010828747 0.22504319 0.08347004
000330 e3 6f a8 bd 23 a6 09 bd 8f a5 6c bd 78 59 f4 3b
       -0.08224466 -0.033605706 -0.057775076 0.0074569546
000340 0c f7 1b 3e 7f a6 87 3d b7 8e 29 bd 14 16 04 be
       0.1523096 0.066235535 -0.04139587 -0.12899047
000350 08 d9 17 bc ee 43 c7 bc b1 87 9c bc 0a 68 c7 3c
       -0.009268053 -0.024324384 -0.019107671 0.024341602
000360 82 f8 91 bd 83 71 c2 3d 52 86 b9 bd 43 90 8f 3d
       -0.07127477 0.09494307 -0.09058823 0.070099376
000370 d1 20 ee 3d 57 cc da be 57 1a a7 3e b2 b9 c9 3e
       0.11627353 -0.42734024 0.32637283 0.39399487
000380 0d 6d dc bf 54 12 05 3f 11 3a e5 3d 40 fa da 3d
       -1.722078 0.5198109 0.11192716 0.10692263
000390 e4 c4 5c 3e 89 2e 06 3e 17 44 06 3e 73 7e a0 3d
       0.21559483 0.13103689 0.13111912 0.07836618
0003a0 65 d3 a3 bd 8a 46 4d 3d ac dc 7d bd 2e cf b1 3d
       -0.07999305 0.0501161 -0.061978027 0.086820945
0003b0 f9 37 34 3e d2 0d ff 3c 89 aa df bd d7 d0 0d be
       0.17599477 0.03113452 -0.10921199 -0.13849197
0003c0 43 cc b0 3c 52 11 62 bd ce 49 8e bd 4c 3e ea ba
       0.021581775 -0.0551923 -0.06947671 -0.0017871349
0003d0 d2 07 38 bd 49 6c 3a 3d 2b 85 34 3d d3 29 8d 3a
       -0.044929333 0.045513425 0.04407231 0.0010769911
0003e0 95 69 4d 3e 95 cd a6 3f 7c 6c a0 3e 59 18 36 bf
       0.20059808 1.3031489 0.31332767 -0.711309
0003f0 08 25 6d 40 55 85 ef 3e ca 13 ff 3d 91 7f 67 3e
       3.7053852 0.46781412 0.12454946 0.22607256

network_critic.0.bias f4 [70]
000000 cb 31 a1 3d 6d 21 ac 3d 82 ef cc b9 20 ce b8 bc
       0.078708254 0.08404813 -0.0003908836 -0.022559226
000010 53 aa bd 3c a3 4a 88 bd a0 b2 33 bc a4 89 31 3e
       0.023152506 -0.06654861 -0.0109678805 0.17337662
000020 e8 3d e9 bd f8 03 10 3c 32 ac 5b 3d 44 9a f8 bc
       -0.11388761 0.008790009 0.053631015 -0.030346997
000030 95 2b b1 3c 0e f4 18 bd d2 33 94 bd 54 16 f2 bd
       0.021627227 -0.037342124 -0.072364464 -0.11820665
000040 e4 fc 0f bd 19 8b ef 3d 77 e6 16 be d5 93 6d bd
       -0.035153285 0.11696453 -0.14736353 -0.05800231
000050 e8 d1 b0 bd 39 eb 99 bc b1 4e 9b bd be a4 2a 3c
       -0.086337864 -0.01878892 -0.075833686 0.010415254
000060 34 7b 2e bc 9c 5f 81 3c b1 c0 21 3e a6 23 df 3c
       -0.010649491 0.01579266 0.15796162 0.027238678
000070 9a a7 e6 bd 85 58 19 3c a8 88 3a bd 86 3f b6 bd
       -0.11262436 0.009359484 -0.04554048 -0.08898835
000080 3c 74 cb ba 5d 61 91 bd 21 67 8e 3c 39 d3 95 3d
       -0.0015522311 -0.07098649 0.01738316 0.07315678
000090 45 62 a2 bd 1e 24 d1 3d 82 2b c1 3c ac 51 d3 3d
       -0.079289 0.10211967 0.023580316 0.10318312
0000a0 dd 9e 0a be a0 dc f8 3c 9f 6d d9 bb c7 8a 2e 3c
       -0.13537164 0.03037864 -0.0066353823 0.010653204
0000b0 29 fe 2f bd b0 07 f0 3b 14 2a 4a 3d 0b 26 22 3a
       -0.042966995 0.007325135 0.049356535 0.00061854784
0000c0 ca 6b 78 3e 0a 61 1b 3d f8 be 15 be 02 3a 60 3d
       0.24259868 0.03793434 -0.1462363 0.05474282
0000d0 2d 3b be 3d d4 fa 46 bb 33 52 f4 bd 21 0d 85 bc
       0.09288631 -0.0030361908 -0.11929741 -0.016241612
0000e0 36 34 67 3e 40 94 e7 39 9f 6e 0f be ca 0a 27 3d
       0.2257851 0.00044170208 -0.14007042 0.040781774
0000f0 e9 90 a0 bd bf 6e cc 3c 1a f5 ca bd 12 66 8d bd
       -0.078401394 0.024955152 -0.09910031 -0.06904234
000100 90 fb 71 3b aa a0 c6 3b 59 cd 4a bd 2e 59 73 bc
       0.0036923625 0.006061633 -0.04951224 -0.014852805
000110 cd 93 c4 bd eb 8c 7c bc
       -0.09598503 -0.015414457

network_critic.2.weight f4 [70, 70]
000000 d4 67 17 bd 85 97 38 bc 3b 13 02 3e 85 2e 53 3d
       -0.036964253 -0.011266594 0.12702648 0.051558036
000010 71 9b 84 bd a6 20 10 3e 67 41 9d 3d 2b d0 08 bd
       -0.064749606 0.14074954 0.0767849 -0.03340165
000020 58 44 0c be cc 36 8d 3d b6 73 ca bc 92 95 31 3e
       -0.13697946 0.06895217 -0.024713378 0.17342213
000030 4f 65 73 3d 9f a1 ea bd 0a fc b4 3c f3 af c7 bd
       0.059422787 -0.11456608 0.022092838 -0.097503565
000040 38 a2 ca bd 23 e8 09 be 5a 1c 8d 3d 32 63 39 3d
       -0.09894222 -0.1346746 0.06890173 0.045260616
000050 1b f0 05 3d 31 9c 43 3d 11 c6 a2 3d 1b 73 68 3d
       0.032699686 0.047756378 0.079479344 0.056750398
000060 b6 f4 18 3d 66 c3 aa bc 18 f1 c2 3d 44 45 a2 bc
       0.03734275 -0.020845126 0.09518641 -0.019808419
000070 9f a8 63 bc 48 4b 8d bd bb a1 bd bd 30 ce 06 3e
       -0.013895183 -0.068991244 -0.09259363 0.13164592
000080 fa fb 9e bd 8c d6 8f 3d fe 85 bb bd 54 d2 7d 3d
       -0.077629045 0.070233434 -0.09156416 0.061968163
000090 a5 25 e3 bd 2b ef 34 3c 23 a1 91 3d c3 5a ba bd
       -0.110911645 0.01104335 0.071108125 -0.09099343
0000a0 9b 90 b9 bc 9b c8 1e 3e 2a f9 88 bd 02 45 ed bc
       -0.022651961 0.15506212 -0.06688149 -0.02896357
0000b0 5f 3c b4 bd d3 65 9e 3d 97 27 9a bb ea 5b 70 3c
       -0.08800577 0.07734265 -0.0047044265 0.0146703515
0000c0 6c 04 04 be 9f 95 48 3d be fa d2 3d 7f 93 d2 3c
       -0.12892312 0.048970815 0.103017315 0.025705097
0000d0 52 e1 4b bd 8d fe 06 3d 15 65 a5 bb bc 02 e4 bc
       -0.04977543 0.032957602 -0.0050474503 -0.027833335
0000e0 1d 10 29 3e 01 33 39 3d a4 9d d6 3d fb 61 ca 3c
       0.16510053 0.045214657 0.10479286 0.024704924
0000f0 ac 02 cc 3d ef bd 26 bd c9 9d 7a bd 1a 8b dc bd
       0.09961447 -0.04070848 -0.061185632 -0.10768719
000100 da 1d ff 3d eb bf 11 3d 53 d0 87 3d b6 a8 e2 bd
       0.124568656 0.035583418 0.066315316 -0.11067335
000110 d1 10 0a 3e 7a 42 8c 3d 3e 91 b2 3d a3 38 fd bd
       0.13482977 0.06848617 0.08719109 -0.12364318
000120 5b 2d 9d bd 39 25 aa be f7 4b c3 3d c8 46 f7 3e
       -0.076746665 -0.33231524 0.095359735 0.4829619
000130 d4 d3 47 be 50 08 75 3c a3 4e 99 bd ef 16 82 bd
       -0.195144 0.014955595 -0.07485702 -0.063520305
000140 37 fe 29 3d 53 e6 5e 3e 73 9d 8c 3d 76 ad a5 bd
       0.041502204 0.21767549 0.068659686 -0.08089726
000150 9f 3a d5 3d c4 7e b6 bd e5 43 6b bd f6 17 3d bb
       0.10411572 -0.089108974 -0.057437796 -0.0028853393
000160 0a 4e 2b bd a8 6d 47 be 88 f9 a0 bc 29 13 41 bd
       -0.04182247 -0.19475424 -0.019650236 -0.047137413
000170 7f d9 9e bc 25 b9 21 be ae 4f ab 3d 07 5d 18 3d
       -0.01939082 -0.15793283 0.08364807 0.037198093
000180 76 b9 c1 bb 7a b0 1e 3d 25 c3 d3 3d 0d c0 0a 3d
       -0.0059120012 0.03874252 0.10339955 0.03387456
000190 de 36 d1 be d5 0e 1d 3e 01 58 23 be bc 78 0b 3c
       -0.40862173 0.15337689 -0.1595154 0.008512672
0001a0 6e 87 29 3e 4f fd fa 3c 1a 21 ae 3d fc 2e 22 3e
       0.16555569 0.030638365 0.08502407 0.15838236
0001b0 d4 8a 7c bd c3 27 2c bc 00 21 4a 3d b2 a7 a9 3d
       -0.061655834 -0.010507527 0.049347878 0.082839385
0001c0 37 28 b5 bd 95 b0 3b 3d 70 60 e4 3d f4 9c 09 bc
       -0.08845561 0.0458227 0.111512065 -0.008399237
0001d0 94 44 f6 ba 81 ad f0 3c f2 98 22 bc 30 a5 7e 3e
       -0.0018788748 0.029379608 -0.00992416 0.24867702
0001e0 9d c7 6a bd 4a ba b0 bd c5 6b ec bd 51 06 d8 3d
       -0.057319272 -0.08629282 -0.11543993 0.1054808
0001f0 bd 26 24 bc e0 52 4e 3e e8 b8 ef bc 18 f7 6a 3d
       -0.010019002 0.20148802 -0.029262975 0.057364553
000200 6a 57 66 bd f2 53 24 3c 1b 46 5c bd 3e 1e a1 bc
       -0.05623571 0.01002978 -0.053777795 -0.01966774
000210 0e 96 90 3b f9 a6 06 3e d2 dd 8b bf 71 b4 27 bd
       0.004412419 0.13149633 -1.0927069 -0.040943567
000220 54 21 be be 2d 69 b4 be 45 fd 90 be 84 0c b8 3e
       -0.37134802 -0.35236493 -0.2831823 0.3594705
000230 cf f1 0e 3d 1c bf ad bd 12 63 75 3d fb 9d f9 3c
       0.034898575 -0.08483717 0.059908934 0.030470839
000240 0d cd 0d be 28 df 94 bd 06 fb b8 bd 45 77 a6 bd
       -0.13847752 -0.07269126 -0.09032254 -0.081282176
000250 32 96 2c bd 69 84 a1 bd 65 c4 a2 bd d0 11 f9 bc
       -0.042135425 -0.07886583 -0.079476155 -0.030404001
000260 15 a8 16 bc b2 fb b1 3d e1 28 b6 3d 70 42 e5 bd
       -0.009195347 0.08690585 0.08894516 -0.111943126
000270 45 0a 01 3d e3 c1 47 bd 3d 65 d5 bd a5 be a4 bd
       0.031503934 -0.04876889 -0.104197 -0.08044175
000280 1b 7f 91 3d d0 c9 dd bd fe 30 00 be 43 4d 87 bc
       0.071043216 -0.10829508 -0.12518689 -0.016516333
000290 1e c6 6b 3d 5d d7 85 bd 34 b3 13 bd 89 c1 d0 3c
       0.057561986 -0.06535218 -0.036059573 0.02548291
0002a0 93 88 55 bd 72 1b c0 3c 33 fd 9c 3d e8 e8 e5 bc
       -0.0521322 0.023450587 0.076654814 -0.02806516
0002b0 ad 33 e8 bb cd ea c8 bc 33 17 64 3d 45 36 e6 bd
       -0.0070862384 -0.024526024 0.055686187 -0.1124082
0002c0 0a c9 02 be f7 b0 b8 3b 13 7f fd bc 37 d3 06 3d
       -0.12772003 0.00563633 -0.030944383 0.032916274
0002d0 b0 6a 54 3d 79 5b 5c bd b4 50 28 bd f7 f0 40 ba
       0.051859558 -0.053798173 -0.04109259 -0.00073601253
0002e0 15 07 2d 3d e6 47 8b bd 39 10 a4 bd d4 16 57 3d
       0.042243082 -0.06800823 -0.08010907 0.052512005
0002f0 f6 4a 05 be 6c 19 e0 bd 96 c5 de bd 8c c9 34 3d
       -0.13016877 -0.10942349 -0.1087753 0.044137523
000300 05 22 05 bc 30 81 b2 bc 73 d5 d9 bd 30 f9 9e 3d
       -0.008125787 -0.021790117 -0.10636415 0.077623725
000310 84 f2 50 3d 40 11 de bd 94 0a 76 3d 2c b5 8e 3d
       0.05101253 -0.10843134 0.06006868 0.069681495
000320 0a fb ec bd e2 53 9b 3d 8e 6a 1f 3d 28 03 a6 bd
       -0.115713194 0.07584359 0.038919978 -0.08106071
000330 24 a7 72 bc 7c b3 a9 3d 0c 40 02 be c1 0f 86 bc
       -0.014810357 0.08286187 -0.12719744 -0.016364934
000340 54 59 74 bd 3f 0c 88 bd 2e f9 37 be 63 eb 96 3c
       -0.059655502 -0.06642961 -0.17966148 0.018422788
000350 9b 04 a5 bd b6 86 09 be 33 d3 22 bd a0 98 1c be
       -0.08057519 -0.13430294 -0.039752197 -0.15292597
000360 c5 81 cd bd 9e de 1a 3e 2c 0d 2a be 18 e7 8e 3d
       -0.10034517 0.15123984 -0.16606587 0.069776714
000370 58 16 bc bd 45 f6 97 3d 49 5f ad bd 14 47 32 be
       -0.09183949 0.07420019 -0.0846544 -0.17409927
000380 42 f6 09 be 6f b2 be 3d c5 76 5f 3d fd 9c 79 bd
       -0.13472846 0.09311377 0.054556627 -0.06094073
000390 3f 23 5d bd 18 28 9f 3d 7c 9a fb 3d b4 b5 00 bc
       -0.05398869 0.07771319 0.12285325 -0.007855821
0003a0 f6 77 cc 3d fe f3 88 3b 2b c7 ca be 3a 87 b2 3d
       0.09983818 0.0041794768 -0.39605078 0.08717199
0003b0 ec 09 6e 3e e5 6d 60 be 49 43 19 3e a0 e6 48 bd
       0.23245972 -0.21916921 0.14967074 -0.049048066
0003c0 ac 9f fa 3d 4f 3e b9 bd ab c4 5d bf 43 5d aa 3d
       0.12237486 -0.090450875 -0.86628217 0.083185695
0003d0 41 a4 d6 3d 6c 7b 1c 3e ec cf 25 3e b5 ca 2b 3e
       0.10480548 0.15281457 0.16192597 0.16776545
0003e0 0f f9 bf bd db 9f 40 bd 23 03 01 3e 9b d6 2d 3e
       -0.09373676 -0.04702745 0.12598853 0.16976397
0003f0 92 7d 79 3d 48 8b 7e bd 77 5d 91 bd a1 f9 dc 3c
       0.06091077 -0.062144548 -0.07097905 0.026974501

network_critic.2.bias f4 [70]
000000 07 af e3 3b 60 50 e4 3d fa 7f 9a bc 93 50 85 bb
       0.006948355 0.11148143 -0.018859852 -0.004068443
000010 bb 0a d1 bc bd fa 09 3d e1 f6 da bd ef e4 18 3c
       -0.025517812 0.03368639 -0.1069162 0.009331926
000020 7c a5 87 3d 19 f2 84 bb 08 cf 6d bd 99 7e 70 3c
       0.066233605 -0.0040571806 -0.05805877 0.014678621
000030 15 9b 1f bc 1e 91 c9 3d 9e 48 e9 3d 62 8d 49 3d
       -0.009741564 0.09842132 0.11390804 0.0492071
000040 29 db 05 3d 37 de f8 bd 50 df 2b bd 24 76 32 bd
       0.03267971 -0.12151759 -0.041961014 -0.0435697
000050 0c 74 ab 3d 4b 8f ea bd 2f 82 77 3c 63 03 74 bc
       0.083717436 -0.11453112 0.015106722 -0.014893386
000060 04 58 ba 3c ab d9 a9 bd 38 f6 8a 3c bf a0 ff bd
       0.022747047 -0.0829347 0.01696311 -0.12481832
000070 19 53 00 3c 1a a3 5f bd 50 bb 14 be 80 97 f6 bd
       0.007832312 -0.054598905 -0.14524579 -0.12040615
000080 05 19 c6 bd a6 29 9d bd a4 bb a1 3c 42 6f 0f 3d
       -0.09672741 -0.076739594 0.019742794 0.035018213
000090 f3 bd 46 bd 09 40 77 3d 87 d3 ee 3d ce 20 a3 3c
       -0.048520993 0.060363803 0.116614394 0.019913103
0000a0 53 5d ac ba 0c e7 0e be 9d 9a 05 3e d2 8c da bd
       -0.0013150371 -0.13955325 0.13047262 -0.106713906
0000b0 5e f5 8a bd 2a 4c 25 3d 75 ff 11 bc f2 32 ff 3d
       -0.06785081 0.04035584 -0.008911003 0.12460889
0000c0 e1 54 8b bd 72 a5 08 be 78 cf 11 3e 50 da 83 3d
       -0.06803299 -0.13344362 0.142393 0.06438124
0000d0 96 50 87 3d 3d 26 cb 3c 2a 96 5c 3d 49 c7 0e be
       0.066071674 0.024798507 0.053854145 -0.13943209
0000e0 b9 de d1 3c 2b f1 b6 3d c0 35 d0 bc e3 ca b5 3d
       0.025618898 0.08932718 -0.025416255 0.08876588
0000f0 ed dd 91 bd c4 e4 ca 3d 7c f9 09 be 1f 26 0d be
       -0.07122407 0.09906915 -0.13474077 -0.13784073
000100 36 31 95 bd 59 36 cd bd 68 2c 9d 3d fc fd 4c 3c
       -0.07284777 -0.100201316 0.076744854 0.0125117265
000110 58 33 a8 3c 71 31 82 bd
       0.020532295 -0.063570864

network_critic.4.weight f4 [1, 70]
000000 06 88 28 3d 17 68 9a be b4 a6 76 3d 4e 9f 02 be
       0.041145347 -0.3015754 0.060217574 -0.12756082
000010 03 67 0c 3e ce 07 8f 3d de 75 e1 be 0f e6 69 3e
       0.13711171 0.069839105 -0.44035238 0.22841667
000020 8a 91 52 3e e8 2d 6a be 83 15 2e bd 49 3d a2 bd
       0.20563331 -0.22869074 -0.042500984 -0.079218455
000030 a5 a4 8b 3d ff 41 96 bd e2 ea 0c bf 5c 32 6a be
       0.06818513 -0.073368065 -0.550459 -0.22870773
000040 7c da 87 3d ee a9 20 3c fc 2a 12 3e 99 d3 85 bd
       0.066334695 0.009806139 0.1427421 -0.065345
000050 a0 17 a3 bd e1 eb c5 bb c1 db b7 3e 73 35 2d bd
       -0.079634905 -0.006040082 0.35909846 -0.0422873
000060 76 a9 e1 3d 6d d3 77 be 02 ac e1 bd 85 fb 73 3d
       0.1101865 -0.24201746 -0.11019136 0.05956604
000070 ae 05 4b bd 55 02 55 be 01 90 68 3e 01 99 6d bd
       -0.049565963 -0.20801671 0.22711183 -0.058007244
000080 31 f1 d6 3e 5d 40 a0 3d d2 fb 89 3d e2 c0 dc 3d
       0.4198089 0.07824776 0.06737484 0.10778977
000090 99 ec b8 bd f9 4c 59 b8 ae 1f c2 bd 97 db 97 bd
       -0.090295024 -5.1808518e-05 -0.09478699 -0.0741493
0000a0 88 91 59 bd 94 9a fa 3b 09 06 0e be 07 f8 8d 3d
       -0.053117305 0.0076478217 -0.1386949 0.06932073
0000b0 29 2d aa 3d 5f eb 61 bd e5 89 b6 3e d2 b7 68 3e
       0.08309395 -0.055156108 0.3565208 0.22726372
0000c0 b4 e2 e9 3d 0d 58 ac 3d d4 80 ee bd 2f 72 63 be
       0.11420193 0.08415232 -0.11645666 -0.22211526
0000d0 c7 4a d3 3d df a7 14 bd 23 3f 13 bd b5 69 1c 3e
       0.10316997 -0.036292907 -0.035948884 0.15274699
0000e0 b2 bb 71 bd 03 df 1d be f6 2f 99 bc 4a b6 d2 bd
       -0.05901689 -0.15417103 -0.018699627 -0.10288675
0000f0 2f cd 81 3e 34 d6 d3 bd eb 97 28 3e 88 50 29 3a
       0.25351855 -0.103435904 0.16464202 0.00064588385
000100 e8 c3 02 3e 60 c9 4f 3d da 5f 0c 3e 6b ad 8b 3e
       0.12770045 0.050729156 0.1370844 0.27280745
000110 22 ef 66 bd 69 88 ae 3e
       -0.0563804 0.34088448
