checkpoint/ddpg-actor_mlp_actor-lr:0.0001_critic-lr:0.0003_gamma:0.99_tau:0.03.pth (torch, 63063 bytes, 6 tensors)

network_actor.0.weight f4 [70, 140]
0	0xbd85894a	-0.065203264
1	0xbd71c0ee	-0.059021883
2	0x3cc6a673	0.024249291
3	0x3d130db9	0.03590176
4	0xbd3b0fd3	-0.045669388
5	0x3c73c17f	0.014877676
6	0xbcbe6816	-0.023242991
7	0xbbe6e40e	-0.007046229
8	0xbd98c0e1	-0.07458664
9	0xbdcf05d0	-0.101085305
10	0x3d10261c	0.035192594
11	0x3db733c8	0.08945423
12	0xbd6308e1	-0.05542839
13	0x3c507bae	0.0127248
14	0x3d88a903	0.066728614
15	0xbc187ddb	-0.00930735
16	0x3c52bcff	0.012862443
17	0x3d4434e1	0.04790199
18	0xbe4e65d3	-0.2015603
19	0xbc98a1ef	-0.018631903
20	0xbcd155d5	-0.025553623
21	0x3e037165	0.12836225
22	0x3d90388b	0.07042035
23	0xbe5b2cd1	-0.21403815
24	0xbd423834	-0.04741688
25	0xbd45e105	-0.0483103
26	0xbc0858dd	-0.008321968
27	0xbe036dee	-0.12834904
28	0xbccf238b	-0.025285503
29	0xbb48ca23	-0.003063806
30	0xbca0d47f	-0.019632576
31	0x3cf718b9	0.030163156
32	0xbd0ad084	-0.033890262
33	0xbd53fe11	-0.05175597
34	0x3b671da4	0.003526547
35	0xbdfdc116	-0.12390344
36	0xbd81ea51	-0.063435204
37	0xbda72640	-0.081615925
38	0xbd9407e6	-0.07228069
39	0x3d6156e3	0.055014502
40	0xbd43ff9e	-0.047851197
41	0xbd847ca9	-0.064690895
42	0x3d40a9be	0.04703688
43	0x3d9cd19a	0.07657166
44	0xbda5fec3	-0.081052326
45	0x3c57f239	0.013180309
46	0xbe73d40c	-0.23811358
47	0xbcc10dc4	-0.023566134
48	0x3d3909a3	0.045175206
49	0x3e273e9a	0.16332474
50	0xbd0dc05e	-0.034607284
51	0xbcfca203	-0.030838972
52	0xbce5966f	-0.028025834
53	0xbb3612d5	-0.002778222
54	0xbdd62076	-0.1045541
55	0xbdcb19f7	-0.09917062
56	0xbda8aec9	-0.082364626
57	0xbcfeb08b	-0.031090042
58	0xbcad82a4	-0.021180458
59	0xb88ccb17	-6.713549e-05
60	0x3d14d81a	0.036338903
61	0x3d8f77fe	0.070053086
62	0xbd8a732e	-0.0676025
63	0xbdbcb644	-0.09214452
64	0xbd82d73a	-0.063887075
65	0x3bc1b637	0.0059116143
66	0xbda34312	-0.07971777
67	0x3dc5a2d2	0.09650196
68	0xbb19abee	-0.0023448425
69	0x3d696b81	0.05698729
70	0xbd5bcb6d	-0.0536608
71	0x3cd03b35	0.025418857
72	0xbdb20c08	-0.08693701
73	0x3d8d164b	0.06889018
74	0xbe710c6b	-0.23539893
75	0xbda6fb96	-0.08153455
76	0x3e0ad140	0.13556385
77	0x3e310e50	0.17290616
78	0x3e1543ab	0.14576595
79	0x3d8f9479	0.07010741
80	0xbd252b45	-0.04032447
81	0x3ce9d320	0.028543055
82	0xbdd98609	-0.10621268
83	0xbe306607	-0.1722642
84	0x3d43e6d8	0.04782757
85	0xbcb901df	-0.0225839
86	0x3d4fd6c5	0.05074193
87	0x3d53a5b5	0.051671702
88	0xbd35af7e	-0.044356816
89	0xbc8fceae	-0.017554607
90	0x3d63db28	0.055628926
91	0xbd620734	-0.05518265
92	0xbdc4c5f2	-0.096080676
93	0xbd8bea65	-0.068318166
94	0xbd894120	-0.06701875
95	0x3de09cbe	0.10967396
96	0x3d96de5f	0.07366633
97	0x3d515177	0.05110308
98	0xbd8ee633	-0.06977501
99	0xbc83f57a	-0.016108263
100	0x3d126130	0.035737216
101	0xbd8fb3c8	-0.070167124
102	0xbdec7970	-0.115466
103	0xbdaa3f1e	-0.0831282
104	0x3e6305f0	0.22170234
105	0x3e3497c2	0.17636016
106	0xbcdf0720	-0.027225077
107	0x3e2b33ef	0.1671903
108	0xbdc01e72	-0.09380807
109	0x3d967b6f	0.07347762
110	0xbaeba13f	-0.0017977132
111	0xbe0b4b63	-0.13602977
112	0xbd3df3c0	-0.046375036
113	0xbd84384a	-0.06456049
114	0xbd5c4afe	-0.053782456
115	0xbd556611	-0.05209929
116	0xbcf6c5b0	-0.030123562
117	0xbd95673f	-0.07295083
118	0x3d53b9e0	0.051690936
119	0xbc07c370	-0.008286342
120	0xbc45791e	-0.012052802
121	0x3c12bf8b	0.0089568
122	0x3c79a55a	0.015237177
123	0x3cb23185	0.021752128
124	0xbca47fc6	-0.020080458
125	0xbc28f24d	-0.010311675
126	0x3d42318c	0.047410533
127	0x3d371c4a	0.044704713
128	0x3d1c670e	0.038184218
129	0xbd07c749	-0.033149038
130	0xbe7b7965	-0.24558027
131	0x3c8a3a28	0.016873434
132	0xbeb2841c	-0.34866416
133	0x3db1b9f8	0.08678049
134	0xbdadec76	-0.08492367
135	0x3d06e6ff	0.03293514
136	0xbe276cee	-0.16350147
137	0x3ce81cbc	0.028334014
138	0xbdcb6738	-0.09931797
139	0xbdfa0af0	-0.122091174
140	0x3d0e0644	0.034673944
141	0x3e593bcd	0.21214218
142	0x3d0c8048	0.034302026
143	0x3d284aa4	0.041086808
144	0xbda3a89b	-0.07991143
145	0xbc83a276	-0.016068678
146	0xbd269772	-0.040671773
147	0xbd94db23	-0.072683595
148	0x3da11949	0.07866151
149	0xbd515b3d	-0.051112402
150	0x3d4e71a6	0.050401352
151	0x3a779133	0.00094439386
152	0xbc963a50	-0.018338352
153	0xbdcd2aca	-0.10017927
154	0xbd387ec5	-0.04504277
155	0x3c4e4b92	0.01259126
156	0xbd70556b	-0.05867521
157	0xbde35899	-0.11100883
158	0x3d6fcb9f	0.058543798
159	0x3d848942	0.06471492
160	0x3d8f00a8	0.06982547
161	0x3d674ada	0.05646787
162	0x3dd7f8a3	0.105454706
163	0x3db4503f	0.08804368
164	0x3d9d6e59	0.07687063
165	0x3c1d21ce	0.009590579
166	0xbd5f768e	-0.054556422
167	0x3d88406c	0.066529125
168	0x3b72f0b8	0.003706975
169	0x3e942b8a	0.28939468
170	0x3dd1824f	0.102299325
171	0x3cb346fc	0.021884434
172	0xbc979c79	-0.01850723
173	0x3d885676	0.06657116
174	0xbd37a2f7	-0.04483315
175	0x3d55d96c	0.052209303
176	0x3cb2cca0	0.021826088
177	0x3d967075	0.07345668
178	0x3c8ac24f	0.016938357
179	0x3ccdd614	0.025126494
180	0xbcad2583	-0.021136051
181	0xbd27b485	-0.04094364
182	0x3d3d1ebd	0.046171892
183	0xbd2ea676	-0.04263922
184	0xbd2d569c	-0.042318925
185	0xbd6449be	-0.05573439
186	0x3a8b20f6	0.0010614682
187	0x3d506acd	0.050883103
188	0x3e28efcd	0.16497727
189	0x3cf232e7	0.029565288
190	0x3e249f8c	0.16076487
191	0x3e803dc6	0.2504713
192	0x3d3a5656	0.045492493
193	0x3dbd9193	0.09256282
194	0xbd3e4160	-0.046449065
195	0x3e1b4bef	0.15165685
196	0xbc5b68b8	-0.013391666
197	0x3e3ed3fa	0.1863555
198	0xbcc5580a	-0.024089832
199	0x3d809a49	0.062794276
200	0x3d7fcebd	0.06245302
201	0x3d4bacfa	0.04972551
202	0x3d907acf	0.07054674
203	0x3d4f5237	0.050615516
204	0x3dd87300	0.105688095
205	0x3d8f7424	0.07004574
206	0x3dc6055a	0.096689895
207	0x3d64802b	0.055786293
208	0xbd1a8ca0	-0.037731767
209	0xbb2da576	-0.0026496327
210	0x3dacd604	0.08439258
211	0x3d178a51	0.036997143
212	0xba8d1454	-0.0010763505
213	0xbd0b18c0	-0.03395915
214	0x3d8e4774	0.06947222
215	0xbd66cc7d	-0.05634736
216	0x3e8f02ff	0.27931973
217	0xbd1b8f68	-0.03797856
218	0x3d5c8ff6	0.05384823
219	0x3e08d110	0.13361001
220	0x3cd67708	0.026179805
221	0x3d1f3662	0.038870223
222	0xbd065b72	-0.032802053
223	0x3da29830	0.07939184
224	0x3dc5033f	0.0961976
225	0x3ea80db3	0.32822952
226	0x3d0f4271	0.034975473
227	0x3db2357a	0.08701606
228	0xbd2d749a	-0.042347528
229	0x3d8deb75	0.069296755
230	0x3d8fc219	0.07019443
231	0xbcb06074	-0.021530367
232	0x3c3ade4a	0.011405537
233	0xbd07a060	-0.03311193
234	0xbcfd13fd	-0.03089332
235	0x3cff54b7	0.031168325
236	0x3c55d548	0.0130513385
237	0x3d2cc2af	0.042177852
238	0x3d77f693	0.060537886
239	0xbb8c1f11	-0.0042761643
240	0xbd71ae8c	-0.05900435
241	0xbe2c67a3	-0.1683641
242	0x3dc20f7a	0.09475608
243	0xbcac312f	-0.021019546
244	0xbd4daac5	-0.050211687
245	0x3d234615	0.039861757
246	0xbe184738	-0.14870918
247	0xbe0884ad	-0.13331862
248	0x3d203343	0.039111387
249	0x3dc1f16d	0.094698764
250	0xbd94d238	-0.072666585
251	0x3cf6d916	0.030132812
252	0xbd0dc7b4	-0.03461428
253	0x3e8f2e81	0.27965167
254	0x3c7e67e1	0.015527696
255	0xbc86cf7a	-0.016456354

network_actor.0.bias f4 [70]
0	0xbdc0aede	-0.09408353
1	0x3d2f7a84	0.04284145
2	0x3c35b0c4	0.0110895075
3	0x3c8d0532	0.017214391
4	0xbccefd12	-0.025267158
5	0x3d450a9c	0.04810582
6	0xbd0df2e4	-0.034655467
7	0xbd0c8e52	-0.034315415
8	0x3cf33f3a	0.029693235
9	0x3daff32c	0.08591303
10	0xbd839062	-0.06424023
11	0x3d28f70e	0.041251235
12	0x3c05c955	0.008165677
13	0xbd15a79b	-0.036536794
14	0x3d0fd320	0.035113454
15	0x3d327306	0.043566726
16	0xbd9107db	-0.070815764
17	0xbd891376	-0.06693165
18	0xbd4bc188	-0.049745113
19	0x3d2e092f	0.042489227
20	0xbd830628	-0.063976586
21	0xbdc96063	-0.098328374
22	0x3abf73df	0.0014606676
23	0xbb276e67	-0.0025547983
24	0x3d3f157d	0.046651352
25	0x3bd47029	0.006483097
26	0x3da16e4f	0.07882368
27	0xbc170559	-0.009217584
28	0x3d8dd650	0.069256425
29	0xbd231f64	-0.03982486
30	0x3d5dd523	0.05415834
31	0x3d55d374	0.05220361
32	0xbd8c673b	-0.06855627
33	0x3d65209c	0.0559393
34	0xbd8a84bd	-0.06763599
35	0x3d261413	0.040546488
36	0xbd4aeac9	-0.049540315
37	0x3d155a7a	0.03646324
38	0xbd29ca78	-0.041452855
39	0x3d833c6b	0.06408008
40	0x3cc9c466	0.024629783
41	0xbce51420	-0.027963698
42	0x3d1df259	0.0385612
43	0xbd179083	-0.03700305
44	0x3d4d8de6	0.050184153
45	0xbdb6d85e	-0.089279875
46	0x3d8cd390	0.0687629
47	0xbc87e070	-0.016586512
48	0xbc0ddafc	-0.008658167
49	0xbddc38f1	-0.10753048
50	0x3c5c371e	0.013440875
51	0x3ce09f48	0.027419701
52	0xb98e5e08	-0.0002715441
53	0xbd57dc84	-0.052700534
54	0x3d1fbeae	0.039000206
55	0x3a0216b3	0.0004962489
56	0x3d9c5491	0.07633317
57	0xb9929292	-0.00027956493
58	0xbb4140cd	-0.0029488087
59	0xbc5789ad	-0.013155383
60	0xbd18f65a	-0.037344314
61	0xbd452450	-0.048130333
62	0x3dbcde48	0.09222084
63	0x3dd352c4	0.10318521
64	0x3c5106d6	0.0127579775
65	0xbd940511	-0.07227529
66	0xbdaa1c4a	-0.08306177
67	0x3b7872bd	0.0037910186
68	0x3d364479	0.044498894
69	0x3cd235a8	0.02566035

network_actor.2.weight f4 [70, 70]
0	0x3b52d29e	0.0032168995
1	0x3da61fac	0.0811151
2	0xbd0c0e46	-0.0341933
3	0xbcd04caf	-0.02542719
4	0x3dc2fc5f	0.09520792
5	0xbb19575e	-0.0023398022
6	0x3d8dfadf	0.069326155
7	0x3c1e9ad5	0.0096804695
8	0x3d24a7a6	0.040198945
9	0xbd5ad86c	-0.053429052
10	0x3e225eb8	0.15856445
11	0xbd87bd06	-0.0662785
12	0xbd932e81	-0.07186604
13	0xbe04195f	-0.12900303
14	0x3cfa8cd2	0.030584726
15	0xbcc9c48f	-0.02462986
16	0xbe1d591c	-0.15366024
17	0xbd53d144	-0.051713243
18	0x3d9f0244	0.07764104
19	0xbc825016	-0.015907329
20	0x3d85fd81	0.06542493
21	0xbdc7562d	-0.097332336
22	0xbdc8e522	-0.098093286
23	0x3cca5db4	0.024702884
24	0x3db18207	0.08667379
25	0x3e2307b7	0.15920912
26	0x3cdad70e	0.026713874
27	0xbdc02fd0	-0.093841195
28	0x3dbabec4	0.09118417
29	0x3d292bdb	0.04130159
30	0xbd7c0bac	-0.06153457
31	0xbcefc4e5	-0.029268691
32	0xb87cc503	-6.0264963e-05
33	0x3d254963	0.04035319
34	0x3d48e7e4	0.049049273
35	0x3d40217d	0.046906937
36	0xbe1f4bcf	-0.15556262
37	0x3da07e31	0.07836569
38	0xbc684ffd	-0.014179227
39	0xbc8d1826	-0.017223429
40	0x3e0d97c3	0.13827424
41	0x3d991b41	0.074759014
42	0xbd6f1304	-0.058367744
43	0x394d56e7	0.00019582697
44	0xbd8ab513	-0.067728184
45	0x3dd0852c	0.101816505
46	0x3cc40134	0.023926355
47	0x3ddb1ceb	0.10698875
48	0x3bcf2ba5	0.0063223415
49	0x3b6aa99b	0.003580666
50	0xbce55ce3	-0.027998393
51	0xbdd9414f	-0.1060816
52	0x3d9d400a	0.0767823
53	0x3cde3b3d	0.027127856
54	0x3e7b059d	0.2451386
55	0x3d134b96	0.035960756
56	0x3ca57d07	0.02020122
57	0xbdd0e623	-0.10200145
58	0x3cb53c3c	0.022123449
59	0x3ce2caa9	0.027684527
60	0x3dce8f38	0.100859106
61	0xbdb4a77f	-0.0882101
62	0xbcf989ef	-0.03046128
63	0xbdb80b3a	-0.08986516
64	0x3c96b2f9	0.018395888
65	0x3d0477db	0.032340866
66	0xbd646b25	-0.055766243
67	0x3ce4b2e4	0.027917333
68	0x3dc284dd	0.09497998
69	0xbe51a600	-0.2047348
70	0x3d3cf1b0	0.04612893
71	0x3cc1f6ac	0.023677193
72	0x3d029ac6	0.031885885
73	0x3d95c4c6	0.07312922
74	0xbd0c82ec	-0.034304544
75	0x3cfbfdfc	0.030760758
76	0x3da7f5d3	0.08201184
77	0x3d83584d	0.064133264
78	0x3d969b8a	0.073538855
79	0x3dc3a4cf	0.09552919
80	0x3dce7129	0.10080177
81	0xbd2dd51a	-0.042439558
82	0xbd665515	-0.056233484
83	0x3da0bd2b	0.07848581
84	0x3de7a4a9	0.11310703
85	0xbd7af857	-0.06127199
86	0xbd856d52	-0.06514992
87	0xbd876a40	-0.066120625
88	0xbc79705f	-0.015224545
89	0xbd2f8bca	-0.042857923
90	0x3dfefbc3	0.124503635
91	0x3dcf3809	0.1011811
92	0xbd8ccd7d	-0.06875131
93	0xbcba4a91	-0.022740634
94	0x3df4b462	0.11948468
95	0xbe458e04	-0.19292456
96	0x3e003b09	0.1252252
97	0x3e93f58c	0.28898275
98	0x3d5dab22	0.054118283
99	0xbdb2e47a	-0.08734985
100	0x3dcdf08f	0.100556485
101	0xbe048821	-0.12942554
102	0x3e1ba428	0.1519934
103	0x3de07cc8	0.109613
104	0x3d1a8121	0.037720803
105	0xbdcef54a	-0.10105379
106	0xbe54153e	-0.20711228
107	0x3c8a715a	0.016899753
108	0xbbf52af3	-0.0074819266
109	0xbdaa82ba	-0.08325715
110	0x3d99a583	0.07502272
111	0x3d2fd9bc	0.042932257
112	0xbdfa706d	-0.12228475
113	0xbcadb788	-0.021205679
114	0xbd259ddb	-0.040433746
115	0x3deec6c6	0.11659007
116	0xbc834d0f	-0.016027955
117	0xbd964993	-0.07338252
118	0x3b91a596	0.004444788
119	0x3dd2a6c4	0.10285714
120	0xbdcaf3f9	-0.09909815
121	0x3e1b8d9b	0.15190737
122	0x3de7ff24	0.11327961
123	0xbd70a707	-0.05875304
124	0xbdd96221	-0.1061442
125	0x3dc85f31	0.09783781
126	0xbdb6e0b5	-0.08929578
127	0x3de84cf3	0.11342802
128	0x3e21280c	0.15737933
129	0x3db8f854	0.0903174
130	0xbc14ea74	-0.009089101
131	0xbd809ffa	-0.06280513
132	0x3df68eae	0.12038933
133	0xbd35a22d	-0.044344116
134	0x3db72ed5	0.089444794
135	0xbc40bc03	-0.0117635755
136	0xbde299c3	-0.11064484
137	0xbc84d170	-0.016213149
138	0x3d9b294e	0.075762376
139	0x3e184ca5	0.14872988
140	0x3d340866	0.043953322
141	0xbdbf0374	-0.093268305
142	0xbdc7c20f	-0.097538106
143	0x3d65d285	0.05610897
144	0x3d535048	0.051590234
145	0xbdbaf2bf	-0.091283314
146	0x3c4064e8	0.011742808
147	0xbd2b4665	-0.04181518
148	0x3d854ee7	0.0650919
149	0x3d7d76da	0.061880924
150	0xbc47f5ce	-0.0122046005
151	0x3c94ef32	0.018180463
152	0xbe03afaa	-0.1285998
153	0x3d809878	0.06279081
154	0xbb36bbb3	-0.0027882874
155	0x3dd371bb	0.10324427
156	0xbdc339a1	-0.09532476
157	0xbde51455	-0.11185519
158	0xbd5f244a	-0.054477967
159	0x3df0f191	0.11764825
160	0x3c6d90b4	0.014499832
161	0xbd8f1f6e	-0.069884166
162	0x3d9a7f9f	0.07543873
163	0x3d4dee89	0.050276313
164	0x3d391146	0.04518249
165	0x3d513c99	0.05108318
166	0xbd8fde05	-0.07024769
167	0x3d2f6694	0.042822435
168	0xbdf62571	-0.1201886
169	0x3a9ad4fd	0.0011812743
170	0xbd8ed58f	-0.06974327
171	0xbd90da18	-0.07072848
172	0xbde0a943	-0.10969784
173	0xbdf316a4	-0.11869553
174	0x3dea7dfe	0.11449812
175	0x3df418ff	0.1191883
176	0xbd388b71	-0.045054857
177	0xbbf5ecf9	-0.007505056
178	0x3a7812ca	0.0009463249
179	0x3d98150e	0.07425891
180	0xbdc169b9	-0.09443993
181	0xbdd61a54	-0.104542404
182	0xbd969084	-0.07351783
183	0x3d96f664	0.07371214
184	0x3ca31102	0.01990557
185	0xbcb2cf21	-0.021827282
186	0x3dcd16c2	0.10014106
187	0x3cc46997	0.02397613
188	0x3c941a5d	0.018078977
189	0xbd919ac0	-0.07109594
190	0x3dbe087b	0.09278961
191	0x3db6bdfe	0.08922957
192	0xbd977039	-0.07394452
193	0x3d0281e9	0.031862173
194	0xbb95b11c	-0.004568232
195	0xbde59728	-0.112104714
196	0x3d93c65e	0.0721557
197	0xbccd0537	-0.0250269
198	0xbc5eeb45	-0.013605897
199	0x3c06772b	0.008207123
200	0xbd4843d4	-0.04889281
201	0xbcfc65d2	-0.03081027
202	0xbbdbfa3a	-0.006713179
203	0xbda48708	-0.08033568
204	0xbde5ba58	-0.11217183
205	0xbc20a70e	-0.009805454
206	0x3d2796ed	0.04091542
207	0xbd1ac8ec	-0.03778927
208	0xbe04e34f	-0.12977336
209	0x3d8bad47	0.068201594
210	0x3e0c2ebe	0.13689706
211	0x3d5eaf06	0.054366134
212	0x3db88ad8	0.09010857
213	0xbdac9eab	-0.08428701
214	0x3d8fa856	0.070145294
215	0x3e1e9c69	0.15489353
216	0x3c9a1d45	0.018812785
217	0x3d88867d	0.066662766
218	0x3dbc2ddd	0.09188435
219	0xbc8d04db	-0.01721423
220	0x3d57b049	0.052658353
221	0xbd65a482	-0.05606509
222	0xbd9e6cc2	-0.07735588
223	0xbdf37d81	-0.11889172
224	0xbdc1ac37	-0.094566755
225	0xbb4941f2	-0.0030709472
226	0x3c952ba7	0.018209292
227	0x3cbdb00f	0.02315524
228	0xbb6d14f2	-0.0036175814
229	0xbdc2fdb1	-0.09521044
230	0x3cc997d1	0.024608525
231	0x3d9c7936	0.07640307
232	0xbdc7e3da	-0.09760256
233	0x3dc3c346	0.0955873
234	0x3d189dfd	0.037260044
235	0xbd9c4ab5	-0.07631437
236	0x3caef508	0.021357074
237	0xbd7aaa4b	-0.06119756
238	0x3da5d14a	0.08096559
239	0xbe456327	-0.19276105
240	0x3c8e7d06	0.0173936
241	0x3d760958	0.060067505
242	0xbd4989d7	-0.04920372
243	0xbdf41565	-0.11918143
244	0x3c954bdd	0.018224651
245	0xbddc65ac	-0.1076158
246	0x3e040386	0.12891969
247	0xbccd24b8	-0.025041923
248	0x3b02d66f	0.0019964238
249	0x3bcd8250	0.006271638
250	0x3c389153	0.011265117
251	0x3c3ec910	0.011644617
252	0x3de68ea5	0.11257676
253	0xbd334285	-0.04376461
254	0x3d9e4ee8	0.07729894
255	0xbd95cdeb	-0.07314666

network_actor.2.bias f4 [70]
0	0xbd8fa4e0	-0.07013869
1	0x3e05c335	0.13062747
2	0x3db3a15b	0.087710105
3	0xbe0a705b	-0.13519423
4	0x3d3e7e23	0.046507012
5	0xbc9b89b5	-0.018986562
6	0xbd9c31ef	-0.076267116
7	0xbcd62176	-0.026139002
8	0x3c973e2a	0.01846226
9	0xbda0979e	-0.07841419
10	0xbcda3dc8	-0.026640788
11	0xbd6a616a	-0.057221808
12	0x3d46f647	0.048574712
13	0xbda94d03	-0.08266642
14	0xbd4818f1	-0.04885191
15	0xbdaaf965	-0.083483495
16	0x3e093126	0.13397655
17	0xbdc2da28	-0.09514266
18	0x3cdf4637	0.02725516
19	0x3dc03f5e	0.09387086
20	0xbd2d3253	-0.04228432
21	0x3d9f3417	0.07773607
22	0x3c9e588e	0.019329336
23	0x3da849e6	0.0821722
24	0x3d6e5b3d	0.05819248
25	0x3b625b93	0.0034539446
26	0xbbecfa49	-0.0072319848
27	0xbcfa8208	-0.030579582
28	0x3d88de4c	0.06683025
29	0xbd8b9bc2	-0.06816818
30	0x3d0d8a95	0.03455599
31	0xbcc569dc	-0.02409833
32	0x3c20b0aa	0.009807745
33	0xbb42cb55	-0.0029723246
34	0x3da10d3b	0.07863852
35	0xbdb38272	-0.08765115
36	0xbc9c4faf	-0.019080965
37	0x3d9fbf9c	0.078002185
38	0x3d0249bc	0.0318086
39	0x3d4b4c42	0.049633272
40	0x3c9e4ee2	0.019324724
41	0x3d6ba49a	0.057530023
42	0x3e0c7268	0.13715518
43	0xbc3cceaa	-0.011523882
44	0x3d481af0	0.048853815
45	0x3df831cf	0.12118875
46	0x3dd7bee8	0.10534459
47	0xbdbbcd1c	-0.09169981
48	0x3d9854ac	0.07438025
49	0xbd79f735	-0.06102677
50	0x3d68d61a	0.05684481
51	0xbd0e4133	-0.034730148
52	0x3d61961f	0.055074807
53	0x3c28897c	0.010286685
54	0x3d3c3f7d	0.045958985
55	0xbcb332c1	-0.021874787
56	0xbd694741	-0.05695272
57	0xbd32aaa4	-0.043619767
58	0x3d814f66	0.06313972
59	0x3da89954	0.0823237
60	0x3d8df2a1	0.069310434
61	0xbda589e7	-0.080829434
62	0x3c1de281	0.009636522
63	0x3d66a78c	0.05631213
64	0x3d66616f	0.056245264
65	0x3ba99b12	0.0051759565
66	0x3d089803	0.033348095
67	0xbd9b8d9a	-0.07595368
68	0x3d365de0	0.04452312
69	0x3d86e238	0.065861166

network_actor.4.weight f4 [5, 70]
0	0xbd14c75e	-0.036322944
1	0x3bd9c92e	0.006646297
2	0x3d88fd3d	0.06688926
3	0x3bf81c07	0.0075717005
4	0xbd3aa3c8	-0.04556635
5	0x3d885949	0.06657655
6	0xbca9205a	-0.02064531
7	0xbdbc93da	-0.09207888
8	0xbd65f24a	-0.056139268
9	0xbbdb6415	-0.0066952803
10	0x3d8712b8	0.06595367
11	0x3d6b1392	0.05739171
12	0x3e18a918	0.14908254
13	0xbd5e84c1	-0.054325823
14	0x3d6c92e3	0.05775727
15	0x3dcad6ae	0.09904228
16	0xbd6de365	-0.05807819
17	0xbe40fa68	-0.18845522
18	0xbe525abe	-0.20542428
19	0xbe24773d	-0.16061111
20	0x3d8a8ffa	0.067657426
21	0xbdbb8720	-0.091566324
22	0x3e06bda9	0.13158287
23	0xbd836937	-0.064165525
24	0x3de384c8	0.111093104
25	0xbdd792e8	-0.10526067
26	0xbe3e73fd	-0.18598934
27	0x3d698321	0.05700982
28	0x3dc630c0	0.09677267
29	0x3a8f5ac1	0.0010937081
30	0xba8c390b	-0.0010698152
31	0xbd66e2a8	-0.0563685
32	0xbd0b5143	-0.034013044
33	0xbe541fe3	-0.20715289
34	0x3e432cdd	0.19060083
35	0x3b96dbc9	0.004603837
36	0xbe8f3380	-0.2796898
37	0xbe7f5d64	-0.2493797
38	0xbe07645a	-0.13221875
39	0x3d87b81d	0.06626914
40	0x3d835157	0.06411999
41	0xbdca7383	-0.09885313
42	0x3e9dfce2	0.30856997
43	0xbdd8009c	-0.10546991
44	0x3def1883	0.11674597
45	0xbdf865c6	-0.12128787
46	0xbd334b65	-0.043773074
47	0xbe0be4a7	-0.13661443
48	0xbdc548f2	-0.09633054
49	0x3dc8cd9b	0.09804841
50	0x3d50245f	0.050815936
51	0xbdf32ec6	-0.11874156
52	0xbe1e9b17	-0.1548885
53	0xbc1b9988	-0.009497054
54	0x3dfac91b	0.12245389
55	0x3e5f884a	0.21829334
56	0x3e2923e0	0.16517591
57	0x3dfc1dc4	0.12310365
58	0x3c617a81	0.013762117
59	0xbdb9e6dc	-0.09077236
60	0xbd2bab9c	-0.041911706
61	0xbebb2f90	-0.36559725
62	0x3dcab519	0.09897823
63	0x3da60cfa	0.08107944
64	0x3d3211ac	0.043473884
65	0x3d05de29	0.03268257
66	0xbd80dade	-0.062917456
67	0xbd857d3e	-0.06518029
68	0x3d294b40	0.04133153
69	0xbe09cb36	-0.13456425
70	0x3d76b902	0.06023503
71	0xbdbffa4a	-0.09373911
72	0x3d86a9d6	0.065753624
73	0x3d7f3b92	0.06231267
74	0x3c9122f8	0.01771687
75	0x3db28f1c	0.08718702
76	0x3d4f23a7	0.05057111
77	0xbcb01d7d	-0.021498436
78	0xbc4c1769	-0.012456753
79	0xbd2511b8	-0.0403001
80	0x38f8e7b5	0.0001186872
81	0xbdd8bda0	-0.10583043
82	0xbe469f39	-0.19396676
83	0x3da70c5b	0.081566535
84	0xbd64c095	-0.055847723
85	0x3d0c8723	0.034308564
86	0xbde65a38	-0.112476766
87	0xbd7123f2	-0.05887217
88	0xbd89bf99	-0.067259975
89	0x3d9f3c2c	0.07775149
90	0x3ded0cf9	0.1157474
91	0xbd840efc	-0.064481705
92	0xbc8ca6ef	-0.017169444
93	0xbe245088	-0.16046345
94	0xbe0e55e4	-0.13899952
95	0x3c2798ef	0.010229333
96	0xbdd558b3	-0.10417309
97	0xbd5ae4e9	-0.053440962
98	0x3d98810c	0.07446489
99	0x3d8b6d4d	0.06807957
100	0x3ddd71cb	0.1081272
101	0x3e2770b7	0.16351591
102	0x3c2ea329	0.010659018
103	0x3d99b762	0.075056806
104	0x3da754d4	0.081704766
105	0x3e00d930	0.1258285
106	0x3ceba6af	0.028766004
107	0xbdc01331	-0.093786605
108	0xbd0482c1	-0.03235126
109	0xbdf38c86	-0.11892037
110	0x3d83d68f	0.06437408
111	0xbdb3dc34	-0.08782235
112	0xbd411bcf	-0.04714566
113	0xbdab5ef5	-0.08367721
114	0x3dc2a252	0.095036164
115	0x3d568d02	0.05238057
116	0x3cf95970	0.030438155
117	0xbe1e8b8c	-0.1548292
118	0xbab1dadc	-0.0013569253
119	0xbe089a48	-0.13340104
120	0xbe295fe6	-0.16540489
121	0x3d369d34	0.044583514
122	0x3d4978e4	0.049187556
123	0x3db058f3	0.08610716
124	0x3de33d48	0.11095673
125	0x3e05a99c	0.13052982
126	0x3cc656a3	0.024211233
127	0xbbcea5bc	-0.006306378
128	0xbd8c9719	-0.06864757
129	0xbd6af111	-0.057358805
130	0xbd58117e	-0.052751057
131	0x3c651fae	0.013984604
132	0xbd7aa7e4	-0.06119527
133	0x3ddafe43	0.10693028
134	0x3dca049b	0.0986416
135	0xbb306ab0	-0.002691906
136	0xbd9aba3f	-0.07555055
137	0x3cad62c2	0.021165255
138	0x3df59176	0.11990635
139	0xbdb5d8c1	-0.08879233
140	0xbd6d9aa5	-0.05800881
141	0x3d1d5557	0.038411465
142	0xbca41275	-0.020028332
143	0x3ced6f33	0.028983688
144	0x3e5142cb	0.20435636
145	0x3d8cc136	0.068727896
146	0x3d940df9	0.072292276
147	0xbe149448	-0.1450969
148	0xbdefa0e1	-0.11700607
149	0xbe1a3135	-0.15057833
150	0x3d58235d	0.0527681
151	0xbda2c3f8	-0.07947534
152	0x3d473e28	0.04864326
153	0xbdd74e21	-0.10512949
154	0x3d5e53ae	0.054279022
155	0xbde2f861	-0.11082531
156	0x3bb28195	0.0054475763
157	0xbd964df6	-0.073390886
158	0xbd13e436	-0.03610631
159	0xbde69291	-0.11258424
160	0xbe1ec642	-0.15505317
161	0xbe5bb8bc	-0.2145719
162	0x3d5b3943	0.053521406
163	0xbdaed67c	-0.085370034
164	0xbc134c93	-0.008990425
165	0x3db3d50e	0.08780871
166	0xbda61ae8	-0.08110601
167	0x3e00127a	0.12507048
168	0x3d9808de	0.07423566
169	0xbe3f0768	-0.18655169
170	0x3dd95721	0.10612322
171	0xbadba46c	-0.0016757376
172	0x3d802fd8	0.062591255
173	0xbc80f6db	-0.01574271
174	0xbdbe749a	-0.09299584
175	0xbd897858	-0.06712407
176	0xbe1e30ef	-0.15448354
177	0xbe8f4b93	-0.27987346
178	0x3dbd6adf	0.092489
179	0x3e0c5724	0.13705117
180	0xbe162589	-0.14662756
181	0x3e4ea56b	0.2018029
182	0xbec28790	-0.3799405
183	0x3df81621	0.12113596
184	0xbc75bf47	-0.014999217
185	0x3e06c3bf	0.13160609
186	0xbe918f4d	-0.28429642
187	0xbe249bcc	-0.16075057
188	0xbd5993e0	-0.05311954
189	0xbdf40740	-0.11915445
190	0xbe852fc4	-0.26013005
191	0x3d0befd1	0.034164254
192	0xbde92840	-0.1138463
193	0x3d8d178b	0.06889256
194	0x3d2adbe8	0.041713625
195	0x3e62d849	0.22152819
196	0x3cf006a6	0.029300045
197	0xbe40bfaa	-0.18823114
198	0xbc3cad6c	-0.011515956
199	0x3d51470e	0.051093154
200	0xbdaf1f94	-0.08550945
201	0xbe5b4608	-0.21413434
202	0xbda3effc	-0.08004758
203	0x3e58d498	0.21174848
204	0x3df442a0	0.1192677
205	0xbda76bea	-0.0817488
206	0xbccef557	-0.025263472
207	0xbd85fbd7	-0.06542175
208	0x3d3f880e	0.04676061
209	0xbcb87079	-0.022514569
210	0xbdbd1b0e	-0.09233676
211	0xbd11dd04	-0.035611168
212	0x3c9f6bdc	0.019460611
213	0x3dae3723	0.0850661
214	0x3d8c8427	0.068611436
215	0xbe000870	-0.12503219
216	0xbd2788e4	-0.040902033
217	0xbc0e7877	-0.008695713
218	0xbcc271e1	-0.023735942
219	0xbde8ea71	-0.11372841
220	0xbe078417	-0.13233982
221	0xbceedd2b	-0.029158195
222	0x3db7b004	0.08969119
223	0x3dafcc79	0.08583922
224	0xbdd7186f	-0.10502707
225	0x3de1a42c	0.110176414
226	0x3d10f7bc	0.035392508
227	0xbdb8d4f4	-0.090249926
228	0x3caa1949	0.02076401
229	0x3ddd8645	0.108166255
230	0xbd168f5f	-0.036757823
231	0xbdd67b5e	-0.10472749
232	0xbde4ec20	-0.1117785
233	0xbd7b2dcf	-0.061322983
234	0xbd52f238	-0.05150053
235	0x3c2af022	0.010433229
236	0x3d991bfc	0.07476041
237	0x3cebf3b5	0.028802732
238	0xbd71a5d9	-0.058996055
239	0xbc774e0e	-0.015094293
240	0x3e03e05b	0.12878554
241	0x3dae4826	0.08509855
242	0x3d11228a	0.03543333
243	0xbda23220	-0.07919717
244	0x3d53e79a	0.051734544
245	0x3d09c2a5	0.033632893
246	0x3d86d6fd	0.065839745
247	0x3de97e5d	0.11401055
248	0x3d80199a	0.06254883
249	0x3d43d834	0.04781361
250	0xbc89b2df	-0.016808925
251	0xbc025181	-0.007954002
252	0x3daaae7b	0.08334061
253	0xbe057f79	-0.13036908
254	0xbd979f5d	-0.07403443
255	0xbd091b28	-0.033473164

network_actor.4.bias f4 [5]
0	0xbdb55dda	-0.088557914
1	0xbc6e02a9	-0.014527001
2	0x3cdc787e	0.026912924
3	0xbd9164e7	-0.07099324
4	0xbcb49b58	-0.02204673
