checkpoint/ddpg-actor_mlp_actor-lr:0.0003_critic-lr:0.0003_gamma:0.99_tau:0.05.pth (torch, 63063 bytes, 6 tensors)

network_actor.0.weight f4 [70, 140]
0	0x3a3d7c79	0.00072283257
1	0x3d5c0641	0.0537169
2	0xbb6024e7	-0.0034201683
3	0x3d916e51	0.07101119
4	0x3cfbd17e	0.030739542
5	0x3d038358	0.03210768
6	0x3d054fd3	0.03254683
7	0xbca59abb	-0.020215383
8	0xbc1035e6	-0.008801913
9	0xba4d74fd	-0.0007837562
10	0xbd93e5c6	-0.0722156
11	0x3da0c325	0.07849721
12	0x3c110d09	0.0088532055
13	0xbdab01ec	-0.08349976
14	0xbd88a284	-0.066716224
15	0xbd31da06	-0.043420814
16	0x3b1cbdba	0.0023916797
17	0xbd0f91db	-0.035051208
18	0xbda7fef8	-0.08202928
19	0xbd070b0b	-0.032969516
20	0xbac48450	-0.0014993045
21	0x3cf0bd1c	0.02938705
22	0x3d01991a	0.03164015
23	0x3d8bc7c8	0.068252146
24	0xbd7b73ff	-0.06138992
25	0xbd1f5bc9	-0.038905893
26	0xbd8072e4	-0.06271914
27	0xbd0917c5	-0.033469934
28	0xbda65d57	-0.08123272
29	0x3d983cad	0.07433448
30	0xbd819241	-0.06326724
31	0x3cd60b06	0.026128303
32	0x3c83c0b1	0.016083093
33	0xbd2ede41	-0.042692427
34	0x3d76ebb2	0.06028337
35	0x3d9ee22b	0.07757982
36	0xbd22fab0	-0.039789855
37	0xbd123ec5	-0.035704393
38	0xbd463696	-0.0483919
39	0xbd89d2d9	-0.06729669
40	0xbcda4ee7	-0.026648952
41	0x3b97c8e5	0.004632103
42	0xbd1173e6	-0.03551092
43	0x3da07a1f	0.07835793
44	0xbc364efb	-0.011127229
45	0xbd0bf0b4	-0.0341651
46	0xbdaadeaa	-0.08343251
47	0xbcb7c3d7	-0.02243225
48	0x3d9abed4	0.07555929
49	0xbcd95647	-0.026530398
50	0x3d00293f	0.031289335
51	0x3d71d775	0.059043366
52	0xbd72f9d7	-0.059320297
53	0xbd62a3ae	-0.05533188
54	0x3d5651b9	0.05232403
55	0x3d2ac719	0.04169378
56	0xbd6f9e6f	-0.058500703
57	0x3da16f55	0.07882563
58	0xbd8dbd16	-0.06920831
59	0x3c29bad1	0.010359482
60	0xbc8739e6	-0.0165071
61	0x3b000460	0.0019533858
62	0x3ceac7bc	0.028659694
63	0x3dab961f	0.08378243
64	0x3c1ccc9a	0.009570265
65	0x3bffbc03	0.007804395
66	0x3d8f2fcd	0.06991539
67	0xbda93f10	-0.08263981
68	0x3d1c4e25	0.038160462
69	0x3d488fdf	0.04896533
70	0x3d9939ac	0.07481703
71	0xbd62da9d	-0.055384267
72	0x3d3068a3	0.04306854
73	0x3dab950d	0.083780386
74	0xbda1c3f4	-0.07898703
75	0xbda9529a	-0.08267708
76	0xbd21a2fc	-0.039462075
77	0xbd2f55c3	-0.042806398
78	0xbd0d790c	-0.034539267
79	0x3ce0f7f0	0.027461976
80	0xbcbe1afb	-0.023206225
81	0x3d15446c	0.036442205
82	0xbd9475b7	-0.07249015
83	0xbcbad7f8	-0.02280806
84	0x3d0343e4	0.032047167
85	0x3d8f4c62	0.06996991
86	0xbd032200	-0.032014847
87	0x3d9e058a	0.077159
88	0xbd4ffdc0	-0.050779104
89	0x3d39289a	0.045204736
90	0x3d337453	0.043812107
91	0xbc9462ca	-0.018113513
92	0x3daa8843	0.08326771
93	0x3d59fd0f	0.05321985
94	0x3cc26005	0.023727426
95	0x3d5deba3	0.0541798
96	0x3c1d8715	0.009614726
97	0xbc9e2dca	-0.019308943
98	0xbd67c359	-0.056582782
99	0xbd772845	-0.06034114
100	0x3bb49eba	0.0055120857
101	0x3ca85cf1	0.02055213
102	0xbd997ba3	-0.07494285
103	0x3cd5bab1	0.026089998
104	0xbd373301	-0.044726375
105	0xbd2a9136	-0.04164239
106	0xbd37ddea	-0.044889368
107	0xbb1f84ab	-0.002434055
108	0x3c2722fd	0.010201213
109	0x3d7c055a	0.06152854
110	0xbd034120	-0.03204453
111	0xbd54b6a4	-0.051931992
112	0x3d2084c8	0.03918913
113	0xbd24efa7	-0.040267613
114	0x3d167522	0.0367328
115	0x3da8a943	0.08235409
116	0x3bf08ba1	0.007340864
117	0x3d6e19e0	0.058130145
118	0xbd388e06	-0.04505732
119	0x3d9578b7	0.07298415
120	0x3b9c6961	0.0047733043
121	0x3d206bc9	0.039165292
122	0x3d09540a	0.03352741
123	0xbd6ab451	-0.05730087
124	0x3b88783a	0.0041647227
125	0x3d56fdc4	0.052488104
126	0xbd5c2232	-0.05374355
127	0x3c7ad5a3	0.015309724
128	0xbd438151	-0.047730748
129	0xbd3f7c67	-0.0467495
130	0xbcec38bb	-0.028835645
131	0xbdabbebf	-0.08385991
132	0xbbe29be5	-0.0069155567
133	0xbcf7d34c	-0.030252121
134	0x3d1ede86	0.038786434
135	0xbd94268b	-0.07233914
136	0x3da3dfcc	0.0800167
137	0x3ce437dd	0.027858669
138	0x3d8960ef	0.06707942
139	0x3d41cffc	0.04731749
140	0x3d630538	0.0554249
141	0xbb6e18dc	-0.0036330735
142	0x3d7924fd	0.06082629
143	0xbce13bb2	-0.027494285
144	0x3d98d412	0.07462324
145	0x3b1d2630	0.002397906
146	0x3d922bba	0.071372464
147	0xbd936acf	-0.071981065
148	0xbcc88ebd	-0.024482125
149	0xbdac83a2	-0.084235445
150	0xbd3c15ed	-0.045919348
151	0xbd024c51	-0.031811062
152	0xbcede5aa	-0.029040176
153	0xbd1ff125	-0.039048333
154	0x3d827f7d	0.06371973
155	0xbd715416	-0.05891808
156	0xbcbaec61	-0.022817792
157	0x3d17b52c	0.037038013
158	0xbcf52186	-0.029923212
159	0xbc8b38bf	-0.016994832
160	0x3c28a497	0.0102931475
161	0x3d666b7d	0.056254853
162	0xbd7f8902	-0.06238652
163	0xbd8e9b2e	-0.06963192
164	0xbd7d826c	-0.061891958
165	0xbd4964be	-0.04916834
166	0xbcc8d570	-0.024515837
167	0xbbac1978	-0.0052520595
168	0xbd943f19	-0.072385974
169	0xbda5362a	-0.080669716
170	0xbbe74d89	-0.0070588035
171	0x3d8ff664	0.07029417
172	0xbd63c222	-0.05560506
173	0x3d97744e	0.0739523
174	0xbd6e6de5	-0.058210272
175	0x3d9fb427	0.07798033
176	0x3d5bfc84	0.053707615
177	0xbda6fe9e	-0.08154033
178	0xbd85ec51	-0.065392144
179	0xbd00d6a1	-0.031454686
180	0x3d98e439	0.07465405
181	0xbd5f386b	-0.054497164
182	0x3da33d28	0.07970649
183	0xbc3d9b47	-0.011572666
184	0xbda0bd51	-0.07848609
185	0x3d1420db	0.036164146
186	0xbccb4715	-0.024814168
187	0xbd97272d	-0.07380519
188	0x3d906d9f	0.070521586
189	0xbcee84e5	-0.029116103
190	0x3cd10ebd	0.025519723
191	0xbc136bfb	-0.0089979125
192	0xbd401b43	-0.046901
193	0xbbd8bd8f	-0.006614394
194	0xbb2b604b	-0.0026149924
195	0x3d13a742	0.03604818
196	0xbd206247	-0.039156225
197	0xbd04838d	-0.03235202
198	0x3d60f1f8	0.05491826
199	0xbd264104	-0.040589347
200	0xbd3430ee	-0.043991975
201	0x3d9c03e0	0.076179266
202	0x3d919e39	0.07110257
203	0xbd1dee0b	-0.038557094
204	0xbd236084	-0.039886966
205	0x3af440e8	0.0018635066
206	0xbcf8d217	-0.030373616
207	0xbd44b1d8	-0.048021168
208	0xbd88087c	-0.06642243
209	0xbd8439b3	-0.06456318
210	0x3da917f7	0.08256524
211	0x3a394153	0.0007066924
212	0x3c213f88	0.009841807
213	0x3d8ff110	0.07028401
214	0x3d7cbca0	0.061703324
215	0x3cb1a052	0.021682892
216	0xbb4d4600	-0.003132224
217	0xbbfa6dae	-0.0076424694
218	0x3d73cbc4	0.059520498
219	0x3d7e1a67	0.062036898
220	0xbd749ad1	-0.059717957
221	0x3d9eb06b	0.07748493
222	0x3c977dfe	0.018492695
223	0x3d43cf55	0.04780515
224	0xbd6b77f6	-0.05748745
225	0xbc4b8c52	-0.012423592
226	0x3d563752	0.05229885
227	0xba86f3e0	-0.0010296069
228	0xbd9062ee	-0.07050119
229	0x3c0b43dc	0.008500066
230	0x399f72ec	0.00030412467
231	0xbc98dc96	-0.018659871
232	0x3d1a14e1	0.037617568
233	0x3d3813b5	0.04494067
234	0x3d82b986	0.06383042
235	0x3b8e599d	0.004344179
236	0x3cb21896	0.02174024
237	0x3d67662b	0.05649392
238	0xbd6604e8	-0.056157023
239	0xbcc170fd	-0.023613447
240	0x3d583898	0.052788347
241	0x3d8c9878	0.068650186
242	0x3d88a90b	0.066728674
243	0xba0c31fb	-0.0005348024
244	0xbda8c3f5	-0.08240501
245	0x3d9d6a6b	0.07686313
246	0xbce78b3b	-0.028264632
247	0xbd9f7d83	-0.07787611
248	0xbda94317	-0.082647495
249	0x3da09e99	0.0784275
250	0xbcad8a3b	-0.021184077
251	0x3d07b3b5	0.033130366
252	0xbcb1caa4	-0.021703072
253	0x3d26b0ca	0.040695943
254	0xbc99ef3d	-0.018790836
255	0x3c790dad	0.0152010145

network_actor.0.bias f4 [70]
0	0xbd13914c	-0.036027238
1	0x3d924412	0.0714189
2	0xbd1dbb4b	-0.038508695
3	0x3d2dd9e8	0.04244414
4	0x3d84528b	0.06461056
5	0x3c7d5a5c	0.015463438
6	0xbcda0120	-0.026611865
7	0x3b9c06c0	0.004761547
8	0x3d23b428	0.039966732
9	0x3c225de9	0.009910085
10	0xbc207f98	-0.009796046
11	0xbd812b0e	-0.0630704
12	0x3d99309d	0.074799754
13	0xbd7c038c	-0.06152682
14	0xbd1a6683	-0.03769542
15	0x3d8f7c38	0.07006115
16	0xbd0841be	-0.03326582
17	0xbd9f0699	-0.0776493
18	0xbcc71483	-0.024301773
19	0x3cdee06d	0.027206624
20	0x3d902576	0.07038395
21	0xbd0e34a3	-0.034718167
22	0xbc41c3aa	-0.011826435
23	0xbb902b0a	-0.004399662
24	0xbc9f465c	-0.01944273
25	0x3d8c399f	0.06846928
26	0x3d8b2d5d	0.06795762
27	0x3ce9e3f7	0.028551085
28	0x3d980d92	0.07424463
29	0x3cce99e6	0.025219869
30	0x3d7a61b9	0.06112835
31	0x3d17a745	0.037024755
32	0x3d33b044	0.043869272
33	0xbd3e0682	-0.046392925
34	0xbda05d37	-0.07830279
35	0xbd869247	-0.06570869
36	0xbc6261f5	-0.0138173
37	0x3cee9b4f	0.029126791
38	0x3c8b6b59	0.01701896
39	0x3aca4e60	0.0015434735
40	0x3d3455e8	0.04402724
41	0xbcbea576	-0.023272257
42	0x3c982ea1	0.018576922
43	0xbd57379d	-0.05254327
44	0x3d3292d3	0.043597054
45	0x3d8eca43	0.06972172
46	0x3da17fde	0.07885717
47	0xbd2228c8	-0.039589673
48	0x3da917ba	0.082564786
49	0xbcabfd73	-0.020994877
50	0x3cf05bc0	0.029340625
51	0xbda48ea9	-0.08035023
52	0xbd52827a	-0.051393963
53	0x3d3fa42b	0.046787422
54	0xbdac2c9c	-0.08406946
55	0x3b764d94	0.0037582861
56	0xbcc9e33b	-0.024644485
57	0xbcb6b347	-0.022302283
58	0xbd18e444	-0.037327066
59	0x3cfd17ff	0.030895231
60	0xbd4e7d3a	-0.050412394
61	0xbda09a87	-0.07841974
62	0xbb863dbf	-0.004096716
63	0x3d9147d5	0.07093779
64	0x3d92a5bb	0.07160517
65	0xb918d080	-0.00014573522
66	0x3d4d2d2f	0.05009192
67	0x3d89c62d	0.06727252
68	0xbdaa3b7c	-0.08312127
69	0x3d0b6bd6	0.034038387

network_actor.2.weight f4 [70, 70]
0	0xbd20ed20	-0.03928864
1	0x3dce211b	0.10064908
2	0x3dac8047	0.084229045
3	0xbda54ce6	-0.08071308
4	0xbde21f00	-0.11041069
5	0x3dce2966	0.1006649
6	0x3dcb1d71	0.09917725
7	0xbd0e88b0	-0.034798324
8	0xbd40946b	-0.047016542
9	0xbda6b7d0	-0.08140528
10	0xbd0fdb21	-0.035121087
11	0x3dd1fe5c	0.10253593
12	0x3d9345e1	0.07191063
13	0x3c9588aa	0.018253643
14	0x3d1716c7	0.036886957
15	0x3d418cf7	0.047253575
16	0xbd44e322	-0.048068173
17	0xbd0fc820	-0.035102963
18	0x3d469e72	0.04849095
19	0xbd4e0473	-0.05029721
20	0xbd4b80a0	-0.049683213
21	0xbc5aa938	-0.013346009
22	0xbde53261	-0.1119125
23	0x3d350920	0.044198155
24	0xb9da0a22	-0.0004158775
25	0x3ce1c7c3	0.027561074
26	0x3de5b20d	0.11215601
27	0x3cac0477	0.020998223
28	0xbcc8abf9	-0.024496065
29	0xbcdefda5	-0.027220557
30	0xbd3403c6	-0.04394891
31	0xbd1ed916	-0.038781248
32	0xbcc76596	-0.024340432
33	0x3c627498	0.013821743
34	0x3dd873bf	0.10568952
35	0x3c79aef9	0.015239471
36	0xbd5d5bfc	-0.0540428
37	0xbbcfd633	-0.006342673
38	0x3d191a35	0.03737851
39	0x3cfd90ed	0.030952895
40	0xbca2fa25	-0.019894669
41	0xbdbf92ac	-0.09354147
42	0xbda72afb	-0.08162495
43	0x3dcbe991	0.09956659
44	0x3dcf92e1	0.10135437
45	0x3de696b5	0.11259214
46	0xbdcca9ee	-0.09993349
47	0x3bbc5522	0.0057474533
48	0xbdd693ad	-0.10477386
49	0x3d9eee3f	0.077602856
50	0xbbc5706d	-0.006025365
51	0x3d5c89bf	0.053842302
52	0xbced4807	-0.02896501
53	0x3dc7a818	0.09748858
54	0x3d7fe536	0.062474452
55	0x3d9260b0	0.07147348
56	0xbdc42e4e	-0.095791444
57	0xbda3a97a	-0.079913095
58	0xbcab7296	-0.020928662
59	0xbcc79a72	-0.024365637
60	0xbd5e5995	-0.05428465
61	0xbd598ceb	-0.053112905
62	0x3cc37dde	0.02386373
63	0x3a992e7f	0.001168683
64	0x3db5bdfe	0.08874129
65	0x3dd822d8	0.10553521
66	0xbd19bbd1	-0.03753263
67	0xbd745a06	-0.059656166
68	0x3caf6c16	0.021413844
69	0x3d845bdf	0.064628355
70	0xbd0d79e4	-0.034540072
71	0x3d3230d0	0.043503582
72	0x3defc66c	0.11707768
73	0xbd92cb66	-0.071677014
74	0xbdca3704	-0.09873775
75	0xbdf2a689	-0.1184817
76	0xbd8d3ac7	-0.068959765
77	0x3d436c50	0.047710717
78	0x3d54e702	0.05197812
79	0xbd7b7be2	-0.06139744
80	0x3d3ac240	0.045595407
81	0x3d6c466d	0.05768435
82	0x3d5ab8e8	0.053398997
83	0xbd86fbd6	-0.06591003
84	0x3db18086	0.08667092
85	0xbd8c1182	-0.06839277
86	0xba7ddbed	-0.00096839556
87	0xbdf1b7ba	-0.11802621
88	0xbdb002ca	-0.08594282
89	0xbdeb8b69	-0.115012
90	0xbd669b7e	-0.056300633
91	0xbd9ebabc	-0.077504605
92	0xbdefd847	-0.117111735
93	0xbc2a3673	-0.010388958
94	0x3deb0cd6	0.11477058
95	0xbd729ebe	-0.05923342
96	0x3dcb4e4e	0.09927045
97	0xbd423f25	-0.0474235
98	0x3ddd4f3c	0.108061284
99	0x3cf7e187	0.030258907
100	0xbd6bae61	-0.057539348
101	0xbbc94743	-0.0061425283
102	0x3d55909c	0.052139863
103	0xbd90d3d0	-0.0707165
104	0xbd232e2e	-0.039838962
105	0x3d23142f	0.03981417
106	0x3d4636ec	0.04839222
107	0xbdea1533	-0.11429825
108	0x3bc56384	0.006023826
109	0x3c915322	0.017739836
110	0xbdf44ade	-0.11928342
111	0x3cc9dc4f	0.024641184
112	0xbc12df71	-0.008964405
113	0xbde1ac62	-0.110192075
114	0x3d1a424f	0.037660893
115	0x3dad7f6d	0.0847157
116	0xbde27b6b	-0.11058696
117	0x3ce394d2	0.027780924
118	0xbd33847f	-0.04382753
119	0xbd879cb1	-0.066216834
120	0x3dc335e2	0.09531762
121	0x3dc47e3e	0.09594391
122	0x3c92e047	0.01792921
123	0x3c9f58db	0.01945155
124	0xbc4cace9	-0.012492397
125	0x3bba35a9	0.0056826663
126	0x3d8be235	0.06830255
127	0xbd9fb0c1	-0.07797385
128	0xbcbe5ed9	-0.023238586
129	0x3dd2f8ee	0.10301386
130	0x3d038f32	0.032118984
131	0xbd62b573	-0.055348825
132	0xbda4fa75	-0.080555834
133	0x3de8ec69	0.11373217
134	0xbd957c25	-0.07299069
135	0xbdd37d34	-0.10326615
136	0x3df4a402	0.119453445
137	0xbdc10771	-0.094252475
138	0xbde4184e	-0.11137448
139	0xbc549833	-0.01297574
140	0x3d0b2211	0.033968035
141	0x3cda99bd	0.026684636
142	0xbd983d76	-0.07433598
143	0xba054f20	-0.0005085338
144	0x3cfe5be0	0.031049669
145	0x3da10859	0.0786292
146	0xbd7a88f4	-0.061165765
147	0xbde93108	-0.11386305
148	0xbc0b576b	-0.008504729
149	0xbd2f5c03	-0.04281236
150	0xbd263dbb	-0.040586215
151	0x3c3dbf96	0.011581322
152	0x3cf8f429	0.030389862
153	0x3d50fcde	0.051022403
154	0xbd6819ce	-0.056665234
155	0x3d45224a	0.048128404
156	0xbd1c9165	-0.038224597
157	0xbc12b84c	-0.008955073
158	0xbd26930e	-0.040667586
159	0x3da6a87a	0.08137603
160	0xbbf7c66d	-0.007561496
161	0x3db21ea9	0.08697254
162	0x3a9f085b	0.0012133227
163	0xbd6e8737	-0.05823442
164	0x3da555db	0.08073016
165	0x3d10f32c	0.035388157
166	0x3cfdff30	0.031005472
167	0xbd3398f7	-0.04384705
168	0x3cee9952	0.029125843
169	0xbd33b309	-0.043871913
170	0xbb75d2f0	-0.0037509762
171	0xbcc1d39e	-0.023660477
172	0xbd7e99ec	-0.06215851
173	0x3c4cc419	0.012497925
174	0xbd101c6b	-0.03518335
175	0xbcbc44ba	-0.02298199
176	0xbdef51bf	-0.11685514
177	0x3b7db4f6	0.0038712597
178	0x3dadce91	0.08486665
179	0xbc9810a0	-0.018562615
180	0xbcbefa2b	-0.023312649
181	0x3bd50656	0.0065009994
182	0x3db0cce7	0.08632832
183	0x394426e7	0.00018706509
184	0xbdf3d287	-0.11905389
185	0x3d7e6f1f	0.062117692
186	0x3c2eecf9	0.010676616
187	0xbd747fa8	-0.059692055
188	0xbc8a673d	-0.016894931
189	0x3c14b408	0.009076126
190	0xbdbf1db1	-0.09331835
191	0xbd3509d4	-0.044198826
192	0x3dcfe49c	0.10151026
193	0x3db99def	0.090633266
194	0xbcb3da6b	-0.021954736
195	0xbdbd7993	-0.09251704
196	0xbdad80ad	-0.084718086
197	0xbd47ccac	-0.048779175
198	0xba892b57	-0.0010465187
199	0x3dd4e7e7	0.10395794
200	0xbbbbd2f9	-0.005731937
201	0x3c9d7982	0.019222979
202	0xbc0497a8	-0.008092798
203	0x3d4652ff	0.048418995
204	0xbd580131	-0.05273551
205	0xbdc1bce5	-0.09459857
206	0x3dd2a419	0.102852054
207	0x3d6bb841	0.057548765
208	0xbd48f95d	-0.049065936
209	0x3d07d45a	0.0331615
210	0x3d810309	0.06299407
211	0xbd4bf252	-0.04979164
212	0xbde209de	-0.11037038
213	0xbc67fc66	-0.014159298
214	0x3d890b13	0.06691565
215	0x3d81f1b9	0.06344933
216	0xbdeaabcc	-0.11458549
217	0x3dc48473	0.09595575
218	0xbd602667	-0.054724123
219	0xbd0693de	-0.03285586
220	0xbc568314	-0.013092775
221	0x3b3e5a30	0.0029045455
222	0xbd085709	-0.03328613
223	0xbdb073a0	-0.08615804
224	0x3ccb4a96	0.024815839
225	0x3cd1863f	0.025576709
226	0xbc89ddf7	-0.016829474
227	0xbd1a964e	-0.037740998
228	0x3d60e2c2	0.054903753
229	0x3d25ec20	0.04050839
230	0x3cc7d79c	0.024394803
231	0xbdc0cfd8	-0.09414643
232	0x3d0c58df	0.03426444
233	0xbd03c1d1	-0.03216726
234	0xbb1e4bc0	-0.0024154037
235	0xbb0629da	-0.0020471723
236	0xbc802123	-0.0156408
237	0x3c940d35	0.018072704
238	0x3dc7f188	0.09762865
239	0x3da3cf2e	0.07998501
240	0xbd6a5ba3	-0.057216298
241	0x3ce27800	0.027645111
242	0x3d9bd667	0.076092534
243	0xbdb9ed89	-0.09078509
244	0xbdf247d4	-0.118301064
245	0xbddf524c	-0.10904369
246	0xbd5d534e	-0.054034524
247	0xbdca5d77	-0.09881108
248	0xbdbd89cd	-0.09254799
249	0xbdccf30c	-0.10007295
250	0xbc5b2723	-0.01337603
251	0x3da79aa3	0.081837915
252	0x3de075c6	0.109599635
253	0x3cb2faac	0.021848045
254	0xbb87dfe7	-0.0041465643
255	0xbda94a61	-0.0826614

network_actor.2.bias f4 [70]
0	0xb9cb63fc	-0.0003879367
1	0xbd22bb11	-0.03972918
2	0xbd3a7fb5	-0.045531947
3	0xbde4a8bd	-0.11164997
4	0xbdc676fb	-0.096906625
5	0xbd2285d9	-0.03967843
6	0x3cdd2132	0.026993368
7	0x3d407c64	0.04699363
8	0xbd80ad68	-0.062830746
9	0x3dd408ae	0.10353218
10	0x3c700b7c	0.014651176
11	0x3d3d955d	0.046285022
12	0xbd0df436	-0.034656726
13	0x3c5458bb	0.012960608
14	0xbc43083a	-0.011903817
15	0xbd1cf5fd	-0.03832053
16	0xbdb2ec93	-0.08736529
17	0xbd7d7022	-0.061874516
18	0x3b9a9a71	0.004718118
19	0xbd9adc08	-0.07561499
20	0x3dd7ab41	0.10530711
21	0xbdb2873e	-0.08717202
22	0xbdcdf9c2	-0.10057403
23	0x3cb6e2a9	0.022324877
24	0x3be2122a	0.006899138
25	0xbdde1aa4	-0.10844925
26	0x3b254887	0.0025220232
27	0x3bfdcf60	0.0077456683
28	0x3c920a83	0.017827278
29	0xbd9270e6	-0.0715044
30	0x3da24482	0.07923223
31	0x3d28633c	0.041110262
32	0x3dcc6a11	0.09981168
33	0x3d010c1e	0.031505696
34	0xbde62aac	-0.11238608
35	0x3d4a1cbb	0.049343806
36	0xbd0cbb4c	-0.034358308
37	0x3dc296ce	0.0950142
38	0xbdde0fe0	-0.10842872
39	0xbdb60eeb	-0.08889564
40	0x3dc722f7	0.09723466
41	0x3d617b2a	0.0550491
42	0x3df40b85	0.1191626
43	0xbd9e8def	-0.077419154
44	0x3d135c6f	0.035976823
45	0xbd801c93	-0.0625545
46	0x3cc1c470	0.023653239
47	0x3dd61d18	0.10454768
48	0x3d412e77	0.047163453
49	0x3d8f2834	0.0699009
50	0xbd7e8e2e	-0.062147312
51	0x3d94c3d9	0.072639175
52	0x3d6ef284	0.05833675
53	0xbdc83fee	-0.097778186
54	0x3d53f733	0.05174942
55	0x3bb01cfb	0.0053745485
56	0x3dbefc5a	0.09325476
57	0x3c91525b	0.017739465
58	0xbdbc367b	-0.09190079
59	0x3cec4b3d	0.02884447
60	0xbd34e31e	-0.04416191
61	0xbd164ed9	-0.03669629
62	0xbdd07698	-0.1017887
63	0xbda39861	-0.07988048
64	0x3dcffa09	0.10155112
65	0xbcea3814	-0.028591193
66	0x3d832d2c	0.064051
67	0x3cb3a6b2	0.021930072
68	0xbda6c730	-0.08143461
69	0x3dee182f	0.116257064

network_actor.4.weight f4 [5, 70]
0	0x3df06c35	0.11739389
1	0x3d889272	0.06668557
2	0x3c9dfa4b	0.019284388
3	0xbd35e2da	-0.044405796
4	0x3d617562	0.055043586
5	0xbddb358a	-0.10703571
6	0xbdce6df7	-0.10079568
7	0xbd7e6ba3	-0.06211437
8	0x3d7ce3fa	0.061740853
9	0xbcc9b121	-0.024620594
10	0x3cef161b	0.029185345
11	0xbdccec0a	-0.100059584
12	0xbab8ac13	-0.0014089368
13	0x3d901cd7	0.07036751
14	0xbcc3ea2f	-0.023915378
15	0xbc469fc6	-0.012123054
16	0xbcc8e22d	-0.024521912
17	0xbdc764b0	-0.097360015
18	0x3d53a14b	0.051667493
19	0xbd218d9d	-0.039441694
20	0xbd89c617	-0.06727236
21	0xbd3ae7fa	-0.045631386
22	0xbdd7ef62	-0.105437055
23	0x3de81684	0.113324195
24	0x3d1345b5	0.03595515
25	0x3cdb8656	0.026797455
26	0x3c839f2b	0.016067108
27	0x3d36f0a1	0.044663075
28	0x3d51355c	0.051076278
29	0x3d932a6c	0.07185826
30	0xbda67b3d	-0.081289746
31	0xbdc1ad38	-0.09456867
32	0xbdc7a15e	-0.09747575
33	0x3de6a87a	0.11262603
34	0xbcfd1ad6	-0.030896585
35	0x3c8c38b1	0.017116876
36	0x3c89a129	0.01680048
37	0x3d4b529f	0.04963934
38	0x3d5a44a4	0.053288117
39	0xbdbf9da7	-0.09356242
40	0xbc843ac9	-0.016141312
41	0x3bcd48a6	0.006264764
42	0x3cd56a24	0.026051588
43	0xbc0b716a	-0.008510927
44	0xbd5a6d69	-0.053326998
45	0x3dd49e96	0.1038181
46	0x3d01836f	0.031619485
47	0xbde38b4a	-0.11110552
48	0xbd2959cc	-0.041345403
49	0x3da8b6c4	0.08237985
50	0xbcacdd76	-0.021101695
51	0x3d1d3c82	0.038387783
52	0xbd344abd	-0.04401659
53	0xbd871576	-0.0659589
54	0x3d109ad8	0.03530392
55	0xbce5a3a6	-0.028032135
56	0xbdc2ac41	-0.09505511
57	0x3d778dc1	0.06043792
58	0x3d9aaa10	0.07551968
59	0xbdd171de	-0.102267966
60	0xbcfaebeb	-0.030630073
61	0x3dc3474c	0.09535083
62	0x3dd209fb	0.1025581
63	0xbdc9d81c	-0.09855673
64	0xbd659a2d	-0.056055237
65	0xbdbbe457	-0.09174412
66	0x3d16973f	0.036765333
67	0xbd8f08ae	-0.069840774
68	0xbc47626b	-0.012169461
69	0x3db9f402	0.09079744
70	0xbd246dcd	-0.040143777
71	0xbd930222	-0.07178141
72	0xbdca679e	-0.09883045
73	0x3d83c969	0.064349
74	0x3ca3afe9	0.019981341
75	0xbdd62b6a	-0.10457499
76	0xbce419da	-0.027844358
77	0xbdd66367	-0.10468178
78	0xbd20b4c1	-0.03923488
79	0xbd9f7fd7	-0.077880554
80	0x3cc99462	0.024606887
81	0xbd83fe1f	-0.06444954
82	0x3cf02d7d	0.029318566
83	0x3da5dcd7	0.080987625
84	0x3d7bf208	0.061510116
85	0x3d515500	0.051106453
86	0xbd8aa924	-0.06770542
87	0x3cf314dc	0.029673032
88	0x3d9780cf	0.07397615
89	0xbdb7dd0d	-0.08977709
90	0x3db251aa	0.087069824
91	0x3d62afdc	0.055343494
92	0xbd9cfc32	-0.0766529
93	0x3c9cab10	0.019124538
94	0x3da3ed39	0.08004231
95	0xbdaf6462	-0.085640684
96	0x3d1e1c63	0.03860129
97	0xbce29e7c	-0.027663462
98	0xbdb0d5aa	-0.08634503
99	0xbdc857f8	-0.09782404
100	0xbdaead72	-0.08529176
101	0xbdd62600	-0.10456467
102	0xbddb9116	-0.10721032
103	0x3dca032f	0.098638885
104	0xbdc472d2	-0.09592213
105	0x3c5881bd	0.013214526
106	0x3ce4c881	0.027927639
107	0x3dafa218	0.08575839
108	0xbcc1e12f	-0.023666946
109	0xbdeae513	-0.11469474
110	0xbcabe7a9	-0.020984488
111	0x3d367eaa	0.04455439
112	0x3d54ab9f	0.051921483
113	0xbdca6a17	-0.09883516
114	0x3d1ca70f	0.038245257
115	0xbdada96b	-0.084795795
116	0x3d416efe	0.04722499
117	0x3de35ed6	0.11102073
118	0x3c96ab04	0.018392093
119	0xbd8b7bbd	-0.068107106
120	0x3d791aad	0.060816456
121	0xbd31635a	-0.04330764
122	0xbd036a29	-0.032083664
123	0xbccce754	-0.02501265
124	0xbab1c770	-0.0013563465
125	0xbdeec203	-0.116580985
126	0xbdbe44c5	-0.092904605
127	0x3d4ed35f	0.050494548
128	0xbd932a40	-0.07185793
129	0x3ddaa2ef	0.10675608
130	0xbd8204ec	-0.06348595
131	0xbd0b562a	-0.03401772
132	0xbd5d87ed	-0.054084707
133	0x3d9fc11c	0.078005046
134	0xbd5f8d5e	-0.054578178
135	0xbd0a5080	-0.033768177
136	0xbd093fb0	-0.033508003
137	0x3dab3171	0.083590396
138	0x3bd43a50	0.006476678
139	0xbdce06c8	-0.10059887
140	0x3b55d79f	0.003262974
141	0xbdb1ab97	-0.08675306
142	0x3d10417d	0.035218704
143	0xbd439794	-0.047751978
144	0x3da64906	0.08119397
145	0x3d30d057	0.04316744
146	0x3de2af30	0.110685706
147	0x3c3be74a	0.011468718
148	0xbd0a7fc1	-0.033813242
149	0x3df0b93e	0.11754082
150	0xbdc2e5ec	-0.0951651
151	0xbc087775	-0.008329262
152	0xbd58da02	-0.052942283
153	0xbdb012c3	-0.085973285
154	0xbd82ab22	-0.06380297
155	0x3d4fc7a2	0.050727494
156	0x3db37f1c	0.087644786
157	0xbdd594be	-0.10428761
158	0xbca0a164	-0.019608207
159	0x3d8e4c97	0.06948202
160	0x3d30f69e	0.043203942
161	0x3daea496	0.08527486
162	0x3d9b82ea	0.07593329
163	0x3b89b918	0.004202973
164	0x3dd9279d	0.10603259
165	0xbcc629b0	-0.0241898
166	0x3cc6e269	0.024277883
167	0xbd1ac446	-0.037784837
168	0xbd8be04f	-0.06829893
169	0xbd11eeae	-0.035628013
170	0xbdef0b83	-0.116721176
171	0xbd409e3c	-0.047025904
172	0xbcedc802	-0.029026035
173	0x3c407466	0.011746502
174	0xbd361008	-0.044448882
175	0x3de8d310	0.11368382
176	0xbdd190ac	-0.10232672
177	0x3def1edc	0.11675808
178	0x3d69798f	0.057000693
179	0x3c0bdac6	0.008536046
180	0xbd13fcfb	-0.036129933
181	0xbcb8682f	-0.022510616
182	0x3caa3b8f	0.020780353
183	0xbc58ab18	-0.013224386
184	0x3bdc1303	0.0067161336
185	0x3dd30fce	0.10305749
186	0xbdc48635	-0.095959105
187	0xbd9ca126	-0.07647924
188	0x3d0a4493	0.033756804
189	0xbd824cce	-0.063623056
190	0x3dedc5c4	0.116099864
191	0x3d881790	0.06645119
192	0xbc7c6e11	-0.015407101
193	0xbdb8441c	-0.08997366
194	0xbdac3b35	-0.0840973
195	0x3de1cd2f	0.11025464
196	0x3db9553a	0.09049459
197	0x3ded1e1b	0.11578008
198	0x3d87394d	0.06602726
199	0x3cfb0f72	0.030647013
200	0xbc73059f	-0.014832883
201	0xbdbe34ed	-0.092874385
202	0x3d2415b6	0.040059768
203	0x3db519dd	0.08842824
204	0x39cd274d	0.00039129928
205	0x3da25ac5	0.07927469
206	0x3ca35d1c	0.019941859
207	0x3d845d32	0.06463088
208	0xbd2deded	-0.04246323
209	0x3de9f7d9	0.11424226
210	0xbd0ea92f	-0.034829315
211	0xbc17c7bf	-0.009263932
212	0xbb89595b	-0.00419156
213	0x3c383247	0.011242456
214	0xbd8eb10a	-0.06967361
215	0x3de6d9f8	0.11272043
216	0xbd5c547b	-0.053791504
217	0xbde0c5e0	-0.10975242
218	0xbd85cb79	-0.0653295
219	0xbdc323b9	-0.09528298
220	0x3dbb59c8	0.09147984
221	0x3dcdcdb9	0.10049004
222	0xbd4131aa	-0.047166504
223	0x3cce24fd	0.025164122
224	0xbd2bbe2c	-0.04192941
225	0xbda58dd6	-0.08083694
226	0xbdf286b2	-0.11842097
227	0xbd161b51	-0.036647145
228	0xbd0222f3	-0.03177161
229	0xbd92f6e2	-0.071759954
230	0xbd8c1017	-0.068390064
231	0xbdb1b289	-0.08676631
232	0x3dd1da0e	0.10246669
233	0xbdb10858	-0.086441696
234	0xbd0f55d1	-0.03499395
235	0x3d84b990	0.06480706
236	0x3d5604c6	0.052250646
237	0xbc41aefc	-0.011821505
238	0x3d8e78c4	0.06956628
239	0x3dc18122	0.09448458
240	0x3d3e7f13	0.046507906
241	0xbd513827	-0.05107894
242	0x3db4eddf	0.08834433
243	0xb986b79b	-0.00025695268
244	0x3dcbde2c	0.09954485
245	0xbcb6c322	-0.022309843
246	0xbd461dbc	-0.0483682
247	0xbdd430ba	-0.10360856
248	0xbd545087	-0.05183461
249	0xbce91ce6	-0.028456163
250	0x3d4978d2	0.04918749
251	0x3dc9ced1	0.098539
252	0xbdb42266	-0.087956235
253	0x3dac6494	0.08417621
254	0xbdb54724	-0.088514596
255	0xbd8edd73	-0.06975832

network_actor.4.bias f4 [5]
0	0xbd30d522	-0.04317201
1	0xbde0667d	-0.10957048
2	0xbd64baa0	-0.055842042
3	0x3d29b4aa	0.04143206
4	0xbd34f298	-0.044176668
