checkpoint/ddpg-critic_mlp_actor-lr:0.0003_critic-lr:0.0003_gamma:0.99_tau:0.05.pth (torch, 126209 bytes, 10 tensors)

network_critic_1.0.weight f4 [70, 145]
0	0x3d9f01d7	0.07764023
1	0xbd045fbd	-0.032317866
2	0xba76eae6	-0.0009419158
3	0x3d8240e2	0.06360032
4	0x3d64038f	0.055667456
5	0xbd3b84d1	-0.04578096
6	0xbc965659	-0.01835172
7	0xba806468	-0.0009795548
8	0x3da1fcbf	0.079095356
9	0xbd32eb82	-0.04368163
10	0xbd6be72a	-0.057593502
11	0xbd52d615	-0.051473696
12	0x3d867b2a	0.065664604
13	0x3d94d955	0.07268015
14	0x3d5f8844	0.054573312
15	0xbd788e10	-0.060682356
16	0xbca37a9b	-0.019955924
17	0x3c94a178	0.0181434
18	0x3d5666bb	0.052344065
19	0x3cfd2232	0.030900095
20	0xbaf9566b	-0.0019022947
21	0xbd847cf8	-0.064691484
22	0x3d122718	0.035681814
23	0xbca48b09	-0.020085828
24	0x3cd603f8	0.02612494
25	0x3d72b6ee	0.059256487
26	0x3d98af48	0.07455307
27	0x3cf091b8	0.02936636
28	0x3cc02937	0.023457153
29	0x3d164513	0.036686968
30	0xbd5e2d05	-0.054242153
31	0xbd57f4ed	-0.052723814
32	0x3d83aa12	0.06428923
33	0x3c997b8f	0.018735675
34	0x3d6d25cf	0.057897385
35	0x3d384a7b	0.044992905
36	0x3d8f22f9	0.069890924
37	0xbd0b9fa0	-0.034087777
38	0x3d75e417	0.060031977
39	0x3ca856c6	0.02054919
40	0xbd1955a6	-0.037435196
41	0xbc2ea2f4	-0.010658968
42	0xbcaa661c	-0.020800643
43	0x3d457651	0.04820854
44	0x3d80bff4	0.06286612
45	0x3c14ed6f	0.009089812
46	0xbcdda0b2	-0.027054165
47	0x3cb55d4c	0.022139214
48	0xbd39d2f4	-0.045367196
49	0x3d06e550	0.032933533
50	0xbda761eb	-0.08172973
51	0xbd0c3b5c	-0.034236297
52	0x3d4911dd	0.0490893
53	0xbd087dbb	-0.03332303
54	0xbc76b928	-0.015058793
55	0xbd8609b5	-0.0654482
56	0x3d54cfa7	0.051955845
57	0xbc64bca8	-0.013960995
58	0x3c7845b3	0.015153336
59	0xba80a4d9	-0.0009814753
60	0x3d4b6fae	0.049667053
61	0xbd2b1fad	-0.041778255
62	0xbd30f222	-0.043199666
63	0x39b69ca1	0.00034830443
64	0xbd5b970e	-0.053610854
65	0x3d8893e7	0.06668835
66	0xbd65238a	-0.055942096
67	0x3d4bc3be	0.04974722
68	0xbaf22ac8	-0.0018475885
69	0xbd0c11cb	-0.034196656
70	0xbd1697ff	-0.03676605
71	0x3bb8ebbf	0.0056433375
72	0xbd8c2a94	-0.06844059
73	0xbd20e509	-0.039280925
74	0x3d334a2b	0.043771904
75	0x3d602a6f	0.054727968
76	0x3c682b5c	0.014170494
77	0xbd8d9272	-0.06912698
78	0xbcab47f4	-0.020908333
79	0x3d19d75b	0.037558895
80	0xbd9ef125	-0.077608384
81	0x3b4b3ca9	0.0031011498
82	0x3c4d14a6	0.01251713
83	0xbd815fbd	-0.06317089
84	0xbd8e30c1	-0.06942893
85	0xbd95570b	-0.07291993
86	0xbd80efa6	-0.06295709
87	0xbd2e8e44	-0.042616144
88	0xbcf06d24	-0.029348917
89	0x3d6d4496	0.057926737
90	0xba3029af	-0.00067200785
91	0x3d43cd57	0.04780325
92	0xbd316f56	-0.04331907
93	0xbd8a4124	-0.06750706
94	0x3cfa390d	0.030544782
95	0xbd5a3746	-0.05327537
96	0xbd9520e8	-0.07281667
97	0x3cd6fcbc	0.02624356
98	0x3d51afa2	0.051192887
99	0x3d0319a3	0.03200687
100	0xbd5f5859	-0.054527614
101	0x3c3c07dc	0.011476483
102	0x3d30d13d	0.043168295
103	0xbbc05a3c	-0.005870132
104	0xbd9f9823	-0.0779269
105	0x3d38b6fe	0.04509639
106	0x3d3a7d3d	0.045529593
107	0x3c52f604	0.0128760375
108	0x3d34dcd6	0.044155918
109	0xbb5de743	-0.0033859767
110	0xbc191b8f	-0.009344949
111	0xbd133912	-0.0359431
112	0xbd60ff17	-0.054930773
113	0x3d8aa0a9	0.06768925
114	0xbc1f5870	-0.009725675
115	0x3c674e21	0.0141177485
116	0xbd61e085	-0.05514576
117	0x3cd6a018	0.026199386
118	0x3d942783	0.07234099
119	0xbb83715d	-0.0040113167
120	0x3c9e7054	0.019340672
121	0xbda9827d	-0.08276842
122	0x3d3cfeee	0.046141557
123	0xbd2afe85	-0.041746635
124	0x3ce0e9f2	0.027455304
125	0xbd87cbb6	-0.06630652
126	0xbda016ca	-0.07816847
127	0x3d8656ed	0.065595485
128	0xbc99c43e	-0.018770333
129	0x3da4d3e3	0.08048227
130	0xbc9e1703	-0.019298082
131	0x3c61817c	0.013763782
132	0xbcf0daa8	-0.029401138
133	0x3d94cbb8	0.07265419
134	0x3d915d06	0.07097821
135	0x3c6a4dad	0.014300746
136	0x3d24d16d	0.040238786
137	0x3c20cc7c	0.009814378
138	0xbd2370ce	-0.0399025
139	0x3c763924	0.015028272
140	0xbd831ca7	-0.064019494
141	0xbd8411bd	-0.06448696
142	0xbd63125d	-0.055437434
143	0xbd3a892d	-0.045540977
144	0x3d9a1de4	0.075252324
145	0xbcf42006	-0.029800426
146	0x3ce40cc4	0.027838118
147	0xbd93c2df	-0.07214903
148	0x3b5ac50b	0.0033381607
149	0x3d8b5c3b	0.06804701
150	0xbd7ea26b	-0.062166613
151	0xbcd4290e	-0.025898483
152	0x3cfeb319	0.03109126
153	0x3d819958	0.06328076
154	0x3d8723ee	0.0659865
155	0xbd2e7354	-0.042590454
156	0xbda5ef13	-0.081022404
157	0xbc4fa004	-0.012672428
158	0xb9c7cab7	-0.00038107272
159	0x3d5140ed	0.05108731
160	0xbd069795	-0.032859404
161	0xbcc4162c	-0.023936354
162	0xbccb63e1	-0.0248279
163	0xbd4f0e45	-0.050550718
164	0x3a9713f1	0.0011526329
165	0x3d39a6ce	0.045325093
166	0x3cf0d3d8	0.02939789
167	0xbc9b9dfa	-0.018996228
168	0xbb7079f3	-0.003669378
169	0x3c6dfc1e	0.014525441
170	0x3d869051	0.06570495
171	0x3da041e4	0.07825068
172	0xbda86078	-0.08221525
173	0xbcd57e6f	-0.026061265
174	0xbce2625f	-0.027634798
175	0xbd506f9c	-0.05088769
176	0x3c2c50e3	0.010517332
177	0x3d65d661	0.05611265
178	0xbc82d9e9	-0.015973048
179	0x3c359e18	0.011085056
180	0x3da39310	0.07987034
181	0xbd9a8209	-0.075443335
182	0x3ce92653	0.028460657
183	0x3b96f150	0.0046064034
184	0xbd860fd4	-0.06545988
185	0xbda86cee	-0.08223902
186	0x3c69b316	0.014263889
187	0x3d6be65d	0.05759274
188	0x3d08a084	0.033356205
189	0xbcd07b81	-0.025449516
190	0xbbbd83eb	-0.005783548
191	0xbd7c25b0	-0.06155938
192	0x3d543ce1	0.05181587
193	0x3a6da124	0.00090648443
194	0x3b403dc0	0.002933368
195	0x3da94e49	0.08266885
196	0xbd62e0c9	-0.055390153
197	0xbd34e74f	-0.044165906
198	0xbda45143	-0.08023312
199	0x3d6687c1	0.05628181
200	0x3da996d7	0.082807235
201	0x3d0aef9f	0.033919927
202	0x3c28d327	0.010304249
203	0x3d9b68b4	0.0758833
204	0xbc7920fb	-0.015205617
205	0x3ce11cda	0.027479578
206	0xbd293b1b	-0.041316133
207	0xbd895d50	-0.06707251
208	0x3ccfcbb3	0.025365686
209	0xbd5e8889	-0.05432943
210	0xbc23d0c4	-0.009998504
211	0xbc909d63	-0.017653173
212	0xbc492a15	-0.0122781
213	0x3a4adf51	0.0007738965
214	0xbc799a1a	-0.015234495
215	0xbd162fd9	-0.036666725
216	0xbd071b40	-0.032984972
217	0xbd043a96	-0.032282434
218	0x3d8c7d7e	0.06859873
219	0xbd029385	-0.031878967
220	0xbd2c37ff	-0.04204559
221	0x3d8abf83	0.06774809
222	0x3da75583	0.08170607
223	0xbd946a6d	-0.072468616
224	0xbd98021f	-0.074222796
225	0xbd495d3a	-0.049161173
226	0xbbb354df	-0.005472764
227	0xbd7b2124	-0.061310902
228	0x3d425fb9	0.04745457
229	0x3caa0a53	0.020756876
230	0xbd086c4a	-0.033306397
231	0xbc25398e	-0.010084523
232	0x3d8ba8a4	0.06819275
233	0x3cbdf5f6	0.023188572
234	0x3d8d9cda	0.06914683
235	0xbda522c9	-0.08063275
236	0xbcd432a0	-0.025903046
237	0x3d6e5339	0.058184836
238	0xbc25810f	-0.010101571
239	0x3d9f867d	0.077893235
240	0x3d002a29	0.031290207
241	0xbd233c97	-0.039852705
242	0xbd86905e	-0.065705046
243	0x3d851b34	0.06499329
244	0x3cfe48cd	0.031040573
245	0x3cf1090e	0.029423263
246	0x3d464053	0.048401188
247	0x3d95c9d1	0.07313884
248	0xbcc6e776	-0.024280291
249	0x3d2fcb9a	0.04291878
250	0x3d73a144	0.059479967
251	0x3d29b7ca	0.04143504
252	0xbcb4eaa7	-0.022084547
253	0x3d99f6a2	0.075177446
254	0xbc84efb5	-0.016227582
255	0xbce71d7c	-0.028212301

network_critic_1.0.bias f4 [70]
0	0xbccad926	-0.024761748
1	0xbd81aefd	-0.063322045
2	0x3d16233c	0.036654696
3	0xbd3e081e	-0.04639446
4	0x3da460a4	0.08026245
5	0x3b0eb534	0.0021775486
6	0xbda5cc88	-0.08095652
7	0x3d33856c	0.043828413
8	0xbda5d12c	-0.08096537
9	0x3d0105cb	0.031499665
10	0xbd9c651b	-0.07636472
11	0x3c44d3ae	0.012013359
12	0x3aa52972	0.0012600853
13	0x3c1af848	0.009458609
14	0x3d222cbe	0.03959345
15	0x3d6bbb39	0.057551596
16	0xbb2ce5ea	-0.0026382157
17	0x3c40d762	0.011770101
18	0x3c78ea2b	0.015192549
19	0xbbd74b21	-0.0065702354
20	0xbd95b419	-0.073097415
21	0xbcaf2c00	-0.021383286
22	0x3d73ec0f	0.059551295
23	0xbc3a73a3	-0.011380109
24	0xbc9532b2	-0.01821265
25	0x3ca983ab	0.020692667
26	0xbda421a5	-0.0801423
27	0x3d8e94ee	0.06962
28	0xbca7970a	-0.020457763
29	0xbd666099	-0.056244466
30	0x3d7630c1	0.06010509
31	0xbd8d86df	-0.0691049
32	0xbccbcbb5	-0.024877409
33	0xbb7106f6	-0.003677783
34	0x3cede885	0.029041538
35	0x3d9821db	0.074283324
36	0x3d40bcc2	0.047055013
37	0xbd84f0c8	-0.06491238
38	0xbda78b8f	-0.081809156
39	0xbd822ca6	-0.06356172
40	0xbc844998	-0.016148373
41	0xbd8594e1	-0.06522537
42	0x3d95762a	0.07297929
43	0x3d090761	0.033454303
44	0x3ca1c03e	0.019744989
45	0xbc7bcd5b	-0.015368785
46	0x3d1cd107	0.03828528
47	0x3c5aff22	0.013366492
48	0xbd59c4f4	-0.053166345
49	0xbd87bd03	-0.06627848
50	0x3bafc1e0	0.005363688
51	0x3da58ad1	0.08083118
52	0x3d3a8e01	0.04554558
53	0xbb8d10be	-0.0043049743
54	0xbba2f3e8	-0.0049729235
55	0xbd847d20	-0.06469178
56	0x3ad0d2b4	0.0015931935
57	0x3c8e48f4	0.017368771
58	0xbcec8c9f	-0.028875647
59	0xbd799402	-0.060932167
60	0xbcf89c5b	-0.030347994
61	0xbd1c67d4	-0.038184956
62	0x3d5c3006	0.053756736
63	0x3cc26ac7	0.023732556
64	0x3d0b501f	0.034011956
65	0x3d8dade3	0.06917932
66	0xbda4253f	-0.08014917
67	0x3d6d1a09	0.057886157
68	0xbadb922a	-0.0016751934
69	0xbcc15607	-0.023600591

network_critic_1.2.weight f4 [70, 70]
0	0x3d856e7e	0.06515215
1	0xbd7dd055	-0.06196626
2	0xbd093747	-0.033499982
3	0x3de4157b	0.111369096
4	0xbd69a9ff	-0.057046887
5	0x3de2ec1d	0.11080191
6	0x3dc96bf8	0.098350465
7	0x3d8be7fd	0.06831358
8	0xbd2c0887	-0.04200032
9	0x3dd0383d	0.101669766
10	0xbdc66ee4	-0.096891195
11	0xbcb0d914	-0.021587886
12	0x3d8f2a18	0.069904506
13	0xbcbd6d4b	-0.023123404
14	0xbbe73f6f	-0.0070571224
15	0x3d8ce071	0.06878746
16	0xbc900697	-0.017581267
17	0x3d9c40ce	0.07629548
18	0xbd9ce1ab	-0.0766023
19	0x3d81869f	0.06324505
20	0x3d98a5df	0.074535124
21	0x3d86712b	0.06564554
22	0xbd74a1e7	-0.059724715
23	0x3cfe63b4	0.031053402
24	0x3dea0bb3	0.11428013
25	0xbdbf9b36	-0.09355776
26	0x3bcbd4ef	0.006220452
27	0xbc95531e	-0.01822811
28	0x3d20c31d	0.039248575
29	0x3deda65b	0.116039954
30	0xbcb795cb	-0.022410294
31	0x3baa7f00	0.005203128
32	0xbd6ddeac	-0.058073685
33	0x3d55f89c	0.052239046
34	0xbce3b1fc	-0.02779483
35	0x3dc5ec91	0.09664262
36	0x3db0fa84	0.08641532
37	0x3c7a27fe	0.015268324
38	0x3d20c0bd	0.03924631
39	0x3de10719	0.10987682
40	0x3c6afa7b	0.014341946
41	0xbd9b044f	-0.07569181
42	0xbd450d91	-0.04810864
43	0xbd0832de	-0.033251636
44	0x3d0c4172	0.0342421
45	0xbd40c081	-0.047058586
46	0x3d21b6dd	0.039481033
47	0x3c0b05e8	0.008485295
48	0xbd8ecccf	-0.06972658
49	0x3d25d1ef	0.04048341
50	0xbb6d5bfd	-0.003621816
51	0x3d02e949	0.03196076
52	0xbcf5b7ed	-0.02999493
53	0xbd75f787	-0.060050514
54	0xbdb004b4	-0.08594647
55	0xbcf6a8db	-0.030109813
56	0xbc2c6d49	-0.0105241025
57	0x3dcd53af	0.10025727
58	0x3d9fddd1	0.0780598
59	0xbd564081	-0.05230761
60	0xbd8a2181	-0.067446716
61	0xbdc51398	-0.09622878
62	0x3cd09c40	0.02546513
63	0xbd9845d6	-0.07435195
64	0x3dcbd99e	0.099536166
65	0xbde8473b	-0.11341711
66	0x3da7512d	0.0816978
67	0x3ca9f366	0.020745944
68	0xbd978d0c	-0.073999494
69	0x3db42107	0.08795362
70	0xbd441da0	-0.047879815
71	0x3d94dc6c	0.07268605
72	0x3db2f7b3	0.08738651
73	0xbcc83c6d	-0.024442876
74	0x3d0d9b22	0.034571774
75	0x3d1e2907	0.038613345
76	0x3cbe02e8	0.023194745
77	0x3dc4cb1e	0.09609054
78	0x3d199dfb	0.037504178
79	0xbc0f8ab5	-0.008761098
80	0x3dd182bc	0.10230014
81	0xbd19359b	-0.037404638
82	0xbd081eec	-0.033232614
83	0x3dc11810	0.09428418
84	0x3db7723a	0.08957334
85	0xbd8e5066	-0.069489285
86	0x3b19fae1	0.0023495483
87	0x3dc963bf	0.09833478
88	0x3d040140	0.032227755
89	0xbdb9d637	-0.09074061
90	0x3c8ed55c	0.017435722
91	0x3daf6e99	0.08566017
92	0xbd3ac106	-0.045594238
93	0xbd8bbc7c	-0.0682306
94	0x3c9367d9	0.017993854
95	0x3d081b87	0.033229377
96	0x3d2c88ed	0.04212277
97	0xbdd18125	-0.102297105
98	0xbcde92c2	-0.027169589
99	0xbd496ab7	-0.049174037
100	0xbdcc673c	-0.09980628
101	0xbdcf54b0	-0.10123575
102	0x3db7e704	0.089796096
103	0x3d78572e	0.060630016
104	0x3de9285a	0.113846496
105	0x3cf98149	0.030457156
106	0x3d8f71d8	0.07004136
107	0x3d71a240	0.058992624
108	0x3deb5bb7	0.114921026
109	0xbd9fd4ef	-0.07804286
110	0x3cc84fda	0.024452139
111	0xbd244600	-0.04010582
112	0xbd10a693	-0.035315108
113	0x3d782613	0.060583185
114	0xbd7ed119	-0.06221113
115	0x3dbb5471	0.09146965
116	0x3d69ff05	0.05712797
117	0x3d912e63	0.07088926
118	0xbda68092	-0.081299916
119	0xbd95b5e3	-0.07310083
120	0x3d2fde65	0.0429367
121	0xbda340d6	-0.07971351
122	0x3dd8e809	0.10591132
123	0x3dde971d	0.10868666
124	0x3cafbeea	0.02145334
125	0xbcd5e740	-0.026111245
126	0x3d41e5eb	0.047338407
127	0xbd36148b	-0.044453185
128	0x3d10e898	0.03537807
129	0xbbf211bc	-0.007387368
130	0xbd0d5ce8	-0.03451243
131	0x3d455288	0.04817441
132	0x3d897a0a	0.0671273
133	0xbca26321	-0.019822659
134	0x3c1d0d29	0.009585657
135	0x3dcc7a77	0.09984296
136	0xbd29e92a	-0.04148213
137	0xbdc0919c	-0.09402773
138	0xbdc82863	-0.09773328
139	0x3da41614	0.080120236
140	0x3d616e1f	0.05503666
141	0x3d83d20e	0.06436549
142	0x3d29821b	0.041383844
143	0x3db46466	0.08808212
144	0x3c84c560	0.016207397
145	0xbda200bb	-0.079102956
146	0xbd8ea481	-0.069649704
147	0xbc71eef4	-0.0147664435
148	0x3c1266c9	0.008935639
149	0x3d0a96bc	0.033835158
150	0x3de7550a	0.11295517
151	0xbdb4edf5	-0.08834449
152	0xbd8dfd47	-0.069330744
153	0xbbb386d0	-0.0054787174
154	0xbbea5ece	-0.007152415
155	0x3d5ac19e	0.053407304
156	0xba066281	-0.00051263726
157	0x3d982303	0.07428553
158	0xbc27a339	-0.010231786
159	0xbd993d58	-0.074824035
160	0xbcfb4552	-0.030672703
161	0x3d6bd554	0.057576492
162	0xbd6cc5cf	-0.057805832
163	0xbc33399a	-0.010939026
164	0x3d91275e	0.07087587
165	0xbd6c7525	-0.057728905
166	0x3d931ee3	0.071836255
167	0x3d71f546	0.0590718
168	0xbd56206d	-0.052277017
169	0x3d127838	0.03575918
170	0xbdcfc8b7	-0.10145705
171	0x3dbcb436	0.0921406
172	0x3cb747bf	0.022373078
173	0x3d1f01bd	0.038820017
174	0xbda7a159	-0.081850715
175	0xbdec2171	-0.11529816
176	0x3bbfa0b9	0.005848017
177	0x3db3f2b8	0.08786529
178	0x3d735818	0.059410185
179	0x3ca32df5	0.019919375
180	0xbdecd0f2	-0.11563291
181	0x3d994169	0.07483179
182	0xbdb8d519	-0.0902502
183	0xbdc14460	-0.094368696
184	0xbd5b7df8	-0.05358693
185	0x3d8e7219	0.06955356
186	0xbd0271a0	-0.031846642
187	0x3d2e1e05	0.042509098
188	0xbd055e9e	-0.032560937
189	0x3d8017b6	0.062545225
190	0x3dd936af	0.10606133
191	0xbdeb9aeb	-0.11504158
192	0xbce04987	-0.02737881
193	0xbd195531	-0.03743476
194	0xbda0bb7e	-0.07848261
195	0xbdbe588a	-0.09294231
196	0xbd207b81	-0.039180283
197	0xbbb31152	-0.005464711
198	0xbdc49dbd	-0.09600399
199	0x3da932d7	0.0826165
200	0x3c8704e8	0.016481832
201	0xbd8ae5fc	-0.06782147
202	0x3d9d524c	0.076817125
203	0xbd48b716	-0.04900273
204	0xbddc66ce	-0.10761796
205	0xbd0ce156	-0.034394585
206	0xbd8f6a21	-0.07002664
207	0xbd085bca	-0.033290662
208	0x3ddb6772	0.1071309
209	0xbd901d2d	-0.07036815
210	0x3c11a268	0.008888818
211	0x3dc7c2f1	0.09753979
212	0x3dacc37c	0.08435723
213	0x3dcab9cc	0.09898719
214	0x3d31b021	0.04338086
215	0xbc50aaa7	-0.012735999
216	0xbcf800f6	-0.030273896
217	0xbd7339cf	-0.059381302
218	0xbdc89500	-0.097940445
219	0x3c2f23c6	0.010689681
220	0x3d11fe69	0.035643015
221	0xbda624fd	-0.08112524
222	0xbdafb475	-0.08579341
223	0x3cd15f0b	0.025558015
224	0x3d7db0db	0.06193624
225	0xbddf7068	-0.10910112
226	0xbad801f8	-0.0016480079
227	0x3d00e086	0.031464122
228	0x3df0b154	0.11752573
229	0xbcb63812	-0.022243533
230	0x3de0ebee	0.109825
231	0xbdd044ec	-0.10169396
232	0xbd929ca9	-0.07158787
233	0x3ddd8b44	0.108175784
234	0xbdaf7a53	-0.08568253
235	0x3c4700a6	0.012146151
236	0xbdaffe71	-0.08593453
237	0x3d351341	0.044207815
238	0xbccd57dc	-0.025066309
239	0x3d17fe7d	0.037107933
240	0x3c2f3f07	0.010696179
241	0x3d8effda	0.069823936
242	0x3de54371	0.11194504
243	0x3c942a1a	0.018086482
244	0xbdd1a333	-0.10236206
245	0x3c694667	0.014237977
246	0xbcc9fdd5	-0.02465717
247	0x3dd78716	0.105238125
248	0x3dcc856e	0.09986387
249	0xbd3d246e	-0.04617732
250	0x3dc1b2e8	0.09457952
251	0x3d8f67fa	0.07002254
252	0x3dc04597	0.09388273
253	0x3b0441f5	0.0020180915
254	0xbdd3fd01	-0.10350991
255	0xbd5eb6c8	-0.054373533

network_critic_1.2.bias f4 [70]
0	0xbdcdbbc0	-0.10045576
1	0x3d863c49	0.06554467
2	0x3deb4c5b	0.11489173
3	0xbd2379b8	-0.039911002
4	0xbdd758cf	-0.10514986
5	0x3dbcf317	0.09226053
6	0x3c36bacc	0.011152934
7	0xbc830c8b	-0.015997192
8	0xbd444533	-0.047917556
9	0x3db0f3fe	0.08640288
10	0x3d4c67fa	0.049903847
11	0xbb27334a	-0.0025512748
12	0xbdc7fd0d	-0.097650625
13	0x3cd34456	0.025789421
14	0xbdf27c37	-0.11840098
15	0xbca4e24e	-0.020127442
16	0x3dee3039	0.116302915
17	0x3d83ae70	0.06429756
18	0xbcca0182	-0.024658922
19	0xbda4a42d	-0.080391265
20	0x3dd0fd7d	0.10204599
21	0x3c28ae1e	0.010295419
22	0x3d8600d1	0.065431245
23	0x3cbad3ac	0.022806011
24	0x3cbc24ef	0.02296683
25	0x3deaccc6	0.11464839
26	0x3c4f824b	0.012665342
27	0xbbcb4134	-0.006202841
28	0xbdbf3895	-0.09336964
29	0x3cdfde51	0.027327688
30	0x3d15c8be	0.036568396
31	0xbdd5b04b	-0.10434016
32	0x3dc59162	0.0964687
33	0xbdd38f3f	-0.103300564
34	0xbd772995	-0.06034239
35	0x3d500872	0.050789304
36	0xbd3f347b	-0.04668091
37	0xbd23d086	-0.039993785
38	0xbce172c0	-0.027520537
39	0x3dafdbea	0.08586867
40	0x3df3b458	0.11899632
41	0x3d1ae9d2	0.037820645
42	0xbdac00e1	-0.08398605
43	0xbddfde0e	-0.109310254
44	0x3de2f123	0.110811494
45	0x3d7b342f	0.061329063
46	0x3d8a71e0	0.06760001
47	0xbd10e53c	-0.035374865
48	0xbb7fca46	-0.0039030476
49	0xbdc2b67f	-0.095074646
50	0x3c8f8fd9	0.017524647
51	0xbdd9b6ca	-0.10630567
52	0x3d59e47f	0.053196426
53	0x3d5ffb04	0.054682747
54	0x3c5c7411	0.013455407
55	0x3d7521ed	0.059846807
56	0x3dadb945	0.08482603
57	0xbd46606a	-0.04843179
58	0x3dc0a06a	0.094055966
59	0x3dd7d73d	0.105391
60	0x3d4b03c4	0.049564138
61	0xbde78b7f	-0.11305904
62	0xbd40ecfc	-0.047101006
63	0x3deb584d	0.114914514
64	0xbd4b33b2	-0.049609847
65	0xbd7c5b36	-0.061610423
66	0xbd46ab98	-0.04850349
67	0xbdc79c2f	-0.097465865
68	0xbd64a8a7	-0.055824902
69	0x3de39ff2	0.111144915

network_critic_1.4.weight f4 [1, 70]
0	0x3dc7bba6	0.09752588
1	0xbd9f2733	-0.077711485
2	0xbc30b31a	-0.010784889
3	0x3d1d798d	0.038445998
4	0xbd663386	-0.05620148
5	0xbdd2f324	-0.10300282
6	0xbca50ac4	-0.020146735
7	0x3d20f923	0.039300095
8	0x3de0a877	0.10969632
9	0x3ce4f362	0.027948085
10	0xbcf3a058	-0.029739544
11	0xbd0d1599	-0.034444425
12	0x3d6a9f86	0.05728104
13	0x3defb107	0.11703687
14	0xbda9152f	-0.082559936
15	0x3da17db4	0.07885304
16	0x3da6722d	0.08127246
17	0xbcd7bbd7	-0.026334686
18	0xbd9ace12	-0.07558836
19	0x3dbcd710	0.092207074
20	0x3def1b91	0.1167518
21	0xbc122322	-0.008919509
22	0x3ceaf42d	0.028680885
23	0x3daf4f91	0.08560098
24	0x3ce8b9b9	0.028408872
25	0x3db5c168	0.0887478
26	0x3bf97f77	0.007614072
27	0xbdcd90ba	-0.1003737
28	0x3c74686d	0.014917475
29	0xbce0fdc5	-0.027464757
30	0x3c15edd7	0.009150944
31	0x3bf26062	0.0073967436
32	0xbc924ba7	-0.01785834
33	0xbd23e688	-0.040014774
34	0xbd6c03d3	-0.057620835
35	0x3d152949	0.036416326
36	0xbdd8bd13	-0.10582938
37	0xbd49fbb6	-0.049312316
38	0xbc7d2c68	-0.015452482
39	0xbcb8f7d2	-0.022579107
40	0x3d2fbe01	0.04290581
41	0xbde28f7a	-0.11062522
42	0x3d0dd3ca	0.034625806
43	0x3d652868	0.055946738
44	0xbdce8c5b	-0.100853644
45	0x3dce7fc6	0.100829646
46	0x3db3eacf	0.087850206
47	0xbde47a7c	-0.111561745
48	0x3cb2b7bd	0.021816129
49	0x3de59944	0.11210874
50	0xbddf6cfe	-0.109094605
51	0x3d77b041	0.060470823
52	0xbd6101c6	-0.054933332
53	0xbd89f828	-0.06736785
54	0x3d2db04c	0.042404458
55	0xbdc7d3a5	-0.09757165
56	0x3d920c71	0.07131279
57	0x3c516158	0.012779556
58	0x3db90c4e	0.0903555
59	0x3de992a1	0.1140492
60	0x3d817625	0.063213624
61	0x3d40ea30	0.04709834
62	0x3c8cc672	0.01718447
63	0x3d5ba939	0.05362818
64	0xbd28d177	-0.041215386
65	0xbd8ab48e	-0.06772719
66	0x3dcef02f	0.10104405
67	0x3db4df7c	0.08831689
68	0xbc30dc37	-0.010794691
69	0xbd6e962b	-0.05824868

network_critic_2.0.weight f4 [70, 145]
0	0x3d2ecde6	0.04267683
1	0xbd63f91e	-0.0556575
2	0x3b8543c0	0.0040669143
3	0xbc477dd1	-0.012175993
4	0xbd887199	-0.06662292
5	0xbd05a0e2	-0.032624133
6	0xbd8f95e2	-0.0701101
7	0x3ca3fee5	0.020019004
8	0x3c574a22	0.013140233
9	0x3b842280	0.004032433
10	0x3d80afc9	0.06283528
11	0xbcac5cbe	-0.021040317
12	0xbda4ac39	-0.08040661
13	0xb8d2a516	-0.0001004433
14	0xbca85ff3	-0.020553565
15	0xbc898a9f	-0.016789733
16	0xbc9203bf	-0.017824052
17	0xbd54cd44	-0.05195357
18	0x3d7068aa	0.058693565
19	0x3c6b1f33	0.0143507
20	0xbcbbc17b	-0.022919407
21	0xbd17c34e	-0.03705149
22	0x3c8a43bb	0.016878
23	0x3d6e7aeb	0.058222692
24	0x3cbe7054	0.023246922
25	0xbd95e719	-0.07319469
26	0xbd3ebc0e	-0.04656606
27	0xbcb3d220	-0.021950781
28	0xbd092a1c	-0.033487424
29	0xbd68a2c3	-0.056795847
30	0x3d339b6e	0.0438494
31	0x3d1f399e	0.038873307
32	0x3ceab859	0.028652357
33	0xbd5c5042	-0.053787477
34	0xbccd7adb	-0.025082996
35	0xbd94b35b	-0.07260772
36	0xbd9f2beb	-0.077720486
37	0x3c0cace2	0.00858614
38	0xbda2f075	-0.0795602
39	0x3b93a612	0.004505881
40	0xbc2df836	-0.01061826
41	0x3d36c564	0.04462184
42	0xbd616242	-0.055025347
43	0xbc431a6b	-0.011908154
44	0xbd91deac	-0.071225494
45	0xbd264424	-0.040592328
46	0x3cef5204	0.029213913
47	0xbd750d34	-0.059827045
48	0xbcb50f5c	-0.02210205
49	0x3d9c3121	0.07626558
50	0xbd8fb91f	-0.07017731
51	0xbd4887e2	-0.048957713
52	0xbd454c7b	-0.04816864
53	0xbc8d5d75	-0.017256478
54	0x3d019209	0.03163341
55	0xbd8a1e3a	-0.067440465
56	0x3ce8fba9	0.028440313
57	0x3da44a90	0.08022034
58	0xbd5c7afe	-0.053828232
59	0x3bf5b70d	0.007498628
60	0xbd1c8b75	-0.038218934
61	0xbb836be2	-0.0040106634
62	0x3d606b9a	0.054790117
63	0xbc405da4	-0.011741076
64	0x3d050458	0.032474846
65	0xbd7252a2	-0.059160836
66	0x3d54d377	0.05195948
67	0xbd6c9bac	-0.057765648
68	0x3d3cd940	0.046105623
69	0xbd412578	-0.047154874
70	0x3cc34659	0.023837255
71	0x3cbbf68c	0.022944711
72	0xbd4f3592	-0.050588198
73	0x3da78bec	0.08180985
74	0xbba35f5e	-0.004985734
75	0x3d9d7c9b	0.07689782
76	0x3d97264e	0.07380353
77	0x3d22e027	0.03976455
78	0xbd989eec	-0.07452187
79	0x3d484957	0.048898067
80	0xbcc6403b	-0.02420055
81	0xbd508f65	-0.050918
82	0xbbf39fa8	-0.007434804
83	0x3cca768e	0.024714734
84	0xbb539de4	-0.0032290155
85	0xbbc030a1	-0.005865172
86	0x3c95dc4b	0.01829352
87	0x3ca2c6ba	0.01987015
88	0xbd74b02e	-0.05973833
89	0x3da4332c	0.08017573
90	0xbd460768	-0.048346907
91	0xbd590ca4	-0.05299057
92	0xbd070a07	-0.032968547
93	0x3d975b1e	0.07390426
94	0x3c5a087d	0.013307688
95	0x3d940f78	0.07229513
96	0xbc65ebdb	-0.014033283
97	0x3d03aa23	0.032144677
98	0xbcd38d2d	-0.025824154
99	0x3d5b0d0b	0.053479236
100	0xbc95c2b7	-0.018281324
101	0xbd0e191e	-0.034691922
102	0x3d2fc43e	0.04291176
103	0xbca4b5f3	-0.020106291
104	0x3d59951e	0.053120725
105	0xbd5c6557	-0.053807583
106	0xbda64547	-0.08118682
107	0x3da287d6	0.07936065
108	0xbcd144d4	-0.025545515
109	0xbc944e6c	-0.0181038
110	0x3d908088	0.070557654
111	0x3d0c0794	0.034186915
112	0x3b660e07	0.0035103576
113	0xbd2ea193	-0.042634558
114	0x3d7f9714	0.06239994
115	0x3d8b4c7e	0.06801699
116	0xbbdd60fa	-0.0067559453
117	0xbd131c91	-0.035915915
118	0x3c9345dc	0.017977647
119	0x3c2c5fcc	0.010520887
120	0x3d895fd3	0.0670773
121	0xbd06bf04	-0.03289701
122	0xbda9a0ff	-0.08282661
123	0x3d7e4a46	0.06208255
124	0xbd183a6c	-0.03716509
125	0xbb1c5e3f	-0.0023859886
126	0x3c1545cb	0.009110878
127	0x3cbe6b4e	0.023244526
128	0xbd55d344	-0.05220343
129	0xbd950114	-0.07275596
130	0x3d5e1ab6	0.054224692
131	0xbd846db7	-0.06466239
132	0xbd07cf4b	-0.033156674
133	0xbd26f57c	-0.040761456
134	0xbd52f44a	-0.051502503
135	0xbd848bdd	-0.06471989
136	0xbcd0e0ad	-0.025497759
137	0x3cf33477	0.029688103
138	0xbd235f23	-0.03988565
139	0xbac3822f	-0.0014916117
140	0x3d219641	0.039449934
141	0xbba649f2	-0.005074733
142	0x3da9a469	0.08283312
143	0xbd77852b	-0.060429733
144	0x3d8e124c	0.069370836
145	0x3d96f8cc	0.07371673
146	0xbccdb89a	-0.025112439
147	0xbc4be85b	-0.012445535
148	0x3d7fd170	0.062455595
149	0x3da63c2e	0.08116947
150	0xbc9e6037	-0.019332988
151	0xbda63d03	-0.08117106
152	0x3da147dc	0.07875034
153	0xbaa014f4	-0.0012213276
154	0xbc863dbc	-0.01638686
155	0xbc121119	-0.008915209
156	0x3cd1fe15	0.025633851
157	0xbd81193f	-0.063036434
158	0xbd39f08a	-0.04539541
159	0x3cdc84be	0.026918765
160	0xbd81da84	-0.06340507
161	0xbd884c11	-0.066551335
162	0xbd97242b	-0.07379945
163	0x3ca13ca8	0.019682243
164	0x3d969713	0.07353034
165	0xbd95d539	-0.073160596
166	0x3c8780ee	0.01654097
167	0x3da27f7f	0.07934474
168	0xbbf2d899	-0.0074110744
169	0x3d83d409	0.06436927
170	0x3da3f2b3	0.080052756
171	0xbd80bf15	-0.06286446
172	0x3cb15282	0.021645788
173	0xbd07b38b	-0.03313021
174	0xbd83390d	-0.06407366
175	0x3cf856e9	0.03031488
176	0xbda5f711	-0.08103765
177	0xbc0af8fa	-0.008482212
178	0xbd53353b	-0.051564436
179	0x3ba87f67	0.0051421407
180	0xbd44c995	-0.048043806
181	0x3c66e3ea	0.014092425
182	0xbd299f9f	-0.041411992
183	0xbcba0e38	-0.022711858
184	0x3cebbdf6	0.028777104
185	0x3d956086	0.07293801
186	0x3d36e749	0.044654164
187	0xbd82a017	-0.06378191
188	0xbc43ae08	-0.011943348
189	0x3d87ee18	0.0663721
190	0x3c0fc1db	0.008774246
191	0x3d5e0b1b	0.05420981
192	0x3b37009d	0.002792395
193	0xbbb63fb3	-0.0055617928
194	0x3da4e695	0.080517925
195	0xbc0bbcd7	-0.00852891
196	0x3d82a47e	0.06379031
197	0x3d093171	0.033494417
198	0x3cd5c818	0.026096389
199	0xbd9e809f	-0.07739376
200	0x3d6f8430	0.058475673
201	0x3d84c17f	0.06482219
202	0x3d401bd6	0.046901546
203	0xbb1f3c89	-0.0024297556
204	0x3d3ddfef	0.046356138
205	0x3d1160ad	0.035492588
206	0xbd73294e	-0.059365563
207	0x3ccb6db8	0.024832591
208	0xbcc92718	-0.024554774
209	0x3cce07a9	0.025150137
210	0xbd63d2fd	-0.055621136
211	0x3d688094	0.056763247
212	0xbd6e4ad6	-0.058176838
213	0xbd774dc7	-0.06037691
214	0xbcaf92aa	-0.02143224
215	0xbd9a97b3	-0.075484656
216	0x3d1a848c	0.037724063
217	0x3d43817d	0.04773091
218	0x3c39749b	0.011319305
219	0xbd5f9751	-0.054587666
220	0x3d06ba59	0.03289256
221	0x3bb6f939	0.005583909
222	0xbd8cbc44	-0.06871846
223	0x3cf8ea5b	0.030385187
224	0xbd411ce5	-0.047146697
225	0xbcb04497	-0.021517081
226	0xbce08f92	-0.02741221
227	0xbd8f66a1	-0.07001997
228	0x3b1e0ec0	0.0024117678
229	0xbda3119b	-0.07962342
230	0x3cc3c46f	0.023897378
231	0x3d59ee74	0.053205922
232	0x3d8ea66d	0.06965337
233	0xbc975b3d	-0.018476123
234	0x3bc0509a	0.0058689835
235	0xbce5a25c	-0.02803152
236	0xbcf6eec8	-0.030143157
237	0xbcf6081a	-0.03003316
238	0xbd864e82	-0.06557943
239	0xbd09a62e	-0.033605747
240	0xbd677052	-0.0565036
241	0xbd1a45e1	-0.037664298
242	0xbd02762c	-0.03185098
243	0x3d3fdce3	0.046841513
244	0xb9d86000	-0.00041270256
245	0xbd6cd603	-0.057821285
246	0x3ce4310f	0.027855424
247	0x3c60d6d3	0.013723093
248	0x3d95c576	0.07313053
249	0x3bcfeb01	0.0063451533
250	0xbb892d32	-0.004186296
251	0xbd138060	-0.0360111
252	0x3c423f78	0.011855952
253	0x3d33ad56	0.043866478
254	0x3cc358d4	0.023846067
255	0xbd0e4c01	-0.03474045

network_critic_2.0.bias f4 [70]
0	0xbda9d170	-0.082919
1	0xbcff3cea	-0.031156976
2	0xbd70d683	-0.058798324
3	0xbd9f9f68	-0.07794076
4	0x3da55ae3	0.08073976
5	0xbd6cf4d2	-0.057850666
6	0xbd98008b	-0.074219786
7	0xbd3c9bac	-0.046046898
8	0x3c893957	0.016750975
9	0xbd972639	-0.07380337
10	0xbcd31f94	-0.025771894
11	0x3cdac714	0.026706256
12	0xbc988a30	-0.01862058
13	0x3c875946	0.016522061
14	0xbd0d2c73	-0.03446622
15	0xbd91da0a	-0.07121666
16	0xbd772d7e	-0.06034612
17	0xbc2f5263	-0.010700795
18	0xbd4f809b	-0.050659757
19	0xbc9bdb8e	-0.01902559
20	0xbc390d17	-0.011294625
21	0xbda245d0	-0.07923472
22	0x3d58be45	0.05291583
23	0x3d4b6f9e	0.049666993
24	0x3cfa03e7	0.030519439
25	0xbd78f8cc	-0.060784146
26	0xbd29853c	-0.041386828
27	0xbcc48960	-0.023991287
28	0x3b916001	0.0044364934
29	0xbd8fa8c8	-0.07014614
30	0x3cb9ea52	0.02269474
31	0x3c160968	0.009157516
32	0xbd864318	-0.06555766
33	0xbc96a266	-0.018387984
34	0xbd60c550	-0.054875672
35	0xbd15daec	-0.036585733
36	0xbd1a197b	-0.037621956
37	0xbc7930ec	-0.015209418
38	0x3d0acaad	0.033884693
39	0xbcc373bc	-0.023858897
40	0xbd7c0f04	-0.061537758
41	0x3d47ae1b	0.048750024
42	0x3c6dd263	0.014515492
43	0x3d4866ea	0.04892627
44	0x3d166e07	0.036726024
45	0x3d941f4b	0.07232531
46	0xbc75b0a8	-0.014995731
47	0x3d7874fb	0.060658436
48	0x3d4ea379	0.05044887
49	0xbbc1a5ab	-0.0059096417
50	0xbce1d57c	-0.027567618
51	0x3d98e21c	0.07465002
52	0xbc7f81c7	-0.015594906
53	0x3d8e48c5	0.069474734
54	0x3c469807	0.012121207
55	0x3c49d255	0.0123182135
56	0x3c8a2f5d	0.016868288
57	0xbd8c9560	-0.068644285
58	0x3d817d20	0.06322694
59	0x3d930564	0.071787626
60	0xbc6fa1f2	-0.014626013
61	0xbd82e1ce	-0.06390725
62	0xbc671f00	-0.014106512
63	0x3ccfc6e1	0.025363388
64	0xbd6a19f0	-0.057153642
65	0xbc9215fa	-0.017832745
66	0xbcde9866	-0.027172279
67	0x3c439692	0.011937754
68	0x3d5ecfb0	0.054397285
69	0x3d0199e3	0.0316409

network_critic_2.2.weight f4 [70, 70]
0	0x3cee0812	0.029056583
1	0xbce21dbb	-0.027602067
2	0xbda88bdf	-0.08229803
3	0xbcd4b9fe	-0.025967594
4	0x3d0c077a	0.034186818
5	0x3d5c78fb	0.053826313
6	0x3c9cabe6	0.019124936
7	0xbdad4d16	-0.084619686
8	0xbd360833	-0.044441413
9	0xbd89b638	-0.067242086
10	0x3df1d551	0.11808265
11	0xbd5391ae	-0.051652603
12	0xbddbcf7f	-0.10732936
13	0xbdd8d52b	-0.105875336
14	0xbd198691	-0.03748185
15	0x3d13a741	0.036048178
16	0xbda60c0f	-0.08107769
17	0x3c85edbb	0.01634871
18	0xbc8c7587	-0.017145885
19	0x398141aa	0.0002465372
20	0x3d87ac7c	0.06624696
21	0xbc771342	-0.015080275
22	0xbcfe7e08	-0.031065956
23	0x3b9f2e7c	0.0048578363
24	0xbda7832f	-0.08179318
25	0x3dd0b11f	0.10190033
26	0xbd8051f6	-0.06265633
27	0x3ddd8d24	0.10817936
28	0xbd58e64e	-0.05295401
29	0x3dc3e8f9	0.095659204
30	0x3c1ded90	0.009639159
31	0xbd437a38	-0.04772398
32	0xbcb4ab9d	-0.022054488
33	0xbc8eec12	-0.017446551
34	0xbc774033	-0.01509099
35	0x3dda760e	0.106670484
36	0x3d8e81fc	0.06958386
37	0xbdd76392	-0.105170384
38	0xbdbf05c3	-0.09327271
39	0xbc07dd18	-0.008292459
40	0x3dd6710d	0.104707815
41	0xbd2f71f1	-0.042833272
42	0x3dde054c	0.10840854
43	0xbc94ca90	-0.018162996
44	0xbd8f4115	-0.06994835
45	0x3d7432f4	0.059618905
46	0xbd4c8eca	-0.04994086
47	0x3d59ffdb	0.05322252
48	0xbdbeeea1	-0.093228586
49	0x3dd772d1	0.10519946
50	0x3bc2cc86	0.0059447912
51	0x3d555e97	0.05209216
52	0x3d211b30	0.03933257
53	0x3cb49821	0.022045197
54	0xbd50752a	-0.050892986
55	0xbda8e0e4	-0.082460195
56	0xbddcec9d	-0.10787318
57	0x3dd050b8	0.10171646
58	0x3d3d02f3	0.04614539
59	0x3d426141	0.04745603
60	0x3d31971f	0.04335701
61	0xbd72fa39	-0.059320662
62	0xbcb38e95	-0.021918574
63	0xbd3ef2ab	-0.046618145
64	0x3d82a8a1	0.0637982
65	0x3d917fe3	0.071044706
66	0x3caa1ffb	0.020767203
67	0xbd9a2bf9	-0.07527918
68	0xbda4c684	-0.08045676
69	0x3ca9d594	0.020731725
70	0x3d02649d	0.031834234
71	0xbc10007f	-0.008789181
72	0xbddd72fc	-0.10812947
73	0xbdc50d4a	-0.09621675
74	0xbdaa4f83	-0.08315947
75	0x3daf7bc8	0.08568531
76	0xbd629c7f	-0.055325028
77	0xbdb4e1a1	-0.08832098
78	0x3ddb6644	0.10712865
79	0xbd8d24de	-0.068917975
80	0xbcfdd588	-0.030985609
81	0xbbb22525	-0.005436557
82	0xbc996d20	-0.018728793
83	0x3cbb5e78	0.022872195
84	0xbda76e38	-0.081753194
85	0xbd178ea5	-0.03700127
86	0x3d812230	0.06305349
87	0xbddffd72	-0.10937013
88	0xbdb01ca7	-0.08599215
89	0x3c8afe3a	0.016966928
90	0xbc4fa207	-0.012672908
91	0xbdde8502	-0.10865213
92	0xbd90a08b	-0.07061871
93	0xbac59708	-0.0015074918
94	0xbdc40562	-0.09571339
95	0xbd6a78e4	-0.057244197
96	0x3d53740a	0.051624335
97	0xbc068025	-0.008209263
98	0xbb6ac4e0	-0.0035822913
99	0x3dd034e4	0.10166338
100	0x3d42aef1	0.04753012
101	0x3de5c7f8	0.11219782
102	0x3cf08033	0.029358005
103	0x3d930382	0.071784034
104	0x3d260d02	0.04053975
105	0xbbd7f9b9	-0.0065910486
106	0xbdc2b8c8	-0.095079005
107	0xbc18905e	-0.009311764
108	0xbdcfdba7	-0.10149317
109	0x3d79fd80	0.061032772
110	0x3a7bb8fd	0.00096024555
111	0x3deae960	0.11470294
112	0xbd010b3d	-0.03150486
113	0xbdee2cc2	-0.116296306
114	0x3daf1782	0.08549406
115	0xbc87578e	-0.016521242
116	0x3dba3990	0.090930104
117	0xbc3875a1	-0.011258514
118	0x3cb03a43	0.021512156
119	0xbdeaac97	-0.114587
120	0x3d0d62d3	0.034518074
121	0xbdc11d4f	-0.09429418
122	0xbded2228	-0.115787804
123	0x3d15e29b	0.03659306
124	0x3d144434	0.036197856
125	0xbb3de54b	-0.002897578
126	0x3db106e1	0.0864389
127	0x3cd03024	0.02541358
128	0xbde20683	-0.11036398
129	0x3dba427b	0.090947114
130	0xbd9bb49b	-0.07602807
131	0x3dc35cc2	0.095391765
132	0xbbf9f103	-0.007627608
133	0x3d91743e	0.071022496
134	0xbdf4a7f9	-0.11946101
135	0xbda20874	-0.079117686
136	0xbcb0876a	-0.021548945
137	0x3d9d85a9	0.07691509
138	0x3dac7cb8	0.08422226
139	0x3c88b280	0.016686678
140	0xbc42c315	-0.0118873315
141	0xbdcb29a2	-0.0992005
142	0x3d87b0b8	0.06625503
143	0x3deb0961	0.11476398
144	0x3da8e2a4	0.08246353
145	0x3bde5ddf	0.0067860927
146	0x3dd3bde5	0.10338954
147	0xbc49ff35	-0.0123289125
148	0x3baba6d2	0.0052383924
149	0xbdb8f2ec	-0.09030709
150	0xbd1a5134	-0.037675098
151	0xbbe510e7	-0.0069905403
152	0x3de98ab0	0.11403406
153	0xbddb810a	-0.107179716
154	0x3cb9b4ba	0.022669185
155	0x3d39e9f2	0.045389123
156	0xbdaeb0ab	-0.085297905
157	0x3d5f4d1c	0.054516897
158	0xbdd3133a	-0.103064016
159	0xbd3820d0	-0.044953167
160	0x3d4b1ccb	0.049588006
161	0x3c29aba0	0.01035586
162	0xbb4e05da	-0.0031436593
163	0xbbf6d408	-0.0075326003
164	0xbcbccabe	-0.023045894
165	0x3d2a3595	0.041555006
166	0x3d56ff0a	0.052489318
167	0xbd31d3ed	-0.043415
168	0xbc8d5624	-0.01725299
169	0xbd9fb7cf	-0.077987306
170	0x3de6bb4b	0.11266192
171	0x3dcbfefa	0.09960742
172	0xbdb69fc2	-0.0891719
173	0x3de7f26c	0.11325535
174	0xbc1e69c0	-0.009668767
175	0x3dbf1fa0	0.09332204
176	0xbdd1cda1	-0.10244299
177	0xbdb6ecbe	-0.08931874
178	0x3de89ad0	0.11357653
179	0x3c9b6a90	0.018971711
180	0xbdaf0af0	-0.08547008
181	0xbd78e3d8	-0.060764164
182	0xbdaf7e26	-0.08568983
183	0x3db9be7f	0.09069537
184	0x3de1adab	0.11019453
185	0xbc6d6d15	-0.014491339
186	0x3d258b94	0.040416315
187	0xbc6d10cf	-0.0144693395
188	0xbcc383aa	-0.023866493
189	0xbdc6039a	-0.09668656
190	0x3de23f97	0.11047285
191	0x3d28d2a9	0.041216526
192	0x3d8bdb78	0.0682897
193	0xbb9ee2b5	-0.004848803
194	0x3b6b65fe	0.0035918946
195	0x3dab1f4a	0.08355577
196	0xbc8c8214	-0.01715187
197	0x3dda4476	0.10657589
198	0xbdd2ef7d	-0.10299585
199	0xbd44d131	-0.048051063
200	0x3d3b496e	0.045724325
201	0xbda6ec15	-0.08150498
202	0xbc9c9fc4	-0.019119151
203	0x3de438ed	0.1114367
204	0x3daf9dd3	0.085750245
205	0xbdd5f7fc	-0.1044769
206	0x3de68c92	0.112572804
207	0xbb78b017	-0.0037946755
208	0x3b321fe2	0.0027179648
209	0xbd1e1652	-0.038595505
210	0x3dbaacee	0.09115015
211	0xbdd24355	-0.10266749
212	0xbdd39ae6	-0.10332279
213	0xbd87b640	-0.06626558
214	0xbb0d88a3	-0.0021596334
215	0x3d8f26a1	0.0698979
216	0x3c8f889d	0.017521197
217	0xbc98a4e5	-0.018633315
218	0xbd55ca2d	-0.052194763
219	0xbdab1b3b	-0.08354803
220	0xbd237175	-0.039903123
221	0xbd84c5e9	-0.06483061
222	0x3d361ca8	0.044460922
223	0x3dc85c1c	0.097831935
224	0xbc870d46	-0.016485821
225	0x3de3189d	0.11088679
226	0x3ca35512	0.019938026
227	0x3b4afde9	0.0030974096
228	0x3dd551fb	0.10416027
229	0x3bf67afd	0.0075219856
230	0x3c92cd5d	0.01792019
231	0x3dd2719e	0.10275577
232	0xbde7d9b7	-0.11320823
233	0xbc6ae7d6	-0.014337501
234	0x3dcc78c7	0.09983974
235	0xbd073240	-0.033006907
236	0x3dcb942e	0.099403724
237	0x3ccf3220	0.025292456
238	0x3da7fd18	0.08202571
239	0xbd6110dd	-0.054947723
240	0xbd8e44c3	-0.06946709
241	0xbd3b1336	-0.045672618
242	0xbd8996f4	-0.06718245
243	0xbd0911a4	-0.03346409
244	0x3ddef35d	0.108862616
245	0xbda5390b	-0.08067521
246	0x3babf38e	0.00524754
247	0x3d8d4c64	0.06899336
248	0xbdaa1157	-0.083040886
249	0xbdf139ba	-0.117785886
250	0xbd81f40c	-0.06345376
251	0xbde9513c	-0.11392447
252	0xbd1f78d4	-0.03893359
253	0x3d8026d4	0.06257406
254	0xbca7ba05	-0.020474443
255	0x3d198636	0.03748151

network_critic_2.2.bias f4 [70]
0	0x3d9140df	0.07092451
1	0x3d3a0d0a	0.04542259
2	0xbd19476e	-0.037421636
3	0xbc3aa886	-0.011392718
4	0x3dd09af3	0.10185804
5	0x3d356a76	0.044290982
6	0x3daeecad	0.08541236
7	0xbdb8354c	-0.089945406
8	0xbdcddd37	-0.10051959
9	0x3cda8dd1	0.026678951
10	0x3db72812	0.0894319
11	0xbdab5697	-0.08366125
12	0xbd102512	-0.035191603
13	0x3d1b0d27	0.03785434
14	0xbd924da4	-0.07143715
15	0x3d8c6d07	0.06856733
16	0x3dc4e2a8	0.09613544
17	0x3d7d69b1	0.061868373
18	0xbdad23ef	-0.084541194
19	0xbdc9cf42	-0.098539844
20	0xbb25c58c	-0.002529475
21	0xbdb81aae	-0.08989464
22	0x3dc2ebcb	0.0951763
23	0x3d71eeb7	0.059065547
24	0x3dd3e4b8	0.10346359
25	0x3da8865c	0.08228752
26	0xbd515787	-0.051108863
27	0x3dde4249	0.10852487
28	0xbd81a1bb	-0.06329676
29	0xbc73e3b2	-0.01488583
30	0x3d2034d2	0.039112873
31	0xbc23eb0b	-0.010004769
32	0xbdc96346	-0.09833388
33	0xbdb47f8a	-0.08813389
34	0x3d3489ec	0.044076845
35	0xbdbcbb64	-0.092154294
36	0xbd28d3b1	-0.04121751
37	0x3d64efe7	0.05589285
38	0x3c8f7968	0.017513946
39	0x3d3abcc8	0.045590192
40	0x3d1e5ba5	0.038661618
41	0xbdb9d524	-0.090738565
42	0x3dd0a8c9	0.10188443
43	0x3d3394df	0.043843146
44	0x3d125336	0.035723887
45	0xbdb142a0	-0.08655286
46	0x3d8ba8e5	0.068193235
47	0x3de0991c	0.10966703
48	0x3c9f092a	0.01941355
49	0xbd998ef9	-0.07497973
50	0x3d9e58e2	0.07731797
51	0xbd645bd4	-0.055751637
52	0xbd832b0f	-0.06404697
53	0xbdafd0e7	-0.08584767
54	0x3a14d5fa	0.0005677637
55	0x3db210c4	0.08694604
56	0xbcb968fb	-0.022633066
57	0xbc014923	-0.007890972
58	0x3ce9d40a	0.02854349
59	0xbd9f67c8	-0.077834666
60	0xbc4065b3	-0.011742997
61	0x3db68581	0.089121826
62	0x3dd0dc86	0.101983115
63	0x3da0af57	0.078459434
64	0x3c8a52dc	0.016885214
65	0xbd671a6a	-0.056421675
66	0xbdc1453a	-0.09437032
67	0x3d3e5050	0.04646331
68	0xbbb88351	-0.0056308885
69	0xbd20ed28	-0.03928867

network_critic_2.4.weight f4 [1, 70]
0	0x3d660832	0.05616016
1	0xbdae143e	-0.08499955
2	0x3da1cbe7	0.079002194
3	0x3d1866fb	0.037207585
4	0xbd6efe0d	-0.05834775
5	0x3bfdc7ba	0.0077447565
6	0x3dd09de8	0.10186368
7	0xbcb8356b	-0.02248641
8	0x3daa778d	0.08323584
9	0xbc7211ea	-0.014774779
10	0x3d916bfb	0.07100674
11	0x3d80352c	0.06260142
12	0xbd8f7624	-0.070049554
13	0x3d24926f	0.040178712
14	0xbd2caacc	-0.042155072
15	0x3d6aab50	0.057292283
16	0xbdaeae00	-0.085292816
17	0xbd6f400b	-0.058410686
18	0x3c122341	0.008919538
19	0xbc46adb3	-0.012126374
20	0x3d9a7d06	0.075433776
21	0xbdd23f14	-0.102659374
22	0xbde104e9	-0.10987265
23	0xbd631428	-0.055439144
24	0x3d6598f7	0.05605408
25	0x3df2da79	0.118580766
26	0xbdb8aeac	-0.09017691
27	0x3b3312c1	0.002732441
28	0x3d8cc059	0.06872625
29	0xbda4eeb1	-0.08053339
30	0xbda9b8e8	-0.08287221
31	0xbb6b3724	-0.003589102
32	0x3c2d67b0	0.010583803
33	0x3dc2c649	0.09510476
34	0xbdd2cae2	-0.10292603
35	0xbd959141	-0.073030956
36	0x3dc26e96	0.09493749
37	0x3d163532	0.036671825
38	0x3dee3277	0.11630719
39	0x3cd2ecc1	0.025747659
40	0xbc9c12f0	-0.019051999
41	0x3d2a7414	0.041614607
42	0x3d234c1b	0.0398675
43	0x3d50d12b	0.050980728
44	0x3dbbf60f	0.09177791
45	0x3d696952	0.056985207
46	0x3d460719	0.048346613
47	0xbceff06a	-0.029289443
48	0xbc7e91a9	-0.015537658
49	0x3d8d532d	0.0690063
50	0xbdc69081	-0.09695531
51	0xbda1be7c	-0.0789766
52	0x3c93b1a0	0.018029034
53	0x3dce68d7	0.1007859
54	0xbd2da9b2	-0.042398162
55	0x3dcc3444	0.099709064
56	0x3ca9a684	0.020709284
57	0x3d6f4eec	0.058424875
58	0xbd4ca0b8	-0.04995796
59	0xbb4fab0d	-0.0031687648
60	0xbda67f96	-0.08129804
61	0xbcd15887	-0.025554908
62	0xbdbc96f2	-0.09208478
63	0x3d65e0d4	0.056122616
64	0xbc71999d	-0.014746097
65	0x3d2c7019	0.042099092
66	0xbda3b57b	-0.07993599
67	0x3d8a5f3b	0.06756445
68	0xbd80c7f4	-0.06288138
69	0x3b8c6260	0.004284188
