checkpoint/ddpg-critic_mlp_actor-lr:0.0001_critic-lr:0.0002_gamma:0.99_tau:0.01.pth (torch, 63319 bytes, 5 tensors)

network_critic.0.weight f4 [70, 145]
00000000: 279a 10be 6a91 173f e52f 1cbe 20fb d3bd
00000010: 6673 20be 080f 58bc 7abd 17be 072d 7abd
00000020: 14a8 b93c 60d9 51be 0f12 5f3e f0bc 92bc
00000030: a1ee b43c c92c 55be ded7 abbc b73b 11bd
00000040: 42f2 73bd c77f ee3d 6b21 9cbd bbc0 3abe
00000050: c3a6 933f 8964 4ebe d03d 4a3f 908c e63f
00000060: d387 68be 18aa 84be 5e66 51ba 8198 c03c
00000070: 84e0 04be 6d1b 003f 7e90 32bd 0be0 b4bc
00000080: 93e1 50be 1bd8 2fbe a1e2 1bbd 0415 e4bd
00000090: 134c 243d ff42 21be f991 de3d 71b7 033b
000000a0: be95 eabd d36a 12be 6711 a83d 838f 0a3b
000000b0: f2c2 863d 5ee2 443e b19c 393c e6ea 5ebe
000000c0: f6d2 91bf 3ccc 32be 912c 283e e984 cdbf
000000d0: 58b9 9cbe 15f4 afbe 3694 0e3c 070f 633d
000000e0: afb9 eebd ac83 0d3f e441 e7bd 4d5a a4bd
000000f0: 1537 ddbd 95f1 26be fe21 12be a660 13be
00000100: d8c4 0b3d 5328 21be a4b3 fd3d 2bb0 90bc
00000110: c514 90bd 86f0 39be ddcd 8c3d 8739 083d
00000120: a935 82bd 55de 983d 96d4 f3bb 7fcf 57be
00000130: c31c d03f 5941 81be 7e7f ebbe 95e2 7b40
00000140: 0f91 32be fe4c 82be 359c 993c 4a0b 173d
00000150: e36c 02bd 57a5 193f 7713 0abe 1556 2b3d
00000160: 7e33 5bbe 930b edbd 74b0 e6bd c59c 1abd
00000170: a07b 133e 5c82 01be 2d12 1c3e 3a72 04bd
00000180: 9e53 1bbd 42f8 60be 3c0f c63d 62bd 8b3d
00000190: cfb6 ab3d 04a4 403e 9786 1ebd 8f46 3bbe
000001a0: 4fac 5fbf 846b 8dbe 942a 713f 8526 e6bf
000001b0: f737 52be 9ccf 8bbe 6039 1eba de3b 4bbc
000001c0: d06a afbc 32bf 0c3f 6f3a 2dbe 896b 83bd
000001d0: 87a3 46be e331 0cbd daa0 d8bd bf43 19be
000001e0: 6584 35bc cd5e 50be 089a 5d3e bbf4 4238
000001f0: bb32 103c 1976 6bbe a10c 953d c1e4 9f3c
00000200: eecd c23b b813 013e 26ad d7ba f0c9 56be
00000210: 91a4 213d 3372 98bc 24c2 afbe 3eb0 4cbe
00000220: 87bb 59be 4bc6 ccbe a2e1 2fbd dc5d 8d3d
00000230: baa1 513c 7aa3 db3d f8e1 813d ca78 8cbc
00000240: 57ba e83d c521 18bd 9582 96bf 130b 54bd
00000250: c348 04bd ee86 ca3c f77f 363e 3ae1 d73d
00000260: 6fa9 3b3e 1fa4 b23d c79b aabd 5cc1 593d
00000270: 5984 173c 1304 16c0 1bee 383d e2c4 edbc
00000280: 1708 d9bc bdee 70bd 9efc a4bc e412 803d
00000290: 4b1b f73d 0852 083f b8ea 153d 7113 d7be
000002a0: 7487 983f 2cae f13e c0ca 9c3c 2214 85bd
000002b0: e5dd ef3e ccb4 343c 0853 83bf 38f8 8e3c
000002c0: e77f b3bc dbd0 093d 9405 293e 0cdc 7e3d
000002d0: 33e7 503e dc19 82bc b2a4 01be 24b4 963d
000002e0: 1b36 bcbd 0591 17c0 5102 81bd ee5f 1fbd
000002f0: a652 c53c 7cb4 ea3b 3851 253d 6b7f b13b
00000300: af82 3b3d ae86 0d3e 5ab7 4bba 0ef3 ed3f
00000310: fa96 663f c811 1a3f 5c02 213b 63b5 95b7
00000320: 6f08 f73e 76c2 843c a57a 8cbf 5d0f 32bd
00000330: 79e5 cdbc 0fa5 183d 0366 e13d ed0c c1bc
00000340: 935e 223e f479 533d 4025 c5bd 95bd 19bc
00000350: 1a75 923c 2441 18c0 afd5 a7bc 8c07 4cbd
00000360: b137 ecbc 2eac 45bd 99ac cc3c bbd1 533d
00000370: 2a8a 673c 39a9 433f 8e54 d93d 36b1 853f
00000380: f3f2 8f3f d7b0 193f ed11 e8bd b9b9 0c3d
00000390: 44ac f53e 6bcf 4c3d 4ba5 94bf 6407 523d
000003a0: 3a91 65bd f679 77bd c19d fd3d 1d16 42bc
000003b0: 9bd0 183e f3de febb d793 a1bd f19d 393d
000003c0: 157c b8bd 05dd 13c0 ce89 ad3c a6a2 3c3d
000003d0: 1db7 8a3d e908 92bd 1923 68bd 5cef 8439
000003e0: be1b ff3d c913 a93e 4b6e 023e fe1f e23f
000003f0: fcd7 213f 3100 e63e 6888 55bd 446d 693c
-0.14121304 0.5920626 -0.15252645 -0.10350633 -0.15669021 -0.0131871775 -0.14818373 -0.061078098
0.022663154 -0.20493078 0.21784233 -0.017912358 0.022086443 -0.20817865 -0.020976957 -0.03545734
-0.059557207 0.11645465 -0.076235615 -0.18237583 1.1535267 -0.20155539 0.7900057 1.8011646
-0.22708063 -0.2591102 -0.0007987971 0.02351022 -0.12976271 0.5004185 -0.04359483 -0.022079488
-0.2039855 -0.17172281 -0.038057927 -0.11136821 0.040111613 -0.15748213 0.10867686 0.0020098353
-0.11454342 -0.14298563 0.08206444 0.0021142669 0.065801516 0.19226977 0.011328862 -0.21769294
-1.1392505 -0.17460722 0.1642325 -1.6056186 -0.30610156 -0.34365907 0.008702328 0.055434253
-0.1165651 0.5527904 -0.112918645 -0.08025036 -0.10801522 -0.16303094 -0.1427078 -0.14392337
0.03412327 -0.15738039 0.12387779 -0.017662128 -0.070352115 -0.18158159 0.06875203 0.033257987
-0.06357891 0.074642815 -0.0074411137 -0.21075247 1.6258777 -0.2524517 -0.45995706 3.9357045
-0.17438148 -0.25449365 0.018751243 0.036876 -0.031842124 0.60017914 -0.13483988 0.04183014
-0.21406361 -0.11574473 -0.112641245 -0.037747163 0.14402628 -0.12647384 0.15241309 -0.032335497
-0.03792154 -0.21969703 0.096708745 0.06823231 0.08384477 0.18812567 -0.038702574 -0.18288635
-0.873723 -0.2762109 0.94205594 -1.7980505 -0.20529161 -0.2730683 -0.0006035771 -0.01240441
-0.021413237 0.5497924 -0.16916822 -0.06416995 -0.19398318 -0.034227263 -0.10577555 -0.1496725
-0.011078929 -0.20348664 0.2164079 4.6481127e-05 0.008801158 -0.2299427 0.072777994 0.019518258
0.005944959 0.12605178 -0.00164548 -0.2097547 0.039463583 -0.018609142 -0.34327805 -0.19989106
-0.21262942 -0.39995036 -0.04293979 0.06902668 0.012794906 0.1072454 0.06341928 -0.01714744
0.113636665 -0.03714158 -1.17586 -0.051768374 -0.032295953 0.024722543 0.17822252 0.105410054
0.18326353 0.0872271 -0.083304934 0.053162917 0.009247863 -2.3439987 0.04514895 -0.029024545
-0.026493115 -0.05882143 -0.020139989 0.06253603 0.120657526 0.5325017 0.0366008 -0.4200702
1.1916337 0.47203195 0.019139647 -0.06497981 0.4684898 0.011029433 -1.0259714 0.017452344
-0.021911575 0.033646446 0.16506034 0.06222157 0.20400696 -0.015881471 -0.12660483 0.07358578
-0.09190007 -2.3682263 -0.0629927 -0.038909845 0.024087261 0.0071626287 0.04036066 0.0054168007
0.045778926 0.13820907 -0.0007771157 1.85898 0.9007412 0.6018338 0.0024568057 -1.7846649e-05
0.48248622 0.016206007 -1.0974928 -0.043471683 -0.025133835 0.037266787 0.11005785 -0.023565734
0.1585639 0.051629975 -0.096262455 -0.009383579 0.017878104 -2.3789759 -0.020487634 -0.049811885
-0.02883515 -0.048259906 0.024984645 0.051713686 0.014132062 0.7643009 0.10611831 1.0444705
1.1246017 0.6003546 -0.11331544 0.034356806 0.4798299 0.050002497 -1.1612943 0.05127658
-0.056046702 -0.060419045 0.12383605 -0.0118460925 0.14923327 -0.0077780425 -0.07889526 0.04531664
-0.09008042 -2.310365 0.021183874 0.04605355 0.06773207 -0.07130606 -0.056674097 0.0002535534
0.12456463 0.33022907 0.12737386 1.7666013 0.6322019 0.4492202 -0.05213204 0.014247242

network_critic.0.bias f4 [70]
00000000: 03b7 71bd 8c60 323c 4bbe 553c cd08 7ebd
00000010: 861e aa3c acb1 8d3c ef1c 1c3e 65de 63bd
00000020: fed6 1c3d c820 543d 6a8b efbb 4dd9 843d
00000030: 50f5 453d 8eb0 723c 3712 c1bd a68d 8e3d
00000040: 1bb3 023d f8f1 b8bd 55ce fbbc 1b15 a739
00000050: d089 9e3d 2549 663d df8e fe3c f2a5 293e
00000060: 3d21 16bd c369 5e3d d615 7bbd 2bfc 4e3c
00000070: 4326 133d 2cf8 27bd fa5a e9ba a41c f93d
00000080: 14b4 fc3c 1208 e0bd e774 4ebd 7600 393d
00000090: bdcd aebd 4177 b13c b648 51bd a27b 783d
000000a0: 6f5a 02be 53e1 033d 585b abba d45e 0c3d
000000b0: 2847 aa3d b320 0ebc 588f 81bd 389e b1bd
000000c0: 6111 34bd 0da6 0abd 413b cbbd 9bad c43d
000000d0: 320e 843c d2f4 da3d c791 1fbd 713c 523d
000000e0: 529d 96bd b606 f6bd b32d 843d 96d9 a9bd
000000f0: 9f19 93bc 8616 843c 4d14 053c 1f0d 01bd
00000100: 353a 1b3c a145 6dbc a428 bc3c 86bc 42bd
00000110: 7fb5 013c 0ea2 85bd
-0.059012424 0.010887276 0.013045858 -0.06202011 0.020766508 0.017296635 0.15245412 -0.055632014
0.03829097 0.051789075 -0.0073103206 0.06486759 0.04832965 0.014812602 -0.09427302 0.06960611
0.03190909 -0.09030527 -0.030738035 0.00031868447 0.077411294 0.0562221 0.031073986 0.1656721
-0.036652792 0.05430008 -0.06130012 0.012633364 0.03592516 -0.04100816 -0.0017803602 0.12163666
0.030847587 -0.10939039 -0.050404456 0.045166455 -0.08535335 0.02166331 -0.051094733 0.06066478
-0.1272981 0.032197308 -0.0013073487 0.034270123 0.08314353 -0.008674788 -0.06326169 -0.08672756
-0.043961886 -0.033849765 -0.09923411 0.09603425 0.01612005 0.10691227 -0.038957383 0.051327173
-0.07354225 -0.12012999 0.06454029 -0.08293454 -0.017956553 0.016124021 0.008122516 -0.031506654
0.009474327 -0.014481933 0.022968598 -0.04754307 0.007916807 -0.0652505

network_critic.2.weight f4 [70, 70]
00000000: ca5f 903e c1ba a83c 5fd3 d63c d749 c3bc
00000010: 98fd cfbf f52f 913d 37ca 59bc 071e 6b3d
00000020: c880 ed3d cd41 44bc 9e2d ad3d 13ea 1b3e
00000030: 6caa c7bd b180 9d3b d8af 41bc f458 11bc
00000040: 68e6 95bd 7910 99bd f3c9 06be efe9 0b3f
00000050: c758 37bd 0746 7fbe 25b8 993d f754 68bd
00000060: ea1b ac3d a0c7 05bf 5553 0dbd 9319 47bd
00000070: f29c eebd 9bf7 333d 712b ed3d deee 34bb
00000080: 37fc 673e 238e 3f3d 9713 8abd f7e4 12bd
00000090: a660 4a3c fd0c 16bf 0b0b bbbd 8daa 9f3d
000000a0: 338c 5cbe 089e d53d 7764 333c b038 7e3d
000000b0: a18e 163d 5864 eb3c d9c8 cbbe 2f4f a33c
000000c0: 72bc 42be 910b 6abd 4753 a73d f271 e33d
000000d0: 80e9 fa3a 0d10 1dbd 7bf3 ca3d 034e 653d
000000e0: 636a 0e3e 3234 da3c 175f aebd bd6d 09be
000000f0: 96df 053e ddda 523e e59b f8bc 8bec d83c
00000100: da48 01bd e987 a13c 3794 98b9 7f0d 033e
00000110: 3fee dd3d 449a 0dbe 84b7 943d 03a0 e8bd
00000120: 1f48 033e 2252 12bf 0f49 703d 09cd 74bd
00000130: d292 3ebe 7f62 41bf 179a ad3d 1a9e 053e
00000140: 0e3b c5bc deb3 14bf e496 ddbd 331d b73d
00000150: a8ca 7d3d b43e 0bbd 9fa8 c73d 626f 12be
00000160: b713 263e f88a 253d 68b1 923d 77b3 f93d
00000170: e289 09bc 05a2 ba3c d2be 02bd 811e d23d
00000180: f043 a0be 5732 e4bb 81cb a7bd 7d02 ce3e
00000190: d725 4abe 0888 4ebd d7f6 953c 8539 a6bd
000001a0: 3bb5 d3bd 6b05 713d b6d0 7abd af1d ff3d
000001b0: 9774 1dbd 1f1d b53d e5c9 66bd 9956 bf3d
000001c0: 5d77 89bd 8399 e7bd d6fe d6bc 823e 2f3d
000001d0: a63d a83d 04e0 bf3b d793 123e c98f a2bd
000001e0: 8c2b 66bd 67b1 9dbc 1692 19bd 894c 893b
000001f0: 0df5 eb3d 7175 53bb 2cbb 6e3d d608 af3d
00000200: d48f d6bd eb5d 89b8 6734 a1bc 2afc 103d
00000210: 8da6 5fbd ae98 743d ba93 31bd c727 56bc
00000220: f269 703d 64bd 113d 5fa1 433e 9a11 62bd
00000230: 6493 cc3d 6878 f43c cd48 babb 3959 b3bc
00000240: 374e aebd 5ee9 cd3d 04a1 89bc eb4a d1bd
00000250: a247 053e 2016 90bd fd5a 14bd 6ad2 2cbe
00000260: 3c44 363c 6eaf 653d dfac e9bd d59e 9b3d
00000270: 4279 ebbd 38a4 863d 1503 833c 1243 f3bc
00000280: 1e12 dcbe 8acf cfbc d365 d2bd bd5c 193e
00000290: 414c fabc b698 f53d d672 1abf 0bf0 38bd
000002a0: 0dd6 cb39 3ecd d53d b8ae 9bbd 69bc 1bbe
000002b0: 16e6 e83c c6b1 90bd 2f9a 8e3c bc31 96bc
000002c0: 5f21 00bd b1ad cb3d 75ec babe 6304 263d
000002d0: 986d 163e 9292 623d 922c c53d ecf5 8a3d
000002e0: 8562 29be 0650 003e 5d17 c3bb 9e52 5abe
000002f0: b985 61bc bf7a 6b3d e226 4abd 4a0a b13d
00000300: bf27 163b 82ef ce3d 1fbc 85bd b610 8dbd
00000310: 9586 58bd 2b06 a8be ca39 163d c08f 1d3e
00000320: 45b3 7cbf 55f7 3cbd cfa8 ce3c 2ba0 1f3d
00000330: d012 96bd 188e 0f3e 2d77 cfbd 7605 ef3d
00000340: b5b8 ff3d 53ef 103e aac9 b5bd be13 ef3d
00000350: 6fe3 b938 8f42 4e3d 2348 903c 89f0 fabc
00000360: 5450 ac3d 8945 0d3d 399f dcbc 9056 98bd
00000370: 06d1 0d3e 5d09 c8bc 0589 d4bc cd14 6b3d
00000380: c46d 593d e4ed 043d 9308 183e f9f0 c9bc
00000390: 2358 ab3c 0f49 653d 98fd e43c 024c abbd
000003a0: 2fb1 44be 7b36 bebd 764d f73d 3966 9a3d
000003b0: ca3e 99bf 2b36 89bc 5e2d c43d d587 893d
000003c0: 6e99 d8bd a7a0 81be 1f35 22be d680 b5bd
000003d0: 567c 4cbd 6242 dabd 38a9 993d 1114 e43d
000003e0: e5c3 e1bd 2f35 23bd b8b2 083e 6c7a 073d
000003f0: dd22 4fbd 76e1 d43d 285e 38be dc39 abbd
0.2819808 0.020596864 0.026223836 -0.02383892 -1.6249266 0.07089225 -0.013292841 0.057401683
0.11596829 -0.011978579 0.084559664 0.15226011 -0.09749302 0.004806601 -0.01182171 -0.008871306
-0.07319337 -0.07473845 -0.13162975 0.5465383 -0.0447624 -0.24929057 0.07505826 -0.056721654
0.08403762 -0.5225773 -0.0345033 -0.048608374 -0.11651029 0.043937307 0.115805514 -0.0027608196
0.22654806 0.04676641 -0.06742018 -0.03586289 0.012352144 -0.5861357 -0.09132966 0.07796202
-0.21537857 0.10430533 0.010949246 0.06206578 0.036757115 0.028734371 -0.39801672 0.019935219
-0.19017199 -0.057139937 0.08170181 0.11105718 0.0019143075 -0.038345385 0.099097215 0.0559826
0.13907771 0.026636217 -0.08514231 -0.13420768 0.13073573 0.20591302 -0.030347774 0.02647998
-0.031563617 0.019718127 -0.00029102128 0.12798117 0.108364575 -0.13828379 0.07261565 -0.11358645
0.12820481 -0.57156575 0.058663424 -0.05976585 -0.18610695 -0.7554092 0.08476656 0.13048592
-0.024076011 -0.58086956 -0.10819796 0.08941116 0.061960846 -0.033995345 0.09748959 -0.14300302
0.16218458 0.040415734 0.07162744 0.12192433 -0.00839469 0.022782335 -0.03192026 0.102597244
-0.31301832 -0.006964009 -0.08193112 0.40236273 -0.19740997 -0.0504227 0.018306179 -0.0811644
-0.10337301 0.058843058 -0.0612342 0.124568336 -0.038441267 0.08843445 -0.056344885 0.09342689
-0.0671222 -0.11308577 -0.026244562 0.04278422 0.082148835 0.005855562 0.14314209 -0.07937581
-0.056193873 -0.019249631 -0.037492834 0.004190032 0.11521349 -0.0032266045 0.05828397 0.08546607
-0.10476652 -6.550163e-05 -0.019678308 0.035396732 -0.054602195 0.05971592 -0.043353774 -0.013071007
0.058694787 0.035581008 0.19104527 -0.055192567 0.0998905 0.02984257 -0.005684948 -0.02189313
-0.08511012 0.10054277 -0.016800411 -0.102193676 0.13015607 -0.0703547 -0.036219586 -0.16877142
0.011124667 0.056075506 -0.11409926 0.07598654 -0.114977375 0.06574291 0.01599268 -0.029695068
-0.42982572 -0.025367517 -0.10273328 0.14976783 -0.030553939 0.11992018 -0.60331476 -0.045150798
0.00038878658 0.104395375 -0.07601684 -0.15208592 0.028430026 -0.070651576 0.017407505 -0.018334262
-0.031281825 0.099452384 -0.36508527 0.040531527 0.14690244 0.05531556 0.09627642 0.06785187
-0.16541488 0.12530527 -0.005953713 -0.21320578 -0.013764792 0.057490107 -0.049353488 0.086445406
0.0022911874 0.10104276 -0.06530022 -0.06887953 -0.052862722 -0.32817206 0.036676206 0.15386868
-0.98711044 -0.04613431 0.025226979 0.038971107 -0.07327807 0.14019048 -0.10130153 0.116709635
0.12486402 0.14153795 -0.08876355 0.116736874 8.86385e-05 0.050356444 0.017612522 -0.030632274
0.08413759 0.034490142 -0.026931392 -0.074383855 0.13849267 -0.024418527 -0.025944242 0.057392884
0.053083196 0.032453433 0.14847021 -0.024651038 0.02091605 0.055977877 0.027952954 -0.08364107
-0.19208215 -0.09287735 0.120753214 0.07539029 -1.1972287 -0.016749462 0.095789656 0.06715361
-0.105761394 -0.2531788 -0.15840577 -0.08862464 -0.049923263 -0.10657193 0.07502979 0.1113664
-0.11023692 -0.03984564 0.13349426 0.033075735 -0.050570358 0.10394566 -0.18004668 -0.08360645

network_critic.2.bias f4 [70]
00000000: 918c aebd 4f01 d23d b61f a83d eef8 b23d
00000010: 4652 0dbc 6319 cebd 1d7c c7bd 6fd2 95bd
00000020: 9898 67bd 9ef3 e6bd d643 c43d 661c 28bd
00000030: 1b44 04bd 63ef 253c bd93 073e 5dc5 de3c
00000040: b082 0ebd 64c7 7abd 47d9 04bd 4dba 743d
00000050: 13f8 5f3d f7c0 dcbd 154a 623c 01aa f2bd
00000060: d4dd 453b 0252 2ebe ef7b bbbd 4034 003d
00000070: 0761 a73c 3c65 163e 211d febc d8ec a2bd
00000080: 7694 723d 58d1 283d 70f2 473d b9fe 7a3d
00000090: f4f7 863d 519f a23d 59c7 b2bd 6e9b fcbd
000000a0: ebfc 053d fbae 413d 202a 123e e528 0bbd
000000b0: c924 cfbd f400 24be 9591 303c 269d f2bd
000000c0: a40d 943d 9f5c 41bd 8b17 943c 71bf 41bd
000000d0: 6f55 adbd cd6c 0a3e dade d5ba 4682 39bb
000000e0: ee68 ad3d 89a1 6abd 7672 ddbd d804 673d
000000f0: e7aa 273e b1fb a83c 2bf8 e3bc 9834 8e3d
00000100: da9e 5bbc 723f 9f3d 3572 033e 979c 03bd
00000110: 32ab 12bd d1f3 e63d
-0.08522905 0.10254156 0.082091734 0.08738886 -0.008625573 -0.10063436 -0.097404696 -0.07315528
-0.05654201 -0.11276935 0.09583251 -0.041042708 -0.032291513 0.010127875 0.13239951 0.02719372
-0.034792602 -0.06122531 -0.032433774 0.059747983 0.05467994 -0.107789926 0.013811608 -0.11848832
0.0030192034 -0.17023471 -0.09154498 0.03129983 0.020432008 0.14687055 -0.03101975 -0.079553306
0.059223615 0.04121527 0.04881519 0.06127808 0.06590262 0.079405434 -0.08729429 -0.12334333
0.032711904 0.047286015 0.14273882 -0.033974547 -0.10114438 -0.16015989 0.010776897 -0.1184638
0.07229164 -0.04720747 0.018077632 -0.047301713 -0.08463561 0.13518067 -0.0016317025 -0.0028306409
0.084672794 -0.05728296 -0.10812847 0.056401104 0.16373788 0.020627828 -0.027828297 0.06943625
-0.013404572 0.07775773 0.12836535 -0.032131758 -0.035807796 0.11276973

network_critic.4.weight f4 [1, 70]
00000000: 3576 8c3d 4259 b1bd 297a edbd 8655 43bd
00000010: 78ac 24ba 5098 91bb bcb8 cb3d 9292 a9be
00000020: a28b 4c3e 3b8a 7f3e 965e 1cbe fe4a 0abb
00000030: 7447 e0bd 9b2e 8a3c 8fe8 70be bb1b 06be
00000040: cc54 50be 5a87 b2bd 6b7e 7d3d 4df7 2f3e
00000050: 2031 553d 2425 373d d0ae 2a3e a0b2 a13d
00000060: 8d8b 75be 0782 a43b d8c6 093e 4ff1 cebe
00000070: 81f9 24be 12e5 9a3e 4b40 96be 6ff5 a73e
00000080: c7b0 093f e399 3a3e ec1b d93d a761 153e
00000090: 53eb 7e3d feaa 563e 27f1 593e 3457 033d
000000a0: 2a77 a1bd c48e 81be a657 c0be c904 4f3e
000000b0: 4766 8bbe 30c3 ac3e be2d 34be afd9 823d
000000c0: 8dc6 70be f715 18be b9e4 febb cee5 823e
000000d0: b7e1 10bd c62a 0ebe 0c76 503e fef8 94bd
000000e0: f377 c6be 8a59 db3d faea 7c3d 83eb 84bd
000000f0: 7148 e7bd b6f6 56bd 9426 78be a2f0 323d
00000100: 506d 77be bde3 c8be a798 c0be bc1c 63bd
00000110: 0281 d33d f1dc e2bd
0.06858484 -0.08659603 -0.11595566 -0.047688983 -0.00062818034 -0.004443206 0.09947345 -0.33119637
0.1997514 0.24955074 -0.15270457 -0.0021101828 -0.109511286 0.016867926 -0.23526214 -0.13096516
-0.20344847 -0.087172225 0.06188814 0.17184182 0.052048802 0.044713154 0.16668248 0.07895398
-0.23979016 0.0050203833 0.13454759 -0.4041848 -0.16110803 0.30252892 -0.29345927 0.32804438
0.53785366 0.18222766 0.10601029 0.14588033 0.06223614 0.20963666 0.21283399 0.032065585
-0.07884057 -0.25304234 -0.3756687 0.20216669 -0.2722647 0.33742666 -0.17595574 0.06389176
-0.23513241 -0.14852129 -0.0077787307 0.25565952 -0.03537151 -0.13883504 0.20357531 -0.07274054
-0.3876339 0.107104376 0.06174753 -0.06490233 -0.11293114 -0.052481376 -0.24233466 0.043686517
-0.24162793 -0.3923625 -0.37616464 -0.055447325 0.10327341 -0.110772975
