checkpoint/ddpg-critic_mlp_actor-lr:0.0001_critic-lr:0.0003_gamma:0.99_tau:0.02.pth (torch, 63319 bytes, 5 tensors)

network_critic.0.weight f4 [70, 145]
000000 0f c3 90 bc 44 dc c6 3e b9 36 61 be 76 ec c2 3d
       -0.017671136 0.38839924 -0.21993531 0.095177576
000010 f1 07 cd 3d 61 a2 83 bd 03 81 6c bb 91 63 d0 3c
       0.1001128 -0.06427456 -0.003608764 0.025438102
000020 5a 25 85 3d c8 e7 d8 bb 51 f6 1e be 30 7d a6 bc
       0.06501265 -0.0066194274 -0.1552365 -0.020323366
000030 c4 7f ac 3c 29 36 1f be 38 1a df 3c c9 0f d8 3d
       0.021057017 -0.15548004 0.027234182 0.10549886
000040 cd e5 c4 3d a1 4d c5 3d 42 6b c3 3c da ab aa 3d
       0.096141435 0.09633947 0.023854855 0.08333559
000050 ea 2f bf bf 9a 66 15 bd 75 e5 11 40 71 c7 9b bf
       -1.4936497 -0.0364748 2.27963 -1.217024
000060 51 9d 34 3c 7d 74 57 be 3b f5 df be d8 ab 51 3e
       0.011023835 -0.2104053 -0.43741783 0.2047571
000070 a9 23 0f be da aa d0 3e 3a c9 7a be b3 fc 2a 3d
       -0.13978447 0.4075535 -0.24490824 0.0417449
000080 f2 90 c5 bc 62 4f 30 be 87 a1 00 3c 91 0d 21 3c
       -0.024116967 -0.17217782 0.007851011 0.009829895
000090 64 8c 9e 3d 28 5b b0 3d 91 76 fa bd e8 8b df bd
       0.07741621 0.08611137 -0.12229646 -0.10915357
0000a0 d1 bf b7 bd 77 74 25 bd d5 0e 14 3d e3 3c fd 3c
       -0.08972133 -0.040394273 0.036146957 0.030912822
0000b0 3b 98 b4 3d ec b1 d0 3d 07 85 03 3d f9 0d 78 3d
       0.08818098 0.10190186 0.032109287 0.0605602
0000c0 2c 3e fc be 22 33 cf 3d 19 b0 9d bf 09 cb 74 be
       -0.49266183 0.10117175 -1.2319366 -0.23905577
0000d0 f5 ec 71 bd 81 13 3b be 64 f1 ac be d8 fb 03 3e
       -0.05906387 -0.18269159 -0.33777916 0.1288904
0000e0 6d 35 11 be b6 49 08 3f 46 2d 17 be ea 8f 1e 3d
       -0.14180537 0.53237474 -0.14763364 0.038711466
0000f0 e5 c0 73 3d ca 0f 54 bd 28 8f a0 bc 4c cb b2 bb
       0.05951013 -0.05177287 -0.019599512 -0.005456364
000100 cc 1a 1c 3e 54 56 26 3d 2a dd 07 be 06 74 fc bd
       0.15244597 0.040609673 -0.13267961 -0.12326817
000110 94 1e 18 bd 98 aa a9 bd 84 29 95 bd 14 86 f7 3d
       -0.037138537 -0.08284491 -0.07283309 0.1208612
000120 4c 07 d4 3d a1 0f 18 3d cd f2 61 3d 6c 93 9e 3c
       0.10352954 0.03712428 0.055163193 0.019357406
000130 7c 46 42 3e 44 30 66 bd ed 0c 1e c0 48 d2 fb be
       0.189722 -0.056198373 -2.469539 -0.4918387
000140 c9 2d 11 3c a3 69 89 be 99 c5 d9 be e1 1c 93 3d
       0.008861014 -0.26838407 -0.42533568 0.071832426
000150 cf e3 f6 bd cc a5 f8 3e 36 9c be bd c4 7d 25 bc
       -0.1205517 0.48563993 -0.093071386 -0.010100786
000160 bf 4c d2 3d d0 12 1f be 25 f7 d1 bd 5a a9 96 3d
       0.102685444 -0.1553452 -0.10252217 0.0735652
000170 fc 4c 15 3e 12 be 87 3d 1d 0d 70 be 31 fd 2b bd
       0.14580148 0.0662805 -0.23442502 -0.04198951
000180 e0 c9 b3 bd bf 06 b9 bc 54 f7 91 3c ba b0 ba 3b
       -0.08778739 -0.022586225 0.01781813 0.005697337
000190 d4 b9 e4 3c 44 c9 f4 3d 67 11 d4 ba 55 5e 45 3d
       0.027920641 0.11952451 -0.0016179503 0.048185665
0001a0 47 fe bf bd 42 22 00 3e 1e 79 40 bf 21 9c 13 3f
       -0.093746714 0.12513068 -0.7518481 0.5766011
0001b0 3b 6b 86 bd 4d c4 42 be 9f e8 c4 be 7b d5 85 3d
       -0.06563421 -0.19020195 -0.38458726 0.06534859
0001c0 6f 28 18 be 11 26 ca 3e dd d4 f1 bd b3 70 9b 3d
       -0.14859174 0.39482167 -0.118081786 0.07589855
0001d0 4c a0 eb bc 64 51 2c be a8 ad c3 3c 95 58 8c 3d
       -0.028762959 -0.16827923 0.023886517 0.06852833
0001e0 c4 85 e0 3b 6e fb c0 3d 9a 9b 64 be b9 7a b7 bd
       0.0068518836 0.094229564 -0.22324982 -0.08958954
0001f0 23 db 80 bd 5d 9d 1a be 3d f3 a8 bd 3b 64 2d bc
       -0.06291797 -0.15099092 -0.08249519 -0.010582979
000200 9e 5f e8 3d b1 6e a4 3d 60 74 e1 3c 09 9f e2 3d
       0.113463625 0.08028925 0.027521312 0.1106549
000210 2a 2c 64 be a6 27 7d bd 95 3e 2b bf 36 40 b6 be
       -0.22282472 -0.06180539 -0.6689237 -0.35595864
000220 22 9d b5 bc b4 ee 4f be 66 fc c5 be b3 3a 34 3e
       -0.022169653 -0.20305902 -0.38669127 0.17600517
000230 09 8d dd bc 1a 01 fd 3c 63 7d 24 3e 23 f7 0a 3f
       -0.02704479 0.030884314 0.16063456 0.5428335
000240 8c 6a 39 bd a9 1c 19 3d 79 03 39 bf a1 b8 44 3d
       -0.045267627 0.037380848 -0.72270924 0.04802764
000250 ba 59 d9 3d 7e bd 39 3d 47 89 9e bd a2 c4 3e 3e
       0.10612817 0.04534673 -0.07741027 0.18629697
000260 85 5c 67 3e fc 04 23 bd 89 44 50 3e ef 61 3b bd
       0.22593887 -0.039799675 0.20338644 -0.045747694
000270 d7 b8 1e 3c d0 81 d8 3d 19 5a 42 3d 86 e0 19 be
       0.009687624 0.10571635 0.047449205 -0.15027055
000280 59 ad 24 bd aa 67 d8 bc 77 ea a6 be 12 01 58 3c
       -0.04020438 -0.026416618 -0.32600757 0.013183849
000290 4f 91 58 3e f4 32 8d 3f bc 0b 69 bd 1a e9 04 3f
       0.21149181 1.1031175 -0.056895956 0.51918185
0002a0 26 bc e4 3e df a1 10 3e f9 5b 6a 3e 2d 12 f4 3d
       0.44674796 0.14124249 0.22886647 0.11917529
0002b0 e9 48 4b be 22 46 14 3e f3 02 24 bf ec c2 2e 3d
       -0.19852032 0.14479879 -0.64067 0.04266636
0002c0 b7 bf ef 3d 86 4c 13 3e 71 7c 0b bc dd 19 86 3e
       0.117064886 0.1438466 -0.008513556 0.26191607
0002d0 66 e0 01 3e ca 12 30 3d b6 5e 52 3e 54 c3 4a bc
       0.12683257 0.04298667 0.20543942 -0.012375671
0002e0 da 7d 62 bc 0e 72 bf 3d 6e cb 80 bc ad 7b 35 be
       -0.013823951 0.09347926 -0.015722003 -0.1772296
0002f0 e5 4b 9b bd 0a a1 9b bd c7 83 89 be 11 2b 3f 3c
       -0.07582835 -0.07599075 -0.2685835 0.011667983
000300 d6 1e 55 3e bc ed 40 bf a2 37 c9 3c 08 2a 47 bf
       0.20812544 -0.75362754 0.02456266 -0.7779851
000310 b9 18 93 be 4f a5 9b 3b c6 1d 5e 3e fd ad d1 3d
       -0.287298 0.004749931 0.21691045 0.10238264
000320 8b 98 19 be 7a 10 fc 3c 74 5f 33 bf 70 70 79 bd
       -0.14999597 0.030769575 -0.70067525 -0.060898244
000330 e5 8f 9e 3d 5d 44 08 3e c3 14 72 bd ad 78 32 3e
       0.077422895 0.13307329 -0.05910183 0.17428847
000340 59 55 2c 3e a9 8b c6 bc 7a 78 78 3e 7d 3a 1a be
       0.16829433 -0.024236517 0.24264708 -0.15061374
000350 83 71 4f b7 e3 b7 91 3d 8d ae e3 3c 51 a1 1f be
       -1.23645905e-05 0.07115152 0.027793193 -0.15588881
000360 c6 3d de bd 1b 7d 5c bd dc 88 9b be 9e 20 8c bd
       -0.10851626 -0.053830247 -0.30377853 -0.06842159
000370 10 5f 69 3e 93 41 79 3f 0b 04 bf 3c 0d d1 c4 be
       0.2279017 0.97365683 0.023317358 -0.38440743
000380 58 08 9f 3f b2 8f 26 3e f4 ff 97 3e 92 0b 1a 3e
       1.2424421 0.16265753 0.29687464 0.15043476
000390 1c 60 2a be fd 30 aa 3d 42 84 24 bf 71 d5 bf 3d
       -0.16638225 0.08310125 -0.6426431 0.093668826
0003a0 0a f8 0f 3d 08 68 26 3d 25 c4 ee bd 10 9e 0b 3e
       0.035148658 0.040626556 -0.11658505 0.13634515
0003b0 30 43 56 3e c1 54 a0 3c e8 9a 6e 3e d8 f8 a0 bd
       0.20924067 0.019571664 0.2330128 -0.07859963
0003c0 91 01 28 3d ec 16 0f 3c cf 77 01 3e fa 44 f7 bd
       0.04101712 0.008733492 0.1264336 -0.12073703
0003d0 a8 d8 13 3d 19 61 99 3b 89 78 b8 be 52 8f 97 bd
       0.03609529 0.0046807644 -0.3602946 -0.07400383
0003e0 d5 3a 4d 3e 12 6d 4d bf 68 bf 60 3d 60 d2 7f be
       0.20041974 -0.80244553 0.05487004 -0.24982595
0003f0 23 d6 ec be 6d 47 c3 3d 15 8e 95 3e 30 79 d5 3d
       -0.46257123 0.09535108 0.29209962 0.10423505

network_critic.0.bias f4 [70]
000000 3d 4b 05 be 6a 04 dd 3d 23 2c 9e 3c 2a 34 cb 3d
       -0.13016982 0.107918575 0.019308155 0.09922059
000010 37 55 ff bd c1 15 cf bc 28 39 5b 3d 38 63 4b 3b
       -0.12467425 -0.025278928 0.053521305 0.003103448
000020 c8 82 57 3d 08 f6 8d ba 4a cc ef 3d 1a fb e6 3c
       0.052614957 -0.0010830769 0.11708887 0.028195906
000030 c9 ac 2e bd 90 c7 b1 bd cd 50 fd bc 2e f1 d1 bc
       -0.04264525 -0.08680642 -0.030922318 -0.025627699
000040 94 b7 de bd f7 6f 66 bd c2 9e 1c 3b ba 5b 22 bd
       -0.108748585 -0.05625912 0.0023898338 -0.03963826
000050 01 4a be bd 44 f1 3d 3d dd 4b 26 3d e5 07 21 3e
       -0.09291459 0.046372667 0.040599693 0.15725668
000060 7c 4e 9c bc 12 ad 86 3d 4d 89 f7 bd bc d4 a5 3d
       -0.019080393 0.06575979 -0.12086735 0.080972165
000070 c7 3c 62 bd c9 4b 92 3d 0b 44 92 3c 86 9c 2a bd
       -0.055233743 0.07143361 0.017854711 -0.04165318
000080 66 83 31 be 44 26 48 bd eb bd 88 bb 0c 62 37 bd
       -0.17335281 -0.048864618 -0.0041730306 -0.04477124
000090 3a c8 43 3b e2 bd e1 3c 8b 1b 1a 3e b7 55 19 3e
       0.0029873983 0.027556363 0.1504957 0.14974104
0000a0 40 35 01 3d 51 7c 3b bd d1 9e 4d be 59 de 85 3d
       0.031544924 -0.045772854 -0.20080115 0.0653655
0000b0 61 44 0d bd 91 d9 64 bd 65 7b 34 3d a0 af bd 3c
       -0.03448904 -0.05587155 0.04406299 0.023155034
0000c0 84 65 d4 3c 2c e9 ea bc 55 2e 36 be 53 6f b6 3d
       0.025927313 -0.028675638 -0.17791112 0.08907952
0000d0 a5 41 61 bc 0c a8 4f 3d 7a 8e 15 bd b2 c2 36 bd
       -0.013748561 0.05069737 -0.03651283 -0.04461927
0000e0 e1 09 76 3d 6a 6c c1 bd 1c 6e 36 3d 9e 10 4f 3d
       0.060068015 -0.094445065 0.044538602 0.050552957
0000f0 81 4b d1 bd 06 bb 9a bd b8 00 cd bd f3 fc 5d bc
       -0.10219479 -0.07555203 -0.10009903 -0.013549077
000100 1e f7 bc 3b ae 6b 81 bd ed e3 5f 3d 5b 88 d2 bb
       0.0057667634 -0.063193664 0.054660726 -0.0064249462
000110 1e a3 e6 bc 02 8d 5a bd
       -0.028153952 -0.05335713

network_critic.2.weight f4 [70, 70]
000000 90 4b 99 3d 8f 16 d2 3c 25 15 da bf 69 a5 15 3e
       0.074851155 0.025645522 -1.7037703 0.1461388
000010 b4 48 83 bd 00 6e 1d 3e 8c 93 34 bd 0a e2 20 3d
       -0.064103514 0.15373993 -0.044086024 0.039278068
000020 93 06 23 3e fe 89 86 bd 87 37 d3 bc 9e 02 5f bd
       0.15920477 -0.06569289 -0.025783313 -0.054445855
000030 cc 21 b0 be 6f bc e9 bd b7 f9 93 ba 1e ca 73 be
       -0.34400785 -0.11412894 -0.0011289631 -0.2380757
000040 6d 65 0e be 3a 4f 9f 3d 5b 43 17 bd dc 76 73 bc
       -0.13905878 0.07778783 -0.03692947 -0.014859881
000050 c8 d2 3d bc 92 46 e9 3c 48 52 6b bd 91 b1 d5 3d
       -0.011585899 0.028476033 -0.057451516 0.10434259
000060 5d 79 2d bd 2b 16 e0 be 94 54 ed 3d a0 cb 25 3e
       -0.04235207 -0.43766913 0.115883976 0.16190958
000070 f9 8c 28 3c e5 dc 92 3d 12 31 4d 3d 9f e4 cf bc
       0.010287517 0.071710385 0.050095625 -0.02537757
000080 bf 24 b6 3b 1f 3b 0d 3e 82 ea 4b 3d 08 b8 8a be
       0.0055585797 0.13792084 0.04978419 -0.2709353
000090 7b 81 5c be 8f c3 b5 bd 78 5b d1 3d d9 85 99 bd
       -0.21533768 -0.088751905 0.102225244 -0.074962325
0000a0 1a c5 e7 3b d0 74 6c 3c c0 66 91 be 65 27 dd bf
       0.007073057 0.014432147 -0.28398705 -1.7277647
0000b0 a7 d0 bb 3d 65 66 03 3e d5 db 75 be 06 37 3f 3c
       0.09170657 0.12832029 -0.2400964 0.011670833
0000c0 c0 15 b1 bc ae 2e ff 3d fa bf 90 be 58 e0 f8 3c
       -0.021616817 0.12460075 -0.28271466 0.030380413
0000d0 17 2a f1 bd a9 6d 92 bd 58 4a 0e 3d 12 27 d7 3d
       -0.11775606 -0.07149822 0.03473887 0.10505499
0000e0 b1 9e eb 3d b4 8a 97 3c 69 93 07 bc 17 36 83 bd
       0.11504877 0.018498756 -0.008274891 -0.06406801
0000f0 b9 20 63 be 7a d0 2c 3d 48 b0 a1 bd da 23 92 3e
       -0.22180451 0.042191006 -0.07894951 0.28542978
000100 1f 41 3a be d9 e6 fc bb 7c 7e c5 bc 7a 73 92 be
       -0.18188904 -0.007717949 -0.024108164 -0.28603727
000110 20 3e 37 bd 2f f7 9e 3c bf 23 84 bd 52 da 96 bd
       -0.04473698 0.019404976 -0.064521305 -0.0736586
000120 04 02 bd bd 41 10 86 be 7d a7 8c be d0 e2 07 3d
       -0.092289 -0.26184276 -0.27471533 0.03317529
000130 61 9a 08 3d 1d a7 cc bc 40 94 29 bd 3a 8f c0 bd
       0.033350352 -0.02498203 -0.041401148 -0.09402318
000140 7f 75 53 3e 0a 0f b9 3c b7 4d 43 3d 86 26 60 3e
       0.2065029 0.022590179 0.047681537 0.21889696
000150 e9 50 ba 3e 84 e4 36 3d 93 73 05 3e 81 55 3d be
       0.36389855 0.044651523 0.1303237 -0.18489648
000160 0c 8b b7 bc b0 3a d5 3c bd dd 28 3e fb d1 04 3e
       -0.02240517 0.026028961 0.16490836 0.12970726
000170 77 18 d5 bd 47 33 0a 3e 9f 00 b4 bc 22 92 1f bd
       -0.10405057 0.13496123 -0.021972952 -0.038957722
000180 39 39 43 3e 9d 24 42 bd 4b 8a c0 3d 0f ba 7e 3d
       0.19064797 -0.0473982 0.09401377 0.062189158
000190 a6 0e d6 3d 5f 55 16 be 4a 13 c2 3c 34 a8 88 bd
       0.10452013 -0.14681004 0.023690838 -0.06672707
0001a0 99 27 92 be 77 c8 39 be 96 eb d6 bd b9 3e 4f bd
       -0.28545836 -0.18142878 -0.10494153 -0.050596926
0001b0 87 0f 9f bc a6 2d 47 bd 92 25 e4 3d 7c e0 3f be
       -0.019416584 -0.048627518 0.111399785 -0.18737978
0001c0 01 9f 33 bc 3a a9 fc bc d5 ee d2 3d a0 7c aa 3d
       -0.010963202 -0.030842412 0.1029946 0.083245516
0001d0 1e 2d 4f be 43 98 3c 3b 60 a1 0d 3e d6 1f bf 3c
       -0.20232055 0.0028777278 0.13831091 0.02333061
0001e0 d7 6d 8d 3c 9e 6f aa bb 60 ae fe 3d 4a 50 6c bd
       0.01726429 -0.005201294 0.12435603 -0.057693757
0001f0 d9 a0 8b bd 4a 62 5a bd 5c b5 a2 3d d5 bd 49 3e
       -0.06817789 -0.053316392 0.07944748 0.19701321
000200 25 84 36 3b f1 4f a7 3d 36 dc b5 3d 70 1b b4 3d
       0.002784976 0.081695445 0.088798925 0.08794296
000210 10 3a 3d 3d a9 bc fe 3b d1 c1 a8 3d f0 37 29 3e
       0.04619795 0.007773955 0.082400925 0.16525245
000220 61 cf 31 bd 6b d7 90 3c e2 76 b2 3d 36 b7 56 3d
       -0.043410663 0.017680844 0.08714081 0.052420817
000230 5a 32 4c 3d eb 67 0e bb e8 94 a2 be d0 c6 03 c0
       0.049852706 -0.002172942 -0.3175423 -2.0590096
000240 74 a5 39 be 19 0d d4 3c fb 99 13 3d eb c4 ac bc
       -0.18129522 0.025885152 0.03603552 -0.021089992
000250 b7 16 ba 3d 8b ed 6f 3c dd e6 88 ba 20 a0 e3 3d
       0.09086364 0.014644037 -0.0010444779 0.11114526
000260 4e dd f9 bf 81 61 3a 3e dd 8a 92 bc e1 13 f2 bd
       -1.9520662 0.18201257 -0.01788848 -0.11820198
000270 af 51 9e 3b 0e 6e 4a 3c f8 71 69 3e df ce 44 3d
       0.004831515 0.012355341 0.22797382 0.04804885
000280 72 1f a2 3d bc bc a1 be 16 9a 60 be a4 78 6d 3e
       0.07916154 -0.31589305 -0.21933779 0.23190552
000290 cd 7d 35 3d 31 e7 9a bf b6 93 00 3d 5a 54 92 bd
       0.044309426 -1.2101804 0.031390868 -0.07144995
0002a0 c7 b8 95 3d 7a d2 7b bd d6 4e 5a 3d da a1 ea 3d
       0.07310634 -0.061480023 0.05329784 0.11456652
0002b0 2a 00 fd 3c a3 b7 1e 3e f7 70 4d be a3 c7 01 be
       0.030883867 0.1549974 -0.20062624 -0.12673812
0002c0 94 4f d0 3c 85 66 de bb cf c8 3b be 69 46 c1 3d
       0.02542857 -0.0067871236 -0.18338321 0.09437258
0002d0 f3 76 19 bd 8a 00 ab bd d3 d5 49 be 28 4c 89 bf
       -0.037466954 -0.08349712 -0.19710474 -1.0726366
0002e0 a2 70 84 be 90 b8 31 3d 4d d5 e5 3d 0a 52 15 be
       -0.25867182 0.043388903 0.112223245 -0.14582077
0002f0 bf 28 9f bc 7d ab 2f 3e 1b b8 b8 3b 60 92 dd bd
       -0.019428609 0.17155261 0.0056371815 -0.108189344
000300 2a 04 44 3e 3f 21 09 3e b9 e2 6a bd b5 6d 10 3e
       0.19142213 0.13391589 -0.057345126 0.1410435
000310 8c 1e d4 bd a9 ce 16 3c a4 d4 47 bd 7f 0e 28 bf
       -0.10357389 0.009204545 -0.048786774 -0.6564712
000320 ce df f5 bf 04 c5 18 3c ee 42 9a 3d ee f9 01 be
       -1.9208925 0.009324316 0.07532297 -0.12692997
000330 50 98 f7 bb 4e 69 39 be 88 ae f6 3c 47 7f ac bd
       -0.007555999 -0.18106577 0.03011252 -0.08422714
000340 7e bf 59 bd 0a ba 46 bd 5c 83 a8 3a 71 e4 7b bf
       -0.053161137 -0.048517264 0.0012856531 -0.9839545
000350 aa ff 39 be f2 3a 89 3e 8f a6 91 bd 62 3e b9 bb
       -0.18163934 0.26802784 -0.07111847 -0.0056531886
000360 43 b5 cc 3d 9e 15 8c 3e 0b 88 af be 1c 2f df 3d
       0.099955104 0.27360243 -0.3428348 0.10897657
000370 bb 8b 4e 3d 9e 50 87 3d fa cb ee 3c 5b 5d 0f 3d
       0.050426226 0.066071734 0.029149998 0.03500114
000380 1f c6 fb bd e7 8f db bd 59 cf b6 bc 53 a3 dc 3d
       -0.12293648 -0.107208066 -0.022315668 0.10773339
000390 92 62 d2 be 05 12 63 3d f3 f3 7d 3c 0a a2 33 be
       -0.41090828 0.055437107 0.015500057 -0.17542282
0003a0 cc 2c 4d 3d 43 3f 90 3d 9b a0 4d 3e aa 31 fb bd
       0.05009155 0.07043316 0.20080797 -0.12265332
0003b0 a9 9c cc bd 73 2b 32 be 18 e8 88 be 1b f8 8f bd
       -0.09990818 -0.17399387 -0.26739573 -0.07029744
0003c0 53 f2 2a bd b6 ba ad 3d ea 34 48 3c 48 41 0e 3d
       -0.041735005 0.08482878 0.012219647 0.034730226
0003d0 0b 87 43 bd ce 01 ba be e8 d8 8a be 80 f6 34 3e
       -0.04773621 -0.36329502 -0.2711861 0.17672157
0003e0 f2 69 e0 bd 18 6a ba bd 0b 1b 08 3e 3f 83 81 bd
       -0.109577075 -0.09102267 0.13291566 -0.06323861
0003f0 88 62 01 3e f8 21 0f bf 84 5a b0 bc a9 85 b0 3c
       0.12635243 -0.5591121 -0.021527536 0.02154811

network_critic.2.bias f4 [70]
000000 aa 39 bf 3d a7 e7 5e bd db 46 de 3d 93 88 3f bd
       0.093371704 -0.05442014 0.10853358 -0.046761107
000010 5d c0 2a bb ba be ca 3d 01 64 ce 3c a3 7f e6 bc
       -0.00260546 0.098996595 0.02519417 -0.028137034
000020 bb b5 94 bd cd 8f 1d be bf b2 7e 3c 2e e5 46 3e
       -0.07261225 -0.15386887 0.015545546 0.19423363
000030 11 49 22 be e4 73 02 3e 35 e8 fe 3d 06 8b 34 bd
       -0.15848185 0.12739521 0.12446634 -0.044077896
000040 5c 43 22 3e c9 a3 de bd 16 8d a9 3d 25 24 25 bd
       0.15846008 -0.10871083 0.08278863 -0.040317673
000050 d2 c6 e9 bb 36 a3 a3 3c f8 18 fc 3c f6 46 ca 3d
       -0.007134297 0.019975286 0.030773625 0.09876816
000060 f7 6a 29 be c4 ee e9 bc 94 c8 f4 3d 32 27 8b bd
       -0.1654471 -0.028556235 0.1195232 -0.06794585
000070 d1 d8 11 3d 60 c6 26 bd e2 f3 68 3d 03 8e 30 3b
       0.035607163 -0.04071653 0.05687321 0.0026940114
000080 83 cc 75 bb 00 54 81 3c 86 70 4b be 0b 83 db bd
       -0.0037505932 0.015787125 -0.19867143 -0.10718354
000090 02 05 7f 3d 6b 72 65 bd 1b 49 a9 bd 47 4a bf 3d
       0.062260635 -0.05601732 -0.08265897 0.09340339
0000a0 4b b0 35 bc b6 5f ec bc 66 ca b9 3d 81 4f c2 bd
       -0.011089395 -0.028854232 0.090718076 -0.094878204
0000b0 13 a4 a7 3d cc a9 24 be fa 35 24 3d 64 48 25 3e
       0.081855915 -0.16080397 0.04009054 0.16140896
0000c0 9d 50 a0 3d f2 06 77 bd ac 67 67 3d a1 74 f6 bd
       0.07827876 -0.060309358 0.056495354 -0.12033964
0000d0 af f0 1b be 68 78 05 be e4 f7 a6 bc cf c6 fa 3d
       -0.15228532 -0.13034213 -0.020381875 0.12244951
0000e0 4f f1 c7 ba 5b 5d 15 3e 3f e4 0c 3e 7e ec 5d bc
       -0.0015254411 0.14586394 0.13758944 -0.013545154
0000f0 99 d0 f1 3d 03 fc 46 3d cf 93 d2 bc ed e0 97 bc
       0.11807365 0.04858018 -0.025705246 -0.01853987
000100 06 7c eb bd 75 4a 76 3d 31 b3 91 bb a7 f7 94 bc
       -0.11498265 0.0601296 -0.00444641 -0.018184496
000110 70 d6 7f 3d d9 6c 1f bc
       0.062460363 -0.009730541

network_critic.4.weight f4 [1, 70]
000000 17 01 7a 3d cf 23 e7 3d aa cc 15 3e 42 e4 82 3e
       0.061036196 0.11286127 0.14628854 0.25564772
000010 ff 35 e3 bd c4 75 24 bd 1f f8 92 be 55 cb 84 3d
       -0.11094283 -0.040151373 -0.28704926 0.06484095
000020 fa d8 c2 3d 78 a0 72 3e a4 40 35 be 29 67 25 3e
       0.09514041 0.23694026 -0.1770044 0.16152634
000030 26 5f 9f 3e 5c c2 ce bc 7e 5f c6 be d9 fc 80 bd
       0.3112728 -0.025239162 -0.3874473 -0.06298227
000040 f6 d7 c7 bd ee 9a 75 be 13 75 75 3e 57 1c 19 be
       -0.09757988 -0.23984882 0.23970442 -0.14952217
000050 37 0a bb 3d ae 0c d1 bd 46 de 08 be 06 c6 bc 3d
       0.09132808 -0.102074966 -0.1336604 0.092174575
000060 2e 58 4d bd 7b cb 99 3d 55 60 81 3e 12 c8 ab bd
       -0.050132923 0.07509514 0.25268808 -0.0838777
000070 a6 3d bc 3d 84 d1 50 3e 69 87 d3 bd b8 40 01 bc
       0.09191446 0.20392424 -0.10328562 -0.007888965
000080 ba 53 f1 bc 70 79 01 3e db b1 01 3e 31 81 c5 be
       -0.02945887 0.12643981 0.12665503 -0.38575128
000090 5d 85 0c be 38 44 06 3e 3c 66 16 bd 8c 0e 35 be
       -0.13722749 0.13111961 -0.036718592 -0.1768133
0000a0 43 04 1d 3e 88 90 93 bd 6a cc 9c bd 60 44 63 3d
       0.15333657 -0.072053015 -0.076561764 0.05548513
0000b0 7d bf 91 be 80 f0 c6 3d 56 83 4d bd 54 a2 bf 3d
       -0.28466406 0.097138405 -0.05017408 0.093571335
0000c0 f7 c6 10 3d 4f 66 a5 bd 32 06 0c 3e 00 75 22 3d
       0.035345998 -0.080761544 0.13674238 0.03966236
0000d0 b7 9d df 3d 84 dc 6e be c5 19 03 3e 7b f6 be bc
       0.109187536 -0.23326308 0.12802799 -0.02331089
0000e0 56 e2 83 be a4 c5 c3 bd 09 e4 84 bd bc 6d d4 bd
       -0.25758618 -0.09559181 -0.06488807 -0.10372493
0000f0 0d 68 5b 3e 2d 29 be 3d ff 05 2c 3d e8 5b a9 bd
       0.21426411 0.092851974 0.041997906 -0.08269483
000100 71 f6 39 3d 99 14 f8 3d fc 7c c9 bd 0e ee 17 3e
       0.04540104 0.12113304 -0.09838292 0.14836904
000110 df cd 97 bc d2 16 fd 3d
       -0.018530784 0.12357868
