checkpoint/ddpg-actor_mlp_actor-lr:0.0001_critic-lr:0.0001_gamma:0.99_tau:0.04.pth (torch, 63063 bytes, 6 tensors)

network_actor.0.weight f4 [70, 140]
-0.020799728 -0.057401996 -0.015658502 0.037382185 0.066195555 -0.05195691 0.0036160322 0.044134364
-0.029096873 -0.011185438 -0.017530631 -0.061214224 -0.027588446 -0.077354096 0.047257196 0.0043318593
0.02562376 -0.018179243 0.020983336 -0.05711166 0.03206327 0.03969871 0.031876657 0.04012457
0.0069554034 0.048242405 -0.057931606 -0.04013898 -0.06954311 -0.055715032 0.060017437 -0.028465485
-0.005766396 0.010053655 0.010805584 0.06592652 -0.054303113 0.025500784 0.06795205 0.07798084
-0.0049414965 -0.016699241 0.008363067 0.06121567 0.009326031 0.06992679 0.0056825443 0.056042857
-0.049884893 -0.082931824 -0.05107565 -0.047292806 0.0752054 0.022754196 0.029054966 -0.03584469
-0.020606566 0.050221723 0.07887236 -0.024005331 -0.009668861 -0.003039117 0.0569234 0.023735633
0.06575521 -0.052279994 -0.027303545 -0.083476566 0.031499572 -0.064005464 0.05491334 0.0151269855
-0.012125529 -0.0064164097 -0.03754455 0.067957535 -0.07925858 -0.02749961 -0.06464676 -0.007648728
0.048581265 0.015048742 0.04489233 0.009729231 0.062332172 0.07588796 0.036351424 0.020302495
0.024358932 0.07530075 -0.016961107 0.033036727 0.026239814 -0.017656501 0.030186985 0.056901682
0.026936557 -0.022686727 0.020250719 1.7408353e-05 -0.004601309 -0.085122295 -0.06867529 0.031001907
-0.008373214 0.05061558 0.043311406 0.026418248 0.016332483 0.026903417 -0.0040958473 0.06299984
-0.028165063 -0.07100665 -0.00834953 0.004848721 -0.058371793 0.052238107 -0.08119768 -0.06767104
0.040086184 0.038232267 -0.08439609 -0.027987126 -0.006007675 0.056491394 0.021797707 0.022242976
-0.07161878 -0.023167208 0.04515841 -0.07919888 0.07298723 -0.084813 0.0032667594 -0.060741227
0.07408415 -0.056733727 -0.037879255 0.038697347 -0.05019455 0.02713681 -0.05982146 -0.08843327
0.048870735 0.039361168 0.037052825 -0.011783507 0.058224797 -0.021071522 -0.03805953 -0.019413996
-0.025618007 0.05780898 0.053377047 -0.05319028 0.02775893 -0.0057031075 0.02404906 -0.0738205
0.058615007 0.041687947 -0.037500624 0.0019579607 0.016368056 -0.06812483 -0.022181777 0.02148757
0.07746614 0.06861051 -0.07668767 -0.08379998 -0.07110934 -0.01607669 0.020415654 0.041392446
0.01405679 -0.03694503 -0.0841577 0.011573162 -0.017219936 0.052146517 -0.02677985 0.023098761
-0.060616307 0.020605465 -0.051363256 -0.04345244 0.05664259 -0.06941196 -0.06319659 0.06329905
-0.08420483 0.05814256 -0.055315495 0.061591182 0.041684132 0.0031390807 0.0635869 0.07409867
-0.077645116 0.055331793 0.043101326 0.02126782 0.033750962 -0.07752966 -0.078273185 0.022463927
-0.015794395 -0.017668294 0.07018954 -0.08861288 0.03388337 0.05479422 -0.017757006 -0.08106076
-0.060144283 0.076788574 0.008985398 -0.02899984 -0.0612403 -0.08094395 -0.056959134 0.042483844
0.042851504 -0.052398764 -0.08313033 -0.07713081 0.018529017 -0.07317674 0.06264962 -0.0023176298
0.07154557 0.057921927 0.025875505 -0.08426126 -0.058606125 -0.038102623 0.054336168 -0.023712395
-0.074463196 0.06787408 0.06640267 -0.075105056 0.009049454 0.060898546 -0.025186758 -0.047761228
0.06457223 -0.03028248 0.07458598 -0.07725642 -0.01589799 0.010976306 0.06413166 -0.07422904
00000000: 3164 aabc 5b1e 6bbd 4246 80bc 101e 193d
00000010: 8991 873d c5d0 54bd f4fa 6c3b 3cc6 343d
00000020: 915c eebc 2143 37bc 669c 8fbc c4bb 7abd
00000030: 2a01 e2bc d36b 9ebd c390 413d 45f2 8d3b
00000040: ebe8 d13c a3ec 94bc 3fe5 ab3c eaed 69bd
00000050: c754 033d 1d9b 223d 1991 023d a959 243d
00000060: 27ea e33b d499 453d b149 6dbd c568 24bd
00000070: 9e6c 8ebd 7235 64bd d8d4 753d 7330 e9bc
00000080: 09f4 bcbb 16b8 243c e709 313c 7c04 873d
00000090: f16c 5ebd 05e7 d03c 722a 8b3d 6bb4 9f3d
000000a0: 47ec a1bb d9cc 88bc 3f05 093c 48bd 7a3d
000000b0: 36cc 183c c735 8f3d a334 ba3b 328d 653d
000000c0: 1a54 4cbd 29d8 a9bd b334 51bd 1ab6 41bd
000000d0: 4a05 9a3d 0267 ba3c ae04 ee3c e2d1 12bd
000000e0: 1acf a8bc 4bb5 4d3d d587 a13d d4a6 c4bc
000000f0: 246a 1ebc ec2b 47bb 8328 693d 3b71 c23c
00000100: abaa 863d 8c23 56bd afab dfbc c3f5 aabd
00000110: b205 013d 4c15 83bd cfec 603d 2dd7 773c
00000120: 28aa 46bc bf40 d2bb 50c8 19bd 522d 8b3d
00000130: 5352 a2bd dd46 e1bc 8565 84bd 2ea2 fabb
00000140: 26fd 463d 008f 763c 05e1 373d 5a67 1f3c
00000150: 0550 7f3d 266b 9b3d 3be5 143d 6b51 a63c
00000160: 628c c73c 4837 9a3d 05f2 8abc 8551 073d
00000170: e1f4 d63c 5ea4 90bc b24a f73c bd11 693d
00000180: 0eaa dc3c 84d9 b9bc d6e4 a53c 2708 9237
00000190: 94c6 96bb 9954 aebd a1a5 8cbd b6f7 fd3c
000001a0: ce2f 09bc 4852 4f3d 4d67 313d 156b d83c
000001b0: b3cb 853c 8e64 dc3c 7536 86bb 0f06 813d
000001c0: 6bba e6bc ef6b 91bd 78cc 08bc 05e2 9e3b
000001d0: 4317 6fbd a0f7 553d f84a a6bd 1d97 8abd
000001e0: 6931 243d 7099 1c3d dbd7 acbd 4245 e5bc
000001f0: 08dc c4bb 8563 673d 1b91 b23c e736 b63c
00000200: deac 92bd 28c9 bdbc 06f8 383d 0633 a2bd
00000210: 547a 953d 70b2 adbd 2117 563b cbcb 78bd
00000220: 6eb9 973d a061 68bd 4727 1bbd 1c81 1e3d
00000230: cd98 4dbd 044e de3c 5907 75bd 811c b5bd
00000240: ae2c 483d 2d39 213d b4c4 173d 9c0f 41bc
00000250: 207d 6e3d 2f9e acbc 4fe4 1bbd 1a0a 9fbc
00000260: dbdc d1bc 1cc9 6c3d e4a1 5a3d 0dde 59bd
00000270: b266 e33c 22e1 babb 8902 c53c 342f 97bd
00000280: 4a16 703d fbc0 2a3d 419a 19bd 2151 003b
00000290: 4d16 863c 0885 8bbd 8fb6 b5bc b306 b03c
000002a0: 91a6 9e3d ab83 8c3d 6d0e 9dbd 539f abbd
000002b0: c6a1 91bd 43b3 83bc bb3e a73c 208b 293d
000002c0: 734e 663c ac53 17bd df5a acbd 5c9d 3d3c
000002d0: d310 8dbc 9697 553d 6a61 dbbc 9d39 bd3c
000002e0: ce48 78bd cbcc a83c 4762 52bd 30fb 31bd
000002f0: 0f02 683d dc27 8ebd 376d 81bd efa2 813d
00000300: 9573 acbd e526 6e3d 8092 62bd 0947 7c3d
00000310: fbbc 2a3d 09b9 4d3b d939 823d 0bc1 973d
00000320: 6704 9fbd 97a3 623d 048b 303d da39 ae3c
00000330: 733e 0a3d dfc7 9ebd b14d a0bd 4506 b83c
00000340: 3f63 81bc 19bd 90bc 89bf 8f3d ab7a b5bd
00000350: 4ac9 0a3d e76f 603d 2477 91bc 2f03 a6bd
00000360: da59 76bd 5443 9d3d 7e37 133c 1391 edbc
00000370: 1cd7 7abd f1c5 a5bd fb4d 69bd 8a03 2e3d
00000380: 0f85 2f3d 16a0 56bd 3c40 aabd c2f6 9dbd
00000390: 2aca 973c b0dd 95bd 724e 803d 60e3 17bb
000003a0: 7c86 923d 8b3f 6d3d def8 d33c 2b91 acbd
000003b0: fa0c 70bd 7f11 1cbd 9a8f 5e3d 7f40 c2bc
000003c0: 2980 98bd 9101 8b3d 20fe 873d aed0 99bd
000003d0: 2944 143c c170 793d 7654 cebc 47a1 43bd
000003e0: 723e 843d f712 f8bc 89c0 983d 9d38 9ebd
000003f0: 803c 82bc f7d5 333c 7657 833d 6505 98bd

network_actor.0.bias f4 [70]
-0.082609035 0.035018384 0.028070489 0.072335996 0.08197979 -0.078540474 0.017690733 -0.0054644044
0.0073149204 0.07051774 0.026618036 -0.053392887 -0.04881707 0.0037730099 0.014819255 -0.02183389
-0.0470526 -0.04236958 -0.054391365 -0.042195767 -0.00030821672 -0.037790593 -0.049026817 -0.045173895
-0.023701683 0.04468758 -0.045234356 -0.066132985 -0.04079586 0.042522307 -0.054392565 -0.05976084
0.06004379 -0.04922338 -0.009673488 0.01061426 0.0043678638 0.020030156 0.066849716 -0.06118225
-0.070618026 0.036941163 -0.035791222 -0.01798755 0.07801444 -0.0723748 0.07005539 -0.06453573
-0.019940179 -0.06184713 0.038094424 -0.012147982 -0.041406386 -0.021613162 0.08388782 0.07512488
0.04679909 -0.04772701 0.06088401 0.0038351684 0.092392184 0.020655796 0.07584684 -0.07140337
-0.009943873 0.085706584 0.060885724 -0.046802312 -0.08132209 -0.03010269
00000000: ed2e a9bd 706f 0f3d 15f4 e53c e524 943d
00000010: 05e5 a73d d4d9 a0bd 28ec 903c bf0e b3bb
00000020: 00b2 ef3b 9b6b 903d 110e da3c 80b2 5abd
00000030: 68f4 47bd 9a44 773b 76cc 723c fcdc b2bc
00000040: 3aba 40bd ba8b 2dbd 7bc9 5ebd 78d5 2cbd
00000050: 2698 a1b9 4fca 1abd 58d0 48bd 4308 39bd
00000060: 082a c2bc 530a 373d a947 39bd bb70 87bd
00000070: 8f19 27bd df2b 2e3d bdca 5ebd c8c7 74bd
00000080: 7af0 753d 749e 49bd 8d7d 1ebc 6fe7 2d3c
00000090: 4c20 8f3b 4816 a43c 81e8 883d 3d9a 7abd
000000a0: 2fa0 90bd 9e4f 173d d199 12bd a05a 93bc
000000b0: 09c6 9f3d 3d39 94bd 3379 8f3d 4f2b 84bd
000000c0: 9659 a3bc 6b53 7dbd e608 1c3d 5408 47bc
000000d0: be99 29bd 160e b1bc 61cd ab3d 13db 993d
000000e0: 67b0 3f3d 667d 43bd 8361 793d 7357 7b3b
000000f0: 1d38 bd3d 5836 a93c 9755 9b3d ee3b 92bd
00000100: a0eb 22bc ef86 af3d 4f63 793d c8b3 3fbd
00000110: 328c a6bd eb99 f6bc

network_actor.2.weight f4 [70, 70]
0.112728186 -0.10902956 0.1015687 -0.10523201 0.011294832 0.0272342 -0.046316043 -0.11645623
-0.035451584 0.04916321 0.11269678 -0.0533378 0.06372596 0.06509027 0.11174851 0.07280447
-0.0120641105 0.012604032 0.0032938186 0.06883421 -0.040989134 0.1080343 0.034885935 -0.033503752
-0.07748751 -0.08573179 -0.025804922 -0.10740288 0.059912425 0.01856702 -0.09587028 0.08352165
0.07024681 -0.07756516 0.04243338 0.0779432 -0.05072805 0.055868365 -0.02864021 -0.08412965
-0.042798463 -0.11180908 0.04930923 0.08444759 -0.08959905 -0.02078464 -0.09745079 0.10411169
0.018818751 0.04507281 0.10643742 -0.07212906 0.059137333 0.09436348 0.045356702 -0.011121623
0.033930436 -0.031435736 -0.026655912 0.027766591 0.02445717 -0.025709705 0.042473137 0.057347674
-0.014010169 -0.022783518 -0.09122152 0.024426112 0.027630135 -0.009920166 0.0333109 0.0059191235
-0.07937384 -0.07210962 0.016615327 0.09295266 -0.042426553 0.07888314 0.11254641 0.0635713
-0.016661255 -0.010003647 0.118004985 0.110024534 0.117527775 0.040976863 -0.07910318 -0.005015871
-0.04467575 -0.098771244 0.03689732 -0.0920917 0.0444599 0.06957954 0.13642815 -0.066255264
-0.016115766 -0.07368815 0.06972059 -0.053626385 0.08975249 -0.079065815 -0.0717482 -0.10425091
0.066046745 -0.017740501 0.093417436 -0.095424995 -0.011040744 0.0034107142 0.07896236 -0.04535703
0.10793093 0.1145867 -0.07098932 0.10534184 -0.089195795 0.091789246 0.109004416 0.09603166
0.074724995 0.12386951 0.016053792 -0.108526684 0.023322381 0.06611526 0.100737736 -0.083817035
-0.06564581 -0.036832884 0.053560033 -0.017053355 0.050247073 -0.066919744 -0.09915301 0.0064482805
-0.061614722 -0.0712852 0.07800316 -0.061951056 0.03081733 -0.0003234921 0.06124818 -0.021918355
0.058238197 -0.04114087 -0.06638699 -0.002118109 0.11164918 -0.062012188 0.09581396 0.035440896
0.12045742 -0.052879386 -0.0888059 -0.111174725 0.07612467 -0.10855855 0.08663809 0.045238208
-0.050627764 -0.0057639945 0.06094228 0.07231614 -0.10880997 -0.07950773 0.08549669 0.1219728
-0.08687919 0.013237842 -0.09185896 -0.027560994 0.009969451 -0.09709242 0.015180716 0.090504184
0.026784658 0.06121828 -0.06569462 0.10336255 0.023896033 -0.0911379 0.00027098018 0.10962426
0.038636956 -0.04762645 0.06821357 -0.045715082 -0.04745211 -0.11652683 0.029990204 0.0679257
-0.041379314 -0.11797723 0.009467631 0.073932186 -0.118735164 -0.09543304 0.020847853 -0.10132755
0.08328704 -0.033064034 0.116296604 -0.06168697 0.029962385 0.025199765 -0.09639768 0.06424198
0.09808884 -0.084029704 -0.11283115 -0.011856765 -0.10485169 0.009254667 0.112593435 -0.08146965
0.07689621 0.088949814 0.055284403 -0.08164389 -0.10024478 0.010292861 -0.05803554 -0.037194226
0.05365089 0.009178949 0.050727308 0.11452944 -0.07735984 0.11804657 -0.047060125 -0.017683767
0.07862847 -0.046897516 -0.08616322 -0.12100551 -0.0014597602 0.09565533 0.096954115 -0.06932914
0.056034394 0.006349624 -0.065518424 0.019545682 -0.11374032 -0.017945439 -0.1004154 0.07643775
0.040453892 0.028397745 -0.08424646 -0.08628249 0.009364966 0.02789613 -0.06385112 -0.04064553
00000000: 09de e63d e44a dfbd 4003 d03d e183 d7bd
00000010: f60d 393c 421a df3c e4b5 3dbd 9b80 eebd
00000020: ae35 11bd 5d5f 493d 92cd e63d bd78 5abd
00000030: c282 823d 0c4e 853d 67dc e43d 831a 953d
00000040: 8ca8 45bc 2481 4e3c 1bdd 573b f3f8 8c3d
00000050: 39e4 27bd 1641 dd3d 8ee4 0e3d 3b3b 09bd
00000060: c6b1 9ebd 2694 afbd d864 d3bc 0bf6 dbbd
00000070: bb66 753d dd19 983c a357 c4bd 660d ab3d
00000080: 8fdd 8f3d 7cda 9ebd a0ce 2d3d afa0 9f3d
00000090: 37c8 4fbd 3ad6 643d e09e eabc 2a4c acbd
000000a0: 714d 2fbd 29fc e4bd 7af8 493d dcf2 ac3d
000000b0: b57f b7bd 8d44 aabc 4894 c7bd 8238 d53d
000000c0: c829 9a3c 449e 383d ddfb d93d 67b8 93bd
000000d0: fd39 723d a441 c13d f3c7 393d 7837 36bc
000000e0: a4fa 0a3d c2c2 00bd 805d dabc c376 e33c
000000f0: 675a c83c 299d d2bc 50f8 2d3d 65e5 6a3d
00000100: e88a 65bc 80a4 babc 59d2 babd 4519 c83c
00000110: 9858 e23c 3188 22bc 0371 083d 35f5 c13b
00000120: c08e a2bd 35ae 93bd de1c 883c f75d be3d
00000130: 77c7 2dbd 7c8d a13d bb7e e63d ab31 823d
00000140: 2f7d 88bc 56e6 23bc 99ac f13d 8b54 e13d
00000150: 67b2 f03d 5bd7 273d d900 a2bd 2d5c a4bb
00000160: ebfd 36bd 9448 cabd a521 173d 939a bcbd
00000170: 961b 363d b87f 8e3d d2b3 0b3e d7b0 87bd
00000180: 3605 84bc d0e9 96bd abc9 8e3d 57a7 5bbd
00000190: 27d0 b73d 42ed a1bd b8f0 92bd 8081 d5bd
000001a0: 8443 873d 8754 91bc a451 bf3d 2e6e c3bd
000001b0: 3de4 34bc 4a86 5f3b 05b7 a13d 4bc8 39bd
000001c0: e40a dd3d 6fac ea3d d962 91bd 76bd d73d
000001d0: 49ac b6bd 00fc bb3d b53d df3d 3fac c43d
000001e0: 6b09 993d 4caf fd3d 3e83 833c 3d43 debd
000001f0: 940e bf3c 7067 873d 964f ce3d 44a8 abbd
00000200: 4f71 86bd 14de 16bd c461 5b3d 7ab3 8bbc
00000210: e0cf 4d3d 380d 89bd bc10 cbbd 194c d33b
00000220: b85f 7cbd fafd 91bd 1fc0 9f3d 64c0 7dbd
00000230: a074 fc3c 609a a9b9 5fdf 7a3d 1f8e b3bc
00000240: 2d8b 6e3d 5483 28bd e7f5 87bd f9cf 0abb
00000250: 53a8 e43d 7e00 7ebd 1c3a c43d 792a 113d
00000260: 61b2 f63d 0e98 58bd dedf b5bd 93af e3bd
00000270: 40e7 9b3d f253 debd 506f b13d b34b 393d
00000280: 0f5f 4fbd e4df bcbb 9d9e 793d 7c1a 943d
00000290: c3d7 debd f3d4 a2bd e318 af3d e0cc f93d
000002a0: b7ed b1bd 89e3 583c 8d20 bcbd 98c7 e1bc
000002b0: e956 233c 64d8 c6bd 8ab8 783c 425a b93d
000002c0: 806b db3c 05c0 7a3d e78a 86bd bfaf d33d
000002d0: 9dc1 c33c 82a6 babd 5812 8e39 af82 e03d
000002e0: c941 1e3d f413 43bd 8eb3 8b3d bd3f 3bbd
000002f0: 255d 42bd 9ea5 eebd 04ae f53c a11c 8b3d
00000300: 5b7d 29bd 0c9e f1bd 1f1e 1b3c c269 973d
00000310: 6c2b f3bd 6672 c3bd 1ec9 aa3c d284 cfbd
00000320: 6592 aa3d 276e 07bd ea2c ee3d 7aab 7cbd
00000330: ad73 f53c bd6f ce3c 266c c5bd 4d91 833d
00000340: cde2 c83d c417 acbd 0514 e7bd e042 42bc
00000350: 7cbc d6bd e3a0 173c 6397 e63d 8fd9 a6bd
00000360: c37b 9d3d 522b b63d e671 623d e934 a7bd
00000370: 234d cdbd 63a3 283c adb6 6dbd f958 18bd
00000380: 09c1 5b3d 4d63 163c 70c7 4f3d 698e ea3d
00000390: d66e 9ebd 66c2 f13d 1ec2 40bd 8cdd 90bc
000003a0: f707 a13d 9c17 40bd 5876 b0bd bdd1 f7bd
000003b0: 6d55 bfba f1e6 c33d e18f c63d 70fc 8dbd
000003c0: 5284 653d 8210 d03b 862e 86bd 441e a03c
000003d0: aff0 e8bd 5002 93bc 97a6 cdbd 658b 9c3d
000003e0: fbb2 253d 63a2 e83c 6889 acbd e0b4 b0bd
000003f0: 846f 193c 6d86 e43c 60c4 82bd ed7b 26bd

network_actor.2.bias f4 [70]
-0.032181386 -0.06996196 0.084433466 0.024386512 -0.07456043 -0.07967418 0.09470701 -0.029592939
-0.048348498 0.092985466 -0.006620402 0.05523452 -0.08121393 -0.0988208 0.12129256 -0.048370082
-0.0013212877 0.0057558455 -0.0618265 -0.11392587 -0.05386613 -0.057902962 -0.028415246 -0.06975968
0.083416656 0.067803875 -0.10438257 -0.053732917 -0.09558216 -0.08081115 -0.028699903 0.064741306
0.10217943 0.01401298 0.06102903 -0.080993816 -0.050557144 0.060593978 0.0007234954 -0.08985922
0.050513804 -0.1022777 -0.048743818 0.05458125 -0.10551569 0.03099533 -0.058622114 -0.028250365
0.040908996 -0.045850016 0.054162327 0.004428486 -0.037840407 0.012236219 0.09997854 0.040919084
-0.09164297 -0.0032134152 0.01379123 0.10767808 -0.004499804 0.09808507 -0.094438665 0.06792372
-0.043134667 -0.042281084 0.044039346 0.082119085 0.015901651 -0.10441375
00000000: a1d0 03bd 3748 8fbd 74eb ac3d 39c6 c73c
00000010: 24b3 98bd 372c a3bd c0f5 c13d e46c f2bc
00000020: 1309 46bd 2a6f be3d f5ef d8bb 983d 623d
00000030: 7d53 a6bd 8f62 cabd 3c68 f83d b51f 46bd
00000040: 0f2f adba 889b bc3b c93d 7dbd f751 e9bd
00000050: bba2 5cbd a82b 6dbd 17c7 e8bc 2ade 8ebd
00000060: 5ad6 aa3d c2dc 8a3d 87c6 d5bd 0c17 5cbd
00000070: 94c0 c3bd 5180 a5bd 0f1c ebbc 1797 843d
00000080: 7343 d13d b396 653c 93f9 793d 16e0 a5bd
00000090: 0215 4fbd 6431 783d f4a8 3d3a 1c08 b8bd
000000a0: 90e7 4e3d f976 d1bd 99a7 47bd 9790 5f3d
000000b0: 9c18 d8bd ebe9 fd3c be1d 70bd 4f6d e7bc
000000c0: 3190 273d 3acd 3bbd 51d9 5d3d d51c 913b
000000d0: 8bfe 1abd 6c7a 483c 8cc1 cc3d c59a 273d
000000e0: 4faf bbbd 2998 52bb 9cf4 613c 5386 dc3d
000000f0: 1873 93bb d3e0 c83d 0f69 c1bd 971b 8b3d
00000100: faad 30bd ee2e 2dbd 9a62 343d 0d2e a83d
00000110: 2e44 823c e0d6 d5bd

network_actor.4.weight f4 [5, 70]
0.053537063 -0.1040817 -0.09694239 0.056864 -0.09981228 0.015418429 -0.01426811 0.08888115
-0.006054274 0.009884671 -0.012647138 -0.07899556 -0.07503416 0.027587147 -0.0037523608 -0.04593838
-0.08323934 0.06981929 0.108216755 0.064766526 0.012157076 0.0755555 0.067509934 0.023490755
0.03729021 -0.04315602 0.0142847495 -0.0032404903 -0.06342186 0.078012876 0.09641859 0.06609509
-0.11823017 0.02263223 -0.016122656 0.04546348 -0.082735874 0.096928656 -0.007956187 0.019074455
-0.040796462 0.105385005 0.010290737 -0.07184619 -0.03709842 -0.103706464 -0.09841232 -0.02596283
0.026049005 -0.030703863 -0.051555194 0.03734286 -0.10608493 -0.038444582 0.104019634 -0.01124016
0.09471479 -0.07228451 0.1061962 0.032260388 -0.016283933 -0.06990805 0.06635884 -0.11745471
0.066456 0.003620245 -0.110164 -0.10435201 -0.18002208 -0.00867885 0.12072089 -0.05088831
-0.071117096 0.114364035 0.037401114 0.10811302 -0.007431287 -0.048804574 -0.026093379 0.03815825
0.035155524 -0.018695036 0.08685345 0.09250531 -0.041312877 -0.0788019 0.083305426 0.057914075
-0.056083947 -0.097889125 0.018653143 0.0016182404 -0.04054879 0.0638331 -0.06374453 -0.081302956
0.04420019 0.009342539 0.061546743 0.09459136 0.057837747 -0.0571465 0.107338645 0.079455554
0.001215907 -0.015277603 -0.06289361 -0.088166945 -0.057198405 0.032590833 0.0021512422 -0.10461734
-0.07414468 0.0010049121 -0.0852302 0.053054698 -0.033611774 0.06313159 -0.13449876 -0.02062655
0.0898426 0.07093506 -0.09867829 0.03185598 0.10116278 -0.1042339 -0.070694014 0.06621101
-0.03017045 0.102754146 -0.011506982 0.0073970133 0.11742225 0.078962944 -0.052348632 -0.09816502
0.079316415 -0.0407373 -0.025620654 -0.06763451 0.030169157 -0.07360459 0.07210109 -0.008927262
0.06728995 -0.10653449 0.096660875 -0.008723652 -0.07578538 -0.0814478 0.08979573 -0.04293036
0.05916477 0.082181536 0.036538616 0.08451084 -0.1087348 0.010173554 -0.102047175 -0.09662197
0.05512814 0.057134192 -0.07034408 0.046147466 0.08088038 -0.08476499 -0.050062966 -0.11252675
-0.0890825 0.038722415 -0.08202888 -0.040530656 -0.023666583 0.093892425 -0.08018861 0.103221476
-0.030647641 -0.048411578 -0.028695127 -0.107576095 0.005981627 -0.016468829 -0.033649113 -0.0308815
0.08162461 -0.014491984 0.028810004 -0.1243067 0.0035059496 -0.118939675 -0.08510941 0.002734901
0.11435392 0.042444825 0.029414747 -0.10918221 -0.0071041924 0.09913826 -0.05914024 -0.0152349835
0.054067668 0.09529446 -0.08355931 -0.045454647 -0.11662751 0.030151775 0.0561998 -0.095241494
0.09894121 0.010854857 0.018086199 0.049064104 -0.00023941287 0.09102353 0.1175276 0.018491218
0.06468755 0.037325263 -0.006178531 0.09064346 -0.0425447 -0.07612524 0.0003059147 -0.036918905
-0.10320535 -0.061927687 -0.0066759633 0.07724181 0.07689361 0.002793982 0.067025565 0.025195748
0.022689842 -0.024331061 -0.08068294 -0.048588738 0.09044414 0.079958536 -0.020505125 -0.013459069
-0.028908506 -0.008131755 -0.11067587 -0.09412783 -0.08638462 -0.05694234 -0.029611053 -0.06500532
-0.0024232722 -0.07263927 0.062676385 0.04292297 -0.03601414 -0.035189934 0.0072468026 -0.118282594
00000000: ae49 5b3d c928 d5bd bb89 c6bd 3aea 683d
00000010: 616a ccbd 949d 7c3c cac4 69bc 5207 b63d
00000020: ee62 c6bb 51f3 213c f135 4fbc 6dc8 a1bd
00000030: 82ab 99bd 71fe e13c 2bea 75bb e229 3cbd
00000040: 6379 aabd 6afd 8e3d bfa0 dd3d 50a4 843d
00000050: 792e 473c d8bc 9a3d a642 8a3d af6f c03c
00000060: 9fbd 183d 5ec4 30bd 950a 6a3c 685e 54bb
00000070: 52e3 81bd 37c5 9f3d 1c77 c53d dd5c 873d
00000080: a922 f2bd 3a67 b93c a913 84bc ea37 3a3d
00000090: 6d71 a9bd 8882 c63d ab5a 02bc 0842 9c3c
000000a0: 311a 27bd 18d4 d73d 7b9a 283c 1824 93bd
000000b0: 83f4 17bd 0e64 d4bd 668c c9bd 00b0 d4bc
000000c0: b964 d53c ab86 fbbc 8a2b 53bd d4f4 183d
000000d0: 0e43 d9bd 1178 1dbd 3f08 d53d a628 38bc
000000e0: d4f9 c13d e709 94bd 657d d93d 7823 043d
000000f0: e265 85bc f42b 8fbd 25e7 873d 188c f0bd
00000100: 151a 883d a241 6d3b aa9d e1bd 82b6 d5bd
00000110: b557 38be bc31 0ebc 843c f73d 4370 50bd
00000120: d7a5 91bd b137 ea3d e931 193d 5c6a dd3d
00000130: 2782 f3bb 4ee7 47bd c8c1 d5bc d34b 1c3d
00000140: 3dff 0f3d 5526 99bc 39e0 b13d 6d73 bd3d
00000150: b137 29bd e462 a1bd 099c aa3d 4f37 6d3d
00000160: 48b8 65bd 187a c8bd 7ace 983c 231b d43a
00000170: 7d16 26bd eeba 823d 7e8c 82bd 2a82 a6bd
00000180: 420b 353d 7311 193c 7018 7c3d 1db9 c13d
00000190: 46e7 6c3d 7312 6abd 5dd4 db3d 98b9 a23d
000001a0: 125f 9f3a e94e 7abc 5dce 80bd df90 b4bd
000001b0: e048 6abd f77d 053d dbfb 0c3b 9e41 d6bd
000001c0: 2ad9 97bd 41b7 833a 2c8d aebd e24f 593d
000001d0: 80ac 09bd 234b 813d 0bba 09be 03f9 a8bc
000001e0: 66ff b73d 6746 913d d817 cabd 6b7b 023d
000001f0: 6e2e cf3d 9578 d5bd 06c8 90bd a399 873d
00000200: 0528 f7bc c470 d23d c887 3cbc a562 f23b
00000210: 147b f03d 53b7 a13d 856b 56bd be0a c9bd
00000220: a570 a23d 28dc 26bd 68e2 d1bc f683 8abd
00000230: 4f25 f73c 01be 96bd bca9 933d a743 12bc
00000240: 50cf 893d c12e dabd 23f6 c53d a6ed 0ebc
00000250: 5e35 9bbd 1bce a6bd d3e6 b73d bfd7 2fbd
00000260: c256 723d cb4e a83d 84a9 153d 0514 ad3d
00000270: 5ab0 debd faae 263c 1cfe d0bd bde1 c5bd
00000280: 0bce 613d 8b05 6a3d 8f10 90bd 2005 3d3d
00000290: 9da4 a53d 4499 adbd d30e 4dbd 6d74 e6bd
000002a0: e370 b6bd 659b 1e3d c2fe a7bd 7903 26bd
000002b0: 6ce0 c1bc ac4a c03d ed39 a4bd c865 d33d
000002c0: c310 fbbc 384b 46bd 0b12 ebbc db50 dcbd
000002d0: 8601 c43b a3e9 86bc a7d3 09bd 33fb fcbc
000002e0: ce2a a73d c96f 6dbc f502 ec3c 8394 febd
000002f0: 13c4 653b a596 f3bd d84d aebd 063c 333b
00000300: 6332 ea3d a0da 2d3d 32f7 f03c ec9a dfbd
00000310: 49ca e8bb 0009 cb3d 093d 72bd 279c 79bc
00000320: 0f76 5d3d be29 c33d 2521 abbd a72e 3abd
00000330: 67da eebd db00 f73c c331 663d f90d c3bd
00000340: b0a1 ca3d 92d8 313c 8229 943c 71f7 483d
00000350: e70a 7bb9 8b6a ba3d 4fb2 f03d e57a 973c
00000360: e87a 843d 60e2 183d 4675 cabb 47a3 b93d
00000370: 5a43 2ebd 8de7 9bbd 2d63 a039 4738 17bd
00000380: 545d d3bd e3a7 7dbd 0ac2 dabb f430 9e3d
00000390: 667a 9d3d 3d1b 373b b344 893d 5067 ce3c
000003a0: 0ce0 b93c ef51 c7bc 193d a5bd fc04 47bd
000003b0: c73a b93d 4dc1 a33d 5dfa a7bc 6d83 5cbc
000003c0: 88d1 ecbc 0d3b 05bc 08aa e2bd 17c6 c0bd
000003d0: 6bea b0bd 5f3c 69bd e192 f2bc 8221 85bd
000003e0: c3cf 1ebb e6c3 94bd 7a5c 803d ffcf 2f3d
000003f0: 9083 13bd 5223 10bd 9676 ed3b 253e f2bd

network_actor.4.bias f4 [5]
-0.013074834 -0.07701223 -0.07098779 0.027876284 -0.064736135
00000000: d437 56bc 97b8 9dbd 0c62 91bd ce5c e43c
00000010: 6194 84bd
