checkpoint/ddpg-critic_mlp_actor-lr:0.0001_critic-lr:0.0001_gamma:0.99_tau:0.01.pth (torch, 63319 bytes, 5 tensors)

network_critic.0.weight f4 [70, 145]
-0.09109104 -0.03227277 -0.17749451 0.022254296 -0.12929924 -0.101668596 -0.04178232 0.06580902
-0.032218907 0.020005915 0.04050715 0.080876045 -0.06299539 -0.052575983 0.054559067 0.08216362
-0.042912167 -0.053415447 0.010146948 -0.16224007 0.057225987 0.07472487 -0.7111003 0.01421866
0.082551464 -0.33844596 -0.15502661 0.045981973 -0.095154494 -0.13761614 -0.13736188 0.0023456777
-0.010855359 -0.03931578 -0.013350759 0.009335888 0.05180421 0.013330449 -0.011998592 0.011339864
-0.022090334 0.078032486 -0.07483354 0.0596212 0.031296138 0.021135177 -0.021896787 -0.20340784
0.23404738 0.30817884 0.50337297 0.47184965 0.14389993 -0.39825606 -0.14512946 0.06945071
0.057338785 -0.19782901 -0.09729046 -0.09926316 -0.09607025 -0.14558221 0.0013278768 0.11029072
0.0343797 -0.015822949 -0.073058195 0.028276611 0.03275671 0.01661251 -0.04236149 -0.011260098
0.059159275 -0.023291828 0.017613467 -0.17750715 -0.18293005 0.33731595 0.09862739 -1.0402311
0.05148533 -0.4655473 -0.058370907 0.017831173 0.017848333 -0.19546314 -0.066019006 -0.0023099976
-0.034543015 -0.12198281 -0.10399055 0.00306753 -0.06923589 0.056607917 -0.026275128 0.05237607
0.07001691 0.018091042 -0.07726242 -0.011870973 -0.0360183 0.057460565 0.046187617 -0.15119942
-0.0069733667 0.25210807 0.93173486 -0.0925466 0.14867175 -0.3780831 -0.098927885 0.1110029
-0.041949507 -0.12630862 -0.18853799 -0.05828674 -0.08922158 -0.042412795 -0.023126727 0.04333112
0.015583416 0.045676462 -0.051300786 0.017059902 -0.015595162 0.058993023 -0.04375959 0.01860282
-0.035300296 -0.02188069 -0.02987012 -0.13533394 -0.7384919 0.049521215 2.8621225 -1.1165265
0.16682336 -0.3628748 -0.14917633 0.0028701231 -0.09945989 -0.06857041 -0.08485485 -0.18356772
-0.14806075 0.074075125 0.2855998 -0.039024405 0.10970569 -0.09921581 -0.047450755 0.1366695
0.12321075 -0.066538155 -0.015790997 0.11439793 -0.052688956 -0.01020787 0.01922096 -0.036127634
0.030612629 -0.0065013845 -0.020540781 0.04043791 -0.29859495 -1.042249 0.11173183 -1.8652658
-1.388071 0.13603538 -0.22046997 -0.026501982 0.15002692 -0.057624254 0.1787391 -0.15497807
0.12296794 -0.10326572 0.00013875913 0.036745887 0.17489477 0.0051868586 -0.054205894 -0.009338742
-0.0085187 -0.06944571 0.008864722 -0.07570162 0.0053926017 0.10587057 -0.06664987 0.083429895
-0.19765984 0.42380062 0.34270397 -0.31942037 0.020258611 0.16683799 -0.23875105 0.006680827
0.12948841 0.030169196 0.3112598 -0.117083125 0.01434188 0.032973465 -0.019441374 0.1866537
0.06439638 -0.07794358 0.03671726 -0.026375262 -0.01018282 0.009525848 -0.0050829393 -0.05093263
0.005852335 0.026314527 0.05004798 0.011751544 -0.15973678 0.3622039 0.34516788 0.597953
0.048584174 0.097796716 -0.24017656 0.06906197 0.009064997 -0.024656773 0.18611592 -0.0016974999
0.054153707 -0.09094818 0.045012068 0.05453048 0.14107698 0.037519656 0.01893188 -0.017468583
0.022309395 -0.08777988 0.0756026 0.05207723 0.041552953 0.06895302 -0.09315127 0.07959585
-0.19239248 1.3163831 0.3513301 -0.5759964 0.90258443 0.019560691 -0.2722802 0.07065711
00000000: f08d babd 7430 04bd 1fc1 35be a44e b63c
00000010: 0567 04be a037 d0bd f023 2bbd e1c6 863d
00000020: f9f7 03bd 72e3 a33c d3ea 253d 57a2 a53d
00000030: ba03 81bd ea59 57bd 5479 5f3d 6645 a83d
00000040: abc4 2fbd 28ca 5abd 623f 263c 4322 26be
00000050: cc65 6a3d 5a09 993d ab0a 36bf 62f5 683c
00000060: be10 a93d ca48 adbe 4cbf 1ebe 9857 3c3d
00000070: 5ce0 c2bd 3feb 0cbe 98a8 0cbe f1b9 193b
00000080: adda 31bc 9509 21bd 24bd 5abc 8df5 183c
00000090: a730 543d f567 5a3c be95 44bc d6ca 393c
000000a0: caf6 b4bc 7fcf 9f3d 5442 99bd 5c35 743d
000000b0: 6130 003d ae23 ad3c e460 b3bc 254a 50be
000000c0: 1eaa 6f3e 9ec9 9d3e 0ddd 003f 4796 f13e
000000d0: 815a 133e 38e8 cbbe d19c 14be 2d3c 8e3d
000000e0: 13dc 6a3d b093 4abe 3840 c7bd 7c4a cbbd
000000f0: 7bc0 c4bd 8113 15be 270c ae3a 1ae0 e13d
00000100: bad1 0c3d 219f 81bc 899f 95bd 5aa4 e73c
00000110: e62b 063d f516 883c 3e83 2dbd 467c 38bc
00000120: ff50 723d 81ce bebc 1e4a 903c 6fc4 35be
00000130: 0452 3bbe adb4 ac3e 28fd c93d 4b26 85bf
00000140: 48e2 523d 375c eebe 5516 6fbd ae12 923c
00000150: ab36 923c 7d27 48be f934 87bd 5463 17bb
00000160: fa7c 0dbd 20d2 f9bd fff8 d4bd 9d08 493b
00000170: 8ccb 8dbd b4dd 673d f03e d7bc 4a88 563d
00000180: 0765 8f3d aa33 943c c23b 9ebd 787e 42bc
00000190: ed87 13bd c55b 6b3d 3a2f 3d3d 05d4 1abe
000001a0: d780 e4bb 4f14 813e 2d86 6e3f 1289 bdbd
000001b0: 683d 183e 1c94 c1be b49a cabd 7d55 e33d
000001c0: 3fd3 2bbd 0c57 01be 1a10 41be 14be 6ebd
000001d0: ceb9 b6bd 0ab9 2dbd 4374 bdbc f97b 313d
000001e0: 9651 7f3c 3e17 3b3d c620 52bd 35c1 8b3c
000001f0: da82 7fbc aba2 713d 413d 33bd f164 983c
00000200: 0b97 10bd 223f b3bc 2fb2 f4bc fb94 0abe
00000210: ce0d 3dbf c2d6 4a3d 042d 3740 57ea 8ebf
00000220: bed3 2a3e baca b9be aec1 18be ad18 3c3b
00000230: a0b1 cbbd a56e 8cbd 61c8 adbd 2df9 3bbe
00000240: 3d9d 17be b3b4 973d 233a 923e 0ed8 1fbd
00000250: 60ad e03d a931 cbbd b95b 42bd 17f3 0b3e
00000260: eb55 fc3d 2845 88bd 1f5c 81bc 7649 ea3d
00000270: 60d0 57bd e93e 27bc 4675 9d3c 92fa 13bd
00000280: 56c7 fa3c 9109 d5bb 2445 a8bc 39a2 253d
00000290: 70e1 98be 6a68 85bf a8d3 e43d 08c1 eebf
000002a0: 4fac b1bf dc4c 0b3e e1c2 61be af1a d9bc
000002b0: a8a0 193e 6907 6cbd 6207 373e 92b2 1ebe
000002c0: 9ed6 fb3d fa7c d3bd df7f 1139 db82 163d
000002d0: 9d17 333e 86f6 a93b 0007 5ebd 8601 19bc
000002e0: 0492 0bbc 8d39 8ebd 573d 113c 7309 9bbd
000002f0: 6cb4 b03b abd2 d83d ba7f 88bd 4bdd aa3d
00000300: 5767 4abe 65fc d83e e576 af3e 118b a3be
00000310: 63f5 a53c 94d7 2a3e 287b 74be d7ea da3b
00000320: 9c98 043e 6425 f73c 725d 9f3e 47c9 efbd
00000330: 34fa 6a3c 2f0f 073d 8443 9fbc 2622 3f3e
00000340: 40e2 833d e2a0 9fbd d664 163d ef10 d8bc
00000350: d8d5 26bc 4d12 1c3c c98e a6bb bc9e 50bd
00000360: f2c4 bf3b 9091 d73c 1cff 4c3d 8c89 403c
00000370: 0a92 23be ca72 b93e d8b9 b03e 7313 193f
00000380: 3300 473d a549 c83d d8f0 75be 5d70 8d3d
00000390: 5a85 143c 00fd c9bc 2c95 3e3e a57e deba
000003a0: 47d0 5d3d 0a43 babd 935e 383d 5a5b 5f3d
000003b0: 7c76 103e 36ae 193d 0817 9b3c 461a 8fbc
000003c0: 31c2 b63c f0c5 b3bd 89d5 9a3d ef4e 553d
000003d0: 6e33 2a3d 3e37 8d3d 18c6 bebd 2603 a33d
000003e0: 8902 45be 3e7f a83f 8ae1 b33e 8074 13bf
000003f0: c60f 673f be3d a03c 4f68 8bbe adb4 903d

network_critic.0.bias f4 [70]
-0.028516795 0.06890678 0.05313884 0.05481064 -0.053444054 0.03381943 -0.069684215 0.031423014
-0.057306055 -0.032430325 -0.0421807 0.026806049 -0.026875474 -0.05316128 -0.08408961 -0.008088823
-0.02731641 0.020186476 0.05119752 0.005146515 -0.047688812 -0.04271931 -0.11658452 0.08324014
-0.05421692 0.018149097 0.055758175 -0.03850239 0.12315655 -0.02081029 -0.034215655 0.06331729
-0.055652518 0.002954967 0.0229587 0.048697013 0.009077149 0.045248702 -0.011713977 -0.0025816024
0.01159574 -0.055384174 0.11099798 -0.050835174 0.07677788 0.074035525 0.007935711 0.051154196
-0.05596468 0.066824734 -0.024064971 -0.051326398 0.14980505 0.06780457 0.068955034 -0.017990941
-0.0768987 -0.015069292 -0.028560081 -0.03157403 0.08970703 0.024458716 -0.08604678 0.035321195
0.0054307375 -0.08234313 0.0507129 0.03208647 0.0027575921 0.053956367
00000000: 0e9c e9bc ff1e 8d3d 1da8 593d 1f81 603d
00000010: 27e8 5abd 3e86 0a3d 99b6 8ebd 6bb5 003d
00000020: c1b9 6abd a9d5 04bd abc5 2cbd 5c98 db3c
00000030: f429 dcbc a4bf 59bd 2c37 acbd fc86 04bc
00000040: aac6 dfbc 1c5e a53c 7eb4 513d 19a4 a83b
00000050: 5855 43bd 71fa 2ebd ddc3 eebd ce79 aa3d
00000060: 9012 5ebd 6aad 943c af62 643d afb4 1dbd
00000070: 8039 fc3d 577a aabc b725 0cbd 7fac 813d
00000080: e5f3 63bd 1fa8 413b e213 bc3c 8576 473d
00000090: 53b8 143c b456 393d fbeb 3fbc 1a30 29bb
000000a0: 0ffc 3d3c 84da 62bd e952 e33d 8b38 50bd
000000b0: b93d 9d3d f09f 973d c904 023c 1087 513d
000000c0: 383b 65bd 68db 883d e723 c5bc a13b 52bd
000000d0: 7f66 193e 1fdd 8a3d 4c38 8d3d bd61 93bc
000000e0: 117d 9dbd 31e5 76bc d5f6 e9bc c553 01bd
000000f0: 52b8 b73d a55d c83c 4b39 b0bd f5ac 103d
00000100: 54f4 b13b 84a3 a8bd 54b8 4f3d 1a6d 033d
00000110: b8b8 343b 5a01 5d3d

network_critic.2.weight f4 [70, 70]
0.059710115 -0.046870958 0.0674233 0.07766856 -0.040957004 -0.13678266 -0.0007999447 0.07211795
-0.110120766 0.1003654 -0.17258611 -0.021651462 0.080454715 -0.025392862 0.049130876 -0.039069433
-0.09386885 0.119477235 0.16405329 -0.11879384 0.05595103 0.0056252168 0.080137506 0.54294294
0.10670281 -0.06619918 0.09950335 0.04476144 0.018085739 -0.08035149 0.007927888 0.06464017
0.08332284 0.026135068 -0.030599732 0.14881188 0.22740547 -0.06498305 0.0075286203 0.097331196
0.030231047 -0.02231242 -0.10474725 -0.03221577 -0.11011854 0.03593045 -0.14676209 0.08349546
-0.028708637 -0.09297547 0.026024124 0.10427135 -0.045859545 0.033070482 -0.0071317777 0.024312153
-0.17994729 -0.33414966 0.0021831004 0.018166445 -0.017190522 0.08501146 -0.51947606 0.031090226
-0.06253771 -0.013521068 -0.014340464 -0.06570144 -0.08255668 -0.008242842 0.011068913 0.1324194
0.023078965 -0.12226099 0.09587818 -0.21378726 -0.08278074 -0.9192317 -0.38106617 -0.011113219
0.06407292 0.11304339 0.07302339 -0.26273507 -0.23899594 0.07547797 0.20930354 -0.09661932
0.094187655 -0.0013523567 0.08923305 -0.20767033 -0.051831327 0.01145543 -0.03069807 0.1221122
0.0896949 0.09712398 -0.019061113 -0.06694801 -0.32450214 1.0041667 0.10564945 0.06676021
0.0012646976 -0.25485647 0.01999119 -0.049566966 -0.019427521 -0.10142536 -0.09087428 0.1045504
-0.055182945 -0.2623775 -0.011037173 -0.10707458 0.065862514 0.10772225 0.117148176 -0.03242314
0.09588733 0.017335884 -0.3041514 0.05344563 -0.18387376 0.053132426 0.078585915 0.018394113
-0.05822191 -1.2679573 0.044624627 0.06811248 -0.08914508 0.0009110781 -0.11598818 0.07978838
-0.1178362 -0.17535503 -2.0469038 -0.03797212 -0.034328166 -0.061067455 0.08688658 0.018875571
-0.04258343 0.06141491 -0.05880188 -0.089422666 -0.04021556 -0.081991665 -0.053676996 -0.01743817
0.10857503 -0.044551425 0.08101972 0.092024505 0.060825277 0.0912955 0.09915833 -0.10757975
0.051156744 0.076348566 -0.05418796 -0.12545057 -0.03430311 0.12584695 -0.11612279 0.07814898
0.02472585 0.099143796 -0.02657758 -0.016786216 0.098630875 0.08678282 0.027421601 -0.14118038
-0.16602567 -0.1270596 0.064264916 -0.13837135 0.04048036 0.04429198 -0.026321176 0.015628364
0.09574496 0.06662192 0.11488034 -0.012369249 -0.11314935 -0.07324853 -0.022720698 0.08814585
-0.102751836 0.08089056 0.056849226 -0.08846292 -0.06474917 0.02250801 -0.038411748 0.022433339
0.08543914 0.06411034 0.047913752 -0.14552541 0.0612123 0.046045937 0.03768983 -0.005765842
0.033941753 0.16453813 0.035516575 -0.09238483 0.058544762 -0.06036331 -0.03608304 0.011191766
-0.083278425 -0.64819556 -0.15697886 0.004884413 -0.057830416 0.095349975 0.0317957 0.09927515
0.12652957 -0.08425319 -0.040049303 0.10451054 0.22611639 0.10125374 0.08150028 -0.21542883
-0.080359474 -0.09344353 -0.025931457 0.1320356 -0.0055068806 0.10622122 0.128207 -0.016516427
0.08534279 0.07940977 0.01390737 0.08100459 0.065345936 0.028094457 0.012135311 -0.08544762
-0.037514936 -0.057956196 -0.09987366 0.015549774 0.15047075 -0.14350784 0.22658874 -0.05695057
00000000: 9892 743d c3fb 3fbd 3a15 8a3d b210 9f3d
00000010: 88c2 27bd c110 0cbe 61b3 51ba 93b2 933d
00000020: ff86 e1bd 608c cd3d 6aba 30be 685e b1bc
00000030: 71c5 a43d b104 d0bc 753d 493d 4507 20bd
00000040: 503e c0bd 7bb0 f43d 96fd 273e 2f4a f3bd
00000050: e82c 653d bd53 b83b 221f a43d 4ffe 0a3f
00000060: 0187 da3d 7093 87bd 6ac8 cb3d c657 373d
00000070: 8b28 943c 528f a4bd f9e3 013c 1162 843d
00000080: 2aa5 aa3d 3619 d63c 4aac fabc 2462 183e
00000090: fbdc 683e d515 85bd a5b2 f63b 9455 c73d
000000a0: 1aa7 f73c 89c8 b6bc ba85 d6bd aff4 03bd
000000b0: d485 e1bd cf2b 133d cd48 16be abff aa3d
000000c0: 602e ebbc ec69 bebd 8b30 d53c 388c d53d
000000d0: 38d7 3bbd ea74 073d b0b1 e9bb 482a c73c
000000e0: 1a44 38be aa15 abbe 5912 0f3b ccd1 943c
000000f0: 23d3 8cbc 7d1a ae3d 62fc 04bf eeb0 fe3c
00000100: c513 80bd 7887 5dbc 44f4 6abc 7a8e 86bd
00000110: 7a13 a9bd fc0c 07bc 635a 353c f498 073e
00000120: 1910 bd3c f863 fabd c75b c43d 0ceb 5abe
00000130: f388 a9bd c552 6bbf 1b1b c3be 3814 36bc
00000140: aa38 833d 4b83 e73d 498d 953d 3685 86be
00000150: 5abb 74be 3294 9a3d ab53 563e 5ae0 c5bd
00000160: 75e5 c03d 9041 b1ba d1bf b63d 88a7 54be
00000170: 164d 54bd 8eaf 3b3c 857a fbbc f615 fa3d
00000180: f6b1 b73d f0e8 c63d 0d26 9cbc 0a1c 89bd
00000190: 2525 a6be 8988 803f bd5e d83d 94b9 883d
000001a0: 36c4 a53a 8c7c 82be 90c4 a33c bb06 4bbd
000001b0: 7726 9fbc 19b8 cfbd 4b1c babd 851e d63d
000001c0: 8307 62bd 5856 86be 42d5 34bc eb49 dbbd
000001d0: ede2 863d 7c9d dc3d 62eb ef3d 20ce 04bd
000001e0: 9460 c43d fc03 8e3c bbb9 9bbe cee9 5a3d
000001f0: 6749 3cbe 63a1 593d a7f1 a03d 40af 963c
00000200: 197a 6ebd 6d4c a2bf 50c8 363d 8e7e 8b3d
00000210: b291 b6bd 6bd5 6e3a 368b edbd 1768 a33d
00000220: 1b54 f1bd 4590 33be 7900 03c0 a788 1bbd
00000230: b19b 0cbd de21 7abd 97f1 b13d f1a0 9a3c
00000240: f66b 2ebd 338e 7b3d 3dda 70bd 3b23 b7bd
00000250: 12b9 24bd 3feb a7bd 69dc 5bbd 7eda 8ebc
00000260: 965c de3d 8e7b 36bd abed a53d 5877 bc3d
00000270: ed23 793d 23f9 ba3d 8613 cb3d c652 dcbd
00000280: bc89 513d a35c 9c3d 32f4 5dbd 1d76 00be
00000290: 6b81 0cbd 06de 003e c9d1 edbd 930c a03d
000002a0: de8d ca3c e70b cb3d 3ab9 d9bc 3f83 89bc
000002b0: fcfe c93d 31bb b13d 44a3 e03c 9791 10be
000002c0: a202 2abe e91b 02be 539d 833d 38b1 0dbe
000002d0: bcce 253d 826b 353d 829f d7bc 0e07 803c
000002e0: ef15 c43d 1371 883d 6246 eb3d 64a8 4abc
000002f0: d9ba e7bd 5303 96bd c220 babc d085 b43d
00000300: 8e6f d2bd f3a9 a53d bcda 683d 0c2c b5bd
00000310: 369b 84bd b862 b83c a355 1dbd 1fc6 b73c
00000320: b7fa ae3d 484c 833d 3641 443d 9d04 15be
00000330: c0b9 7a3d aa9a 3c3d a760 1a3d 63ef bcbb
00000340: 8206 0b3d af7c 283e d479 113d 4234 bdbd
00000350: a2cc 6f3d 853f 77bd cfcb 13bd ab5d 373c
00000360: e18d aabd 25f0 25bf 11bf 20be 6d0d a03b
00000370: 96df 6cbd d946 c33d 353c 023d c550 cb3d
00000380: f890 013e f08c acbd bd0a 24bd 9f09 d63d
00000390: 0e8b 673e 1f5e cf3d 9ee9 a63d 6099 5cbe
000003a0: 8293 a4bd 525f bfbd 356e d4bc 5734 073e
000003b0: 1073 b4bb 838a d93d b248 033e 754d 87bc
000003c0: 33c8 ae3d 97a1 a23d bddb 633c bce5 a53d
000003d0: 17d4 853d 5926 e63c 2fd3 463c 29ff aebd
000003e0: 43a9 19bd 7a63 6dbd 908a ccbd 7bc4 7e3c
000003f0: 0115 1a3e b8f3 12be e106 683e 0045 69bd

network_critic.2.bias f4 [70]
0.09429339 -0.12964562 0.07129108 0.078585215 -0.10911512 -0.0688424 -0.13265309 0.05118312
-0.035432156 -0.08215671 -0.06780954 -0.039238866 0.08476598 0.034844704 -0.08155498 0.06553985
0.054811765 -0.12578037 0.053331234 -0.029092547 0.10274217 -0.0047773677 0.0016464759 -0.000878328
-0.028017197 0.0906642 -0.13814121 -0.033189427 -0.09908189 -0.062859766 0.037183505 0.07993149
0.09826082 -0.036676094 -0.10523417 -0.047566976 0.05777116 0.015297087 0.04442577 0.10588478
0.12568042 0.05393039 -0.014581846 -0.08919899 0.07197556 0.025731497 0.026391087 0.01862001
-0.06505668 0.10497787 -0.13889615 -0.03562379 0.034508403 -0.026524885 0.04476837 -0.08087082
-0.04444276 0.010794127 0.04601277 -0.080290765 -0.04986423 -0.014856388 -0.10640615 -0.051771484
0.0019467718 -0.033887513 0.13706161 0.103669226 -0.1257418 0.0768942
00000000: e51c c13d d2c1 04be 0f01 923d 49f1 a03d
00000010: bf77 dfbd 3ffd 8cbd 36d6 07be 64a5 513d
00000020: 4f21 11bd c741 a8bd badf 8abd efb8 20bd
00000030: c999 ad3d 52b9 0e3d 4c06 a7bd c239 863d
00000040: 4d82 603d 92cc 00be da71 5a3d 7e53 eebc
00000050: 7d6a d23d 778b 9cbb 90ce d73a 983f 66ba
00000060: 5284 e5bc 27ae b93d e474 0dbe a3f1 07bd
00000070: 72eb cabd 9fbc 80bd bb4d 183d 1fb3 a33d
00000080: f83c c93d ac39 16bd 0385 d7bd 97d5 42bd
00000090: 74a1 6c3d a2a0 7a3c ccf7 353d 1fda d83d
000000a0: 5eb2 003e 1de6 5c3d b2e8 6ebc f6ad b6bd
000000b0: ec67 933d dcca d23c 1f32 d83c fe88 983c
000000c0: 703c 85bd a3fe d63d cb3a 0ebe 40ea 11bd
000000d0: af58 0d3d b74a d9bc 0a5f 373d 9a9f a5bd
000000e0: 9d09 36bd dad9 303c e377 3c3d 7c6f a4bd
000000f0: 6f3e 4cbd 3568 73bc 78eb d9bd 560e 54bd
00000100: d22a ff3a a2cd 0abd e159 0c3e 8850 d43d
00000110: 75c2 00be b57a 9d3d

network_critic.4.weight f4 [1, 70]
-0.06293835 0.24595743 0.02943169 0.14833309 -0.10447168 -0.16587116 0.12821524 -0.3258222
0.07649361 -0.098253414 -0.0828449 -0.102507204 -0.029954795 -0.026253397 0.19769448 -0.12937121
0.31772476 -0.12891878 -0.1036605 -0.3779486 -0.304193 0.08511362 0.09519287 0.0070371456
-0.3575678 0.115988 0.448833 0.13046145 1.1602412 0.060153596 0.08834213 0.09341308
-0.13132441 -0.1008205 0.15365222 0.07999071 -0.4629947 0.10359628 0.38667366 0.13307102
0.18498446 0.13240422 0.48980075 -0.11259949 0.4405193 -0.16205041 0.123751886 0.10497052
-0.25647572 0.1302527 -0.099155016 0.14234577 -0.10758801 0.096205324 -0.13806637 0.16699834
-0.16241114 0.33172488 -0.2319816 0.036513563 -0.059055787 -0.4656649 -0.12530684 -0.15172292
-0.580689 -0.11075267 0.3663344 -0.55928993 -0.34628305 -0.67418003
00000000: d2e5 80bd 44dc 7b3e ba1a f13c a1e4 173e
00000010: 40f5 d5bd 21da 29be db4a 033e 2bd2 a6be
00000020: afa8 9c3d 1639 c9bd 96aa a9bd 4cef d1bd
00000030: c263 f5bc 5d11 d7bc 6c70 4a3e e379 04be
00000040: d2ac a23e 4903 04be f54b d4bd 7b82 c1be
00000050: 2fbf 9bbe 0d50 ae3d 7bf4 c23d db97 e63b
00000060: 2013 b7be 1e8b ed3d 70cd e53e b097 053e
00000070: c982 943f 9e63 763d b8ec b43d 5b4f bf3d
00000080: e879 06be fa7a cebd 0257 1d3e 2bd2 a33d
00000090: a40d edbe 492a d43d 17fa c53e c543 083e
000000a0: 916c 3d3e f994 073e 2ac7 fa3e 909a e6bd
000000b0: bf8b e13e 8bf0 25be a171 fd3d c9fa d63d
000000c0: c950 83be f760 053e c911 cbbd 17c3 113e
000000d0: 1a57 dcbd 4c07 c53d 4561 0dbe 9d01 2b3e
000000e0: 1b4f 26be d8d7 a93e 968c 6dbe 3f8f 153d
000000f0: 7be4 71bd a16b eebe 7050 00be 415d 1bbe
00000100: 09a8 14bf 4cd2 e2bd 2f90 bb3e a02d 0fbf
00000110: 034c b1be 1097 2cbf
