checkpoint/ddpg-actor_mlp_actor-lr:0.0001_critic-lr:0.0002_gamma:0.99_tau:0.03.pth (torch, 63063 bytes, 6 tensors)

network_actor.0.weight f4 [70, 140]
0	0xbd57e09c	-0.05270444
1	0xbbfb4178	-0.0076677166
2	0xbd9c776a	-0.07639964
3	0xbc27768c	-0.010221135
4	0xbd509d53	-0.050931286
5	0xbccaecd2	-0.024771128
6	0x3d50e64f	0.05100089
7	0x3da8e28b	0.08246335
8	0xbcf2b87f	-0.02962899
9	0x3da58a7c	0.080830544
10	0xbda1526d	-0.078770496
11	0x3d353e44	0.044248834
12	0x3d649ace	0.055811696
13	0x3d36ae7c	0.044599995
14	0xbd545603	-0.05183984
15	0xbd0fff22	-0.035155423
16	0xbd809516	-0.06278436
17	0xbd4045a2	-0.046941407
18	0x3c222bb5	0.009898116
19	0x3dae5b3e	0.08513497
20	0xbc2f572f	-0.0107019385
21	0xbd869517	-0.065714054
22	0x3d2449aa	0.040109314
23	0xbb16c2e2	-0.0023004343
24	0x3bb389d0	0.005479075
25	0x3ce8d300	0.028420925
26	0xbc2d75aa	-0.010587135
27	0x3d7ca932	0.061684795
28	0x3b57ac18	0.0032908972
29	0xbc994470	-0.018709391
30	0x3d6d7f53	0.057982754
31	0xbb904b8b	-0.0044035367
32	0x3b00b5a4	0.0019639516
33	0xbbdf9165	-0.0068227523
34	0xbd214b8c	-0.039378688
35	0xbd41061d	-0.04712497
36	0x3d20916c	0.039201185
37	0x3d41b8c6	0.047295354
38	0x3d8feb49	0.07027299
39	0xbd6caf7c	-0.057784542
40	0x3ccf78dd	0.025326187
41	0x3d479144	0.04872252
42	0xbd74218e	-0.059602313
43	0x3b7ff54b	0.0039056118
44	0xbd32af38	-0.043624133
45	0xbd389ff8	-0.045074433
46	0xbd77af4f	-0.06046992
47	0xbd732fd4	-0.059371784
48	0xbc3a48ff	-0.011369943
49	0xbb9f29ac	-0.0048572626
50	0xbb841762	-0.0040311078
51	0xbd0c1903	-0.03420354
52	0x3cead6b2	0.028666828
53	0xbd0b26ad	-0.03397243
54	0x3ce39d18	0.02778487
55	0x3d7ba431	0.061435882
56	0xbd98720d	-0.074436285
57	0x3b84a22a	0.004047652
58	0x3cef6c2d	0.029226387
59	0x3d096250	0.033541024
60	0xbd4ffec3	-0.05078007
61	0x3bc6464c	0.0060508605
62	0xbd58a8a6	-0.05289521
63	0x3cb28314	0.021791019
64	0xbbec6963	-0.0072147115
65	0xbd215b1d	-0.039393533
66	0x3c9b9a5a	0.018994499
67	0x3d325b1a	0.043543912
68	0xbcd04026	-0.025421213
69	0x3d16083f	0.036628958
70	0xbcf0c0b8	-0.02938877
71	0x3cd54fd5	0.026039043
72	0xbda810d6	-0.08206336
73	0x3d38d41f	0.04512417
74	0x3cd5b0ba	0.026085246
75	0x3da720aa	0.08160527
76	0x3d5659ab	0.052331608
77	0x3c1c72e7	0.009548879
78	0xb94238ce	-0.00018522443
79	0xbd8f1670	-0.069867015
80	0x3cc3a640	0.023882985
81	0xbc27ccfd	-0.010241744
82	0xbc391071	-0.011295424
83	0xbca4697f	-0.020069836
84	0xbd92a442	-0.07160236
85	0x3db47c12	0.08812727
86	0x3d367515	0.044545252
87	0x3ced16ba	0.028941501
88	0xbc204d3c	-0.009784039
89	0xbc9f8afc	-0.019475453
90	0x3da0284a	0.078201845
91	0x3d751818	0.05983743
92	0xbcdc1dbc	-0.026869647
93	0x3d812fb3	0.06307926
94	0xbc369e0b	-0.011146079
95	0xbcccad1a	-0.024984885
96	0x3b9ea8c8	0.0048418976
97	0x3d2161f9	0.039400075
98	0xbd853f93	-0.065062664
99	0xbb45fd3e	-0.0030210759
100	0x3d489111	0.04896647
101	0xbc9a29a3	-0.018818682
102	0x3d886a11	0.066608556
103	0xbd885017	-0.06655901
104	0xbba11e3a	-0.0049169334
105	0xbd8c45de	-0.068492636
106	0xbd9ea5e4	-0.07746485
107	0xbb2a4473	-0.002598074
108	0x3d878e5a	0.06618948
109	0xbd8dc707	-0.06922727
110	0x3daecfa9	0.08535702
111	0xbd80a6ba	-0.062818006
112	0x3d92fea9	0.07177479
113	0xbd0e5d5e	-0.03475701
114	0xbc48956a	-0.012242654
115	0xbd8bca98	-0.06825751
116	0x3da45a77	0.08025067
117	0xbd91ccb0	-0.07119119
118	0x3bcaae54	0.0061853323
119	0xbd2e0116	-0.042481504
120	0xbd0d5069	-0.034500513
121	0xbd983091	-0.07431138
122	0x3dae5e3e	0.08514069
123	0xbd96e6d2	-0.07368244
124	0x3d772446	0.060337327
125	0xbcc03977	-0.023464901
126	0x3db0688d	0.086136915
127	0xbc970f3f	-0.018439887
128	0xbcf409ee	-0.029789891
129	0x3d83b988	0.06431872
130	0x3d952186	0.07281785
131	0x3db31d48	0.08745819
132	0xbcbbce00	-0.022925377
133	0x3d0f0b40	0.03492284
134	0xbd84b857	-0.064804725
135	0xbd7f8889	-0.06238607
136	0xbcc9fbc4	-0.024656184
137	0xbc18d638	-0.0093284175
138	0x3daf7b4e	0.085684404
139	0x3d4ad781	0.049521927
140	0xbbe69905	-0.0070372843
141	0xbc586be0	-0.013209313
142	0xbd9243b8	-0.071418226
143	0x3d0581f3	0.032594632
144	0x3d07b5ad	0.033132244
145	0x3da38d73	0.07985964
146	0x3d77cb06	0.060496353
147	0x3c94f78f	0.018184451
148	0x32ae03f6	2.0258067e-08
149	0xb9795763	-0.00023779045
150	0x3da40e18	0.08010501
151	0x3d107083	0.03526355
152	0x3cbf9639	0.023387061
153	0xbc949477	-0.0181372
154	0xbc5ec1b9	-0.013595992
155	0xbcb3e6fd	-0.02196073
156	0xbcc713fc	-0.024301521
157	0xbb4aa504	-0.003092111
158	0x3cc44c29	0.023962097
159	0xbd24ddd3	-0.04025061
160	0x3d94f869	0.07273943
161	0x3c44f4fa	0.012021298
162	0x3db7ced5	0.08974997
163	0x3d9b7083	0.07589819
164	0x3d346cef	0.0440492
165	0xbc3d53c9	-0.0115556205
166	0xbc8815bc	-0.016611926
167	0xbd8ba77c	-0.068190545
168	0xbd94c12c	-0.07263407
169	0x3d825b40	0.06365061
170	0xbc7d7bf6	-0.015471449
171	0xbc495af4	-0.012289751
172	0xbc56b45b	-0.0131045235
173	0xbd956093	-0.07293811
174	0x3d91cada	0.07118769
175	0xbd80d474	-0.06290522
176	0xbd477ede	-0.048704974
177	0x3d855571	0.06510437
178	0xbac6ebbc	-0.0015176455
179	0x3d8a7300	0.06760216
180	0x3d77057a	0.060307957
181	0x3d094d91	0.03352124
182	0xbbc1a3c7	-0.0059094164
183	0x3ce6bc8d	0.02816608
184	0x3b50dbd7	0.0031869316
185	0x3ca0df77	0.019637806
186	0xbd86e8dd	-0.06587384
187	0xbd2b7b81	-0.04186583
188	0x3cba01e2	0.022705976
189	0x3d109f86	0.035308383
190	0x3d77086b	0.060310762
191	0xbd3f5087	-0.046707656
192	0x3d308720	0.043097615
193	0x3cf5f369	0.030023294
194	0x3d16130c	0.03663926
195	0x3d28f698	0.041250795
196	0x3d270f4d	0.040786076
197	0x3dadd099	0.084870525
198	0x3d81d5f5	0.06339637
199	0x3d01d489	0.03169683
200	0x3d11e2e2	0.035616763
201	0x3d51a423	0.051181924
202	0x3aa7c46a	0.0012799625
203	0x3cddeb86	0.027089845
204	0xbc1d1bef	-0.009589179
205	0x3d8bbdb7	0.068232946
206	0x3da69433	0.081337355
207	0x3cb7a0f5	0.022415617
208	0x3d74855e	0.0596975
209	0xbcd68ccf	-0.02619019
210	0xbd048b69	-0.032359514
211	0xbc8ced49	-0.01720299
212	0xbd9651dc	-0.07339832
213	0x3be798e1	0.007067785
214	0x3cc634e9	0.024195151
215	0xbd797bc4	-0.060909048
216	0x3d136226	0.035982274
217	0xbd7d7e77	-0.061888184
218	0xbd1332d2	-0.035937138
219	0x3b28c796	0.0025753728
220	0x3d0bc5a0	0.034124017
221	0xbc0d8572	-0.008637773
222	0xbd8eb9fc	-0.069690675
223	0x3d989f7d	0.07452295
224	0x3d5cf5b4	0.05394526
225	0x3d9987fe	0.074966416
226	0xbd7e17cd	-0.062034417
227	0xbc9d1d31	-0.019178959
228	0xbd0e1b46	-0.03469398
229	0x3cf479eb	0.029843291
230	0xbd6ca063	-0.057770144
231	0x3d37cb1b	0.04487143
232	0xbcbffe5f	-0.023436723
233	0x3d790dcb	0.06080417
234	0xbc841bca	-0.016126532
235	0x3d0607d2	0.0327223
236	0x3cbccce0	0.02304691
237	0xbd2b4db6	-0.041822158
238	0x3db2f0b9	0.087373205
239	0xbd89ccc3	-0.06728508
240	0xba8a8552	-0.0010568297
241	0x3c4f83a4	0.012665663
242	0xbd8026f7	-0.06257432
243	0xbd903db6	-0.070430204
244	0xbd76cf9b	-0.06025658
245	0xbd498264	-0.049196616
246	0xbd8f6481	-0.070015915
247	0x3d53d640	0.051717997
248	0xbd005ace	-0.031336598
249	0x3cc4ec04	0.024038322
250	0xbd590c73	-0.052990388
251	0x3d8f96b5	0.07011167
252	0xbc8c43db	-0.0171222
253	0xbd0baa37	-0.034097876
254	0xbd27755f	-0.04088342
255	0xbd673676	-0.056448422

network_actor.0.bias f4 [70]
0	0xbd8f233d	-0.06989143
1	0x3c52102c	0.0128212385
2	0x3d5ae5b5	0.053441722
3	0x3cca2d30	0.02467975
4	0x3d8bda53	0.068287514
5	0x3d34db6c	0.04415457
6	0xbd6e0353	-0.05810864
7	0xbd866cdc	-0.06563732
8	0xbcd3372e	-0.025783148
9	0x3dd62760	0.10456729
10	0xbc3257bf	-0.010885178
11	0xbd4a7c3f	-0.049434897
12	0x3a1c9abc	0.0005973985
13	0x3d921224	0.07132366
14	0xbda4325a	-0.08017416
15	0x3d2bc11d	0.041932214
16	0xbc8cb872	-0.017177794
17	0xbd76f89f	-0.060295697
18	0xbc8bf7a7	-0.017085863
19	0xbd74ad15	-0.059735376
20	0x3d1626b4	0.036658004
21	0x3d7b6cdd	0.061383117
22	0xbc8edc04	-0.017438896
23	0xbbf98149	-0.007614289
24	0xbd619c82	-0.055080898
25	0xbd73207e	-0.05935716
26	0xbcb18441	-0.021669509
27	0xbd6d5c32	-0.057949252
28	0x3d5ab5af	0.053395923
29	0xbd10a8ad	-0.03531711
30	0x3c88eab7	0.016713483
31	0xbd8d428e	-0.0689746
32	0xbd98f273	-0.074681185
33	0xbdb3452d	-0.087534286
34	0x3ca3b4f0	0.019983739
35	0x3c52e980	0.012873054
36	0x3d0d1455	0.03444322
37	0xbce5c5c8	-0.028048411
38	0xbd8d8f97	-0.06912153
39	0x3d968686	0.07349877
40	0x3cef0963	0.02917928
41	0x3d40a560	0.047032714
42	0xbcd48ac9	-0.025945084
43	0x3c0eac30	0.008708045
44	0x3d76b231	0.06022853
45	0xbd2180d3	-0.039429497
46	0xbd4717f7	-0.04860684
47	0x3d65c01e	0.05609142
48	0xbbdd24bc	-0.006748764
49	0xbd2984bf	-0.041386362
50	0x3cdb765b	0.026789835
51	0x3d6c6fac	0.057723686
52	0xbd2bfe7d	-0.041990746
53	0x3d0ad251	0.03389198
54	0x3b2ca660	0.0026344284
55	0x3c7a5ae7	0.015280462
56	0xbd318bde	-0.04334628
57	0x3d968a64	0.07350615
58	0x3d8662d2	0.06561817
59	0xbd83cda0	-0.06435704
60	0xbdb88fb2	-0.09011783
61	0xbdac9373	-0.08426561
62	0xbc94db5d	-0.018171007
63	0x3d0b0ef6	0.033949815
64	0xbd80498d	-0.06264029
65	0x3d3e7e59	0.046507213
66	0x3da74827	0.08168059
67	0x3c367196	0.011135479
68	0xbd4c10b5	-0.04982062
69	0xbd9c73e2	-0.076392904

network_actor.2.weight f4 [70, 70]
0	0x3dcfda47	0.10149055
1	0xbd92200b	-0.07135018
2	0xbd574238	-0.052553385
3	0xbd1ce634	-0.038305476
4	0x3ddcb295	0.10776249
5	0x3db75c82	0.08953191
6	0x3d05f671	0.032705728
7	0x3c9e07ea	0.019290883
8	0x3d01747c	0.03160523
9	0x3d3dca03	0.04633523
10	0xbc89b89d	-0.016811663
11	0x3ca28352	0.019838009
12	0xbce65561	-0.028116884
13	0xbda631fb	-0.08115002
14	0x3cc6d069	0.0242693
15	0xbd912565	-0.070872106
16	0x3c4885f5	0.012238969
17	0x3d99c935	0.0750908
18	0xbdaed40c	-0.085365385
19	0xbd57bb35	-0.05266877
20	0x3cd305f9	0.025759684
21	0x3d4daba3	0.050212514
22	0xbd3b5ca2	-0.04574264
23	0xbdddcc0b	-0.10829934
24	0x3d98dc13	0.07463851
25	0x3dd575ee	0.10422884
26	0x3d533a75	0.05156942
27	0x3bb8c031	0.0056381454
28	0x3d254c4f	0.040355977
29	0xbddca126	-0.10772924
30	0xbd650607	-0.05591395
31	0xbdc23250	-0.094822526
32	0xbdde91fd	-0.10867689
33	0xbd405433	-0.0469553
34	0xbde20731	-0.11036528
35	0x3c7a3af4	0.015272845
36	0xbd6479c8	-0.055780202
37	0x3dc9eaf3	0.09859266
38	0x3d6f468b	0.058416884
39	0xbd87d107	-0.06631666
40	0x3d8b2f08	0.0679608
41	0x3dcfc98a	0.101458624
42	0xbdb0dcfb	-0.08635899
43	0x3d04ba18	0.032404035
44	0x3b27037b	0.0025484252
45	0x3ce2a7d0	0.02766791
46	0xbdf29c9e	-0.118462786
47	0x3dcd4c12	0.10024275
48	0x3c5d9967	0.0135253435
49	0x3c12d2a8	0.008961357
50	0xbc4a65ba	-0.012353355
51	0x3dc2bc75	0.095086016
52	0x3d08cb56	0.03339704
53	0xbce9cc4e	-0.028539803
54	0xbd64486d	-0.055733133
55	0x3c5622ec	0.013069849
56	0x3b778e18	0.0037773903
57	0xbd975d71	-0.073908694
58	0xbd2da776	-0.04239603
59	0xbd8fae65	-0.07015685
60	0xbc89ee17	-0.016837163
61	0x3dad8c32	0.08474006
62	0xbdf69e93	-0.120419644
63	0xbd8314a2	-0.0640042
64	0xbde2f917	-0.11082666
65	0x3d99b1b9	0.07504601
66	0x3d4fe7be	0.050758116
67	0xbdce25b0	-0.10065782
68	0xbcb4b2ba	-0.02205788
69	0x383bfbab	4.481866e-05
70	0x3d47989f	0.048729535
71	0xbd9f1450	-0.07767546
72	0xbd219712	-0.039450713
73	0x3caf1cc3	0.02137602
74	0xbdbd4f6f	-0.092436664
75	0x3d8879fe	0.06663893
76	0xbc9b98b5	-0.018993715
77	0x3b0a7e17	0.0021132284
78	0xb88875f3	-6.506955e-05
79	0x3dffd5e4	0.12491968
80	0x3d23e1fc	0.040010437
81	0x3d47b9f8	0.048761338
82	0xbcb9278a	-0.022601862
83	0x3d303e59	0.04302821
84	0xbc393898	-0.011304997
85	0xbd81d967	-0.06340294
86	0xbd7c5224	-0.061601773
87	0x3da68674	0.08131114
88	0x3c8eb86a	0.01742192
89	0xbba94c68	-0.005166579
90	0x3caae8a9	0.020862894
91	0xbdd0156c	-0.10160336
92	0x3dd6f43f	0.10495805
93	0xbc3fec59	-0.0117140645
94	0x3dd20f27	0.10256796
95	0x3dbf7ad8	0.093496025
96	0xbd6bf2c2	-0.05760456
97	0xbca27e10	-0.019835502
98	0x3d876be8	0.06612378
99	0xbd87eb09	-0.06636626
100	0xbcff35f7	-0.031153662
101	0xbd5dfacf	-0.054194268
102	0x3d5ce442	0.05392862
103	0xbcb74e98	-0.022376344
104	0xbd9ab29f	-0.075536005
105	0x3d66f5cb	0.05638675
106	0xbcda82e4	-0.026673742
107	0xbd7e2065	-0.062042613
108	0x3ca9efa6	0.020744156
109	0x3d4b7144	0.049668565
110	0x3dacba74	0.084340006
111	0x3db86f5d	0.09005616
112	0xbac2330c	-0.0014816239
113	0xbcf7d05c	-0.03025072
114	0x3d6b1ab5	0.057398517
115	0x3d0ea097	0.03482112
116	0x3c847db3	0.01617322
117	0x3d3df408	0.046375304
118	0x3dede3d8	0.11615723
119	0xbd8261f7	-0.063663416
120	0x3d824af6	0.06361954
121	0x3cffbca5	0.031217882
122	0xbc2ff020	-0.010738403
123	0x3b70b01c	0.0036726063
124	0xbd711794	-0.058860376
125	0xbd33acb5	-0.043865878
126	0x3dba233c	0.09088752
127	0xbdd40bb0	-0.10353792
128	0x3dd7be7c	0.10534379
129	0xbdb2f502	-0.08738138
130	0x3db7929c	0.089635104
131	0xbd8d0129	-0.06884987
132	0x3d1c7432	0.03819675
133	0xbdd2843a	-0.102791265
134	0xbd85f12f	-0.06540143
135	0x3ca1a138	0.019730195
136	0x3df1a546	0.117991015
137	0xbd145a27	-0.03621879
138	0xbd75881e	-0.059944265
139	0x3cb53f92	0.02212504
140	0xbdab2ade	-0.08357786
141	0x3d9cf5c5	0.07664064
142	0x3dc6af1c	0.09701368
143	0x3dbcb55d	0.0921428
144	0xbd48d398	-0.049029917
145	0x3cd18b84	0.025579222
146	0x3cf6bb13	0.0301185
147	0xbcdbcda9	-0.026831465
148	0x3dcd622b	0.1002849
149	0xbd1c84ce	-0.03821259
150	0x3cef118d	0.029183174
151	0xbdcb0c80	-0.099144936
152	0xbdd798b3	-0.10527172
153	0x3da45e04	0.080257446
154	0xbd4dd5b2	-0.050252624
155	0x3d7124c1	0.058872942
156	0xbc991430	-0.018686384
157	0x3da37025	0.07980374
158	0x3de65448	0.11246544
159	0x3d646ffd	0.055770863
160	0x3dbff423	0.09372737
161	0x3d864d64	0.0655773
162	0x3c78ca17	0.015184901
163	0x3d313d82	0.04327155
164	0x3d0a845b	0.03381763
165	0x3dac52b8	0.08414215
166	0xbd39e9cd	-0.045388985
167	0x3d928fcb	0.071563326
168	0x3cb26b37	0.02177964
169	0x3db7de1f	0.08977913
170	0xbd8b7f60	-0.06811404
171	0x3d7f5011	0.062332217
172	0x3d31841d	0.043338884
173	0xbd9776a3	-0.07395675
174	0xbc9bf594	-0.019038
175	0x3ca9e0c3	0.020737058
176	0xbc24635e	-0.010033457
177	0xbc92a608	-0.017901435
178	0xbd8065a3	-0.06269386
179	0xbdc10a7b	-0.09425827
180	0xbd8ac2b0	-0.06775415
181	0x3db8444d	0.08997402
182	0x3c0388b4	0.008028198
183	0x3dbbc3a2	0.091681734
184	0x3d064ab1	0.032786075
185	0x3e010b69	0.12602009
186	0x3ceb4e84	0.028723963
187	0xbdcca475	-0.09992305
188	0x3dc55272	0.09634866
189	0x3d9fe2ef	0.07806956
190	0xbd4dd5fc	-0.0502529
191	0xbddc4af6	-0.10756485
192	0xbd2d92c1	-0.042376284
193	0x3dbed6de	0.093183264
194	0xbd2f001d	-0.042724717
195	0x3db971aa	0.09054883
196	0xbcd787bb	-0.026309839
197	0xbd04c1c8	-0.032411367
198	0xbd1ab3dd	-0.037769187
199	0xbb0b81f6	-0.002128718
200	0xbd634d5e	-0.055493705
201	0xbcf0d97d	-0.029400581
202	0xbddef936	-0.10887377
203	0xbc5088d3	-0.012727934
204	0xbda89a0f	-0.08232509
205	0xbc216d1b	-0.009852673
206	0x3ddfb45f	0.10923075
207	0xbcd37dab	-0.02581676
208	0xbd43f108	-0.047837287
209	0x3d95fcb6	0.073235914
210	0xbdad3fd1	-0.08459438
211	0xbcc4c97e	-0.02402186
212	0x3c8d94e0	0.017282903
213	0x3dc67c49	0.09691674
214	0x3cd9cf72	0.026588175
215	0x3988bc26	0.00026080123
216	0x3d41c9fe	0.047311775
217	0x3d2b984a	0.04189328
218	0x3dcaba94	0.09898868
219	0x3d382042	0.04495264
220	0xbd71eda8	-0.059064537
221	0x3d68f305	0.056872386
222	0x3ccd2c06	0.025045406
223	0x3ce91c93	0.028456008
224	0xbd0512c3	-0.032488596
225	0xbde306e6	-0.110853
226	0xbda3f7e4	-0.08006266
227	0x3d831713	0.064008854
228	0x3dd548ee	0.10414301
229	0xbdd67acc	-0.104726404
230	0x3db0bfb6	0.08630316
231	0xbd953fa5	-0.0728753
232	0xbd853a1d	-0.06505225
233	0xbdb0d06f	-0.086335056
234	0x3d1f15c0	0.0388391
235	0x3de02803	0.10945132
236	0xbd86c384	-0.065802604
237	0x3cdc8b25	0.026921818
238	0x3dc90cdd	0.098169066
239	0xbd8d288d	-0.068925
240	0x3dee04be	0.11621998
241	0xbd97eb93	-0.07417979
242	0x3db4cb24	0.088278085
243	0xbd02de49	-0.03195027
244	0xbdc79330	-0.09744871
245	0xbca47184	-0.02007366
246	0xbced93eb	-0.029001197
247	0xbd60b5f8	-0.05486104
248	0x3de7b030	0.11312902
249	0xbcfb1dd4	-0.030653872
250	0xbd9140e6	-0.070924565
251	0x3de3e188	0.11127001
252	0x3c97e45b	0.018541506
253	0x3c036186	0.008018857
254	0x3dd0b30e	0.10190402
255	0xbd71583e	-0.058922045

network_actor.2.bias f4 [70]
0	0xbb86ab98	-0.004109811
1	0x3d043104	0.032273307
2	0xbd5eb91b	-0.05437575
3	0xbbe48f1a	-0.006975067
4	0xbd7e9480	-0.06215334
5	0xbd8aafd6	-0.06771819
6	0xbd8830c6	-0.06649928
7	0x3dde933e	0.10867928
8	0xbd7922d3	-0.060824227
9	0x3d23694e	0.03989535
10	0x3cc3be61	0.02389449
11	0x3daf21c0	0.08551359
12	0xbd996e0b	-0.07491692
13	0x3dd693d3	0.10477414
14	0x3d88e472	0.066841975
15	0xbdec0c8c	-0.115258306
16	0x3deff791	0.117171414
17	0xbdc724f3	-0.097238444
18	0xbd9368f7	-0.07197755
19	0xbd47cff2	-0.048782296
20	0x3d660f74	0.05616708
21	0xbc2cdbd7	-0.010550461
22	0x3b41f1c1	0.002959356
23	0x3ddb8307	0.10718351
24	0xbd00c434	-0.031437114
25	0xbd432fbf	-0.047652956
26	0x3d704faa	0.058669724
27	0x3c20091d	0.009767798
28	0x3d44c354	0.048037842
29	0xbdec1de0	-0.11529136
30	0xbd88a47e	-0.066719994
31	0x3dd9e4ad	0.106393196
32	0xbde39c21	-0.111137636
33	0x3da8ba7b	0.08238693
34	0xbd9de70b	-0.077100836
35	0x3d3d9798	0.04628715
36	0x3d97e170	0.07416046
37	0xbc8f7597	-0.017512126
38	0xbd284095	-0.041077215
39	0xbcc459f3	-0.023968672
40	0xbda75f10	-0.081724286
41	0x3d959413	0.073036335
42	0xbc0973fb	-0.008389468
43	0x3c648fdb	0.013950313
44	0x3c3f2eb8	0.011668853
45	0x3d8680bb	0.06567522
46	0x3d36f4de	0.044667117
47	0x3c8ae2a9	0.016953783
48	0x3dc8dad9	0.09807367
49	0xbdcae094	-0.09906116
50	0xbd96c3ce	-0.073615655
51	0x3c4ae9fd	0.012384889
52	0x3bec7d14	0.007217059
53	0xbd442edf	-0.047896262
54	0xbd09c7e0	-0.03363788
55	0xbbd4bce7	-0.0064922455
56	0xbdc54d5b	-0.09633895
57	0xbd1eb19d	-0.038743604
58	0xbdc1ca93	-0.09462466
59	0xbc67cbbd	-0.014147696
60	0xbdc17370	-0.09445846
61	0xbc094bb7	-0.008379868
62	0xbc564a7e	-0.013079284
63	0x3db081ab	0.08618482
64	0x3d86b9b1	0.065783866
65	0x3dc946ee	0.09827982
66	0xbd9dd9ef	-0.07707583
67	0xb99064e6	-0.00027540996
68	0xbca00f0e	-0.019538429
69	0x3d9b9326	0.07596426

network_actor.4.weight f4 [5, 70]
0	0x3d526157	0.05136236
1	0xbd514e09	-0.05109981
2	0xbd407a14	-0.046991423
3	0xbc8ae75b	-0.016956022
4	0xbd7cf0b2	-0.061752982
5	0xbc17576d	-0.0092371525
6	0xbd139998	-0.03603515
7	0x3d0b49f8	0.03400609
8	0xbc95bd51	-0.01827875
9	0x3c9e0d5e	0.019293483
10	0x3ae50f5a	0.0017475889
11	0xbdcc0ac8	-0.09962994
12	0x3bf427b8	0.007451024
13	0x3db1d472	0.08683099
14	0xbc5e183d	-0.013555584
15	0xbd93039b	-0.07178422
16	0xbd8f5b8d	-0.06999884
17	0x3deb352a	0.114847496
18	0xbd08157b	-0.03322361
19	0xbd8513b5	-0.064978994
20	0x3d57905b	0.052627902
21	0xbdae6494	-0.085152775
22	0x3db16040	0.08660936
23	0x3d4647ae	0.048408203
24	0xbd020c32	-0.03174991
25	0x3d179e7d	0.03701638
26	0xbd3c6a96	-0.046000086
27	0xbe1f6ae3	-0.15568118
28	0x3cbab381	0.022790672
29	0x3d22c5d2	0.039739437
30	0xbd302721	-0.043006066
31	0x3d0509f4	0.032480195
32	0x3d9f5565	0.077799596
33	0x3ba5cea1	0.0050600325
34	0xbdf13723	-0.117780946
35	0xbd7f6668	-0.06235352
36	0x3d95098f	0.07277214
37	0xbc30e702	-0.010797264
38	0xbdacc49f	-0.0843594
39	0x3d80d768	0.062910855
40	0xbdb8b964	-0.090197355
41	0xbd090556	-0.033452354
42	0x3d81274f	0.06306326
43	0xbd55e3e3	-0.052219283
44	0xbcda5928	-0.026653841
45	0x3c729436	0.014805844
46	0x3ddac68f	0.10682403
47	0xbc1eac71	-0.009684668
48	0x3dd03bc5	0.1016765
49	0x3d59818d	0.053102065
50	0xbdb70f66	-0.08938484
51	0xbdf10573	-0.117686175
52	0xbd1aca1e	-0.03779041
53	0xbd346aa1	-0.044047
54	0xbcf9225a	-0.030411888
55	0xbd9138ce	-0.07090913
56	0xbd592681	-0.053015236
57	0x3d710846	0.05884578
58	0x3d7fcd58	0.06245169
59	0x3d08c0c9	0.03338698
60	0x3dad3154	0.08456674
61	0x3d529bf4	0.05141826
62	0xbd932901	-0.07185555
63	0xbd840bd0	-0.064475656
64	0xbca70ee0	-0.020392835
65	0x3c4dfdac	0.012572687
66	0xbcfcafc5	-0.030845532
67	0x3d147bd6	0.03625091
68	0xbd575101	-0.052567486
69	0x3d4ba95d	0.049722064
70	0x3de2ce1e	0.1107447
71	0xbd2ffb03	-0.042963993
72	0xbd1d97e5	-0.038474936
73	0x3d8fd1f6	0.07022469
74	0xbcbf82b8	-0.023377761
75	0xbd811a6e	-0.06303869
76	0x3a200a5d	0.000610506
77	0x3cadde4c	0.021224163
78	0xbb9c2dc4	-0.004766198
79	0x3d29ac0f	0.041423853
80	0xbd4b6fab	-0.04966704
81	0xbcf13228	-0.029442862
82	0x3c8cd641	0.017192008
83	0x3cde2312	0.027116332
84	0x3d35aa14	0.044351652
85	0x3db452bc	0.08804843
86	0xbd9d41cf	-0.076785676
87	0x3bea0e96	0.007142852
88	0xbd83d611	-0.06437314
89	0xbce1a8a3	-0.027546233
90	0x3ce1964a	0.027537484
91	0x3d6cc97b	0.057809334
92	0x3d18d963	0.03731669
93	0x3d808162	0.06274678
94	0xbcf291d5	-0.029610554
95	0x3db41b6b	0.08794292
96	0x3d9400f0	0.07226741
97	0xbc11445d	-0.008866397
98	0x3c08981e	0.008337049
99	0x3c60d773	0.013723242
100	0xbd60f51c	-0.054921255
101	0xbd490bea	-0.049083628
102	0xbd8ba63f	-0.06818818
103	0x3d0fc065	0.03509559
104	0xbd918999	-0.07106323
105	0xbc8abf7b	-0.016937008
106	0xbdc069b1	-0.09395159
107	0x3d604951	0.05475742
108	0xbdb5abc7	-0.088706546
109	0x3ddd5eed	0.10809121
110	0xbcc11291	-0.023568423
111	0x3d1d6dce	0.038434796
112	0xbdb7ac72	-0.08968438
113	0x3d0eae7f	0.03483438
114	0xbc0c682e	-0.00856976
115	0x3cd1f9ac	0.025631748
116	0x3c231764	0.009954307
117	0xbdd3b907	-0.103380255
118	0x3d496e63	0.04917754
119	0xbd4aea63	-0.049539935
120	0xbd042a3e	-0.032266848
121	0xbbc4be36	-0.00600412
122	0x3cbc049b	0.022951415
123	0xbbab2b39	-0.0052236584
124	0xbc0ddf3f	-0.008659183
125	0xbb9fc647	-0.0048759314
126	0xbc8deb1d	-0.017324025
127	0xbde2a9ec	-0.11067566
128	0x3c03404d	0.008010936
129	0xbd80b6a8	-0.06284839
130	0xbdbb3cfe	-0.09142493
131	0x3d148fde	0.036270015
132	0xbd0cd9b6	-0.034387313
133	0x3d95bc2c	0.073112816
134	0x3b37995a	0.0028014989
135	0xbdf0a130	-0.11749494
136	0x3bc45973	0.0059921085
137	0xbd516edd	-0.051131118
138	0x3cef55af	0.029215662
139	0x3ca16ab7	0.019704206
140	0xbc094f66	-0.0083807465
141	0x3cb63fcc	0.022247218
142	0xbdccae20	-0.09994149
143	0xbc2bc274	-0.010483373
144	0x3da90b93	0.08254161
145	0x3d916986	0.07100205
146	0x3d12bc6e	0.03582423
147	0xbd1f6507	-0.038914707
148	0xbdc9ac57	-0.09847324
149	0xbcf7b4b0	-0.030237526
150	0xbc805712	-0.015666518
151	0x3d94c957	0.07264965
152	0x3933bab2	0.0001714032
153	0x3c573e95	0.013137479
154	0xbd5e3c7d	-0.054256905
155	0x3d3bf03e	0.04588341
156	0xbcac1cf6	-0.021009903
157	0x3d843e7b	0.0645723
158	0xbda73882	-0.08165075
159	0x3dbc6121	0.09198213
160	0xbd809881	-0.06279088
161	0xbdad165e	-0.08451532
162	0x3d6a3d54	0.057187393
163	0x3da64568	0.08118707
164	0xbd8d71fa	-0.06906505
165	0x3ce9094a	0.028446812
166	0xbd0fccc8	-0.035107404
167	0x3dc4427f	0.095829956
168	0xbd6a8c29	-0.057262573
169	0xbdd4f909	-0.10399062
170	0xbc948101	-0.01812792
171	0x3ca5d82b	0.020244678
172	0xbbe8677e	-0.0070924154
173	0xbafed6b1	-0.0019442645
174	0x3dee2b38	0.11629337
175	0x3d3fcb3f	0.04682469
176	0xbdd70474	-0.10498896
177	0xbdcbd115	-0.099519886
178	0xbd881a35	-0.066456236
179	0x3d77f7ac	0.060538933
180	0xbca01e6b	-0.019545754
181	0x3d7ff84c	0.062492654
182	0xbd91525d	-0.07095788
183	0x3db51f94	0.08843914
184	0xbc86c63e	-0.016451951
185	0x3d89ba37	0.06724971
186	0x3dd7d2a1	0.10538221
187	0x3d9b558a	0.07584675
188	0xbdd7a3b2	-0.10529269
189	0xbdd1f651	-0.10252059
190	0x3db477a7	0.088118844
191	0xbd2365e4	-0.039892092
192	0x3cdf10a6	0.027229618
193	0xbc9c61e3	-0.019089645
194	0xbde02c44	-0.10945943
195	0xbd5f6b75	-0.05454584
196	0x3d8520a5	0.06500367
197	0x3de34ce6	0.110986516
198	0xbc62bc25	-0.013838802
199	0x3dd42773	0.10359087
200	0xbc9b84c6	-0.01898421
201	0xbcb500f1	-0.022095175
202	0x3c288437	0.010285429
203	0xbda77eac	-0.081784576
204	0xbc0baf8d	-0.008525741
205	0xbd436a1d	-0.04770862
206	0x3d1f3058	0.038864464
207	0xbcf6ccf1	-0.03012702
208	0x3b387a47	0.0028149055
209	0x3cd71fee	0.026260342
210	0xbc052ad0	-0.008127883
211	0xbd16581e	-0.03670513
212	0x3d15ae60	0.03654325
213	0x3dc00e9f	0.09377789
214	0x3dd95220	0.10611367
215	0x3dbcafac	0.09213194
216	0x3d10f3bd	0.035388697
217	0x3dc97a47	0.09837776
218	0x3cbdcb5a	0.023168255
219	0xbde96564	-0.11396292
220	0xbd49a836	-0.049232684
221	0x3dab145b	0.08353492
222	0x3d6eb89a	0.05828152
223	0xbb914728	-0.0044335313
224	0xbbd9254a	-0.0066267597
225	0xbcf46a50	-0.02983585
226	0x3b43267e	0.0029777582
227	0x3dc61cee	0.09673487
228	0xbd7b880a	-0.061409034
229	0xbddc8020	-0.107666254
230	0xbcc9a679	-0.024615513
231	0x3dbaa87b	0.09114166
232	0xbd39245f	-0.0452007
233	0xbdb649f2	-0.08900823
234	0x3c282fb0	0.010265276
235	0x3d94d519	0.07267208
236	0xbd2ce0ac	-0.04220645
237	0x3c1cbd35	0.009566595
238	0xbd9bf779	-0.07615561
239	0xbd8af526	-0.067850396
240	0x3d86b864	0.065781385
241	0x3dc0e971	0.094195254
242	0x3d8c829f	0.068608515
243	0x3dad7bcf	0.0847088
244	0xbde06b62	-0.10957982
245	0x3dac4e54	0.084133774
246	0xbd569ed7	-0.052397575
247	0xbd6fdf2f	-0.058562454
248	0x3d20ae35	0.039228637
249	0x3c5fc601	0.013658048
250	0x3de435ce	0.11143075
251	0xbd6c4ca8	-0.057690293
252	0xbd774ae7	-0.060374167
253	0xbde1a1e7	-0.110172085
254	0x3dd37917	0.103258304
255	0xbdf3732c	-0.11887202

network_actor.4.bias f4 [5]
0	0x3da01f04	0.07818416
1	0x3d62efbb	0.055404406
2	0xbdc40b6c	-0.09572491
3	0x3db4bedf	0.08825468
4	0x3cf0100c	0.029304527
