checkpoint/ddpg-actor_mlp_actor-lr:0.0001_critic-lr:0.0003_gamma:0.99_tau:0.05.pth (torch, 63063 bytes, 6 tensors)

network_actor.0.weight f4 [70, 140]
-0.03323458 -0.017002277 -0.007136027 0.0077437474 -0.05549725 0.06283191 0.09748871 0.07491692
-0.008638631 0.11535408 -0.033375874 -0.024358295 0.055534806 0.0189351 0.051272724 0.076344304
-0.009432537 0.000844155 0.030870033 0.042014483 -0.0048445435 0.03967643 -0.030011358 0.0873634
0.055550322 0.07703033 0.02772642 -0.0327509 -0.0039142026 0.0749431 -0.035896167 0.027899517
-0.053906806 0.049556356 0.045802977 0.02507178 0.02295701 -0.02846131 0.086194076 -0.057348423
0.011858438 -0.075957336 0.018954845 -0.046919707 0.06369473 -0.043720223 0.117949486 0.10382811
0.1025379 -0.08731679 -0.1257733 -0.008979282 -0.040525492 -0.059915647 0.070635475 0.026347967
-0.00010795079 0.08566052 0.028264172 0.012987996 0.09774006 0.09371098 -0.03592457 0.06626373
-0.0069986805 -0.034289833 0.089580655 0.060085054 -0.021644419 0.060610957 0.013341004 0.10833932
0.05558512 -0.03135878 0.117630795 0.08262293 0.03576698 0.06186377 -0.008964505 -0.028289428
-0.024604224 0.042902395 -0.03089869 0.071842045 -0.018981677 0.1448099 0.07885779 -0.01159637
-0.031981025 -0.050502226 0.040329993 0.1324117 -0.042779583 0.02152101 0.02401196 -0.0014162689
-0.06703882 -0.075732365 0.018093785 0.08804576 0.008780483 -0.03227587 0.11448013 0.06299212
0.018072613 -0.09652675 -0.05372922 -0.019843204 -0.030891176 0.036493544 0.0341647 0.05219985
0.034526043 0.12152807 0.02289512 -0.003993691 -0.028436389 0.07831829 0.037017263 0.054113828
0.06844986 0.022339074 0.008378437 0.031652022 -0.008244087 -0.08803197 0.05642429 0.11184941
0.02639889 -0.0026931618 0.01651904 -0.024939306 0.06429181 -0.07074904 -0.053005975 0.061185073
0.09430171 0.026916273 0.058385484 0.027732234 -0.10837626 0.035162155 -0.050606493 -0.08015666
-0.0863331 -0.027851423 -0.02914645 -0.118014336 -0.013268322 -0.0027715692 -0.008124709 -0.0014065431
0.08815784 -0.05809772 0.0532335 -0.011831142 -0.018665206 -0.008327643 -0.01838565 -0.054042716
-0.011966596 0.014787085 0.056802467 0.0032819416 0.037788726 -0.07514105 -0.07761271 0.009155983
0.0037341951 -0.030483896 -0.025839245 -0.0059153284 0.0017444163 -0.005777463 -0.002143202 -0.07558295
0.044721097 0.028135898 0.019060446 -0.055025727 0.013938062 0.0622173 0.004177672 0.08172109
-0.031123077 -0.06695928 -0.020451298 -0.117832474 -0.05935874 -0.029711178 -0.07831568 -0.051290546
0.03001593 0.0070138094 -0.08358089 0.02255002 -0.030171296 -0.0071411044 -0.09073108 -0.0558528
0.03473031 -0.06416876 -0.04731693 -0.03573928 -0.022495143 -0.0146258855 -0.0038944574 0.03687395
-0.032029867 0.00951583 -0.048643097 0.05365762 -0.07231103 -0.06647194 -0.056980547 0.0076303785
-0.11627741 0.006951418 0.0104086 -0.15161256 0.00746273 0.03695125 -0.03665074 -0.044321045
-0.0041970517 0.0036277734 -0.06843607 -0.03165275 0.013271801 -0.019201573 0.013631901 0.03885371
0.023379393 -0.046542425 0.00848051 -0.061294034 -0.02840778 0.06715714 -0.07556254 2.4455132e-05
0.018111467 0.0018393666 0.04611203 0.0036065595 -0.016737567 0.031563893 0.061051343 -0.053866323
0.003113925 -0.07922398 -0.089692555 0.07610062 0.050948378 -0.010745925 -0.13270642 0.032637883
00000000: fc20 08bd 5c48 8bbc 55d5 e9bb 43bf fd3b
00000010: 1651 63bd 04ae 803d 29a8 c73d 0b6e 993d
00000020: 0b89 0dbc c33e ec3d 24b5 08bd 0c8b c7bc
00000030: 7778 633d c81d 9b3c 5903 523d 675a 9c3d
00000040: ed8a 1abc 484a 5d3a 27e3 fc3c 6117 2c3d
00000050: fabe 9ebb c183 223d 61da f5bc 95eb b23d
00000060: bc88 633d 14c2 9d3d 8422 e33c cf25 06bd
00000070: b642 80bb c57b 993d dc07 13bd 878d e43c
00000080: 62cd 5cbd 9bfb 4a3d e79b 3b3d 5563 cd3c
00000090: 5710 bc3c b127 e9bc 8586 b03d 2ee6 6abd
000000a0: e549 423c 858f 9bbd 3147 9b3c e12e 40bd
000000b0: 6272 823d fa13 33bd 808f f13d d5a3 d43d
000000c0: 64ff d13d 25d3 b2bd b7ca 00be d71d 13bc
000000d0: 0ffe 25bd 1c6a 75bd 55a9 903d b1d7 d73c
000000e0: a463 e2b8 c86e af3d 448a e73c 9bcb 543c
000000f0: f12b c83d 8beb bf3d a425 13bd 47b5 873d
00000100: 3055 e5bb 7f73 0cbd 1076 b73d bf1b 763d
00000110: a34f b1bc 3243 783d 3a94 5a3c 01e1 dd3d
00000120: 39ad 633d 1072 00bd 6ae8 f03d 3636 a93d
00000130: 6680 123d dd64 7d3d dcdf 12bc 3bbf e7bc
00000140: cc8e c9bc 6cba 2f3d 401f fdbc ec21 933d
00000150: 767f 9bbc 0c49 143e 3180 a13d b3fe 3dbc
00000160: 89fe 02bd 6cdb 4ebd 1031 253d ef96 073e
00000170: a539 2fbd d44c b03c bbb4 c43c 19a2 b9ba
00000180: a64b 89bd 9219 9bbd 6b39 943c 5651 b43d
00000190: 04dc 0f3c b433 04bd 8f74 ea3d 0302 813d
000001a0: 040d 943c d1af c5bd 2c13 5cbd 378e a2bc
000001b0: 7e0f fdbc 417a 153d 49f0 0b3d 83cf 553d
000001c0: 2e6b 0d3d b5e3 f83d 8c8e bb3c 82dd 82bb
000001d0: 6ef3 e8bc 5765 a03d 6a9f 173d 76a6 5d3d
000001e0: 712f 8c3d 6f00 b73c b645 093c 8da5 013d
000001f0: 3512 07bc 1b4a b4bd 281d 673d 4e11 e53d
00000200: 7c42 d83c c27f 30bb f052 873c 844d ccbc
00000210: 6dab 833d dfe4 90bd cb1c 59bd 339d 7a3d
00000220: 4121 c13d 847f dc3c 9e25 6f3d b62e e33c
00000230: 5ff4 ddbd 3106 103d c148 4fbd 2d29 a4bd
00000240: 69cf b0bd ab28 e4bc 89c4 eebc 80b1 f1bd
00000250: 6063 59bc 37a3 35bb 801d 05bc c15b b8ba
00000260: 198c b43d e0f7 6dbd 5f0b 5a3d 68d7 41bc
00000270: c6e7 98bc ab70 08bc 819d 96bc e55b 5dbd
00000280: 8b0f 44bc 8845 723c b4a9 683d d815 573b
00000290: 5ac8 1a3d 8de3 99bd 6af3 9ebd fa02 163c
000002a0: 66b9 743b 5db9 f9bc d3ac d3bc 5fd5 c1bb
000002b0: e6a4 e43a df50 bdbb f674 0cbb 3ccb 9abd
000002c0: 782d 373d 417d e63c a724 9c3c a862 61bd
000002d0: 785c 643c 91d7 7e3d dae4 883b 635d a73d
000002e0: d3f5 febc f221 89bd 7b89 a7bc 2752 f1bd
000002f0: 2622 73bd db64 f3bc f963 a0bd 0916 52bd
00000300: f8e3 f53c 19d4 e53b 752c abbd d2ba b83c
00000310: cb29 f7bc edff e9bb 37d1 b9bd e8c5 64bd
00000320: 5f41 0e3d e96a 83bd 66cf 41bd 5a63 12bd
00000330: bc47 b8bc 69a1 6fbc 273a 7fbb 2409 173d
00000340: c031 03bd 49e8 1b3c fc3d 47bd 18c8 5b3d
00000350: ce17 94bd 7122 88bd 6f64 69bd 4108 fa3b
00000360: da22 eebd b8c8 e33b d588 2a3c 5340 1bbe
00000370: eb89 f43b 325a 173d 161f 16bd fc89 35bd
00000380: 6c87 89bb f0bf 6d3b 3628 8cbd 50a6 01bd
00000390: f871 593c 9e4c 9dbc 5658 5f3c 1125 1f3d
000003a0: 2486 bf3c 45a3 3ebd d6f1 0a3c 740f 7bbd
000003b0: 6fb7 e8bc af89 893d 88c0 9abd ff24 cd37
000003c0: 805e 943c e716 f13a f8df 3c3d 075c 6c3b
000003d0: 391d 89bc 2449 013d f910 7a3d efa2 5cbd
000003e0: fe12 4c3b 2f40 a2bd bbb0 b7bd a4da 9b3d
000003f0: 3faf 503d ad0f 30bc 31e4 07be 4daf 053d

network_actor.0.bias f4 [70]
0.05400397 -0.059584767 0.048942074 0.05213543 -0.015648782 -0.088614695 -0.030013954 -0.008851029
0.057439577 0.0021497803 0.013076678 0.027450684 -0.013296128 0.079044126 0.054191448 0.024181945
-0.054151535 -0.030738667 0.05728351 -0.04428886 0.08330346 -0.053851746 -0.018549161 -0.001149143
0.027604958 0.083841324 0.050245803 0.02212318 0.08043182 0.014954434 -0.06150614 0.03879488
0.03474335 -0.052017123 -0.06592802 -0.04029469 0.033326987 -0.05456302 0.0620296 0.06329144
0.032482807 0.066669084 -0.0628462 -0.064071156 -0.013857738 -0.0029392422 0.031145195 0.01897708
0.02980284 0.028542768 -0.048896525 -0.012580067 -0.08409018 -0.005862814 0.07875529 -0.003609781
-0.008210538 0.0415424 0.09849436 0.092964366 -0.055890568 -0.0018200318 0.059679646 0.01231756
-0.0102303 0.0051848153 -0.03884559 -0.07618421 -0.08161208 -0.019168656
00000000: 4433 5d3d 280f 74bd 7c77 483d f68b 553d
00000010: e031 80bc 9f7b b5bd d3df f5bc e803 11bc
00000020: c345 6b3d 54e3 0c3b 903f 563c 42e0 e03c
00000030: 01d8 59bc e3e1 a13d daf7 5d3d 3719 c63c
00000040: 00ce 5dbd a8cf fbbc 1da2 6a3d 3c68 35bd
00000050: 019b aa3d a693 5cbd 69f4 97bc d79e 96ba
00000060: cb23 e23c 00b5 ab3d 8bce 4d3d ac3b b53c
00000070: 70b9 a43d 7103 753c dded 7bbd 61e7 1e3d
00000080: 0b4f 0e3d e80f 55bd 4505 87bd 0b0c 25bd
00000090: e181 083d 797d 5fbd c012 7e3d f19e 813d
000000a0: b10c 053d cd89 883d 82b5 80bd bd37 83bd
000000b0: 910b 63bc 4da0 40bb 3524 ff3c d275 9b3c
000000c0: 1625 f43c 86d2 e93c b947 48bd a01c 4ebc
000000d0: 7937 acbd d91c c0bb 744a a13d 1392 6cbb
000000e0: 7e85 06bc 5d28 2a3d 69b7 c93d 1a64 be3d
000000f0: 82ed 64bd 228e eeba a572 743d 97cf 493c
00000100: fd9c 27bc 62e5 a93b 8e1c 1fbd 7806 9cbd
00000110: 3c24 a7bd 9607 9dbc

network_actor.2.weight f4 [70, 70]
-0.006374829 0.0513276 0.01143407 0.08079294 -0.05866303 0.089791186 -0.06195611 -0.013853976
-0.13478392 -0.0031087287 0.04165513 -0.020046176 -0.011657753 0.0026016093 0.090022415 0.045774423
-0.114306055 0.10783613 -0.105537646 -0.03719625 -0.066591695 0.03135043 0.09234785 0.09910588
-0.034614194 -0.014751847 0.031578254 -0.06818602 -0.018387202 0.0150415385 0.019265804 0.10719126
0.060994226 -0.15818596 0.03825495 0.0040958878 0.04852016 -0.034718733 0.09281304 -0.002481095
0.02279804 0.036864202 0.004267956 -0.084187396 0.048540805 0.05539387 0.068655565 -0.10646682
-0.12228647 0.09003181 -0.05854186 -0.08144041 -0.024952762 -0.12137354 0.031589538 0.03370978
0.01613276 -0.072894424 0.09330647 0.03248799 0.044838477 0.08114882 0.029104872 -0.037294526
0.048180737 0.055084854 -0.053394023 -0.0584598 0.048452295 -0.002773703 0.119342975 -0.07145347
0.0980569 0.06396554 -0.096305795 0.10204368 -0.042955212 0.011802127 0.059950575 -0.071354635
0.10128179 0.041856684 -0.08084221 0.059470955 -0.04800518 -0.03538902 -0.14867875 -0.11144414
0.02340891 0.12980162 0.0024912418 0.0026766951 -0.041163124 0.032894116 -0.10198474 0.08510679
-0.072256364 -0.099579655 0.046216384 0.03592025 0.010053235 -0.08863522 -0.051579386 -0.002434916
0.085548714 -0.12407279 -0.088443756 0.0034354788 -0.09724418 0.072315775 -0.021515183 0.112650074
0.0018042398 0.11140345 0.12735137 -0.07466068 0.0347308 0.06648483 -0.09933272 0.10958209
-0.024339696 -0.12953731 0.010407721 0.03182232 0.06646373 0.079676345 -0.0551383 0.03817467
-0.092590444 -0.041534334 0.10155876 -0.030883478 0.023921385 0.06676456 -0.11241648 0.012072627
0.0059493505 0.111434065 -0.049161628 -0.07207979 0.023765894 -0.017212756 0.10643642 0.13525766
-0.016509384 0.123294905 0.010908604 0.024301032 0.053099375 -0.02070151 -0.06195086 -0.051260155
-0.07468049 -0.080578454 0.06450774 -0.021648303 0.06257328 0.052983392 0.03769631 -0.0102777
-0.015522414 -0.13325664 0.09356625 0.055952113 0.06978258 0.08598178 -0.05294503 0.13660313
0.12854697 -0.09539335 0.015017566 -0.08687446 -0.050027438 0.0777712 0.11687383 0.1521792
0.055358585 -0.042129807 0.022770155 0.017546391 0.045498375 -0.007459179 -0.01851449 -0.021108594
0.15015663 0.11480416 0.08021971 -0.111504555 0.024030404 -0.059120163 0.00024365626 -0.06861414
0.05671099 0.12717102 -0.06931913 0.07309562 0.0867305 0.13705118 -0.030968342 0.08200362
-0.022764072 -0.08360974 0.10317999 -0.111430265 -0.047808956 0.12429934 -0.108429596 0.009942168
-0.006199679 0.11492507 -0.08014649 0.010881948 0.060901 -0.1220775 0.012250106 -0.039531324
0.041200176 0.10266677 0.027569856 0.036072217 0.07491444 0.124114685 0.037088282 0.00012097131
0.091040194 -0.097846024 -0.0045042024 -0.12270924 -0.11917186 -0.053181868 0.046469964 -0.011297599
-0.10970283 0.022142835 -0.068636954 0.10047019 -0.12967528 0.017769199 0.039364204 0.1264724
-0.008738856 -0.050867043 0.021990484 -0.19462219 0.10536389 -0.027880467 0.035913702 -0.024413025
0.097692184 -0.09801343 0.06340479 -0.12935835 0.04192241 -0.023841647 0.12579916 0.042264584
00000000: f1e3 d0bb e43c 523d f755 3b3c c576 a53d
00000010: a548 70bd 71e4 b73d b1c5 7dbd c9fb 62bc
00000020: cc04 0abe d0bb 4bbb 929e 2a3d e137 a4bc
00000030: 2900 3fbc c37f 2a3b ac5d b83d f67d 3b3d
00000040: 4b19 eabd 30d9 dc3d 1f24 d8bd 185b 18bd
00000050: 3a61 88bd 4f69 003d df20 bd3d 06f8 ca3d
00000060: 9dc7 0dbd bbb1 71bc 3358 013d 1da5 8bbd
00000070: c2a0 96bc c970 763c 52d3 9d3c 1787 db3d
00000080: 15d5 793d 80fb 21be 39b1 1c3d cc36 863b
00000090: 13bd 463d 3b35 0ebd c314 be3d de99 22bb
000000a0: f5c2 ba3c ebfe 163d 36da 8b3b 716a acbd
000000b0: b9d2 463d afe4 623d 4a9b 8c3d 470b dabd
000000c0: 5471 fabd 9962 b83d 97c9 6fbd 3bca a6bd
000000d0: bc69 ccbc b192 f8bd 0864 013d 4413 0a3d
000000e0: da28 843c ac49 95bd 7617 bf3d 2012 053d
000000f0: 8da8 373d 5a31 a63d 576d ee3c 25c2 18bd
00000100: 2a59 453d a8a0 613d b1b3 5abd 8b73 6fbd
00000110: ea75 463d 04c7 35bb 176a f43d 3256 92bd
00000120: 0ed2 c83d 5d00 833d f93b c5bd 47fc d03d
00000130: cef1 2fbd b55d 413c bc8e 753d 6122 92bd
00000140: d46c cf3d ea71 2b3d 9a90 a5bd d197 733d
00000150: 14a1 44bd 14f4 10bd 3e3f 18be d33c e4bd
00000160: 0bc4 bf3c b7ea 043e 1a44 233b 7e6b 2f3b
00000170: aa9a 28bd fbbb 063d 60dd d0bd 784c ae3d
00000180: 25fb 93bd 6bf0 cbbd 644d 3d3d 1d21 133d
00000190: 53b6 243c 6286 b5bd e844 53bd 1d93 1fbb
000001a0: 2a34 af3d e019 febd 0022 b5bd c525 613b
000001b0: f527 c7bd 4b1a 943d 9c40 b0bc 15b5 e63d
000001c0: 3e7c ec3a 7e27 e43d 6668 023e b3e7 98bd
000001d0: e241 0e3d 3329 883d f46e cbbd 936c e03d
000001e0: 0b64 c7bc 6ea5 04be 2585 2a3c 1f58 023d
000001f0: 231e 883d 5a2d a33d b3d8 61bd 0b5d 1c3d
00000200: 0fa0 bdbd e81f 2abd 0afe cf3d 59ff fcbc
00000210: c8f6 c33c dcbb 883d 9d3a e6bd 45cc 453c
00000220: c5f2 c23b 8b37 e43d b45d 49bd 929e 93bd
00000230: b1b0 c23c c401 8dbc 56fb d93d fc80 0a3e
00000240: b03e 87bc 0a82 fc3d 00ba 323c f512 c73c
00000250: bb7e 593d 3796 a9bc 2fc0 7dbd 2bf6 51bd
00000260: 16f2 98bd 5106 a5bd a21c 843d c857 b1bc
00000270: 6b26 803d 1d05 593d 7267 1a3d cc63 28bc
00000280: b951 7ebc 6e74 08be a99f bf3d 0b2e 653d
00000290: 2bea 8e3d 3717 b03d e3dc 58bd b1e1 0b3e
000002a0: d1a1 033e 975d c3bd 3d0c 763c 3deb b1bd
000002b0: 92e9 4cbd 8246 9f3d 8c5b ef3d ddd4 1b3e
000002c0: afbf 623d 4e90 2cbd 7a88 ba3c 73bd 8f3c
000002d0: 815c 3a3d 216c f4bb b3ab 97bc eeeb acbc
000002e0: a9c2 193e 721e eb3d 3b4a a43d 805c e4bd
000002f0: 69db c43c fc27 72bd fb7d 7f39 9285 8cbd
00000300: c849 683d 1f39 023e 30f7 8dbd 28b3 953d
00000310: c39f b13d 2557 0c3e 52b1 fdbc 84f1 a73d
00000320: b87b babc 953b abbd 0850 d33d 8d35 e4bd
00000330: 53d3 43bd a790 fe3d 5610 debd 7ae4 223c
00000340: ad26 cbbb d65d eb3d d823 a4bd 334a 323c
00000350: 5473 793d c503 fabd abb4 483c 99eb 21bd
00000360: 84c1 283d f542 d23d 2eda e13c 76c0 133d
00000370: be6c 993d d72f fe3d e2e9 173d fab1 fd38
00000380: 4873 ba3d 7f63 c8bd fd97 93bb fb4e fbbd
00000390: 6010 f4bd 3bd5 59bd 4a57 3e3d 9119 39bc
000003a0: e1ab e0bd e464 b53c 8891 8cbd 51c3 cd3d
000003b0: 99c9 04be b690 913c 5c3c 213d fb81 013e
000003c0: 6b2d 0fbc f659 50bd 6325 b43c 0a4b 47be
000003d0: 06c9 d73d 9465 e4bc 3f1a 133d d3fd c7bc
000003e0: d712 c83d 44bb c8bd 5fda 813d 8476 04be
000003f0: d5b6 2b3d 8f4f c3bc 7fd1 003e a11d 2d3d

network_actor.2.bias f4 [70]
0.016887853 0.0134988045 -0.04259467 0.01031014 0.0504304 0.012231622 -0.038937718 0.07744314
-0.019980714 -0.009678383 0.03675698 0.024249928 0.02845087 -0.04137112 -0.0676609 0.048056465
-0.124286346 0.0015996681 0.11376904 -0.10477521 -0.08683666 0.0138181485 0.10274119 0.11004541
0.017815882 -0.04242122 -0.06582909 0.00051744096 0.10622716 -0.021813363 0.07723587 -0.096356235
0.0333941 -0.02197304 -0.042055234 0.108959004 -0.02087177 0.00071324565 -0.033095974 -0.11288535
-0.10811206 0.038341727 -0.05181595 0.074253954 -0.11181714 0.061338138 0.093711324 -0.011527145
-0.0014594309 -0.097662546 0.008883848 -0.027550709 0.05872555 0.03770569 -0.13479221 -0.06441733
0.068899184 0.073367864 0.088761434 -0.016106246 -0.077460594 0.027882945 0.009044227 -0.053404596
-0.08635118 -0.108852126 0.047902033 0.007878181 0.07227818 0.007884711
00000000: 6558 8a3c 172a 5d3c c077 2ebd ddeb 283c
00000010: 1b90 4e3d 2467 483c 287d 1fbd 829a 9e3d
00000020: 98ae a3bc 1592 1ebc 7d8e 163d c9a7 c63c
00000030: cd11 e93c c374 29bd cc91 8abd dbd6 443d
00000040: d789 febd f4ab d13a beff e83d 6394 d6bd
00000050: 6bd7 b1bd 8465 623c f969 d23d 7d5f e13d
00000060: 9df2 913c e0c1 2dbd 67d1 86bd e0a4 073a
00000070: a08d d93d f0b1 b2bc d72d 9e3d 6b56 c5bd
00000080: 40c8 083d ce00 b4bc 1c42 2cbd e625 df3d
00000090: 46fb aabc 1bf9 3a3a a58f 07bd 6f30 e7bd
000000a0: db69 ddbd 370c 1d3d f63c 54bd 7512 983d
000000b0: 6200 e5bd b33d 7b3d b9eb bf3d 5adc 3cbc
000000c0: 604a bfba 4d03 c8bd 8f8d 113c 06b2 e1bc
000000d0: 348a 703d 4871 1a3d f806 0abe 3ced 83bd
000000e0: 041b 8d3d e441 963d 8ec8 b53d 3ff1 83bc
000000f0: a9a3 9ebd c66a e43c 3d2e 143c c7be 5abd
00000100: e3d8 b0bd dded debd ec34 443d 7c13 013c
00000110: 9506 943d e02e 013c

network_actor.4.weight f4 [5, 70]
0.083616 -0.09475269 -0.015879797 -0.111081295 -0.057934362 -0.017035369 0.073731974 0.07965001
0.1092848 -0.03753434 0.020726511 -0.053670686 0.071274474 0.090454504 0.06132064 -0.028789843
-0.04609281 0.07655539 0.026208516 -0.08375703 -0.035625894 -0.11884687 0.03871811 -0.04410808
-0.07934463 0.10990963 0.061741028 -0.025194634 0.008602785 0.03209472 -0.046871576 0.078583024
0.105787955 0.10593387 -0.17998034 -0.11769548 -0.01051301 0.06856319 0.052269712 -0.060098078
0.095921785 -0.0026010512 -0.113338485 -0.10793519 0.005996898 0.111976445 0.0020991687 0.05973993
0.093630396 -0.020258091 -0.07382976 -0.0014271705 -0.054813154 -0.04845573 0.025293928 0.01710948
-0.08922017 -0.07678564 -0.08073906 -0.051212195 -0.054147564 0.029629746 -0.10439473 -0.07787845
-0.09052332 0.09718145 -0.09439591 0.0946043 -0.11180428 0.09278502 0.044872228 0.12451242
-0.08820927 0.03732788 -0.04413807 0.07944808 0.058719072 -0.01071526 -0.017944764 -0.2485833
0.121016905 -0.0672555 -0.054343596 -0.13221708 -0.11028622 0.10827709 0.088571176 -0.029039552
0.10976505 -0.13787611 -0.028313996 -0.06084102 0.02714452 -0.040583685 0.09533387 -0.08554282
-0.091890775 -0.0031095399 -0.25977665 -0.056158133 0.01788053 0.090580754 0.057456963 -0.002833776
-0.10947649 0.11249864 0.081066184 0.038953282 0.099773474 -0.14293261 -0.10966333 0.07946508
-0.11920317 -0.06564787 0.114410944 0.11897478 0.030257529 -0.03378262 0.003020455 0.1125503
-0.084691845 0.025730306 0.12211049 0.021111418 0.041719306 0.13772152 -0.03436298 -0.027583446
0.025799906 -0.03901478 0.02500032 0.031292733 0.030197915 -0.027868839 0.08673297 0.043154284
0.09222847 0.10058376 0.03450558 -0.08492254 -0.09937893 -0.04756634 0.031117903 -0.086481296
0.04814364 -0.022721069 0.03936801 0.017884823 0.023142044 0.018104888 0.079138964 -0.0049831923
-0.059960023 -0.042020924 -0.12159728 -0.11461649 0.018206013 -0.072744615 -0.11040975 -0.018530643
0.10687992 -0.10812469 0.110802226 0.084583074 -0.05499979 -0.0008516795 -0.009589365 -0.067079894
0.06740775 0.09272015 -0.10139411 0.043953497 0.072138466 -0.041666094 -0.07924458 0.08024397
0.09071655 -0.0920052 0.013654824 -0.03725427 0.034199707 0.02913653 -0.089483455 -0.06950424
0.030982867 0.00086331414 -0.028999234 0.055177916 -0.077513054 0.0035183262 -0.11940217 -0.10678319
0.050149772 -0.0035429567 0.0978853 0.06635704 -0.08013393 -0.072826274 0.070410766 0.06268435
-0.1039454 -0.065069795 0.097348176 -0.004270634 0.017464152 -0.021785406 -0.079101615 -0.035966523
-0.07825403 0.07135241 0.08004102 -0.042199325 -0.12791784 -0.08242784 -0.007884777 0.05163653
-0.030836085 0.040614273 -0.11255156 -0.02275874 0.07230904 -0.12501016 0.022814753 0.13338023
-0.05299043 -0.13184257 0.058760133 -0.10033274 -0.04560504 -0.0022711796 -0.14572783 -0.100295834
-0.057619356 -0.07151201 0.033427928 -0.12848303 0.07474169 0.01945129 0.026776446 0.022272188
0.013061902 -0.050544873 -0.08117545 -0.058853637 -0.03154765 0.08969668 -0.106274515 0.11558374
0.111722864 -0.061850056 -0.11613178 0.0072204913 -0.03266918 0.05821156 0.10077826 -0.12355812
00000000: de3e ab3d b30d c2bd 5916 82bc 977e e3bd
00000010: 954c 6dbd c28d 8bbc ca00 973d 8b1f a33d
00000020: b6d0 df3d 9cbd 19bd a5ca a93c cbd5 5bbd
00000030: 5af8 913d 3640 b93d 5a2b 7b3d add8 ebbc
00000040: d0cb 3cbd 13c9 9c3d 3eb3 d63c ce88 abbd
00000050: 75ec 11bd fd65 f3bd e296 1e3d adaa 34bd
00000060: 707f a2bd 4d18 e13d 29e4 7c3d fa64 cebc
00000070: b2f2 0c3c c175 033d 69fc 3fbd 23f0 a03d
00000080: 5ba7 d83d dbf3 d83d c44c 38be 540a f1bd
00000090: c33e 2cbc dc6a 8c3d c418 563d 6729 76bd
000000a0: a472 c43d 6676 2abb 021e e8bd 200d ddbd
000000b0: a081 c43b e853 e53d 3592 093b dbb1 743d
000000c0: 4bc1 bf3d 4cf4 a5bc 0f34 97bd e50f bbba
000000d0: c283 60bd 8479 46bd 3635 cf3c 2e29 8c3c
000000e0: 11b9 b6bd ca41 9dbd 855a a5bd e1c3 51bd
000000f0: d6c9 5dbd 15ba f23c e7cc d5bd bd7e 9fbd
00000100: 4a64 b9bd 1107 c73d a552 c1bd e6bf c13d
00000110: a4f9 e4bd 1306 be3d f1cb 373d 5e00 ff3d
00000120: 10a7 b4bd 1ee5 183d 1fca 34bd adb5 a23d
00000130: 6983 703d 0f8f 2fbc e600 93bc 9f8c 7ebe
00000140: b6d7 f73d 40bd 89bd 6497 5ebd ea63 07be
00000150: bedd e1bd 61c0 dd3d ce64 b53d 5be4 edbc
00000160: 80cc e03d 652f 0dbe c1f2 e7bc 6f34 79bd
00000170: 2f5e de3c 143b 26bd 673e c33d 1331 afbd
00000180: 3b31 bcbd 6cc9 4bbb 7201 85be 1206 66bd
00000190: 307a 923c 6782 b93d fe57 6b3d dfb6 39bb
000001a0: 3635 e0bd b065 e63d 0706 a63d 7a8d 1f3d
000001b0: 0956 cc3d ed5c 12be 2b97 e0bd 96be a23d
000001c0: cb20 f4bd 6472 86bd 4950 ea3d 0da9 f33d
000001d0: a3de f73c a55f 0abd d3f2 453b c680 e63d
000001e0: eb72 adbd 5dc8 d23c 1115 fa3d daf1 ac3c
000001f0: dde1 2a3d df06 0d3e 32c0 0cbd aef6 e1bc
00000200: 535a d33c f6cd 1fbd 79cd cc3c cf2c 003d
00000210: 9e61 f73c 314d e4bc 0ea1 b13d 8cc2 303d
00000220: 48e2 bc3d dcfe cd3d b955 0d3d deeb adbd
00000230: 2e87 cbbd ecd4 42bd f9ea fe3c 1b1d b1bd
00000240: 4432 453d 8921 babc 5a40 213d 3183 923c
00000250: 6294 bd3c b450 943c 9c13 a23d 0c4a a3bb
00000260: a498 75bd 221e 2cbd ff07 f9bd 0dbc eabd
00000270: c724 953c 21fb 94bd 821e e2bd 93cd 97bc
00000280: dce3 da3d 7a70 ddbd 47ec e23d e439 ad3d
00000290: 7647 61bd 3e43 5fba b61c 1dbc 2f61 89bd
000002a0: 130d 8a3d 10e4 bd3d b7a7 cfbd 9508 343d
000002b0: 55bd 933d 11aa 2abd fb4a a2bd f356 a43d
000002c0: 99c9 b93d 396d bcbd 7cb8 5f3c ef97 18bd
000002d0: fe14 0c3d bbaf ee3c 1a43 b7bd 3d58 8ebd
000002e0: c8cf fd3c 0850 623a cd8f edbc 3d02 623d
000002f0: 2abf 9ebd b893 663b 2089 f4bd 25b1 dabd
00000300: d969 4d3d f330 68bb 1778 c83d 33e6 873d
00000310: 421d a4bd f125 95bd 8533 903d a760 803d
00000320: 53e1 d4bd 5043 85bd 7b5e c73d adf0 8bbb
00000330: fb10 8f3c 4f77 b2bc 0700 a2bd a251 13bd
00000340: a643 a0bd 3621 923d 8cec a33d 33d9 2cbd
00000350: e5fc 02be edcf a8bd 272f 01bc d380 533d
00000360: f59b fcbc 275b 263d 6f81 e6bd 8970 babc
00000370: c316 943d aa02 00be 01e6 ba3c d494 083e
00000380: 7e0c 59bd bd01 07be 77ae 703d 407b cdbd
00000390: 5acc 3abd 12d8 14bb ad39 15be e767 cdbd
000003a0: 4602 6cbd e474 92bd b9eb 083d 0e91 03be
000003b0: 2c12 993d 5058 9f3c 475a db3c 2a74 b63c
000003c0: 9601 563c 2408 4fbd 503f a6bd 8310 71bd
000003d0: 1c38 01bd e5b2 b73d 74a6 d9bd 2bb7 ec3d
000003e0: f5ce e43d 7c56 7dbd 80d6 edbd df99 ec3b
000003f0: 1ed0 05bd 3f6f 6e3d d564 ce3d 0a0c fdbd

network_actor.4.bias f4 [5]
-0.07444061 -0.01082534 0.049368925 0.031137405 -0.061036527
00000000: 5274 98bd c45c 31bc 1237 4a3d df13 ff3c
00000010: 7001 7abd
