checkpoint/ddpg-actor_mlp_actor-lr:0.0003_critic-lr:0.0003_gamma:0.99_tau:0.05.pth (torch, 130391 bytes, 6 tensors)

network_actor.0.weight f4 [120, 140]
00000000: 797c 3d3a 4106 5c3d e724 60bb 516e 913d
00000010: 7ed1 fb3c 5883 033d d34f 053d bb9a a5bc
00000020: e635 10bc fd74 4dba c6e5 93bd 25c3 a03d
00000030: 090d 113c ec01 abbd 84a2 88bd 06da 31bd
00000040: babd 1c3b db91 0fbd f8fe a7bd 0b0b 07bd
00000050: 5084 c4ba 1cbd f03c 1a99 013d c8c7 8b3d
00000060: ff73 7bbd c95b 1fbd e472 80bd c517 09bd
00000070: 575d a6bd ad3c 983d 4192 81bd 060b d63c
00000080: b1c0 833c 41de 2ebd b2eb 763d 2be2 9e3d
00000090: b0fa 22bd c53e 12bd 9636 46bd d9d2 89bd
000000a0: e74e dabc e5c8 973b e673 11bd 1f7a a03d
000000b0: fb4e 36bc b4f0 0bbd aade aabd d7c3 b7bc
000000c0: d4be 9a3d 4756 d9bc 3f29 003d 75d7 713d
000000d0: d7f9 72bd aea3 62bd b951 563d 19c7 2a3d
000000e0: 6f9e 6fbd 556f a13d 16bd 8dbd d1ba 293c
000000f0: e639 87bc 6004 003b bcc7 ea3c 1f96 ab3d
00000100: 9acc 1c3c 03bc ff3b cd2f 8f3d 103f a9bd
00000110: 254e 1c3d df8f 483d ac39 993d 9dda 62bd
00000120: a368 303d 0d95 ab3d f4c3 a1bd 9a52 a9bd
00000130: fca2 21bd c355 2fbd 0c79 0dbd f0f7 e03c
00000140: fb1a bebc 6c44 153d b775 94bd f8d7 babc
00000150: e443 033d 624c 8f3d 0022 03bd 8a05 9e3d
00000160: c0fd 4fbd 9a28 393d 5374 333d ca62 94bc
00000170: 4388 aa3d 0ffd 593d 0560 c23c a3eb 5d3d
00000180: 1587 1d3c ca2d 9ebc 59c3 67bd 4528 77bd
00000190: ba9e b43b f15c a83c a37b 99bd b1ba d53c
000001a0: 0133 37bd 3691 2abd eadd 37bd ab84 1fbb
000001b0: fd22 273c 5a05 7c3d 2041 03bd a4b6 54bd
000001c0: c884 203d a7ef 24bd 2275 163d 43a9 a83d
000001d0: a18b f03b e019 6e3d 068e 38bd b778 953d
000001e0: 6169 9c3b c96b 203d 0a54 093d 51b4 6abd
000001f0: 3a78 883b c4fd 563d 3222 5cbd a3d5 7a3c
00000200: 5181 43bd 677c 3fbd bb38 ecbc bfbe abbd
00000210: e59b e2bb 4cd3 f7bc 86de 1e3d 8b26 94bd
00000220: ccdf a33d dd37 e43c ef60 893d fccf 413d
00000230: 3805 633d dc18 6ebb fd24 793d b23b e1bc
00000240: 12d4 983d 3026 1d3b ba2b 923d cf6a 93bd
00000250: bd8e c8bc a283 acbd ed15 3cbd 514c 02bd
00000260: aae5 edbc 25f1 1fbd 7d7f 823d 1654 71bd
00000270: 61ec babc 2cb5 173d 8621 f5bc bf38 8bbc
00000280: 97a4 283c 7d6b 663d 0289 7fbd 2e9b 8ebd
00000290: 6c82 7dbd be64 49bd 70d5 c8bc 7819 acbb
000002a0: 193f 94bd 2a36 a5bd 894d e7bb 64f6 8f3d
000002b0: 22c2 63bd 4e74 973d e56d 6ebd 27b4 9f3d
000002c0: 84fc 5b3d 9efe a6bd 51ec 85bd a1d6 00bd
000002d0: 39e4 983d 6b38 5fbd 283d a33d 479b 3dbc
000002e0: 51bd a0bd db20 143d 1547 cbbc 2d27 97bd
000002f0: 9f6d 903d e584 eebc bd0e d13c fb6b 13bc
00000300: 431b 40bd 8fbd d8bb 4b60 2bbb 42a7 133d
00000310: 4762 20bd 8d83 04bd f8f1 603d 0441 26bd
00000320: ee30 34bd e003 9c3d 399e 913d 0bee 1dbd
00000330: 8460 23bd e840 f43a 17d2 f8bc d8b1 44bd
00000340: 7c08 88bd b339 84bd f717 a93d 5341 393a
00000350: 883f 213c 10f1 8f3d a0bc 7c3d 52a0 b13c
00000360: 0046 4dbb ae6d fabb c4cb 733d 671a 7e3d
00000370: d19a 74bd 6bb0 9e3d fe7d 973c 55cf 433d
00000380: f677 6bbd 528c 4bbc 5237 563d e0f3 86ba
00000390: ee62 90bd dc43 0b3c ec72 9f39 96dc 98bc
000003a0: e114 1a3d b513 383d 86b9 823d 9d59 8e3b
000003b0: 9618 b23c 2b66 673d e804 66bd fd70 c1bc
000003c0: 9838 583d 7898 8c3d 0ba9 883d fb31 0cba
000003d0: f5c3 a8bd 6b6a 9d3d 3b8b e7bc 837d 9fbd
000003e0: 1743 a9bd 999e a03d 3b8a adbc b5b3 073d
000003f0: a4ca b1bc cab0 263d 3def 99bc ad0d 793c
0.00072283257 0.0537169 -0.0034201683 0.07101119 0.030739542 0.03210768 0.03254683 -0.020215383
-0.008801913 -0.0007837562 -0.0722156 0.07849721 0.0088532055 -0.08349976 -0.066716224 -0.043420814
0.0023916797 -0.035051208 -0.08202928 -0.032969516 -0.0014993045 0.02938705 0.03164015 0.068252146
-0.06138992 -0.038905893 -0.06271914 -0.033469934 -0.08123272 0.07433448 -0.06326724 0.026128303
0.016083093 -0.042692427 0.06028337 0.07757982 -0.039789855 -0.035704393 -0.0483919 -0.06729669
-0.026648952 0.004632103 -0.03551092 0.07835793 -0.011127229 -0.0341651 -0.08343251 -0.02243225
0.07555929 -0.026530398 0.031289335 0.059043366 -0.059320297 -0.05533188 0.05232403 0.04169378
-0.058500703 0.07882563 -0.06920831 0.010359482 -0.0165071 0.0019533858 0.028659694 0.08378243
0.009570265 0.007804395 0.06991539 -0.08263981 0.038160462 0.04896533 0.07481703 -0.055384267
0.04306854 0.083780386 -0.07898703 -0.08267708 -0.039462075 -0.042806398 -0.034539267 0.027461976
-0.023206225 0.036442205 -0.07249015 -0.02280806 0.032047167 0.06996991 -0.032014847 0.077159
-0.050779104 0.045204736 0.043812107 -0.018113513 0.08326771 0.05321985 0.023727426 0.0541798
0.009614726 -0.019308943 -0.056582782 -0.06034114 0.0055120857 0.02055213 -0.07494285 0.026089998
-0.044726375 -0.04164239 -0.044889368 -0.002434055 0.010201213 0.06152854 -0.03204453 -0.051931992
0.03918913 -0.040267613 0.0367328 0.08235409 0.007340864 0.058130145 -0.04505732 0.07298415
0.0047733043 0.039165292 0.03352741 -0.05730087 0.0041647227 0.052488104 -0.05374355 0.015309724
-0.047730748 -0.0467495 -0.028835645 -0.08385991 -0.0069155567 -0.030252121 0.038786434 -0.07233914
0.0800167 0.027858669 0.06707942 0.04731749 0.0554249 -0.0036330735 0.06082629 -0.027494285
0.07462324 0.002397906 0.071372464 -0.071981065 -0.024482125 -0.084235445 -0.045919348 -0.031811062
-0.029040176 -0.039048333 0.06371973 -0.05891808 -0.022817792 0.037038013 -0.029923212 -0.016994832
0.0102931475 0.056254853 -0.06238652 -0.06963192 -0.061891958 -0.04916834 -0.024515837 -0.0052520595
-0.072385974 -0.080669716 -0.0070588035 0.07029417 -0.05560506 0.0739523 -0.058210272 0.07798033
0.053707615 -0.08154033 -0.065392144 -0.031454686 0.07465405 -0.054497164 0.07970649 -0.011572666
-0.07848609 0.036164146 -0.024814168 -0.07380519 0.070521586 -0.029116103 0.025519723 -0.0089979125
-0.046901 -0.006614394 -0.0026149924 0.03604818 -0.039156225 -0.03235202 0.05491826 -0.040589347
-0.043991975 0.076179266 0.07110257 -0.038557094 -0.039886966 0.0018635066 -0.030373616 -0.048021168
-0.06642243 -0.06456318 0.08256524 0.0007066924 0.009841807 0.07028401 0.061703324 0.021682892
-0.003132224 -0.0076424694 0.059520498 0.062036898 -0.059717957 0.07748493 0.018492695 0.04780515
-0.05748745 -0.012423592 0.05229885 -0.0010296069 -0.07050119 0.008500066 0.00030412467 -0.018659871
0.037617568 0.04494067 0.06383042 0.004344179 0.02174024 0.05649392 -0.056157023 -0.023613447
0.052788347 0.068650186 0.066728674 -0.0005348024 -0.08240501 0.07686313 -0.028264632 -0.07787611
-0.082647495 0.0784275 -0.021184077 0.033130366 -0.021703072 0.040695943 -0.018790836 0.0152010145

network_actor.0.bias f4 [120]
00000000: 3bfc 47bb f9b9 a0bc c800 94bd c4e2 ef3b
00000010: f2de 90bd 273a 2dbd 1c30 af3c 5e67 c43c
00000020: f1ed 8d3c ebcb 873c 0e2b 753d b134 153d
00000030: 2fff 73bd 72bc 3bbd 4abb 963c bb34 3d3d
00000040: afbf 8ebd 041e 583d 38f4 73bd 54c5 acbd
00000050: 187f 0fbc 5313 63bd 1f90 cc3b f042 99bd
00000060: 78bd e1bc 3c69 84bc ad52 913d 0f21 50bd
00000070: dda1 1dbd a2e5 35bc ff60 13bd a5d5 14bd
00000080: d71a bc3c 7d25 16bd 8f03 abbc 059e 6dbc
00000090: c4d8 2dbd 876d c03c 1e24 69bc 59e5 fcbc
000000a0: 7263 82bd 7ec9 8dbd 7892 a83d f707 83bd
000000b0: fa59 94bc 869f 183d 7c4f a63d 88b0 323d
000000c0: be20 843c f609 27bd 79ae 91bd 6754 a63d
000000d0: 9f79 a6bd 60c6 813d bdb9 83bc 1af8 a9bd
000000e0: 57f7 9e3c 6d45 47bc fd33 9b3d d709 533d
000000f0: 7f47 c73c 259e 96bd e831 88bd d98f 97bb
00000100: 38c5 a63b 4f03 fdbc 3d88 a03c ede3 a23d
00000110: 5885 bebc f1f5 923d bfcc f7bc a694 593d
00000120: 3684 2c3b 2b55 a43d e76a 80bd dd83 4dba
00000130: a14d a73c 8836 73bd 7c2e 98bd df49 22bd
00000140: 5166 89bd 5e23 95bd 9149 4abd db80 6f3d
00000150: 8568 793d af66 6c3d abf8 3d3c eea1 d5ba
00000160: 7272 6f3d 826b 803d 97a3 733d 0dfb 73bd
00000170: b2f3 0bbc 61fe 6f3d fa46 f9bb 08f0 93bd
00000180: da48 96bd d246 99bc 10e1 98bd 4d99 f63c
00000190: f6a2 75bd 531e a53c 27c8 233d 1b3a 813d
000001a0: ca18 8dbd e8b8 46bd 0ca4 8e3d d6f7 1d3d
000001b0: 2b0e 84ba c7ef 523d 7364 35bd e847 b43c
000001c0: 2e84 2c3d ddbb 7fbd 9d49 513d 0f3a c6bc
000001d0: 7c51 953d b642 55bd a6b4 82bc a06d 9cbc
-0.0030515331 -0.019619929 -0.072267115 0.0073207337 -0.070737734 -0.042291787 0.021385245 0.02397507
0.017325373 0.016576728 0.059855513 0.036427204 -0.059569534 -0.045834012 0.018399853 0.046192866
-0.069701545 0.052763 -0.059559077 -0.08436075 -0.008758329 -0.05543835 0.0062427665 -0.074834704
-0.027556166 -0.01616346 0.07095847 -0.050812777 -0.038484443 -0.011102112 -0.035981175 -0.03633656
0.022962017 -0.036656845 -0.02087572 -0.014503007 -0.042443052 0.023489727 -0.014229802 -0.03087108
-0.06366624 -0.06923197 0.08231062 -0.063980035 -0.01810931 0.03726151 0.08120629 0.043625385
0.016128894 -0.040780984 -0.07113356 0.08121567 -0.08128666 0.06336665 -0.016079778 -0.08299275
0.01940505 -0.0121625485 0.07578275 0.051523056 0.024326084 -0.073543824 -0.06650144 -0.0046253023
0.0050894283 -0.030885367 0.019596213 0.0795363 -0.023256943 0.07175816 -0.030248998 0.053120278
0.002632392 0.08024057 -0.0627039 -0.00078397786 0.020422759 -0.059378177 -0.07430741 -0.03962123
-0.067089684 -0.072821364 -0.049386565 0.058472496 0.060890693 0.057715114 0.011594932 -0.0016298869
0.058458753 0.062705055 0.059482183 -0.059565593 -0.008541988 0.058592204 -0.007607338 -0.07223517
-0.07338114 -0.018710528 -0.07464802 0.030102396 -0.059969865 0.020156061 0.039985802 0.06309911
-0.06889494 -0.048516184 0.06964883 0.038566433 -0.0010075023 0.0514982 -0.04428525 0.022006944
0.042118244 -0.06243502 0.051095594 -0.024197606 0.072909325 -0.052065574 -0.01595528 -0.019095242

network_actor.2.weight f4 [120, 120]
00000000: cfd2 b93d c8ef 0bbd 0bbd de3c 5c8d 8ebd
00000010: adc2 553d 700e bf3c d492 b1bc 1b97 8fbd
00000020: 5900 43bd e50a b13d 6ba0 89bd cf9c 103d
00000030: 157a bd3c ac3b 7f3d f240 b6bc 7b9d 02bd
00000040: dbfb eb3c f49a ad3d 4bf3 69bd 4cb9 3dbd
00000050: 957d 2e3d 45c8 af3c 4dd0 19bd 0d5d 36bd
00000060: e2f8 49bd 4172 ef3c 11ee aa3d 6fe4 53bc
00000070: 8639 c2bb 555b b0bc 183b 8a3d 9763 a33d
00000080: 0135 5eba ff26 b93d 3f51 fb3c 2ef1 25bd
00000090: 9b36 843c 72b6 08bd 121e 703d 1cef 883d
000000a0: e366 4ebd cfde abbd 3061 b6bd fe8b 203d
000000b0: e09c 093c 4074 85bd 1943 43bd 9f41 48bd
000000c0: b726 103c eea3 c9bc ba02 503d 865b 2c3d
000000d0: 7aed 9ebd 2565 993d 2d22 37bd 6490 36bd
000000e0: 4d7c 2abd 5385 863b 78c1 c83c 848e bc3b
000000f0: 9f36 d3bb 9597 be3b aaa7 a73d eb3e 89bd
00000100: 2079 a93c d427 233d 7a7d 7ebd d36f a23d
00000110: a503 40bd 9853 80bd f514 883d 61d7 933c
00000120: 67ee b8bd 3c61 953c a1e0 a9bd ff2f 953d
00000130: 87a2 4dbc 70c6 a4bd fc16 f8bb 0b4f b43c
00000140: fe64 a7bd 4ae5 99bd 15f5 25bd d3e4 9d3d
00000150: 85b0 20bd b5c4 13bd c8d5 373c 2e64 953c
00000160: 9603 903d e359 38bd 4142 ad3c 8de8 61bd
00000170: 4128 a8bd 9b57 5fbd 34be 48bd b6c9 5e3c
00000180: d0a9 8a3d 0269 cb3c dc25 80bd 238f 843d
00000190: 2eba a73d 453e 5bbc 94b0 47bd e376 af3d
000001a0: 1594 b5bd 40b0 21bd bd5c 74bd 3e76 823d
000001b0: 5d15 ad3c 2b89 41bd 1423 183d 0ed3 49bd
000001c0: a4ce 8a3c 61eb 48bd c048 97bd daac 76bc
000001d0: 0492 38bd 6135 02bd 6ee8 b6bd ea9e b23c
000001e0: f623 ab38 5a96 42bd 271f aa3d c4f6 513d
000001f0: 6a64 76bc 651d a0bd d49a 673c 922f b73c
00000200: 3bf2 65bd 69ab 39bd 1148 5d3c 2f0c ddbc
00000210: 0bff 4f3d 6040 82bd 0db2 943d a2c2 173d
00000220: a16d ba3d 9b93 2ebb bdd9 9bbd 85ef 55bd
00000230: 94a0 153d 0b8a 36bc 2a5a 813c 91e3 5ebd
00000240: 5188 adba 6bdb 61bc cc6e 723d 12c2 12bc
00000250: cb88 863b f1a6 293d 1025 02bd 6d45 863d
00000260: 6c76 303c 68b6 9c3d 2bd0 3b3d ad87 ccbc
00000270: f81f 853d da85 3cbd 9bc7 e43a 2c4a 943c
00000280: 2e07 0ebd f2dc 1a3d 5f46 493d 5832 093d
00000290: e23b ae3d 3368 fcbc f06a e3bc 4d3d 853d
000002a0: f8e8 b5bd c030 b13d 5a5a ab3d 1f3a 91bd
000002b0: e0eb 3b3d 2adf b1bd c1ec 18bd bf6b 803c
000002c0: d556 fc3c e2cd 0f3d 4c3d 0cbd f2d9 1abd
000002d0: 7a78 adbd 265b ccbc 0a54 683d 085c 713c
000002e0: 7b26 b5bb 9f1c b8bc a007 203d cb77 ba3d
000002f0: 2dfc 673d 16e7 95bd d34e 723d fd28 adbc
00000300: c84a 97bd 49cb d0bc f7a6 913c 32b5 9ebd
00000310: 56d8 803d 0284 abbd 4d18 3639 3215 b5bd
00000320: d6d1 95bc 3b79 afbd 60a5 ac3b 6b83 c53c
00000330: ee86 c83b afa8 44bd ff04 2c3d 378b 813d
00000340: d2c8 623d 7bae 9ebd a0c0 21bd 361b 13bd
00000350: e924 d6bb d784 71bd 0d29 243d 12f2 7e3b
00000360: d302 793d 8a69 7abd a20b 97bd e365 ae3d
00000370: 1295 4c3d f2ff 14bd d4ad c4bc bd71 e0bc
00000380: 6349 a1bd 3a2e debc e60a b2bd a52b b8bd
00000390: fdb7 763c c295 143d e2ce 0ebc a2f0 b5bd
000003a0: 7102 b03c d59c 263d ba10 b0bd 6e1e af3c
000003b0: 00af d13a a61c 883b d331 b23c 4445 b8bd
000003c0: 8852 133b 3b57 19bc 78d7 813d 4e6b 7dbd
000003d0: 5888 863d 6c15 3fbd d78a 58bd 4a9a 46bd
000003e0: 3207 9abd afc6 72bd 4612 0f3d 6b07 883d
000003f0: 483d 5c3b 75b8 b43d 4542 643d bd8b 69bd
0.09073412 -0.03416422 0.027189752 -0.06960556 0.05218761 0.023322314 -0.021676458 -0.07011243
-0.047607753 0.08644656 -0.067200504 0.035305794 0.023129502 0.062312767 -0.022247765 -0.031888466
0.028806617 0.084768206 -0.057116788 -0.04631929 0.042600233 0.0214578 -0.037552167 -0.044522334
-0.04930962 0.029229285 0.08346189 -0.012932881 -0.0059272675 -0.021527926 0.067495525 0.0797798
-0.0008476526 0.09040641 0.03067839 -0.04051321 0.01613932 -0.03337712 0.058622427 0.066862315
-0.05039109 -0.08392107 -0.08905256 0.039196007 0.008399218 -0.065163136 -0.04767141 -0.048890706
0.008798293 -0.0246143 0.05078385 0.04207947 -0.07760139 0.07489995 -0.044710327 -0.044571295
-0.04162245 0.004105249 0.024506316 0.005754294 -0.0064457203 0.00581641 0.08186276 -0.06701454
0.02068764 0.039832905 -0.062131383 0.07931485 -0.046878476 -0.06265944 0.06644622 0.018047037
-0.09029847 0.018234842 -0.08294798 0.07284545 -0.012550957 -0.080456614 -0.0075710993 0.022010347
-0.081735596 -0.075144365 -0.04051693 0.077096604 -0.039230842 -0.036076266 0.011220403 0.018236246
0.07031934 -0.045007598 0.021149756 -0.05515342 -0.08210803 -0.054526906 -0.049009517 0.013597896
0.067706704 0.024830345 -0.06257221 0.06472614 0.08189808 -0.013381545 -0.048752382 0.08567598
-0.08866135 -0.039474726 -0.059658755 0.06370209 0.02112835 -0.047249954 0.037142828 -0.049273543
0.016944237 -0.0490526 -0.07386923 -0.015055859 -0.045061126 -0.031789187 -0.08931051 0.021804292
8.160614e-05 -0.047506668 0.08306723 0.051260725 -0.015038589 -0.078181066 0.014136035 0.02236155
-0.056139212 -0.045329485 0.0135059515 -0.026983349 0.050780337 -0.06359935 0.07260523 0.03705085
0.09102941 -0.0026638273 -0.0760989 -0.052230377 0.036530092 -0.01114131 0.015790064 -0.054416243
-0.0013239478 -0.0137852235 0.059187695 -0.008957403 0.0041056625 0.041418973 -0.031773627 0.06556211
0.0107704215 0.07651979 0.04585282 -0.024967039 0.06500238 -0.04602609 0.0017454507 0.018101774
-0.034674816 0.037808366 0.049139377 0.033495277 0.085075155 -0.030811405 -0.027760953 0.06505833
-0.08882326 0.086518764 0.083668426 -0.07091164 0.045879245 -0.08685143 -0.03733516 0.015676377
0.030803123 0.035108455 -0.034238145 -0.037805505 -0.08470245 -0.024945807 0.05672077 0.014731415
-0.005528269 -0.022474585 0.03906977 0.0910488 0.056636978 -0.07319467 0.059157204 -0.021137709
-0.0738731 -0.025487559 0.01777981 -0.07749404 0.06291263 -0.08374788 0.00017365925 -0.08841933
-0.018288534 -0.08568045 0.0052687377 0.024110517 0.0061196005 -0.04801243 0.041996952 0.06325381
0.0553673 -0.07748123 -0.039490342 -0.035914622 -0.0065351618 -0.058964577 0.04007821 0.003890161
0.06079371 -0.061135806 -0.07375266 0.08515527 0.049946852 -0.0363769 -0.024008669 -0.027397985
-0.078753255 -0.027121652 -0.08693485 -0.089926995 0.015058515 0.036275633 -0.008716317 -0.08883788
0.02148554 0.04067691 -0.0859694 0.021376815 0.0015997589 0.004153806 0.021752274 -0.08997586
0.0022479612 -0.009359176 0.063399255 -0.06186991 0.06568974 -0.04665129 -0.052866783 -0.048486985
-0.07520904 -0.05927151 0.034929536 0.0664204 0.0033605862 0.08824245 0.055727262 -0.05701803

network_actor.2.bias f4 [120]
00000000: 57d4 6ebd 2e5f 31bd d500 fabb f693 6f3b
00000010: 8bd6 393c 8a2d 85ba 7b1b aabd 762c a93d
00000020: ca1f 37bd 4eb6 713d d7f5 513c 445f abbd
00000030: 1a4d c53c 636f ae3d 7e33 403d a1f2 b0bd
00000040: 7f91 96bd 0447 8bbd bbfe 08bd 2928 713d
00000050: 1808 27bd 871b 6dbd 6a77 823d 55cb 9a3d
00000060: e52b 643d b2cc 59bc 7f83 6bbd 9fbb dfbc
00000070: 10b6 693d 9986 28bd e981 4fbd db4f 2dbc
00000080: f930 013d d4e2 27bd 59cc 9bbd 239b c73b
00000090: 71d4 52bd aef4 1e3b acaf 0ebd 219e 80bd
000000a0: 0d7f 49bb 54f9 843d 0048 f3bc 09de af3d
000000b0: 37a8 8d3d 5aed ce3c 2b9c 733d 5af2 fd3c
000000c0: 5603 a5bd a382 d13c 5be2 ac3d 67f3 85bd
000000d0: ed1c b73c 0bbe 83bd c8b6 70bd 4b61 dcbc
000000e0: 3358 a5bd 86c8 8dbd a49e afbc 4d3e 953d
000000f0: 82f8 5e3d 56cc a1bd 4b02 81bd c380 a6bd
00000100: 8f17 b73d 637c d93c 0f61 733d 2809 943d
00000110: 9c2c 713c 6b71 4ebd eaf4 b1bd 73c8 dcbc
00000120: 178d 4e3d 23bf 9cbc 5dea aabd d3a1 a63d
00000130: 7cc8 b8bd 13c7 86bd 3796 80bc 658b 73bc
00000140: b9ee 8d3d 5f61 f7bc 202a a83c 549e 8fbd
00000150: d655 5c3c 2402 0cbd c9a9 a0bd 2433 a73d
00000160: 7167 803d 9189 41bc 3324 a3bd 8d4a c7bc
00000170: 673a aa3d 3afa 45bc 80fa 963b 914c 8d3d
00000180: 4945 ae3d f3ae 97bd a5ab 953d cfc4 8f3c
00000190: 3ec8 5cbd 8fff d73c e3e7 c73c 3a0d b6bd
000001a0: a355 a5bd 747e b6bb e247 a4bd e669 9b3d
000001b0: e002 e5bc 4123 aebc 370e ddbc ce2d fe3c
000001c0: 8986 b7bd e23f 78ba 2124 acbd 2379 d73c
000001d0: ba3b 9abd b81e 69bd eb35 8a3d de1a a4bd
-0.05830797 -0.04330366 -0.0076294937 0.0036556697 0.011342655 -0.0010160666 -0.08306023 0.082604334
-0.04470805 0.05901175 0.01281496 -0.0836778 0.024084616 0.08517339 0.046924107 -0.08640028
-0.0735197 -0.068006545 -0.033446055 0.05887619 -0.040779203 -0.05788758 0.06370433 0.07558314
0.055705924 -0.013293432 -0.05749845 -0.027311144 0.057058394 -0.041143987 -0.050661 -0.010578121
0.031540845 -0.040987805 -0.076073356 0.006091492 -0.05147213 0.0024254727 -0.034835503 -0.06280161
-0.0030745894 0.06492868 -0.029697418 0.08587272 0.0691685 0.025259662 0.059475105 0.030999351
-0.08057277 0.025574988 0.084416114 -0.06540566 0.02235266 -0.06432732 -0.058768064 -0.026901862
-0.08073463 -0.069230124 -0.02143795 0.072872736 0.054436214 -0.07900302 -0.062992655 -0.08130028
0.0894004 0.02654857 0.059418734 0.07228309 0.014720108 -0.050401133 -0.08689292 -0.02695105
0.050427523 -0.01913411 -0.083454825 0.08136334 -0.09022614 -0.06580939 -0.015696628 -0.014864777
0.06930298 -0.030197797 0.0205279 -0.070126206 0.013448199 -0.03418173 -0.07844884 0.08164051
0.0626973 -0.011812584 -0.07965889 -0.02432754 0.083119206 -0.012083584 0.0046074986 0.068993695
0.08509309 -0.07406416 0.07308129 0.0175499 -0.053901903 0.026366977 0.024402564 -0.088892415
-0.080729745 -0.0055692736 -0.08021523 0.07588558 -0.027955472 -0.021257045 -0.026984317 0.0310277
-0.089612074 -0.00094699685 -0.084053285 0.02630288 -0.07530923 -0.05691406 0.06748565 -0.08012937

network_actor.4.weight f4 [5, 120]
00000000: 3491 113d 94d4 043c b5ca 66bd 1ab0 2fbd
00000010: 1a2e 073d 0191 fcbc 51de d03c 97ac a9bb
00000020: bfa3 493b cbff 84bd e88a 0d3d 3292 9bbd
00000030: d2e1 9c3d cd82 65bd dee7 8b3d 26d4 093c
00000040: 7f09 b5bd 9e58 1b3d 55de 81bd 5e44 633d
00000050: 1180 a6bc 01d2 a93d 9186 fabb eaeb 98bd
00000060: 56a9 8cbd a077 9c3d 8268 9bbd 1284 46bd
00000070: a91f 8f3d 0e98 b73d 356b 4abd 56dc 4e3d
00000080: d16d a0bd 58b4 593d cccc 79bb 8611 5abd
00000090: abc3 92bc e4f7 83bc dca1 64bd fa81 883d
000000a0: 0848 af3d 6f44 5bbc 1122 81bc b405 48bd
000000b0: c3ba c5bc 9752 a9bd aa66 03bd 5acd 9c3d
000000c0: 607b 1f3d 4acc 77bd 973c a2bc 4701 6cbd
000000d0: a868 91bd 7999 9a3d f75d a13d 0d99 28bd
000000e0: d26c 56bd db72 203d e635 953b 52a4 b03d
000000f0: 0277 a33c efcb 893d c592 a5bd a383 86bd
00000100: 4c40 363d 5338 02bd 473b b73c 81c3 95bd
00000110: e6be ab3d 8015 a33d ee94 473d b530 b7bd
00000120: ebe6 72bd fa0d 0cbd 717a 83bd 4ee7 99bd
00000130: 489d 783d ba52 283d 163b fe3c 6712 ac3b
00000140: 1e3f 903d 7401 35bd cc58 45bd 54d8 fe3b
00000150: 7e46 b23d 7529 8a3c 9003 18bd 1f2b 703d
00000160: a6be fcbb c964 323c 0de3 ccbc 3a80 773c
00000170: a4ce 3fbd 67e4 2a3d 5798 5c3c d67c 7ebd
00000180: 5d37 97bd 4b8b 093d bdb0 a6bd dd13 ba3d
00000190: 0404 a43d f1f8 d4bc 168c 043d d869 85bd
000001a0: 4145 583d 528c c2bb d022 b73c bbaf a63d
000001b0: f147 963b da8a 38bd fc2e 783d 5758 053d
000001c0: 0ebb ba3d 61c5 8bbd 27d8 2f3d 730c 84bd
000001d0: d4b7 973b 7dba 343d d0ff d13c d7a5 79bd
000001e0: 2446 a9bd 2261 7f3d b02b 833d ea7b ffbc
000001f0: 88a7 81bb 7fed 23bd 7858 c23b 90cd a83d
00000200: 4163 62bc bd20 a63b 063f 98bd 9fe8 7abd
00000210: 1baf a03d 021d aa3c 3cc6 6dbb 5ecd e03c
00000220: 8f4e afbc b79e a43d 3b44 51bd ea5e 9a3c
00000230: e5f3 023d 4415 b63c 957c b93d 3e81 7b3d
00000240: 2f50 3ebd bb92 56bd f6df b73c 3e0b 80bd
00000250: 73ab f43c f569 6ebd 2c3d 093d 47ad f1bc
00000260: 2ed2 afbd ce7b 52bc b92f 803c 90a0 823d
00000270: 0885 433d 0826 823d e519 ffbc d282 0bbd
00000280: 7af9 bf3c 9a2e f03a 9a20 143d 6daa e6bb
00000290: 80ce 87bd b261 283d 5458 1d3d 4e7c 91bd
000002a0: ae65 babc 1e05 1d3d b092 b7bd 93b9 8ebd
000002b0: c659 4a3b a03c 1b3d 76fe 893b 60f7 5dbd
000002c0: 95ea 683d e8fd 4abc 6d02 cb3c 7714 863d
000002d0: a5b7 79bd add7 b13d 9ca3 5b3d 51a0 b93d
000002e0: 3a24 6f3c 9598 ddbc f543 603d c95b f6bc
000002f0: 18d5 a8bd 0e59 9e3d 0c68 58bd 9270 773d
00000300: c4aa a63d aa18 6e3d 36b7 ccbc 4395 4bbd
00000310: 35a1 44bc 8a67 5dbd 211d f23c c62a 433d
00000320: 59ac 923d 6b2b 653d e57c 26bd 3910 ee3c
00000330: f2d2 b2bc 6901 b6bd 63ec 143d 7ca3 03bd
00000340: 58ea 85bd da42 d93b 92a9 853d 09a5 62bd
00000350: e776 06bb 759e c0bc be67 b6bc f121 5c3c
00000360: 8bce 98bd 4cc1 8fbd 8c18 aa3d 6ebf 383c
00000370: 8113 93bd 2b05 7dbd 5eed ebba 7789 9ebd
00000380: 80af 83bd f392 d7bc e003 d23c 84cf 813c
00000390: 981c 1a3c 8c59 aeba 569b adbd 1cb3 aabd
000003a0: 1453 04bd dab3 8e3d b025 a0bd 7b8b 4bbd
000003b0: 6609 863d a787 d7bc 1ef7 a53d 5906 23bd
000003c0: 0f3c e63c 56c0 9dbc b662 8fbd 86c5 833c
000003d0: f368 923c cd09 a73d eced 47bd bbbc 36bd
000003e0: 1fe4 363d c84c 8e3d 7175 26bd ce02 e53c
000003f0: f4d4 93bd bbc2 b3bd 46dd aebd a023 9f3d
0.035538867 0.008107323 -0.05634566 -0.042892553 0.03300295 -0.030830862 0.025496634 -0.005178045
0.0030767766 -0.06494101 0.0345563 -0.07596244 0.07660259 -0.056032944 0.068313345 0.008412397
-0.08839702 0.03792631 -0.063412346 0.055485122 -0.020324739 0.08292008 -0.007645436 -0.07466872
-0.06868236 0.07640004 -0.07588293 -0.048465796 0.069884606 0.08964549 -0.049418647 0.050503097
-0.07833446 0.053150505 -0.0038116453 -0.053239368 -0.017915567 -0.016109414 -0.055818424 0.06665416
0.08558661 -0.013383015 -0.015763314 -0.048833564 -0.024136906 -0.08267706 -0.03208033 0.07656355
0.03893602 -0.06049756 -0.019804282 -0.057618406 -0.0710004 0.07548804 0.078792505 -0.041161586
-0.052349873 0.039172035 0.0045535443 0.086250916 0.019954208 0.0672835 -0.08084635 -0.065680765
0.044494912 -0.031791996 0.022367133 -0.0731268 0.0838602 0.07963085 0.048726015 -0.08944837
-0.05930225 -0.034193017 -0.06419838 -0.07514821 0.06069687 0.04109452 0.031034034 0.005251217
0.07043289 -0.04419084 -0.048180386 0.007777253 0.087048516 0.016865471 -0.037112772 0.058634873
-0.0077131568 0.010888287 -0.02501061 0.015106255 -0.046827927 0.041721728 0.013464055 -0.06213077
-0.073836066 0.033580106 -0.08139179 0.0908582 0.080085784 -0.02599761 0.03236016 -0.06514329
0.05280042 -0.0059371376 0.022355467 0.08138987 0.004586213 -0.045054294 0.060591683 0.03255495
0.09117709 -0.068247564 0.04293075 -0.06447687 0.0046300683 0.04412316 0.025634676 -0.060949173
-0.082653314 0.062348492 0.06404817 -0.031187017 -0.003956739 -0.040021416 0.0059309565 0.08242333
-0.013817609 0.0050698207 -0.07433896 -0.061257 0.07845899 0.020765785 -0.0036281487 0.027441677
-0.021399764 0.08038085 -0.05109046 0.018844087 0.031970877 0.022226937 0.09056965 0.06140255
-0.046463188 -0.052386027 0.02244566 -0.06252144 0.02986691 -0.058206517 0.033505604 -0.02950157
-0.085850105 -0.0128469 0.015647756 0.06378281 0.04773429 0.0635491 -0.031140277 -0.034060307
0.02343439 0.0018324435 0.036163904 -0.0070393593 -0.066311836 0.041108795 0.038414314 -0.07103787
-0.022753563 0.03833496 -0.08963525 -0.06968989 0.0030876263 0.037899613 0.0042112423 -0.054190993
0.05686434 -0.0123896375 0.02478143 0.06546872 -0.060966153 0.08683715 0.053622827 0.09063781
0.014596039 -0.027050296 0.05475231 -0.030073063 -0.082437694 0.077318296 -0.0528336 0.06041009
0.0813804 0.05812899 -0.024989706 -0.049702894 -0.012001325 -0.05405382 0.029554905 0.047648214
0.07161779 0.05594961 -0.040646452 0.02906047 -0.021829102 -0.08886988 0.03635825 -0.032138333
-0.06538838 0.006630284 0.065264836 -0.05533317 -0.0020517649 -0.023513058 -0.022266265 0.013435827
-0.0746127 -0.0701929 0.08305463 0.011276109 -0.071814544 -0.061772507 -0.0017999818 -0.07741063
-0.06429958 -0.026315188 0.025636613 0.015846021 0.009406231 -0.0013301834 -0.084768936 -0.08334944
-0.032305792 0.06967898 -0.07819688 -0.049693566 0.06544761 -0.026309801 0.081037745 -0.039800975
0.02810481 -0.019256752 -0.070012495 0.016085397 0.01787231 0.08156166 -0.048810884 -0.04461358
0.044651147 0.069482386 -0.040639345 0.027955439 -0.07218352 -0.08777376 -0.08538298 0.07770467

network_actor.4.bias f4 [5]
00000000: 5445 c7bc ab99 7dbd a839 8c3d ecac 833d
00000010: 109e 863b
-0.02432505 -0.061914127 0.068469346 0.064294666 0.004108198
