checkpoint/ddpg-critic_mlp_actor-lr:0.0001_critic-lr:0.0003_gamma:0.99_tau:0.04.pth (torch, 63319 bytes, 5 tensors)

network_critic.0.weight f4 [70, 145]
0	0x3c4968d4	0.012293059
1	0xbf283198	-0.65700674
2	0xbe6cc838	-0.23123252
3	0x3d086535	0.033299644
4	0xbcf73ae4	-0.030179448
5	0x3dbbf8c4	0.09178308
6	0xbdef7985	-0.116931
7	0x3e0dc6ce	0.13845369
8	0xbd905121	-0.07046724
9	0xbdb89d90	-0.09014428
10	0x3e9f9f30	0.31176138
11	0x3d4fbdb5	0.050718028
12	0xbd42d2a8	-0.04756418
13	0x3cb43ab3	0.022000646
14	0xbdd77264	-0.10519865
15	0x3d881507	0.06644636
16	0x3d521fa4	0.051299706
17	0x3d5b6642	0.053564318
18	0x3dcda909	0.100420065
19	0x3cc4f03a	0.02404033
20	0x4029a536	2.6507087
21	0xbde4d6fb	-0.11173817
22	0xbfdd91c0	-1.7310104
23	0x3ff76ea4	1.933064
24	0xbe8331d4	-0.25623953
25	0xbd84bf26	-0.06481771
26	0xbe2373e7	-0.15962182
27	0x3dde4502	0.10853006
28	0xbdf92fc8	-0.12167317
29	0xbf22fdcf	-0.6366853
30	0xbe7c26bb	-0.2462415
31	0xbd98a180	-0.07452679
32	0xbd9ef6d4	-0.077619225
33	0x3d22f786	0.039786838
34	0xbe67e2e9	-0.22645153
35	0x3d962ad9	0.07332391
36	0xbce75e26	-0.028243136
37	0xbdc14c95	-0.09438435
38	0x3eaebbb6	0.34127587
39	0xbdcef775	-0.101057924
40	0xbddbb5c8	-0.107280314
41	0x3cc87bfb	0.024473181
42	0xbd107ae3	-0.035273444
43	0x3d12de0d	0.035856295
44	0x3d9007f5	0.07032768
45	0x3c3ac68b	0.011399875
46	0xbce5d209	-0.028054254
47	0xbc8cf52c	-0.01720675
48	0xbf90c177	-1.1309041
49	0xbe899def	-0.26878306
50	0x3d126389	0.035739455
51	0xbf816bf2	-1.0111067
52	0xbe1f66c0	-0.1556654
53	0x3d28498a	0.041085757
54	0xbe885f3f	-0.26635167
55	0x3c8bb376	0.017053347
56	0xbd4e513b	-0.050370436
57	0xbf219fab	-0.6313426
58	0xbe92bed9	-0.2866123
59	0xbd8a4e60	-0.0675323
60	0xbdbb817d	-0.09155557
61	0x3e1a5377	0.15070902
62	0xbdba0f0a	-0.090849
63	0x3d6fc158	0.058533996
64	0xbdff740c	-0.12473306
65	0xbda3ce03	-0.07998278
66	0x3e550c07	0.2080537
67	0xbdd6da30	-0.10490835
68	0xbc5d171d	-0.01349428
69	0xbd4567ad	-0.048194576
70	0xbb17f13d	-0.002318456
71	0x3d5efaab	0.054438274
72	0x3d951de0	0.07281089
73	0x3d7fc5db	0.06244455
74	0x3d014101	0.031556133
75	0x3c88f6c0	0.016719222
76	0x4003c6fe	2.0590205
77	0xbe5e0669	-0.21682133
78	0xbddc6c2f	-0.10762822
79	0x40117bb2	2.2731748
80	0xbe17676d	-0.14785548
81	0x3dc20af4	0.094747454
82	0xbe7b8d65	-0.24565656
83	0x3de57377	0.11203664
84	0xbddaa963	-0.10676839
85	0xbf070e52	-0.52756226
86	0xbeb8b275	-0.36073652
87	0xbc2e27f1	-0.01062964
88	0xbd5ff402	-0.054676063
89	0x3bea5405	0.007151129
90	0xbe501d3c	-0.20323652
91	0x3daeaf83	0.0852957
92	0xbcfba542	-0.03071845
93	0xbde58895	-0.112076916
94	0x3eb14073	0.34619483
95	0x3c899a90	0.016797334
96	0xbcefcbef	-0.029272048
97	0xbd706486	-0.058689617
98	0x3cf3acf6	0.02974556
99	0x3d0032c2	0.031298406
100	0xbd408cc1	-0.047009233
101	0xbdb3c9d6	-0.087787315
102	0xbca858f7	-0.020550234
103	0x3d931d03	0.07183268
104	0x3f0522a3	0.52005976
105	0xbe9c1927	-0.3048794
106	0xbf84f6a7	-1.0387772
107	0x3f58c3ca	0.8467375
108	0xbe865fa7	-0.26244852
109	0x3cb1f5d1	0.02172366
110	0xbe5c9395	-0.21540673
111	0xbc986562	-0.01860303
112	0xbd919d67	-0.071101
113	0xbf1753b2	-0.59112084
114	0xbea8528d	-0.3287548
115	0xbcc5bc7a	-0.024137724
116	0xbdb496e1	-0.0881784
117	0x3d818e7b	0.06326004
118	0xbe7e8675	-0.24855979
119	0x3e10d5b1	0.14144017
120	0xbdc4fba9	-0.09618313
121	0xbe185dda	-0.14879552
122	0x3e9167b8	0.28399444
123	0xbc814f98	-0.015785024
124	0xbcb49c6e	-0.022047248
125	0x3d94dd96	0.07268827
126	0xbd376f5c	-0.044783935
127	0x3d49f16f	0.049302515
128	0x3da38787	0.07984834
129	0xbda8aa08	-0.08235556
130	0x3d959a77	0.073048525
131	0xbc5c91da	-0.013462508
132	0x3f859b42	1.0438006
133	0xbe3cb78b	-0.18429391
134	0xbfeac7c4	-1.8342214
135	0x3f7c3c1b	0.98529214
136	0xbe3ef4a6	-0.18648013
137	0xbd06c581	-0.0329032
138	0xbe61acc5	-0.22038563
139	0x3c1dcb9b	0.009631063
140	0x3e50091c	0.20315975
141	0x3d86f755	0.065901436
142	0x3d7f1529	0.06227604
143	0xbd1a6734	-0.03769608
144	0x3dfc748d	0.12326918
145	0x3d81f81a	0.0634615
146	0xbf2071dc	-0.62673736
147	0xbcccaef2	-0.024985764
148	0xbe417c84	-0.18895155
149	0xbe24d86a	-0.1609818
150	0xbe711f45	-0.23547085
151	0xbe36b452	-0.17842224
152	0x3d9d2c81	0.07674504
153	0x3d82b7aa	0.063826874
154	0xbda2835f	-0.07935213
155	0xbc32a875	-0.010904421
156	0x3d1b3f3e	0.03790211
157	0xbda55d6d	-0.0807446
158	0x3d48d955	0.04903539
159	0x3b852d72	0.0040642554
160	0xbbe442d7	-0.0069659757
161	0x3d0ea020	0.034820676
162	0x3d0a82aa	0.033816017
163	0x3db62446	0.08893637
164	0x3f26f05a	0.652105
165	0x3f8e22d8	1.1104383
166	0x3e0e27af	0.13882326
167	0x3f8e44ab	1.1114706
168	0xbf232aef	-0.63737386
169	0xbdc527ae	-0.09626709
170	0x3e1b0b2b	0.15140979
171	0x3d0328e5	0.032021422
172	0xbebd63e5	-0.36990276
173	0xbd1af010	-0.037826598
174	0xbf2b4a6c	-0.66910434
175	0xbda18f1d	-0.07888625
176	0xbd954f6a	-0.07290538
177	0xbe4570be	-0.19281289
178	0xbe107b69	-0.14109577
179	0xbe0c479c	-0.13699192
180	0x3e68271b	0.22671168
181	0x3da0a26b	0.07843479
182	0xbe0cb2f0	-0.13740134
183	0x3c9192d2	0.017770205
184	0x3dc99923	0.09843662
185	0x3bb34b99	0.0054716584
186	0x3cde9b1c	0.027173571
187	0x3d13b7f0	0.03606409
188	0xbdf7026c	-0.12061009
189	0xbd123051	-0.03569061
190	0xbcf3823e	-0.02972519
191	0x3d503145	0.050828237
192	0x3f05003e	0.51953495
193	0x3f6d98f0	0.9281149
194	0x3db640bb	0.08899065
195	0x3fe5a12b	1.793981
196	0x3f8587e8	1.04321
197	0xbdffde6d	-0.12493596
198	0x3dfed28b	0.12442502
199	0x3d663cee	0.05621045
200	0xbeaf64bf	-0.3425655
201	0xbcf5c108	-0.029999271
202	0xbf2ad919	-0.66737515
203	0xbd51e862	-0.05124701
204	0xbdd75fa8	-0.10516292
205	0xbe323f4d	-0.1740696
206	0xbe7d3743	-0.24728112
207	0xbe72cfb0	-0.23712039
208	0x3e5d862d	0.21633215
209	0x3cbe8a92	0.023259435
210	0xbd1c2cd7	-0.0381287
211	0xbb804bca	-0.0039152848
212	0x3d68b9d5	0.05681785
213	0xbda405a9	-0.08008892
214	0xbd9c26f7	-0.076246195
215	0x3de30ee9	0.11086828
216	0xbdf087d6	-0.11744659
217	0xbd1cc993	-0.038278174
218	0xbb1c083c	-0.002380862
219	0x3dc5c17b	0.09656044
220	0x3f09ee7e	0.53879535
221	0xbf6fbe11	-0.93649393
222	0x3c8185c1	0.01581085
223	0x3f7f8333	0.9980957
224	0xbfe0d5f8	-1.7565298
225	0xbe52b71b	-0.20577662
226	0x3db700fd	0.089357354
227	0x3c405db4	0.011741091
228	0xbebbea7f	-0.36702344
229	0xbb33f945	-0.0027461809
230	0xbf183680	-0.5945816
231	0xbd7ca36d	-0.061679292
232	0xbdd19ab2	-0.10234584
233	0xbd9d65d1	-0.076854356
234	0xbe051e3f	-0.12999819
235	0xbe01bcc3	-0.12669663
236	0x3dc6d263	0.09708097
237	0x3d3897fd	0.045066822
238	0xbe04f0af	-0.12982439
239	0x3b25845e	0.00252559
240	0xbd7d009b	-0.061768156
241	0xbd966fa2	-0.07345511
242	0x3d75e448	0.06003216
243	0xbb7373e8	-0.0037147943
244	0xbdf98c85	-0.12185005
245	0xbcfee1cb	-0.031113526
246	0x3d376826	0.044777058
247	0xbd86f4f3	-0.06589689
248	0x3f164229	0.586947
249	0xbec69664	-0.38786614
250	0x3d86e606	0.06586842
251	0x3fb27108	1.3940744
252	0xbed4e31a	-0.41579515
253	0xbe6e4c59	-0.23271312
254	0x3dcb802c	0.09936556
255	0x3c38f623	0.011289152

network_critic.0.bias f4 [70]
0	0xbd19d6f1	-0.0375585
1	0x3d3d9f61	0.046294574
2	0xbd346a39	-0.044046614
3	0xbdcf12ac	-0.10110983
4	0x3e1c000d	0.15234394
5	0xbd41191b	-0.047143083
6	0xbd0e7d4c	-0.03478746
7	0xbcac989f	-0.02106887
8	0xbe2881ef	-0.16455816
9	0xbb5b2ad2	-0.003344227
10	0xbdcd831f	-0.10034775
11	0x3c8b7b63	0.017026609
12	0x3d6a65fd	0.05722617
13	0x3d88212e	0.066469535
14	0xbda1dd66	-0.079035565
15	0x3db3291e	0.08748077
16	0x3e3d14d3	0.18464975
17	0x3dc5ecdb	0.09664317
18	0xbdb6953e	-0.089151844
19	0x3d14b50e	0.03630548
20	0xbd9ab67a	-0.07554336
21	0x3e57dd16	0.21080431
22	0xbd197dbb	-0.03747342
23	0x3df761a3	0.120791696
24	0xbcb03a38	-0.021512136
25	0x3b6dc565	0.0036280986
26	0xbda0e46c	-0.07856068
27	0x3c50ee51	0.012752132
28	0x3c88773b	0.016658416
29	0xbd2f3829	-0.042778168
30	0x3dd2c1ec	0.10290894
31	0x3d4abd02	0.04949666
32	0xbc003d08	-0.007827051
33	0xbdb3f66f	-0.08787238
34	0xbd76bd77	-0.06023928
35	0x3ba37495	0.004988263
36	0x3cefa0a3	0.029251402
37	0xbe096be9	-0.1342007
38	0xbbf8fb15	-0.0075982907
39	0xbd42839d	-0.047488797
40	0xbdad4ff1	-0.08462513
41	0x3e301a19	0.17197455
42	0x3e071636	0.13192067
43	0x3c5afd1b	0.013366009
44	0x3d1a77dc	0.037711963
45	0x3c204741	0.009782613
46	0x3def4916	0.11683862
47	0xbbcaa897	-0.0061846483
48	0xbda12ee1	-0.078702696
49	0x3de1d5a2	0.11027075
50	0xbd880825	-0.066421784
51	0x3d5903aa	0.05298201
52	0xbe3edf96	-0.18639979
53	0x3c96b6de	0.018397745
54	0xbc5d5921	-0.0135100195
55	0xbcd6eae9	-0.02623506
56	0x3d6568d7	0.056008186
57	0xbd613dfc	-0.054990754
58	0x3dcb03eb	0.09912857
59	0xbcec2a6a	-0.028828818
60	0x3dcecc7c	0.10097596
61	0xbdb3ec2a	-0.08785279
62	0x3d292a9f	0.041300412
63	0x3e4b22d3	0.19837503
64	0x3d9f42bc	0.077764004
65	0x3da6cda3	0.08144691
66	0xbd8893ce	-0.066688165
67	0x3dbaa64a	0.09113748
68	0x3c7ffd53	0.015624362
69	0xbe027831	-0.12741162

network_critic.2.weight f4 [70, 70]
0	0xbd1350be	-0.035965674
1	0xbd7fd6e6	-0.062460802
2	0x3e096587	0.13417636
3	0xbd076e9c	-0.03306447
4	0x3dd32dea	0.10311492
5	0xbd84160a	-0.06449516
6	0x3df099f3	0.117481135
7	0xbee514bf	-0.4474239
8	0xbdabc93f	-0.08387994
9	0xbdb690a4	-0.08914307
10	0x3dc12fe7	0.09432965
11	0x3cf8421a	0.030304957
12	0x3d22580d	0.039634753
13	0x3d6fe63d	0.05856918
14	0xbe86bced	-0.26316014
15	0xbe0d5d72	-0.13805178
16	0xbe6c264f	-0.23061489
17	0x3d184132	0.03717155
18	0x3d94b4e8	0.07261068
19	0x3c1a557f	0.009419798
20	0xbe0ae6b4	-0.13564569
21	0xbcfcd5ef	-0.03086373
22	0x3da7195f	0.08159136
23	0xbd57bb59	-0.052668903
24	0xbde8fa25	-0.11375836
25	0x3da824a7	0.08210116
26	0xbc225847	-0.009908742
27	0x3d2e1ac6	0.042506002
28	0xbcd48615	-0.025942842
29	0xbd870404	-0.06592563
30	0xbde18786	-0.11012177
31	0xbcb51489	-0.022104518
32	0x3d413614	0.047170714
33	0x3c850ab2	0.016240451
34	0x3eab59a6	0.33466834
35	0x3d1e4ea9	0.038649235
36	0xbcda6bc0	-0.026662707
37	0xbe27f853	-0.16403322
38	0xb925592b	-0.00015768844
39	0xbdd9e5dd	-0.10639546
40	0xbc642913	-0.0139258085
41	0x3cb88854	0.022525944
42	0x3e3c313e	0.1837816
43	0xbf99be94	-1.2011285
44	0xc01ad4cd	-2.4192383
45	0x3c22e400	0.009942055
46	0x3e139d45	0.14415462
47	0x3dbc35fd	0.09189985
48	0x3e09c1c9	0.1345283
49	0x3d1e0a7a	0.03858421
50	0xbde02961	-0.109453924
51	0x3c83ec77	0.016103966
52	0x3d878ae0	0.06618285
53	0x3ea901e2	0.3300925
54	0x3e27a2d4	0.16370708
55	0x3df1edea	0.11812957
56	0xbd850bc1	-0.064963825
57	0x3d628f25	0.055312295
58	0x3d96eb26	0.0736907
59	0x3d983d0d	0.074335195
60	0xbd23ebf6	-0.04001995
61	0x3d6a41c6	0.057191633
62	0x3e45d59a	0.19319764
63	0xbe804c37	-0.25058147
64	0xbacf6e91	-0.0015825798
65	0xbf99be82	-1.2011263
66	0xbbba5718	-0.005686652
67	0xbea279f2	-0.31733662
68	0x3e09811f	0.13428162
69	0x3d9c6378	0.0763616
70	0xbdf816e2	-0.121137396
71	0xbd35bdcf	-0.04437047
72	0xbebd67a1	-0.36993125
73	0xbe18e281	-0.14930154
74	0x3d1f90a0	0.038956285
75	0xbddbce02	-0.10732652
76	0xbd697761	-0.056998614
77	0x3d1b3c3e	0.03789925
78	0xbd6b8446	-0.057499193
79	0xbbb8da0a	-0.0056412267
80	0xbd6c6924	-0.057717457
81	0x3dc6b466	0.09702377
82	0xbf0d2e5e	-0.55148876
83	0x3c33e9b7	0.010981015
84	0xbe7ce637	-0.24697195
85	0x3e6a81de	0.22901103
86	0x3bd18bff	0.0063948627
87	0xc00f784b	-2.241717
88	0x3e06def5	0.13170989
89	0x3da97906	0.082750365
90	0x3e26f1c9	0.16303171
91	0xbe0eb48c	-0.1393606
92	0x3e302527	0.17201672
93	0x3cc9033b	0.024537673
94	0x3dcd79de	0.1003301
95	0xbd190c42	-0.037365206
96	0x3e87f131	0.26551202
97	0xbf99ed73	-1.2025589
98	0x3ca2520e	0.019814517
99	0x3d163280	0.036669254
100	0xbdd2018f	-0.102542035
101	0x3e386c32	0.18010023
102	0x3d09f581	0.033681396
103	0x3db4807c	0.08813569
104	0xbea876d6	-0.32903165
105	0xbda57066	-0.08078079
106	0x3e92134c	0.28530347
107	0xbd5722a7	-0.05252328
108	0x3e10cedb	0.14141409
109	0x3da659dc	0.08122608
110	0xbdb15650	-0.08659041
111	0x3caa76ba	0.020808566
112	0xbd8a50a1	-0.0675366
113	0x3e44b4f2	0.1920965
114	0xbe07fe1d	-0.1328053
115	0xbd46ce8e	-0.04853683
116	0xbdb0834e	-0.086187944
117	0xbd6052e5	-0.054766554
118	0xbda4dc5d	-0.080498435
119	0xbf993d4b	-1.197183
120	0x3d321d2f	0.043484863
121	0x3d05867a	0.03259895
122	0x3d5644b2	0.052311607
123	0x3c7d9b42	0.015478911
124	0x3e1b23a9	0.15150322
125	0xbe93c669	-0.28862312
126	0x3d00ff9e	0.031493776
127	0xbdcce747	-0.1000505
128	0x3d36122e	0.04445093
129	0xbe01392a	-0.12619463
130	0x3d90fccf	0.070794694
131	0xbcb25653	-0.021769678
132	0xbded7911	-0.11595357
133	0xbe384821	-0.17996265
134	0x3d5e8899	0.05432949
135	0xbd6fc56a	-0.058537878
136	0x3d6283cb	0.05530147
137	0xbe41b621	-0.18917133
138	0xbc81031f	-0.015748559
139	0xbd2884a9	-0.04114214
140	0xbdb79277	-0.08963483
141	0xbe031e2a	-0.12804475
142	0xbd016b63	-0.031596553
143	0x3e0c79da	0.13718358
144	0x3d798145	0.060914297
145	0xbd84d53f	-0.06485986
146	0x3d9a14b8	0.07523483
147	0xbda1f4c4	-0.079080135
148	0x3e065641	0.13118841
149	0xbdc0dfc1	-0.09417678
150	0xbe58f939	-0.21188821
151	0xbde88733	-0.11353912
152	0xbe6fc7bb	-0.23416035
153	0x3d887344	0.0666261
154	0xbd40d6cc	-0.047079846
155	0xbe06219b	-0.13098757
156	0xbe33e92a	-0.17569414
157	0xc006dbc5	-2.1071637
158	0x3d4ab18f	0.04948574
159	0x3d926f33	0.07150116
160	0x3dd58a37	0.10426753
161	0xbed7e7f8	-0.42169166
162	0xbf785239	-0.9700046
163	0x3d98c315	0.07459084
164	0xbddc9037	-0.10769694
165	0xc03d9c96	-2.9626822
166	0x3b2391b9	0.0024958684
167	0xbdadeb3e	-0.084921345
168	0x3d2ce109	0.042206798
169	0xbe04e4f8	-0.1297797
170	0x3d9903ba	0.07471414
171	0xbceb1763	-0.028697675
172	0x3cf8afe5	0.03035731
173	0x3d9e553d	0.07731102
174	0xbe01d537	-0.12678991
175	0x3d48ca45	0.049021024
176	0x3e0670d1	0.13128974
177	0xbec6da77	-0.3883855
178	0xbcec3b8a	-0.028836984
179	0xbdf7793e	-0.12083672
180	0xbe30262a	-0.17202058
181	0x3db2baa8	0.08727008
182	0xbdfd6213	-0.12372222
183	0x3e1d6d0a	0.15373626
184	0xbd58c23d	-0.052919615
185	0x394b917b	0.00019413784
186	0xbd071478	-0.032978505
187	0xbdd6c0d0	-0.10485995
188	0xb93b6a39	-0.00017873281
189	0xbd52a852	-0.051430054
190	0xbcea427a	-0.028596152
191	0x3d8346af	0.06409966
192	0x3d289307	0.04115584
193	0x3dabad56	0.083826706
194	0xbe420ff3	-0.18951397
195	0x3de61f77	0.1123647
196	0xbe671fd4	-0.22570735
197	0x3ddf25f2	0.10895909
198	0xbd975cf4	-0.07390776
199	0x3da9340d	0.08261881
200	0x3c9e0619	0.019290017
201	0xbcee32eb	-0.029077014
202	0xbbbcea25	-0.005765217
203	0xbd949818	-0.07255572
204	0x3cf1d883	0.029522186
205	0xbd0ce2b6	-0.034395896
206	0x3e855223	0.26039228
207	0x3ed249df	0.41071984
208	0xbd61bc51	-0.055111233
209	0x3d537880	0.05162859
210	0x3dd42afc	0.10359761
211	0x3d29df36	0.041472636
212	0xbcd92d99	-0.026511
213	0x3ca51f4a	0.020156521
214	0x3c09aa3f	0.008402406
215	0xbbd73d7b	-0.0065686083
216	0x3c228704	0.009919886
217	0xbd6bdc65	-0.05758323
218	0x3a79bffe	0.0009527205
219	0x3db50d62	0.08840443
220	0xbdc778a4	-0.09739807
221	0xbd9a21af	-0.07525956
222	0x3cd6028b	0.02612426
223	0x3cb583cd	0.022157574
224	0x3cf95326	0.030435156
225	0x3dfe7072	0.12423791
226	0xbe0ae465	-0.13563688
227	0xbe8b8a91	-0.27254155
228	0x3e4e7be1	0.20164444
229	0x3c898268	0.016785815
230	0xbdbe7d6b	-0.09301265
231	0xbe17a0ad	-0.14807387
232	0x3e145994	0.14487296
233	0xbe726d54	-0.23674518
234	0xbd2d0dbb	-0.042249423
235	0x3d7a8c3f	0.061168905
236	0x3ca4417e	0.02005076
237	0x3d9e25e5	0.077220716
238	0xbeb0f23d	-0.34559813
239	0x3e05ca38	0.13065422
240	0x3cb158e4	0.021648832
241	0xbe90ebae	-0.2830481
242	0xbe2ff857	-0.17184578
243	0x3e1de771	0.15420319
244	0xbe4476dd	-0.19185968
245	0x3d8d09d5	0.06886641
246	0x3e16b8c3	0.14718919
247	0xbe6af92b	-0.22946613
248	0xbe6f28fc	-0.23355478
249	0x3c1e18d4	0.009649474
250	0xbe206623	-0.15663962
251	0x3e08a160	0.1334281
252	0x3e6b788b	0.22995202
253	0xbceb625e	-0.028733429
254	0x3e2fd623	0.1717153
255	0xbd93b847	-0.072128825

network_critic.2.bias f4 [70]
0	0x3d236624	0.03989233
1	0x3d995af1	0.07488049
2	0x3d7d39d4	0.061822727
3	0xbe201ee5	-0.15636785
4	0xbde57269	-0.11203463
5	0xbdabaad7	-0.083821945
6	0x3dc610db	0.09671184
7	0x3d73e0fb	0.05954073
8	0x3d5e8c4d	0.05433302
9	0x3e1c34ad	0.15254469
10	0xbe4ef4ed	-0.2021062
11	0xbd051d74	-0.03249879
12	0xbd8f762b	-0.070049606
13	0x3cf1a69a	0.029498387
14	0x3e85e966	0.2615463
15	0x3ca9e67e	0.02073979
16	0x3cc44d5b	0.023962667
17	0x3bb9ff03	0.0056761517
18	0xbe0d6bc8	-0.13810647
19	0x3e1f21ac	0.15540189
20	0x3e222dcc	0.15837783
21	0xbd8ca547	-0.06867462
22	0xbc1f7454	-0.009732325
23	0x3d69d6d9	0.05708966
24	0x3db9228e	0.09039794
25	0x3e2ee3e7	0.17079125
26	0x3dc78bd0	0.09743464
27	0xbe7a3ad6	-0.24436507
28	0x3e470c88	0.19438374
29	0xbde3f9cd	-0.1113163
30	0xbdc6af63	-0.09701421
31	0xbe36c00f	-0.17846702
32	0xbe048dff	-0.12944792
33	0x3d0f0ef8	0.034926385
34	0xbe27bcf3	-0.16380672
35	0xbe5d8af5	-0.21635039
36	0x3e340869	0.17581333
37	0xbcee36f9	-0.029078947
38	0x3df84531	0.12122572
39	0x3c4abe5a	0.012374485
40	0x3e453ab3	0.19260673
41	0xbe1f3666	-0.15548095
42	0xbdd9cc81	-0.10634709
43	0x3dec27ab	0.115310036
44	0x3c305006	0.010761267
45	0xbd5554eb	-0.052082937
46	0x3c5a8043	0.013336244
47	0xbbb55e83	-0.0055349483
48	0x3d8ab005	0.06771854
49	0xbd8e91e5	-0.06961421
50	0xbdc5c666	-0.09656982
51	0x3d3f5061	0.046707515
52	0x3e396520	0.18104982
53	0xbd256c2e	-0.04038637
54	0x3da2bd34	0.07946244
55	0xbdf5ce9b	-0.120022975
56	0x3dcf41e7	0.10119992
57	0x3e263a00	0.16233063
58	0xbddd3aa0	-0.108021975
59	0x3e6b76af	0.22994493
60	0x3cadef31	0.02123222
61	0xbdf484cb	-0.11939391
62	0xbd776370	-0.060397565
63	0x3d471196	0.048600756
64	0xbc1f3b78	-0.009718768
65	0x3dd58a30	0.10426748
66	0xbd61adeb	-0.0550975
67	0xbd017c4b	-0.031612676
68	0xbe0b4520	-0.13600588
69	0xbdaf19db	-0.085498534

network_critic.4.weight f4 [1, 70]
0	0xbdc3782d	-0.09544406
1	0xbe440f27	-0.19146405
2	0xbdd1be56	-0.10241382
3	0x3db9010f	0.09033405
4	0x3da92451	0.0825888
5	0xbcb0a41a	-0.021562625
6	0xbe0992d7	-0.13434921
7	0xbd93ba4f	-0.0721327
8	0xbd42f080	-0.04759264
9	0x3dda89f2	0.10670842
10	0x3d363846	0.04448726
11	0xbd8214f4	-0.06351653
12	0x3d6b86be	0.057501547
13	0x3cc95dc0	0.024580836
14	0xbd83b2db	-0.06430598
15	0x3dd2b9e3	0.10289361
16	0xbe0874a1	-0.1332574
17	0x3d5bec09	0.053691898
18	0x3d8f8de6	0.07009487
19	0xbc0d3806	-0.008619314
20	0x3dd885ab	0.1057237
21	0x3de96591	0.113963254
22	0xbe7fd4ec	-0.24983567
23	0x3dbfd12f	0.093660705
24	0x3db30731	0.08741606
25	0xbe002e1a	-0.12517586
26	0xbe0579ed	-0.13034792
27	0x3d4d6f2f	0.05015486
28	0xbc3a0251	-0.011353091
29	0x3d8602ca	0.06543501
30	0x3e35d071	0.17755295
31	0xbe658175	-0.22412665
32	0x3d68bc57	0.05682024
33	0x3d15af9b	0.036544424
34	0x3d26e785	0.040748138
35	0x3e4a344d	0.19746514
36	0xbe09833e	-0.13428971
37	0xbc391116	-0.0112955775
38	0xbe0f7b3b	-0.14011852
39	0x3e0aed8d	0.13567181
40	0xbd67fcc4	-0.05663754
41	0xbe7ad144	-0.24493891
42	0x3cd3876d	0.025821412
43	0xbdcd3e4b	-0.10021647
44	0xbb6f7f0e	-0.0036544236
45	0x3d8d661e	0.06904243
46	0xbe70a36f	-0.23499845
47	0x3d2dd777	0.04244181
48	0xbc990e1c	-0.018683486
49	0xbea3ac63	-0.31967458
50	0xbe12dfb1	-0.14343144
51	0xbe63a567	-0.22231065
52	0xbdffb9fa	-0.12486644
53	0x3e664260	0.22486258
54	0xbd7f4b0e	-0.062327437
55	0x3dd77a6a	0.105213955
56	0xbd388fff	-0.0450592
57	0xbdbd438f	-0.092414014
58	0x3daf99f4	0.08574286
59	0xbd6c52d9	-0.057696197
60	0xbe13490e	-0.14383337
61	0xbb5a89e4	-0.003334635
62	0x3e23755d	0.1596274
63	0xbbb75a11	-0.0055954535
64	0xbe1f5f9e	-0.15563819
65	0x3e0ae0c9	0.13562311
66	0xbe5a3fcd	-0.213134
67	0xbe06bdc5	-0.13158329
68	0x3e2a9230	0.16657329
69	0x3e23bf11	0.15990855
