checkpoint/ddpg-critic_mlp_actor-lr:0.0001_critic-lr:0.0001_gamma:0.99_tau:0.05.pth (torch, 63319 bytes, 5 tensors)

network_critic.0.weight f4 [70, 145]
00000000: ee46 5a3d 03d5 fabd cf42 7c3d a276 693c
00000010: 75bd 3d3c 8b2c d1bd dd44 0b3e 0d69 eabd
00000020: e0c3 89bd 94ae 29bd 6d48 243d 5d21 fbbc
00000030: 7094 a2bd 1093 02bd 599e 79ba 7dbe 223d
00000040: bcce 99bd f45a d63c 48b3 24bc 3096 a5bd
00000050: 7ad6 a4be 65e4 853e 12ba 423f 2004 24bf
00000060: a1b2 543e 866d abbe dec5 a5bd 5894 123e
00000070: e7d2 72bd b956 07be 1794 fe3c e19a dfbd
00000080: 88e4 b7bd 175d cebd eec9 143e 7cb5 36bd
00000090: c098 f9bd 9c8b a73d 248e d6bc bbc6 ab3c
000000a0: 05fb 3a3d 6f73 943d f908 09bd 2bf4 12bd
000000b0: 8100 863c a514 96bd deb5 3d3d 52d0 c7bc
000000c0: db85 e6be 9b22 c43e 63bf 973f 7735 c5bf
000000d0: 36f6 3f3e 58ba 92be 3e4f cfbc 370f 013e
000000e0: dc50 70bc d798 1abe 0b98 ef3d ef06 7dbd
000000f0: 8eb8 dfbc 79c9 66bc 0854 603c 1762 d2bc
00000100: 2506 df3b 0d3a 863a 0bb7 82bd b380 a03d
00000110: fb8f c5ba 2da2 8e3d eeff d63c 51e9 b13d
00000120: ccfa 0dba 150a 85bd 33ad 97bd 6cc9 c7bd
00000130: ed85 4b3f c05d c23e 0213 a5bf 8031 e53e
00000140: a7f9 b83d 4add 57be 7331 8e3c ae42 1b3e
00000150: 6f00 663d ab05 87bd 5332 e43d 6a0d debd
00000160: 5755 0d3b 7b9b fdbc b994 9e3d 622e 48bd
00000170: d4d1 86bd b971 e73d 4a85 94bc 1db3 65bc
00000180: bb7c 9bbd 6677 0c3d 9938 c9bb 5556 f43c
00000190: 7d0f 463c 2814 45bc f6fb fcbc 0104 b0bd
000001a0: a547 8fbe 28fe a53e 2ac3 c53e 174b 3bbf
000001b0: 60e4 633e 493a 6cbe 9561 acbd d3b7 673e
000001c0: 57d1 793d 2c81 a9bd df3c 67bb 2159 a6bd
000001d0: dd2f c5bd 4fa6 edbc 0b41 8e3d 1bdd 2a3c
000001e0: 99e0 c0bd b23e 0f3d e2b6 003d 1e32 803c
000001f0: eebb 25bd e7e7 a6bc 9305 f73b 5780 8d3d
00000200: 309a 913c 8159 0b3d 58df 17bd dc1f 67bd
00000210: 817a 7ebe 963b 203e eeeb 2a40 6c36 3ebf
00000220: 0d5b 3b3e d45d 5cbe 21c8 c1bc 1217 893e
00000230: d079 273d 6816 303c 8216 b7bc 2842 14bb
00000240: e750 a6bb bb88 7e3b bfc3 1fbe 5146 5d3e
00000250: 21b4 95bd cf61 353d b9ce 93bc 9218 09bd
00000260: b265 a4bd b49f 2bbd fd17 943d b8b4 e4bd
00000270: 3028 633d 0fdb 94bd 86d1 833c 373d 643d
00000280: 471c 863d b053 943d 1d7c 42bd f39c 5f3d
00000290: fafc 6dbe 026a 4e3e 70b7 1b3e f536 1d3f
000002a0: 76e6 9cbc 82ae 093e 9554 afbe eaf8 e4bc
000002b0: 176f 803e 7f8d e03d f4d7 95bd 7052 f23d
000002c0: b7fd d43c d576 86bd 6dfd 5c3d ef19 31bc
000002d0: 13f4 e43c 21ff 673c a038 e13d 0de2 b7bd
000002e0: 7204 0dbc 81df 9b3b 8526 58bd eb80 653d
000002f0: fdc5 833d 1ab7 e8bc 38e5 7f3d 25d5 87bd
00000300: 7e88 86be d557 183e 64ea e03e 4548 c13f
00000310: dcf1 27bd 2a9b 453e 987c b1be e517 423d
00000320: 175b 503e 64ba c63d d391 98bd 4cab 573e
00000330: a331 dd3a ecf3 aeba 90f2 82bc a8c5 c03d
00000340: 03c5 7abd a4f1 9cbc fd51 a73d 331a c6bc
00000350: de78 acbd 0d0c e9ba ddde 8abc 26a2 62bd
00000360: a22e 453d 89a8 b9bc 928a 54bd 37ff 95bc
00000370: ee73 73be 9193 1d3e 368a e63e c990 843f
00000380: 2223 523d a169 5c3e 2378 c1be 8a2c 27bd
00000390: d5a2 803e b526 0d3c 8e3a ffbd 445e 3a3e
000003a0: cc8d 063c 105a 2f3d 7410 b3bb fdcc 973c
000003b0: a2be c1bc 8aff 64bc 1a0c d83d b4f7 ffbd
000003c0: 614d c6bc 8a7d 5f3d caa7 b23d 6278 6e3d
000003d0: f862 c23d fb65 663d d1a2 1abd 2b19 5fbd
000003e0: 87f6 47be 66e2 64bf 9b57 be3e 2754 973f
000003f0: 20d6 95bf 5ff0 833e bde6 90be e17f a23c
0.0532903 -0.1224766 0.06158715 0.014249476 0.011580815 -0.10213574 0.13600488 -0.11445818
-0.06726813 -0.041426256 0.040108133 -0.030655557 -0.079384685 -0.03187853 -0.0009522192 0.039732445
-0.075101346 0.026166417 -0.01005251 -0.080852866 -0.32194883 0.26150814 0.7606517 -0.64068794
0.20771267 -0.33481997 -0.08094381 0.14314401 -0.059283163 -0.13216676 0.031076474 -0.10918213
-0.08979136 -0.10076349 0.14530155 -0.04460667 -0.12187338 0.08180925 -0.026190825 0.020968786
0.045649547 0.0724858 -0.033455823 -0.035877388 0.016357662 -0.073281564 0.04631602 -0.024391327
-0.45024 0.38307652 1.1855282 -1.5406941 0.18746266 -0.28657794 -0.02530634 0.1260346
-0.014667716 -0.15097366 0.11698922 -0.06177419 -0.027309682 -0.014086121 0.01369191 -0.025681539
0.0068061524 0.0010240689 -0.06382569 0.078370474 -0.0015072817 0.06964526 0.026245084 0.0868708
-0.0005416095 -0.064960636 -0.07406082 -0.09755215 0.7950123 0.3796215 -1.2896426 0.44764328
0.090319924 -0.21080509 0.017357564 0.15162155 0.056152757 -0.06592878 0.11142411 -0.10842402
0.002156576 -0.030957928 0.0774321 -0.04887236 -0.0658299 0.11300988 -0.018129963 -0.014019755
-0.0759215 0.034293555 -0.00614078 0.029826323 0.012088654 -0.012028731 -0.030881863 -0.08594514
-0.27984348 0.32420468 0.3862546 -0.73161453 0.22255087 -0.23069109 -0.0841705 0.22628717
0.060990658 -0.08276591 -0.0035284085 -0.08122469 -0.0962827 -0.029009966 0.06946 0.010428692
-0.094178386 0.0349719 0.03142441 0.015648898 -0.040462427 -0.020374252 0.0075385063 0.069092445
0.017773718 0.034020904 -0.03707823 -0.056426868 -0.24851419 0.1564773 2.67065 -0.7430179
0.18296452 -0.21520168 -0.023655 0.26775414 0.040887654 0.01074753 -0.0223496 -0.002262244
-0.0050755623 0.0038838822 -0.15602015 0.21608855 -0.073097475 0.04428273 -0.018042909 -0.033470698
-0.08027209 -0.04190035 0.07231138 -0.11167282 0.055458248 -0.072683446 0.01609112 0.05572244
0.06548362 0.072425246 -0.047481645 0.054593038 -0.23241034 0.20157626 0.15206695 0.6141198
-0.019152861 0.13445476 -0.34244218 -0.027950723 0.25084755 0.10964488 -0.073165804 0.1183213
0.025999887 -0.06565634 0.053952623 -0.010809406 0.027948415 0.014159949 0.109971285 -0.08978663
-0.008607017 0.0047568684 -0.05277111 0.05603115 0.06434248 -0.028407622 0.06247446 -0.06632451
-0.2627601 0.14877255 0.43928826 1.510018 -0.04100214 0.19297472 -0.3466537 0.04738607
0.20347248 0.0970352 -0.07449689 0.21061438 0.0016875755 -0.0013347841 -0.015984803 0.094127
-0.06122304 -0.019158192 0.08169935 -0.024182415 -0.08421491 -0.0017780081 -0.016951973 -0.055330418
0.048140176 -0.022663372 -0.051889963 -0.018310172 -0.23774692 0.15388323 0.45027322 1.0356685
0.051303037 0.21524669 -0.3778697 -0.04081396 0.2512423 0.0086151855 -0.1246234 0.18200022
0.008212518 0.0428105 -0.005464608 0.018530363 -0.023650471 -0.013976941 0.10549183 -0.124984175
-0.024206819 0.054563083 0.087234095 0.058220275 0.09491533 0.0562496 -0.03775293 -0.05446736
-0.19527636 -0.89407957 0.37176213 1.1822556 -1.1705971 0.25769326 -0.2830104 0.019836368

network_critic.0.bias f4 [70]
00000000: 4241 79bc 88d2 4e3c 4adf 3cbc 60c4 813d
00000010: 6a45 853d 815e 3e3d 8711 593b 16e9 2f3d
00000020: 03e8 88bd bd6e 143c 5898 46bd 7409 cfbd
00000030: 124c 9d3c e3c6 b93d 5f21 f8bd c550 423d
00000040: ce96 3bbd a886 b03c ecf1 873d c273 feba
00000050: 0152 03bd 43da 2abd 13db 393d cc3c 8cba
00000060: d2a4 cc3c d01c 0a3e 3199 1dba bdce 2bbd
00000070: 723e cf3c a081 c7bb c1b6 c23c 5754 21bc
00000080: ed92 6ebd 3257 673a 6202 813d 4348 3ebd
00000090: b328 91bd 4f0f 2bbd a272 103d 6a61 b2bd
000000a0: f0be 20bb 7dc6 b0bd e670 9c3d 6227 203d
000000b0: 1ca7 9cbd 8de2 93bd 1d8c f73d 037d 33bd
000000c0: 0db7 573d 4b5b efbc b97f 98bd 8f36 273d
000000d0: 6d83 1abd fc14 e03d c1ae 833d f416 6f3d
000000e0: 1e41 a4bc 762a 24bc 9b6a a03d 4155 863d
000000f0: 14b6 99bd 820c 823d 8617 b73d c6cf aebc
00000100: 6580 49ba 88f0 2f3d 3479 5c3d 9921 bfbd
00000110: 7606 69bd dbc2 ed3c
-0.015213313 0.012623437 -0.011527846 0.06336284 0.0650738 0.046476845 0.003312202 0.042946897
-0.06684878 0.009059605 -0.04848513 -0.10109225 0.019201312 0.09071138 -0.1211574 0.04744031
-0.045798115 0.021548584 0.0663794 -0.0019413161 -0.032060627 -0.041712057 0.04537494 -0.0010699271
0.024980936 0.13487554 -0.0006011902 -0.041945208 0.025298331 -0.0060884506 0.023768784 -0.009846768
-0.058245588 0.0008824944 0.062992826 -0.046455633 -0.07087841 -0.041762646 0.035265572 -0.087099865
-0.002452787 -0.08631609 0.07638721 0.03910006 -0.07649061 -0.072209455 0.12087271 -0.043820392
0.052664805 -0.029218337 -0.07446236 0.040823516 -0.037722994 0.109415025 0.06429816 0.0583715
-0.020050582 -0.010019889 0.078328334 0.0655923 -0.07505432 0.06350042 0.089400336 -0.021339308
-0.0007686674 0.042953998 0.053826526 -0.0933258 -0.056890927 0.029023578

network_critic.2.weight f4 [70, 70]
00000000: 5985 1f3e 3f36 683c 6f6c 28be d37b 97bd
00000010: 7a07 8cbd 4e93 8bbd 1003 99be 9254 9e3d
00000020: 0565 64bd 0f9d dd3d 4ce7 08be c65f 33bc
00000030: f740 3fbe 2e1b aa3d b954 043e ffe6 ab3e
00000040: 1cf0 8f3c b049 96bd 2777 223e 5ce1 a9bd
00000050: 4c95 28be 2afc fbbb 67a4 743e 492c b83c
00000060: c6da 1b3e 4a89 65bd 1c2b 97bd 565a 28be
00000070: fa9f 4c3d 4fed a1bc 31bc ddbc 0434 873f
00000080: d3f9 a5bd 13ad 69bb 7908 a13d 1a26 03be
00000090: e85d 5d3e 2ed2 a83d 2bba 1ebe a65e 313e
000000a0: 17e0 b3be df9c db3d 89ac ccbd 137d 3d3e
000000b0: 9cec 5d3d c3aa 6fbd b9da 0bbe da8c 6a3b
000000c0: 1af4 ad3d e937 49bc c30d 1b3e 2740 b93d
000000d0: 63f2 84be 44a5 b33d e365 99bd 4dab 013e
000000e0: 423b 51bd 7c6e 0bbe e12f 66be fb22 c9be
000000f0: f80a 3ebd 4976 dfbe 869e b7bb 937a 11be
00000100: 69b9 963d c5cd 5a3d 8533 833c b65f 79be
00000110: fc33 fcbd e6a5 4a3d 51bb 05bd 2298 6abc
00000120: 7de0 e5bd 8a00 db3d 8af4 a1bd bc53 1cbd
00000130: f634 31bf 146f c73d 8fc9 95bc d55d a53c
00000140: 5b40 1dbe 9d42 dabb b52f 9ebe c1b8 a93d
00000150: 95fd e3bd 7ec7 823d 4347 943e ae50 97bc
00000160: 171c c73d 12e0 a1bd 70ee 34be 3b91 1dbc
00000170: d63c 0d3e 0bd4 513d b68a 1dbe 496a e2bd
00000180: b9f0 883d 7506 153d 48e5 be3d 9b88 cdbd
00000190: ecbb 41be 9662 dc3c 1d12 1c3e 01f0 d9bc
000001a0: be55 74bd 5909 a7be 0eb0 a2bd a25b 5abe
000001b0: 48bb cbbe a9af a2bd 03bd 54bc 7046 82bd
000001c0: 168b b2bd 9c85 b1bd 41e6 c83d bde7 5d3e
000001d0: b43c 03be 6f41 ea3c 7fa5 84be 2f0d fc3d
000001e0: 8a6e dd3d 96c9 23be eec8 d13d ffca bc3d
000001f0: 616d 003c dff6 fa3c 3b13 0b3c 2732 d6bd
00000200: f7b1 0abe a9de 5cbe 7460 9f3d f8a3 84b9
00000210: 7800 853d bc9b b2bd 5a19 0cbe 64d8 7b3e
00000220: 97b2 873d ae7c afbd bafd 483d 7715 523d
00000230: 53fd 6b3d e48d b83d 270f de3d baa6 e4bd
00000240: eed6 8b3c 626c bd3c 68ba a83d b205 7c3d
00000250: 91d0 a1bd 7d94 8d3d 1e8f 59bd b8fb 963c
00000260: d42a 7b3d c438 c93d 4238 6f3d 2521 2ebe
00000270: b3f4 403d 8240 bebd f11f 0dbe fee0 7ebc
00000280: 8366 babb ea00 aebb 0cac 053d 79a1 d63d
00000290: 93c0 273d 3fd3 a63c 88b1 203e b410 17ba
000002a0: c563 18bd a780 32bd 11e0 39bc 2093 8a3d
000002b0: 28fa 80bd 90be 203d 8ed3 1a3c 3423 b93d
000002c0: 4501 9c3c c3f2 9b3d 57a8 963d eaf2 8a3d
000002d0: 30ee 78bc 0c95 eabd f073 e3bd 30b1 bf3d
000002e0: 4980 c13c 5e82 433c da5d bc3d d717 92bd
000002f0: 3a43 61bb 9198 313c dac9 6e3d 2d3a d43d
00000300: 55ea 473e daf7 af3d b0f9 85bd d8ee d33d
00000310: fb90 cebd 15fc 753d 8a80 173e afb0 47bd
00000320: 67f4 70bc ded9 8abd ff4d a2bd 1dc2 c8b9
00000330: a4fc 533d b28b 263c 5441 bfbd 60a7 773d
00000340: 0ea2 84bb b0c3 783d ab86 6b3d 5cbd b8bc
00000350: 9d8f 003e 3615 e1bd 42f6 86bd 8aba f6bd
00000360: 2cc2 003e 8f77 023d 8d44 4d3c dc31 f0bc
00000370: cc18 aabc 5cb0 bebd e33f 0cbe 8a99 6b3d
00000380: 6ad1 93bd 483a 79be 99e5 1c3e c70b aa3d
00000390: 8280 54bd cef5 163d e81e 90bd 4276 0f3e
000003a0: f126 913c 848e 5abe 4451 0dbd 3a6d 393c
000003b0: dd0f 51bc f962 bbbd 1110 9ebb 2179 4cbc
000003c0: 8013 ea3b 1b33 c7bc b280 e93d 0a44 86bd
000003d0: 73f9 c8bd 2a2b abbd 1da0 2b3d e06c 9e3c
000003e0: 8862 10be 13fd e83d 4b13 36be fc4f 5bbf
000003f0: 4598 de3d ef19 8f3d 9066 0cbe d5c7 d3be
0.15578212 0.0141730895 -0.16447614 -0.073966645 -0.068373635 -0.068152055 -0.2988515 0.07730974
-0.055760402 0.10820972 -0.13369483 -0.010948127 -0.18677126 0.08305965 0.12922944 0.33574674
0.017570548 -0.073382735 0.15865766 -0.08294937 -0.16463202 -0.0076899724 0.2389084 0.022482054
0.15220174 -0.056039132 -0.07381269 -0.1644071 0.049957253 -0.019766478 -0.027067276 1.0562749
-0.08104291 -0.0035656139 0.07862944 -0.12807503 0.21617854 0.082432136 -0.15500705 0.17321262
-0.35131904 0.1072328 -0.09993846 0.18504743 0.054180726 -0.05851246 -0.13657655 0.003578952
0.08493824 -0.012281396 0.15141968 0.09045439 -0.25966176 0.08771756 -0.074901365 0.12663002
-0.051081903 -0.13616365 -0.22479202 -0.392845 -0.04639718 -0.43644932 -0.0056036143 -0.14206915
0.07359583 0.053418893 0.016015777 -0.24352917 -0.12314603 0.04947462 -0.032649342 -0.014318498
-0.11224458 0.10693462 -0.0790797 -0.038165793 -0.69221437 0.09737983 -0.018284587 0.020186344
-0.15356581 -0.006660773 -0.30895773 0.08287192 -0.11132351 0.06385706 0.28960618 -0.018471088
0.097221546 -0.07904066 -0.17669082 -0.009617145 0.13792738 0.05122761 -0.15384945 -0.110554285
0.06686539 0.03638311 0.09321076 -0.10035821 -0.18919343 0.026902478 0.15241285 -0.0266037
-0.059652083 -0.3262432 -0.07943736 -0.21324018 -0.39791322 -0.07943661 -0.012984517 -0.06361091
-0.08717935 -0.08668062 0.098095424 0.21670432 -0.12816125 0.028595654 -0.25907513 0.12307202
0.10812099 -0.15994868 0.102434024 0.09218406 0.007838578 0.030635295 0.008488472 -0.104587846
-0.1354445 -0.21569313 0.07782069 -0.00025299168 0.0649423 -0.0872111 -0.13681546 0.24594265
0.0662586 -0.08568703 0.049070098 0.05129 0.057614636 0.090114385 0.10842734 -0.11164613
0.01707026 0.02312297 0.08238679 0.06152887 -0.07901109 0.069130875 -0.053115003 0.018430576
0.06132014 0.0982528 0.05840326 -0.17004831 0.047108363 -0.09289648 -0.13781716 -0.015556572
-0.00568849 -0.0053101676 0.03263478 0.10480017 0.040955137 0.020364402 0.15692723 -0.0005762682
-0.037204523 -0.043579724 -0.0113449255 0.06766343 -0.062977135 0.039244235 0.009449853 0.090399176
0.019043574 0.076146625 0.07356327 0.067846134 -0.015193507 -0.1145421 -0.11106098 0.09359968
0.023620741 0.011932937 0.09197588 -0.07133453 -0.0034372346 0.010839597 0.05829797 0.10362659
0.19522984 0.08592196 -0.06541765 0.1034829 -0.100862466 0.060054857 0.14795128 -0.048752483
-0.014706708 -0.06779836 -0.07925033 -0.00038291598 0.05175461 0.010165142 -0.09338632 0.060462356
-0.0040476387 0.060733497 0.057501476 -0.022551231 0.12554784 -0.10990374 -0.06589939 -0.12047298
0.1257407 0.0318523 0.012528551 -0.02932065 -0.020763777 -0.09310982 -0.13696246 0.057519473
-0.07217677 -0.24338639 0.1532196 0.083030276 -0.051880367 0.03685551 -0.07037145 0.14009956
0.017718764 -0.21343428 -0.03450133 0.011317546 -0.01276013 -0.09149737 -0.0048236926 -0.012480051
0.007143438 -0.024316361 0.114015 -0.06555946 -0.09813204 -0.08357842 0.041900743 0.019339025
-0.14100087 0.11376395 -0.17780797 -0.8566892 0.10868887 0.06987368 -0.13711 -0.41363397

network_critic.2.bias f4 [70]
00000000: dd2a d43d 9d8f 9fbd 82dd de3d 00b5 2f3d
00000010: 1a6a e23c f086 793d 92e5 093e d6e6 fe3c
00000020: e70c 333c 3152 8ebd 881e 1abd 4fc5 403d
00000030: 7a64 093c c53a 8c3c 2e7e 43bd 3c28 16be
00000040: d747 fb3d 319b 4b3d 647d b03c 81b0 9d3d
00000050: 9b10 863c ccd3 b5bd 0bb5 2a3d 03c9 07bd
00000060: 2fc3 88bd fc30 da3c cdb2 0abc 9459 f53d
00000070: 4211 bd3d 1724 2fbc f7b7 203d 6f50 9fbd
00000080: 5ea2 be3d 0796 50bc ac23 8dbc e7e3 c13d
00000090: fae8 3e3b 2ec7 3bbd 1f00 eabc cfe3 b23d
000000a0: 7019 09be 5273 21bd c8a6 dc3d e779 f23d
000000b0: 25be ccbc 2a73 24bd 0c2d d43d b5f8 7cbd
000000c0: 4812 2b3c 0558 79bd 598d 4ebd de05 5cbb
000000d0: acb3 89bb a2e2 1c3e bf10 5dbc 7859 83bd
000000e0: 05d6 833d c755 b8bd f6a3 87bb 71fb 2d3d
000000f0: b2d2 af3d 0adf c03d 9a9d c4bd f443 c83b
00000100: 6728 a33d a1b8 6c3c 0fe1 273d 735a 193c
00000110: 6e68 bb3d 4818 0e3d
0.10359738 -0.07791064 0.10882093 0.042897224 0.027638484 0.060919702 0.1346648 0.03111593
0.010928369 -0.069492705 -0.037626773 0.04706317 0.008385772 0.017117867 -0.047727756 -0.14663786
0.12269562 0.04970855 0.021544166 0.07699681 0.01636534 -0.08878288 0.041676562 -0.033150684
-0.06677853 0.026634686 -0.008465481 0.11979976 0.09231807 -0.010689757 0.039237943 -0.07779013
0.09308313 -0.012731082 -0.017228924 0.09467297 0.0029130564 -0.04584425 -0.02856451 0.08734857
-0.1338861 -0.03941662 0.107739985 0.11839657 -0.024993012 -0.04014889 0.103601545 -0.061760623
0.01044137 -0.060874958 -0.05042777 -0.0033572833 -0.0042023268 0.15320829 -0.013492762 -0.06413549
0.06437305 -0.09000736 -0.0041394187 0.04247612 0.08585109 0.09417541 -0.096003726 0.0061116163
0.079666905 0.014448316 0.040986117 0.009359944 0.09150778 0.034691125

network_critic.4.weight f4 [1, 70]
00000000: 8bf1 933e f9c4 b43e ac55 2abd f429 8fbe
00000010: 965c 3c3d 5ba1 823e e657 c13e 02c5 223e
00000020: 9d9d 6d3d 6a61 813d 5939 b7bd 2247 c3bd
00000030: 6cb8 2fbe d7e7 8a3c c6e1 7c3e 64b8 e5be
00000040: ea76 c3bd 47b5 20bf a294 a9bd a060 833e
00000050: 40af debc b744 91bf bc0a 92be af42 db3d
00000060: e546 2c3c 1aef 26be d75d debe 624b 193e
00000070: f0b5 7fbe 8d78 88be d621 b03d d114 833e
00000080: fffc 183e d309 563d 6fee 34be c192 003e
00000090: d194 18be 5c6c 2e3e eca3 123e f44f d4be
000000a0: ce71 3cbe 9555 20be 39df d7bd 4a66 aa3d
000000b0: 9350 fbbe 0f37 eebc e188 39bf bde8 793e
000000c0: fb22 43be 420f 1a3e 9dd5 bdbd 0bd4 b73d
000000d0: 434e 8c3e dabf 723e 926e a1be 4bc7 813d
000000e0: 5589 63be 3218 483f a295 803e 3f74 853d
000000f0: be7c 05bf 3f61 ffbd 8365 53be bcda 46be
00000100: 6d9f ee3d 26e5 6b3e 88c1 26be 900a 053e
00000110: e659 b9be c2ce 923d
0.2889522 0.35306528 -0.04158561 -0.27961695 0.045986734 0.2551373 0.37762374 0.15895465
0.05801164 0.063174084 -0.08946485 -0.09535052 -0.17160195 0.016956253 0.246955 -0.4486724
-0.095441654 -0.6277661 -0.082803026 0.25659657 -0.027183175 -1.1349095 -0.28523815 0.10706078
0.010514949 -0.16302148 -0.4343097 0.14970163 -0.24971747 -0.26654473 0.08600204 0.2560182
0.1494026 0.052255463 -0.1766908 0.12555982 -0.14900519 0.17033523 0.14320344 -0.4146725
-0.18402788 -0.15657647 -0.10540623 0.08320291 -0.4908491 -0.029078988 -0.72474486 0.24405189
-0.19056313 0.15044883 -0.09269259 0.08975991 0.2740346 0.23705998 -0.3152967 0.0633684
-0.22220357 0.7816192 0.2511416 0.06516313 -0.52143466 -0.1246972 -0.20644192 -0.19419378
0.11651502 0.23036632 -0.16284764 0.1299231 -0.362014 0.07168342
