checkpoint/ddpg-critic_mlp_actor-lr:0.0001_critic-lr:0.0002_gamma:0.99_tau:0.02.pth (torch, 63319 bytes, 5 tensors)

network_critic.0.weight f4 [70, 145]
0	0x3d023d60	0.031796813
1	0xbe934456	-0.28763074
2	0x3e42f7df	0.19039868
3	0x3cd0b644	0.025477536
4	0x3dd080ac	0.10180792
5	0x3d6f655f	0.058446284
6	0x3ca894ee	0.020578828
7	0xbe4f82d6	-0.20264754
8	0xbe06ac0f	-0.13151573
9	0x3db2a6f1	0.08723248
10	0xbdb72cf7	-0.08944123
11	0xbd930d65	-0.07180289
12	0x3ca69f65	0.020339677
13	0x3d3ac25b	0.045595508
14	0xbba108de	-0.004914387
15	0xbbad05a1	-0.005280212
16	0xbdaf4c0e	-0.08559428
17	0x3d4ed4bc	0.050495848
18	0x3d4cf1cf	0.050035294
19	0x3db3ad46	0.08773284
20	0xc032ee43	-2.7957923
21	0x3e232c73	0.15934925
22	0x405b8889	3.4302084
23	0xc022aa51	-2.5416453
24	0x3ea152a1	0.31508353
25	0x3e0f1708	0.1397363
26	0xbd0b0a04	-0.0339451
27	0x3de303e3	0.11084726
28	0xbd6898d0	-0.05678636
29	0xbe8dac66	-0.27670592
30	0x3e4dea92	0.20109013
31	0x3e0e7b38	0.13914192
32	0x3e4eada1	0.20183422
33	0x3d3615a8	0.044454247
34	0x3dcf283c	0.10115096
35	0xbe73e114	-0.23816329
36	0xbd9f2277	-0.077702455
37	0x3e3e277d	0.18569751
38	0xbd5fc6e0	-0.05463302
39	0x3d18591d	0.03719436
40	0x3dbec773	0.09315386
41	0xbca12353	-0.019670164
42	0xbd0bc793	-0.034125876
43	0x39b73035	0.00034940397
44	0x3c54e961	0.012995095
45	0x3d4d9f67	0.050200846
46	0x3d414095	0.04718073
47	0xbc9be6d8	-0.019030973
48	0x3fca0d8d	1.5785385
49	0x3e74ce34	0.23906785
50	0xc0017484	-2.0227365
51	0x4036b1df	2.8546064
52	0x3e9bad6d	0.3040575
53	0x3dd4a9d2	0.10383953
54	0xbc15070e	-0.00909592
55	0x3e399d49	0.18126406
56	0xbd4e2320	-0.050326467
57	0xbe1229c2	-0.14273742
58	0x3e0e2b4e	0.13883707
59	0x3b954e5d	0.004556461
60	0x3d81fb03	0.06346705
61	0x3dd13902	0.102159515
62	0x3d85d101	0.06534005
63	0xbe4ea01f	-0.20178269
64	0xbdf1fbee	-0.1181563
65	0x3e457d27	0.19286023
66	0xbddebe96	-0.10876195
67	0xbd926e0a	-0.071498945
68	0xbd569b04	-0.05239393
69	0x3d97046e	0.07373892
70	0x3899cac4	7.3333766e-05
71	0xbc90c5bb	-0.01767241
72	0xbcd2ab4f	-0.025716452
73	0xbd08b3ea	-0.033374704
74	0x3bc4d131	0.006006383
75	0xbcf07c37	-0.029356105
76	0xbe99bd3e	-0.30027193
77	0x3dd538dc	0.10411236
78	0xbf22131b	-0.633104
79	0xbf119f9d	-0.56884176
80	0x3e8e7464	0.27823174
81	0x3e3ea9c1	0.18619443
82	0xbd1f4962	-0.038888343
83	0x3e3fcdd6	0.18730864
84	0xbd581fef	-0.05276483
85	0xbe5a94bc	-0.213458
86	0x3e4829a1	0.1954713
87	0x3defb780	0.11704922
88	0x3e518dab	0.20464198
89	0x3d090c0b	0.03345875
90	0x3d8b4dd3	0.06801953
91	0xbe37702c	-0.17913884
92	0xbd217db0	-0.039426506
93	0x3dc8f57e	0.09812449
94	0xbd951f58	-0.07281369
95	0x3da42286	0.08014397
96	0xbc8a32c2	-0.016869906
97	0xbd38570a	-0.045004882
98	0xbd036a16	-0.032083593
99	0xbc93fef1	-0.018065901
100	0x3ccac9d3	0.02475444
101	0xbd869a66	-0.06572418
102	0xbc9acf5c	-0.018897705
103	0x3db5675b	0.08857604
104	0x3f84b7c5	1.0368582
105	0x3e48cb54	0.19608814
106	0x3e82b197	0.25526115
107	0x3f4e415d	0.80568486
108	0x3e4b0233	0.19825058
109	0x3e2ef57a	0.1708583
110	0xbc1eaa19	-0.009684109
111	0x3e12bfc7	0.1433097
112	0xbc8892ad	-0.016671503
113	0xbe841b99	-0.25802305
114	0x3d99e686	0.07514672
115	0x3dc32727	0.09528952
116	0x3def0da6	0.11672525
117	0xbc172697	-0.009225509
118	0x3cfa85c9	0.030581372
119	0xbde9bf8b	-0.11413487
120	0xbd1fbd47	-0.03899887
121	0x3e2b8559	0.16750087
122	0x3c15f5cb	0.00915284
123	0x3d205436	0.03914281
124	0xbcc204ad	-0.02368387
125	0x3d22d9e1	0.039758567
126	0x3d61922a	0.055071034
127	0x3c965b8e	0.018354204
128	0xbcbe6309	-0.023240583
129	0x3afaeb04	0.0019143526
130	0x3d590d53	0.052991223
131	0x3d7daf1a	0.061934568
132	0x3f74d46f	0.9563665
133	0x3d2a5170	0.04158157
134	0x3fb55cef	1.4168986
135	0x3f96d47d	1.1783596
136	0x3e51e67e	0.20498082
137	0x3e3c3b89	0.18382086
138	0x3d8c57dd	0.06852696
139	0x3d92fe1c	0.07177374
140	0xbe012b9c	-0.12614292
141	0xbd93ab24	-0.07210377
142	0xbd12985d	-0.035789836
143	0x3d82591b	0.06364652
144	0xbdf8cc41	-0.12148333
145	0x3d97741f	0.07395195
146	0xbd8b0ab2	-0.06789149
147	0x3d99a4d4	0.075021416
148	0x3d8c8cf2	0.06862821
149	0xbd89ee40	-0.06734896
150	0x3cfba87c	0.030719988
151	0x3bb55fba	0.005535093
152	0xbd215322	-0.039385922
153	0xbd404b9e	-0.046947114
154	0xbc32d7b9	-0.01091569
155	0xbd416bf4	-0.047222093
156	0xbcfce5e2	-0.030871335
157	0xbd83291e	-0.06404327
158	0xbd73c752	-0.05951626
159	0xbd673889	-0.0564504
160	0x3cf2bef5	0.029632071
161	0xbd09f49e	-0.03368055
162	0x3c56459e	0.0130781215
163	0x3d0ad6f8	0.033896416
164	0xbd7b4249	-0.06134251
165	0x3d312552	0.043248482
166	0x3d9b3baf	0.07579743
167	0x3d32d09a	0.04365597
168	0x3d0dcff2	0.03462214
169	0x3d62efb4	0.05540438
170	0xb8ab5d46	-8.171289e-05
171	0xbbaa39de	-0.0051948866
172	0x3abe7c4f	0.0014532896
173	0xbd334ab0	-0.0437724
174	0xbd47c879	-0.04877517
175	0x3c74d535	0.014943411
176	0xbd370d0d	-0.04469018
177	0x3d8d7f8c	0.06909093
178	0xbd8d02ec	-0.06885323
179	0x3d4a7cd8	0.049435467
180	0xbd0ee073	-0.03488202
181	0x3d9aa855	0.07551638
182	0xbda5d5b4	-0.08097401
183	0xbd549c9f	-0.051907178
184	0xbd9b620a	-0.07587059
185	0x3c923e86	0.01785208
186	0xba49b9ab	-0.0007695208
187	0xbd51e746	-0.05124595
188	0x3cae10c1	0.021248223
189	0x3d6adb4f	0.057338055
190	0xbcabc1ad	-0.020966375
191	0x3d92b88f	0.07164108
192	0x3cad4e38	0.021155462
193	0x3d8c7564	0.06858328
194	0x3cc92172	0.02455208
195	0xbd592511	-0.053013865
196	0x3d64ad2e	0.05582922
197	0xbbf05f4a	-0.007335578
198	0x3d7dcc9b	0.061962705
199	0xbd90c0be	-0.07068013
200	0xbc928da0	-0.017889798
201	0x3c3f5390	0.011677638
202	0xbd910762	-0.07081486
203	0xbd7d342a	-0.061817326
204	0xbd4a94c0	-0.049458265
205	0xbc7ad909	-0.015310534
206	0x3c34d555	0.01103719
207	0x3c3f862d	0.011689705
208	0xbcb957e9	-0.022624927
209	0x3cc8672d	0.02446326
210	0xbd4d9c83	-0.05019809
211	0x3d61d4ba	0.055134512
212	0xbcb04204	-0.021515854
213	0xbb82432a	-0.0039752917
214	0xbce09d90	-0.027418882
215	0xbd461ced	-0.04836743
216	0x3d9d28ba	0.076737836
217	0xbbb7d64a	-0.005610262
218	0x3ca6595f	0.020306287
219	0xbb9fd4d7	-0.0048776674
220	0xbd1add15	-0.037808497
221	0x3d5f9ac1	0.054590944
222	0x3c9c3c4e	0.019071724
223	0xbd94e2c4	-0.072698146
224	0xbd218ebd	-0.039442766
225	0x3cc72c4f	0.02431312
226	0x3d3f380b	0.046684306
227	0x3d249f7c	0.04019116
228	0xbd8c555b	-0.06852218
229	0xbba528dd	-0.0050402717
230	0x3ca801a1	0.02050859
231	0xbc524560	-0.012833923
232	0xbd8e7821	-0.069565065
233	0x3c27d593	0.010243791
234	0x3c997d98	0.018736646
235	0x3afd1f10	0.0019311626
236	0xbd4f6a46	-0.05063846
237	0xbda29baa	-0.07939847
238	0xbd6b69be	-0.05747389
239	0x3d7387a5	0.059455533
240	0x3d97f151	0.07419074
241	0xbd51fc24	-0.05126585
242	0x3d5f5569	0.054524813
243	0xbd71b26e	-0.059008054
244	0x3da9c2b5	0.082890905
245	0xbc8dd61a	-0.017314006
246	0xbd31c916	-0.04340466
247	0xbd8b88bf	-0.068131916
248	0xbcf30e9e	-0.029670056
249	0xbd6c1b01	-0.05764294
250	0xbcdd3517	-0.027002854
251	0xbca40d2e	-0.020025816
252	0xbd8d0972	-0.06886567
253	0x3d171da1	0.03689349
254	0x3d75eed1	0.060042206
255	0x3cb68bda	0.022283483

network_critic.0.bias f4 [70]
0	0x3dcbf431	0.09958685
1	0xbcad1838	-0.021129712
2	0x3d9e1f32	0.07720794
3	0xbdc7159a	-0.09720917
4	0x3d4a865c	0.04944454
5	0xbd2b1f63	-0.04177798
6	0x3d09ff5e	0.033690803
7	0xbdad5e5c	-0.08465263
8	0x3c276619	0.010217213
9	0xbdd585a9	-0.10425884
10	0x3d1efe5c	0.038816795
11	0x3d37d17f	0.044877525
12	0x3dfa38c4	0.122178584
13	0x3db28a3d	0.08717773
14	0xbb6eb5fb	-0.0036424387
15	0xbd0d6b99	-0.03452644
16	0xbd3f5c53	-0.046718907
17	0xbdefdcb5	-0.117120184
18	0x3dd80353	0.10547509
19	0x3db0badb	0.0862939
20	0xbd868f81	-0.0657034
21	0x3d884a98	0.06654853
22	0x3d579562	0.052632697
23	0x3da556c0	0.08073187
24	0x3d1603dc	0.036624774
25	0xbd95a24b	-0.073063456
26	0x3cd0a9d9	0.025471615
27	0xbdf3f23e	-0.119114384
28	0xbd5550da	-0.05207906
29	0xbdc78e8b	-0.09743985
30	0xbdb8ebd4	-0.09029356
31	0xbb026124	-0.0019894326
32	0x3e11cfae	0.1423938
33	0xbbada288	-0.0052989163
34	0xbd773eb0	-0.060362518
35	0x3d7518ce	0.05983811
36	0x3dadb357	0.08481472
37	0x3cf8f5fb	0.03039073
38	0xbd9283e6	-0.07154064
39	0xbd96250a	-0.073312834
40	0xbccec75d	-0.025241548
41	0xbdb2451b	-0.08704587
42	0x3d7552df	0.059893485
43	0xbb12a0e6	-0.0022373735
44	0xbd8dc6ef	-0.06922709
45	0xbdb4461c	-0.08802435
46	0x3d161c5a	0.036648132
47	0xbdb54f44	-0.08853009
48	0x3aa4f4b0	0.001258513
49	0xbd53946e	-0.051655225
50	0x3d060693	0.032721113
51	0xbd64fb01	-0.05590344
52	0x3d3cc434	0.04608555
53	0x3d2aeb5d	0.041728366
54	0xbd113fe7	-0.035461333
55	0xbc72b50b	-0.014813672
56	0x3cb9d9cf	0.022686867
57	0xbdbb56ab	-0.0914739
58	0x3b65431f	0.0034982634
59	0xbe081f87	-0.13293277
60	0xbde90cfe	-0.11379431
61	0xbd8794f9	-0.06620211
62	0xbb44eebd	-0.0030049526
63	0x3d77c431	0.060489837
64	0xbd226d20	-0.03965485
65	0xbcf1f550	-0.02953592
66	0xbd9aa7d6	-0.075515434
67	0x3d9c9ff5	0.07647697
68	0xbd3ebb0c	-0.0465651
69	0xbe05a426	-0.13050899

network_critic.2.weight f4 [70, 70]
0	0xbd25349c	-0.040333375
1	0x3db268e6	0.08711414
2	0x3d1588a6	0.03650727
3	0xbcb50337	-0.02209626
4	0x3e5a8ca9	0.2134272
5	0x3b9a5e55	0.0047109523
6	0xbe03e28d	-0.12879391
7	0x3dd53987	0.10411363
8	0x3d82ce42	0.06386997
9	0x3e509208	0.20368207
10	0x3e35c81d	0.17752118
11	0xbd912ea1	-0.07088972
12	0x3db101d2	0.08642925
13	0x3e17fb5e	0.14841983
14	0xbda9a711	-0.082838185
15	0x3e56def1	0.20983483
16	0x3db67a51	0.08910049
17	0x3d36a747	0.04459312
18	0x3c5655b7	0.013081959
19	0xbe3acb9a	-0.1824173
20	0xbd946b3c	-0.07247016
21	0x3c63dd00	0.013907671
22	0xbd8f598d	-0.06999502
23	0xbafbaa2b	-0.0019200494
24	0x3de17d7d	0.11010263
25	0xbcf917f5	-0.030406931
26	0x3cf5a62d	0.029986465
27	0x3d4ca565	0.04996242
28	0x3c312854	0.010812838
29	0x3da763ad	0.081733085
30	0xbdbc74c9	-0.092019625
31	0x3c7c5412	0.015400903
32	0xbe2b957f	-0.16756247
33	0xbd4a2e41	-0.049360517
34	0x3dbaa64c	0.0911375
35	0x3cb231e5	0.021752307
36	0xbcd65f76	-0.026168566
37	0xbd57175b	-0.052512508
38	0xbde208d4	-0.1103684
39	0xbe235b5c	-0.1595282
40	0xbe00d239	-0.12580194
41	0x3d911004	0.07083133
42	0xbe0a1418	-0.13484228
43	0xbe2497b7	-0.160735
44	0x3de1ae5a	0.11019583
45	0xbcdfa605	-0.027300844
46	0x3ddc07f4	0.107437044
47	0x3d94f1cf	0.07272684
48	0xbcb7a530	-0.022417635
49	0xbda24cc7	-0.079248
50	0x3d68b27e	0.05681085
51	0xbda2d462	-0.07950665
52	0x3d63cb6d	0.055613924
53	0x3dd84e6e	0.10561834
54	0x3e2412c4	0.16022784
55	0xbd4d6e08	-0.050153762
56	0xbcddd450	-0.027078778
57	0x3d7c33d3	0.06157286
58	0x3dda677a	0.10664268
59	0xbe0ea2e9	-0.13929333
60	0xbd335d8d	-0.04379039
61	0x3d7b5a11	0.06136519
62	0xbd8950d5	-0.067048706
63	0xbde9f187	-0.11423021
64	0x3de11c76	0.109917566
65	0xbc8847c3	-0.016635781
66	0x3e0e5043	0.13897805
67	0x3d493f82	0.04913283
68	0x3cbad483	0.022806412
69	0x3dfc7a55	0.123280205
70	0x3e117eb2	0.14208487
71	0xbde1c834	-0.11024514
72	0xbe2f158a	-0.1709806
73	0x3d948dba	0.07253595
74	0xbfa9b9e6	-1.3259857
75	0x3df246bb	0.11829897
76	0xbd650823	-0.055915963
77	0xba9ae05a	-0.001181613
78	0xbe098fef	-0.13433813
79	0xbf4079d1	-0.7518588
80	0x3d9bda6b	0.07610019
81	0x3d9e5dc2	0.07732727
82	0x3cd5f602	0.026118282
83	0x3d3eff08	0.046629936
84	0xbdfaa2eb	-0.122381054
85	0x3df4c341	0.11951304
86	0x3d4dfb4f	0.050288495
87	0x3d0cb676	0.034353696
88	0xbefe6293	-0.4968458
89	0xbcf07df2	-0.02935693
90	0xbe38b1b0	-0.18036532
91	0x3dd51e5a	0.1040618
92	0xbd5587c7	-0.05213144
93	0x3de529ea	0.11189635
94	0x3e2814ac	0.16414136
95	0x3c33bff1	0.010971055
96	0x3d375e36	0.04476758
97	0xbc5472d8	-0.012966834
98	0xbd30cf31	-0.043166343
99	0xbea4862e	-0.3213362
100	0xbdd10731	-0.1020645
101	0x3cff4efc	0.031165592
102	0x3d591559	0.052998874
103	0xbb854fa3	-0.0040683313
104	0x3df781d8	0.120853126
105	0x3e045800	0.12924194
106	0xbe17185f	-0.1475539
107	0xbe318d31	-0.17339016
108	0x3d7369f8	0.05942723
109	0xbdfd152f	-0.12357556
110	0xbd3dbbbd	-0.04632162
111	0x3cd5c945	0.02609695
112	0xbe6d7e10	-0.2319262
113	0x3d91e7fe	0.07124327
114	0x3e009f43	0.12560754
115	0xbcf5a51a	-0.029985953
116	0xbdcdb221	-0.10043741
117	0xbe109fef	-0.1412351
118	0xbc1845c9	-0.009293982
119	0xbda4c158	-0.0804469
120	0x3e009527	0.12556897
121	0x3b482e62	0.0030545224
122	0x3d938bc5	0.07204393
123	0xbce7a2eb	-0.028275928
124	0x3d011239	0.03151152
125	0xbee6d0e4	-0.45081246
126	0x3dc5663f	0.096386425
127	0xbcf3a6f3	-0.029742694
128	0x3a02414e	0.00049688376
129	0x3cd92865	0.02650852
130	0xbd6598f3	-0.056054067
131	0xbd04a023	-0.03237928
132	0xbdf93746	-0.12168746
133	0x3d14075b	0.036139827
134	0xbb5e0ea4	-0.0033883238
135	0xbdf1acd2	-0.11800541
136	0xbd3b6872	-0.045753904
137	0xbbd86c1e	-0.0066046854
138	0x3d97c70a	0.074110106
139	0x3db77a37	0.089588575
140	0xbccce6f0	-0.025012463
141	0xbdad9e16	-0.08477418
142	0xbc665c44	-0.014060084
143	0x3e781ebe	0.24230477
144	0xbf1d3ea5	-0.6142371
145	0xbd9e45c2	-0.07728149
146	0xbdcbd1ca	-0.099521235
147	0xbd0a8e06	-0.03382685
148	0x3e07e867	0.13272248
149	0x3cd7c433	0.026338672
150	0x3e9b2797	0.30303642
151	0xbf03c9be	-0.5147971
152	0xbd601f54	-0.054717377
153	0x3df59721	0.11991716
154	0xbc0aa115	-0.0084612565
155	0x3e48a8bf	0.19595622
156	0xbd983a50	-0.07432997
157	0xbe17cc46	-0.14824018
158	0xbd1ff51a	-0.039052106
159	0x3e016d2a	0.12639299
160	0xbdbebd4d	-0.0931345
161	0xbe0fe1f0	-0.14051032
162	0xbe314621	-0.17311908
163	0xbde65713	-0.11247077
164	0xbc967c70	-0.018369883
165	0x3abbee58	0.0014338
166	0x3e0de60f	0.13857292
167	0xbd1e2fce	-0.03861981
168	0xbd1676e1	-0.036734466
169	0xbda54cc0	-0.080712795
170	0xbe9d0e92	-0.3067518
171	0xbddef5ed	-0.1088675
172	0x3dbf0e33	0.0932888
173	0xbd900ed2	-0.07034077
174	0x3df6246f	0.12018668
175	0x3dad2080	0.084534645
176	0xbceb5bec	-0.028730355
177	0xbe3dbd7a	-0.18529311
178	0xbd9c8699	-0.0764286
179	0xbdf90057	-0.12158268
180	0x3d3bbbef	0.045833524
181	0xbce70dca	-0.028204817
182	0xbe662e1f	-0.22478531
183	0xbd2e90a8	-0.042618424
184	0x3e0191e1	0.12653305
185	0x3d848347	0.06470352
186	0x3d13b9e4	0.03606595
187	0xbef103ba	-0.47073156
188	0x3c8f5fdd	0.017501766
189	0x3e007324	0.12543923
190	0x3e02b497	0.12764202
191	0x3933cea5	0.00017147751
192	0xbe2a610b	-0.16638581
193	0xbdde91ec	-0.10867676
194	0x3d40439f	0.04693949
195	0x3ebdf3d9	0.37100103
196	0x3d486357	0.048922863
197	0xbcaae0cb	-0.020859143
198	0xbde88092	-0.11352648
199	0xbe08ed73	-0.1337183
200	0x3dd40c56	0.103539154
201	0xbe2c473f	-0.16824053
202	0x3d500f2e	0.050795726
203	0x3dac8a8b	0.084248625
204	0xbd47dfed	-0.048797537
205	0x3c3c9e54	0.011512358
206	0x3de63f84	0.112425834
207	0xbd5eef3d	-0.054427374
208	0xbe110451	-0.14161803
209	0xbc8bb4c8	-0.017053977
210	0xbdd4cba3	-0.10390403
211	0x3dd05327	0.1017211
212	0xbe1de1ca	-0.15418163
213	0x3dc6c3aa	0.09705289
214	0xbdafb77f	-0.08579921
215	0xba19c015	-0.0005865109
216	0x3cbc2121	0.022965016
217	0x3d505376	0.050860845
218	0x3c9be7c8	0.01903142
219	0x3d899d01	0.06719399
220	0xbd326e31	-0.043562118
221	0xbea24233	-0.3169113
222	0xbad83e52	-0.0016498065
223	0x3df44abf	0.11928319
224	0xbcaa71e0	-0.020806253
225	0x3d26c5e1	0.040716056
226	0x3c78e04b	0.015190194
227	0xbdac6ae7	-0.084188275
228	0xbde31746	-0.110884234
229	0xbd54d223	-0.051958214
230	0x3e9836b8	0.29729247
231	0x3e2ef713	0.17086439
232	0x3d835697	0.06413
233	0xbde5c11a	-0.11218472
234	0x3e07e14e	0.1326954
235	0xbdab1502	-0.08353616
236	0xbd547284	-0.051867023
237	0x3d8e5a9a	0.069508746
238	0x3e06871d	0.13137479
239	0x3e83d837	0.25750896
240	0x3ec816c3	0.39079866
241	0x3d9a5fc7	0.07537799
242	0x3d9efbbb	0.077628575
243	0x3d2eb623	0.042654168
244	0x3d3fa3fd	0.04678725
245	0x3d885253	0.06656327
246	0xbd43137d	-0.047626007
247	0xbd18c6ce	-0.03729897
248	0xbe2e767b	-0.17037384
249	0x3d65830c	0.05603318
250	0xbcd8570e	-0.026408698
251	0x3d266269	0.040621195
252	0xbec5376e	-0.38518852
253	0x3d11b28d	0.03557067
254	0x3d697583	0.056996834
255	0xbf34b5ae	-0.7058972

network_critic.2.bias f4 [70]
0	0xbe0fa233	-0.14026718
1	0xbe0ec2f3	-0.13941555
2	0x3da25da2	0.07928015
3	0x3db01c66	0.085991666
4	0xbe441215	-0.19147523
5	0xbdb438f2	-0.08799924
6	0x3d200ca4	0.039074555
7	0xbd6dffa5	-0.05810513
8	0xbe0646e1	-0.13112976
9	0xbcf5f200	-0.030022621
10	0x3e16b376	0.14716896
11	0xbc0c3a45	-0.008558814
12	0x3d82bd06	0.063837096
13	0xbc717e9c	-0.014739659
14	0xbe13dd12	-0.144398
15	0xbda566b9	-0.080762334
16	0xbdbdf8df	-0.09275984
17	0x3c9de3be	0.019273635
18	0xbd8da0fd	-0.06915472
19	0xbd7788ea	-0.060433306
20	0x3df8006c	0.121094555
21	0xbd013ceb	-0.031552237
22	0x3d808ca8	0.06276828
23	0x3cd0006e	0.02539083
24	0x3d2471cf	0.0401476
25	0xbe063fa6	-0.13110217
26	0xbc546200	-0.012962818
27	0xbaa3ba44	-0.0012491425
28	0xbdf6db40	-0.12053537
29	0xbd9e30ed	-0.077241756
30	0x3e0b9827	0.1363226
31	0x3d174164	0.036927596
32	0x3db48f1c	0.088163584
33	0xbc5b532a	-0.013386527
34	0xbdea8d19	-0.114526935
35	0xbba34191	-0.0049821814
36	0x3dedfa4a	0.116200045
37	0x3e1e38f4	0.15451413
38	0xbd756aa4	-0.059916154
39	0xbd4bf0da	-0.04979024
40	0xbddc4b5d	-0.10756562
41	0x3e26cecf	0.16289829
42	0xbd02fd96	-0.03198012
43	0xbc6c8c9f	-0.014437824
44	0xbe0e10fd	-0.13873668
45	0x3db2dfef	0.08734118
46	0xbdb494c4	-0.08817437
47	0xbd432b52	-0.047648735
48	0xbc166f1d	-0.009181765
49	0xbda93d0d	-0.08263598
50	0xbdc14d73	-0.094386004
51	0xbd6bc68d	-0.0575624
52	0xbcf6c6a4	-0.030124016
53	0x3d9bb923	0.076036714
54	0x3d5fe374	0.054660276
55	0xbd9c11e2	-0.076205984
56	0xbdd8382f	-0.10557591
57	0xbcc6997f	-0.024243115
58	0xbcd068be	-0.02544057
59	0x3ca77b04	0.0204444
60	0x3e167ca3	0.14695983
61	0x3c730e80	0.014835
62	0xbd8a43ac	-0.06751189
63	0xbdc16f71	-0.09445084
64	0x3df8f7e5	0.12156657
65	0xbdc54d4b	-0.09633883
66	0xbddf30a6	-0.10897951
67	0xbdf36e0f	-0.118862264
68	0xbc92ddf3	-0.0179281
69	0x3dd1fd76	0.10253422

network_critic.4.weight f4 [1, 70]
0	0x3d56703a	0.05235312
1	0x3dbe8998	0.09303588
2	0x3e7799c2	0.24179748
3	0x3d7ec079	0.062195275
4	0xbf19af46	-0.6003307
5	0x3e82fba5	0.25582615
6	0xbd38a734	-0.045081332
7	0xbdd224c1	-0.102609165
8	0x3e270925	0.16312082
9	0x3d870361	0.06592441
10	0xbd8f6c9a	-0.07003136
11	0x3a7e090f	0.0009690681
12	0x3e167cde	0.1469607
13	0xbe218b9c	-0.15775913
14	0xbedb98df	-0.4289007
15	0x3d3fb7c6	0.04680612
16	0xbe8be2b6	-0.27321404
17	0x3e7c0909	0.24612822
18	0xbe639711	-0.22225596
19	0x3d736f75	0.059432466
20	0xbdc18028	-0.09448272
21	0x3e9cac6d	0.306003
22	0xbe10136e	-0.14069912
23	0x3d6e2e36	0.05814954
24	0xbe607623	-0.21920066
25	0xbe6f77cb	-0.23385541
26	0x3d88d1ea	0.06680663
27	0xbd8debc2	-0.06929733
28	0x3cb47330	0.022027582
29	0x3e2c87c1	0.16848661
30	0xbdb60345	-0.08887342
31	0x3d7f3343	0.062304746
32	0xbdd9a8ad	-0.106278755
33	0x3da07ca1	0.07836271
34	0x3ea56551	0.3230386
35	0xbe8acea9	-0.27110794
36	0xbd0f17f7	-0.034934964
37	0x3ea8517e	0.32874674
38	0x3ddb7375	0.10715381
39	0xbe5061ac	-0.20349759
40	0x3df0befc	0.117551774
41	0xbe932c6c	-0.2874483
42	0xbe98f3a4	-0.29873383
43	0x3e8068b4	0.25079882
44	0x3e14a6f0	0.14516807
45	0x3ca4b6f0	0.020106763
46	0x3e1a6f31	0.15081479
47	0xbe562656	-0.20913061
48	0xbead5c8b	-0.33859667
49	0x3e032a22	0.12809041
50	0x3e7e919d	0.24860235
51	0x3e4fe85c	0.20303482
52	0xbdb1d8d8	-0.08683938
53	0x3c3f7277	0.011685005
54	0xbe2268cf	-0.15860294
55	0x3e1a5939	0.15073098
56	0x3d41f7a9	0.047355328
57	0x3e1dc0bc	0.15405554
58	0xbeb8caa7	-0.3609211
59	0x3e9529f2	0.29133564
60	0xbe2fb937	-0.17160498
61	0xbd3ff30a	-0.04686264
62	0xbdcdb314	-0.10043922
63	0x3e7153bd	0.235671
64	0xbe7cc996	-0.24686274
65	0x3e8c8d7a	0.27451688
66	0x3e9b9a1d	0.30391017
67	0x3dab6e16	0.083706066
68	0x3d780502	0.06055165
69	0xbe22a2c9	-0.1588241
