checkpoint/ddpg-critic_mlp_actor-lr:0.0001_critic-lr:0.0003_gamma:0.99_tau:0.03.pth (torch, 63319 bytes, 5 tensors)

network_critic.0.weight f4 [70, 145]
000000 8e 75 e6 3d dc 4e 9e be 86 40 34 be d9 00 78 3e
       0.112528905 -0.3091954 -0.17602739 0.24219073
000010 40 be 9c 3e 8c 6e a6 3e 01 ad b7 bb 75 cd 5f be
       0.306139 0.32506216 -0.0056053405 -0.2185572
000020 9c a6 4a be db 3d 6f 3d 90 36 b2 bc 54 08 f2 3c
       -0.19790119 0.0584086 -0.021754533 0.029544987
000030 26 83 c3 bc 57 e7 92 bc e5 11 c4 bc 23 25 06 bd
       -0.023866247 -0.017932577 -0.023934314 -0.03275026
000040 60 60 4e bd a0 98 66 bc bb 4e 91 3d 9f 71 32 3e
       -0.05038488 -0.014074475 0.07095095 0.17426156
000050 fd ce 7b be c1 2d 2d be cb 80 4e bf 1b 59 44 bd
       -0.24590679 -0.16911985 -0.8066527 -0.04793654
000060 70 b2 bf 3d aa e3 3f 3f da 8a 98 bc 1a 9e 29 bd
       0.09360206 0.7495676 -0.018620897 -0.041410543
000070 13 ae 9e 3c 43 52 9d be a7 66 25 be a6 34 0f 3e
       0.019370114 -0.30726823 -0.1615244 0.13984928
000080 8b 83 a1 3e 9f b6 98 3e 8f be 87 3c 0e 9c 81 be
       0.31545672 0.2982683 0.016570358 -0.25314373
000090 2b 02 d6 bd 8f c1 b2 bc 99 1d 89 3b ec 00 3d bd
       -0.10449632 -0.021820812 0.0041844365 -0.046143457
0000a0 0e 03 a5 bd ef b2 a2 3d d1 a2 f0 bc 66 da 90 3d
       -0.08057223 0.07944285 -0.029374512 0.07072906
0000b0 ba ae 5b bd ee 0e da 3c ab 40 7b bd bd 4b dd 3d
       -0.05363343 0.026618447 -0.06134097 0.108054616
0000c0 4c 42 94 3f 1b 62 b8 be f2 52 9a c0 c1 7d c7 40
       1.1582732 -0.3601235 -4.822625 6.234101
0000d0 6e 1a 60 3d 87 88 3f 3f b4 c4 b9 bc 97 9b 2d be
       0.054712705 0.748177 -0.022676803 -0.16953884
0000e0 ed a2 f0 3d 04 1f 68 be f7 a7 38 be 49 49 4e 3e
       0.117498256 -0.22668082 -0.18032824 0.20145144
0000f0 20 18 6b 3e f4 23 80 3e e6 62 c6 3a f2 c4 8f be
       0.22958422 0.2502743 0.0015135675 -0.28079945
000100 9a 66 eb bd 4f 26 06 3d 1d 54 8c 3c fc e8 be bd
       -0.11494179 0.032751378 0.017129952 -0.09321782
000110 56 d3 e2 bc 6b e3 df 3d c8 53 5e bd 15 14 64 3d
       -0.027688663 0.109320484 -0.05427912 0.055683214
000120 cc 10 89 3d e3 85 2b bd 72 fa 99 bd 78 24 ac 3d
       0.06692657 -0.04187573 -0.07518472 0.08405393
000130 a7 bc 46 bf 5e 02 b2 be a4 1c 9a 3e da 84 17 3e
       -0.7763161 -0.3476743 0.30099976 0.14796773
000140 40 38 24 3e 56 f7 2e 3f e1 ac c5 3d 7c 97 15 be
       0.16037083 0.68346155 0.09652115 -0.14608568
000150 81 58 f6 3d 73 c8 4f be 4f 52 ac bc ac b4 51 3e
       0.120285995 -0.20291309 -0.021035342 0.20479077
000160 e4 3e 96 3e ec 63 8d 3e e8 89 04 bd cd 65 33 be
       0.29344857 0.27615297 -0.03235808 -0.17519303
000170 a5 63 3d be b6 d6 d2 3d 71 aa 19 3d 1a 37 97 3c
       -0.18495043 0.10294859 0.03751606 0.018458892
000180 51 22 f5 3a bb d7 1f bd be 35 84 3d 85 6e 11 3d
       0.0018702244 -0.039024096 0.06455563 0.03550579
000190 65 84 eb 3c 4a cb aa bd d5 02 93 3d c5 d5 d4 3d
       0.028749654 -0.083395556 0.071782745 0.10392336
0001a0 d6 fe 9d 3f 5b fe b1 be 1e f2 9b bf 6a 2b 30 40
       1.2343395 -0.3476437 -1.2183263 2.7526498
0001b0 7d 52 fa 3d 59 f4 4e 3f 72 a8 cb 3d 06 6d fb bd
       0.12222765 0.80841595 0.09944238 -0.12276654
0001c0 91 ad 0b 3e 7d 05 85 be bc 7b b3 bd 7e 93 21 3e
       0.13640429 -0.2598075 -0.08763835 0.1577892
0001d0 f3 1b 87 3e fc 79 6a 3e 53 b0 45 bc 68 fb 1f be
       0.2638851 0.22898096 -0.012065965 -0.15623248
0001e0 42 83 e9 bd cd 14 b5 3d 2e 6f db 3d 31 92 15 3c
       -0.114019886 0.08841858 0.10714565 0.009129093
0001f0 86 11 0e bb 7d a4 a9 3d cc 70 68 bb a1 4d 36 3d
       -0.0021677925 0.08283327 -0.0035467623 0.044507626
000200 1c 89 f0 bc 9d a8 72 bc 03 d5 c2 3c 30 86 43 3e
       -0.029362254 -0.014810708 0.023783213 0.19094157
000210 f2 9f c4 3f c5 78 86 be e8 c7 34 c0 5f b3 9a 40
       1.5361311 -0.26264015 -2.8247013 4.834396
000220 be 96 c8 3d 26 8b 55 3f 62 87 3f 3b d4 44 c4 bd
       0.09794377 0.8341545 0.0029224982 -0.095834404
000230 fd 9c bd bc 55 ca 4a be ed cc f8 bc 0f 71 05 3c
       -0.023146147 -0.19803746 -0.030371154 0.008144631
000240 1d 3d 1b bd 84 09 9d 3c b1 0c 38 3e 4f b2 72 3d
       -0.03790008 0.019169576 0.17973591 0.05925208
000250 31 60 1e 3d af 8f cd 3d 9b e8 b8 3d da ee 78 3d
       0.038665954 0.10037171 0.09028741 0.06077466
000260 e0 7c cf 3d a5 cd 8a 3d c1 12 d3 3c 0f 0f 5a 3c
       0.1013124 0.06777505 0.025765778 0.013309254
000270 c3 51 a5 bd 3a 38 71 bd d4 5c 0c be 84 d3 92 bd
       -0.080722354 -0.058891512 -0.13707286 -0.0716925
000280 1f 10 3c 3d 51 aa cc 3d fd d1 f0 bd 63 12 c6 bd
       0.04591381 0.09993423 -0.11758802 -0.09671476
000290 5c 4f 52 bc 67 7f ac be 7c e1 5d bc 2c 62 a1 3e
       -0.012836304 -0.3369095 -0.013542529 0.31520212
0002a0 ae 96 6a be 6b 87 81 3d a7 af 37 3d 83 6f 72 bd
       -0.22909042 0.06324657 0.04484525 -0.059188377
0002b0 f5 52 87 3e 40 af 61 bc c1 8b fb 3d 32 5a a2 3d
       0.2643048 -0.013774693 0.12282515 0.0792736
0002c0 90 be 2f 3e 85 c3 2e 3e 1a 35 e4 3d 19 80 66 3d
       0.17162538 0.17066772 0.11142941 0.056274507
0002d0 3e 40 0e 3c c1 fb 03 3e 14 1f ea 3d 77 f1 8d 3d
       0.008682309 0.12889005 0.11431709 0.069308214
0002e0 11 ac 0f be 9a 94 a3 bc e6 28 14 be 23 2d 37 bc
       -0.14030482 -0.01996832 -0.14468727 -0.011180195
0002f0 00 a0 90 bd ec 55 b0 3d 82 57 17 be 39 fb 36 bd
       -0.070617676 0.08610138 -0.14779475 -0.04467318
000300 fb f4 72 3c 14 67 ab 3d 84 a4 0f 3e dd 9f 6d 3d
       0.014828916 0.0836927 0.14027601 0.058013786
000310 74 e0 91 3e c5 34 58 bc 34 3d 8e bc 7a ea a2 bd
       0.28491557 -0.013196175 -0.017363168 -0.07954879
000320 fd bc 73 3e 05 2c d9 3a 5b bd 08 3e ff fa 0a 3e
       0.23802562 0.0016568905 0.13353483 0.1357231
000330 33 90 ae 3d a2 a1 3d 3d 50 dd 8f 3d 9e d9 ca 3d
       0.085235976 0.046296723 0.07024634 0.099047884
000340 05 e8 f1 3d 71 7a 02 3e 85 0b e6 3c 85 a0 9a 3d
       0.11811832 0.1274202 0.028081665 0.07550148
000350 88 06 d1 bd 47 88 27 bd be e3 00 be f9 b2 86 3c
       -0.10206324 -0.04090145 -0.12586877 0.016442763
000360 1c b1 c9 bc fc 12 33 bd 72 7a 26 be 5a 75 ee bd
       -0.024620585 -0.043719277 -0.16257647 -0.11643477
000370 ee 9f 96 bd d1 3d 81 3d 43 25 0a 3e 9a af 33 bf
       -0.07354723 0.06310619 0.13490777 -0.7018982
000380 b2 70 94 bd 90 f4 c8 3b 72 f5 6b bc 14 db 60 ba
       -0.072480574 0.0061326697 -0.01440178 -0.0008577567
000390 42 03 f9 3d d1 97 b4 3d d9 d7 17 3e 13 c4 54 3d
       0.121588245 0.08818019 0.14828433 0.051944803
0003a0 a2 39 e7 3d 05 cf b3 3d f3 a7 9f 3d c7 15 b5 3c
       0.112902895 0.0877972 0.07795706 0.02210511
0003b0 1d 68 b3 3d 63 bd 36 3d 84 3d 26 3d ef e7 6c bb
       0.087600924 0.044614207 0.04058601 -0.0036148985
0003c0 e3 31 33 be 26 3e 3b 3d a1 1e 8f bd bb 60 f8 bb
       -0.17499499 0.045713566 -0.06988264 -0.0075798905
0003d0 10 da 67 bc e6 d0 e2 3d 97 d6 45 be 80 04 2f bd
       -0.014151111 0.110750005 -0.19320141 -0.0427289
0003e0 e0 64 40 bc ac a6 f2 3e c6 0c 11 3e cf 49 e5 3e
       -0.0117428005 0.47392786 0.14165029 0.44782874
0003f0 f9 11 97 3e 9c 9c 23 3d c8 46 10 bc 8c 81 d8 bb
       0.295059 0.039944276 -0.008805938 -0.00660724

network_critic.0.bias f4 [70]
000000 47 55 bc 3a f0 e5 bc 3d 79 5c 66 bd bf 18 2c 3d
       0.0014368676 0.092235446 -0.056240533 0.042015787
000010 c0 0b 5f bd c8 a9 5c bc c6 48 93 3d 89 17 5b 3d
       -0.054454565 -0.013468213 0.07191615 0.05348924
000020 ec 08 d7 bb fe 15 0c be ac 61 9c bd be d2 33 be
       -0.006562343 -0.13680264 -0.07635817 -0.1756086
000030 1e 1e 3d 3c 32 00 6a 3b 27 12 bd bc 8c 54 d1 ba
       0.011542825 0.0035705683 -0.023079945 -0.0015970632
000040 13 5c a9 3d f3 45 65 bc eb f7 15 3e 44 c6 fb bc
       0.08269515 -0.013993728 0.14645354 -0.030734189
000050 ac c7 f0 bd 88 ef 77 bd f4 34 60 bc 11 4c 61 be
       -0.117568344 -0.06053117 -0.0136845 -0.22001673
000060 8f ec 64 bd 49 6b 5e 3b 38 27 ef bd 7c 70 b3 bd
       -0.055889662 0.0033938459 -0.11677402 -0.08761689
000070 f9 9a 99 bd 93 a6 30 bd 8e a5 ae bc 2c 6f 83 bd
       -0.07500262 -0.043127608 -0.021319177 -0.06417689
000080 c6 5b 11 3e 3f cf 7c bd f6 60 da 3d 30 05 c8 bd
       0.14195165 -0.061721083 0.10663025 -0.097666144
000090 4e ec 89 bb e4 87 7e bb ad 14 df bd a3 34 a5 bc
       -0.004209078 -0.0038838321 -0.108926155 -0.0201667
0000a0 66 6d 86 3c 1d 63 64 ba 9e a8 e4 3d 67 33 e1 3b
       0.016409587 -0.0008712279 0.11164974 0.0068725827
0000b0 ac 7b 09 bd 74 64 44 bd 84 98 d5 bd f5 9c 7f be
       -0.03356521 -0.047947362 -0.10429481 -0.24962218
0000c0 1b 76 8e bd ec f6 77 bd e9 cf 2e bd c8 62 1a be
       -0.069561206 -0.060538217 -0.042678747 -0.15076745
0000d0 51 f4 a7 bd 0a e6 f8 3c 21 77 e4 bd 3d 28 d3 3d
       -0.082008965 0.030383129 -0.111555345 0.10310409
0000e0 e0 0d 86 be b6 7c 55 bd d7 54 59 bd c5 29 3b 3c
       -0.2618246 -0.052120887 -0.053059425 0.011423533
0000f0 bf fe 92 3d 40 c8 96 bc 70 89 57 be 44 82 3c bc
       0.07177495 -0.018406034 -0.21048522 -0.011505667
000100 b6 56 66 3d b4 8e 63 3d 23 78 94 bb 53 70 f9 3d
       0.056235038 0.055556014 -0.004530923 0.12179627
000110 1a b9 ac bc 7f 14 20 be
       -0.021084357 -0.15632819

network_critic.2.weight f4 [70, 70]
000000 f1 3a 78 bf 2a 8b 99 3c 3c f0 4c bc 55 c7 2c bc
       -0.9696494 0.018743116 -0.012508448 -0.010545571
000010 17 d0 98 bc 3f f4 80 3c c5 6f 05 be d6 84 bc be
       -0.018653912 0.015741466 -0.13030918 -0.36820096
000020 c1 f7 d9 be e4 79 fe 3d 8b d7 ec be ee 51 8f be
       -0.42571834 0.124255925 -0.46258196 -0.27992195
000030 cc 72 36 3d 33 30 06 bd 11 17 36 be 65 68 0c 3e
       0.044543073 -0.03276081 -0.17782237 0.13711698
000040 46 da 5d bd 82 07 4a bf ce 93 25 3d 3a 3d f9 bd
       -0.05416324 -0.78917706 0.04042416 -0.12169881
000050 ea a3 0d 3e 00 87 45 3d 53 51 26 bf 00 01 0d be
       0.1383206 0.04822445 -0.6496784 -0.13769913
000060 55 df e4 bf ea 3e ca be c3 b6 ab be ba 97 4f 3e
       -1.7880656 -0.39501125 -0.33537874 0.20272723
000070 8c 27 e5 bd 4e 0e f2 3d a9 62 34 bf 41 5c 0f 3e
       -0.111891836 0.11819135 -0.70463043 0.14000036
000080 d3 46 6d be f4 70 05 3e 64 15 b0 3c 28 a0 63 bc
       -0.23171549 0.1303137 0.021494575 -0.013893165
000090 7b 51 0b bd 13 00 0a bd 19 05 14 bf 30 d3 0a 3e
       -0.034013253 -0.033691477 -0.5782028 0.13557124
0000a0 55 99 c9 be 92 d1 05 be 5b 89 7e 3e 7b b0 73 bd
       -0.39374796 -0.13068226 0.24857084 -0.059494477
0000b0 fc db e9 bd ea 44 df 3d 9a 21 6c 3e 89 3d bb 3d
       -0.11418912 0.10901816 0.23059693 0.09142596
0000c0 3e 7e 72 be 4b d3 b1 bd d6 eb 87 be f0 58 59 3d
       -0.2368097 -0.08682879 -0.26547116 0.053063333
0000d0 cc 3a 11 3e fc d1 9e bf d5 cd c6 3d 83 58 12 bd
       0.14182585 -1.2407832 0.09707228 -0.035728943
0000e0 6a 2c 18 3e 27 b9 f1 bd 2f bc e0 be a1 3a 1f 3d
       0.14860693 -0.11802893 -0.43893573 0.038874272
0000f0 1f 4f 60 be 00 4d 7d bc 11 37 22 3e d9 6e 92 3d
       -0.21905182 -0.015460253 0.15841319 0.07150049
000100 f9 1c bd be f1 ac c0 3c 13 86 0a bf 14 71 ad bf
       -0.36936167 0.023519965 -0.5411083 -1.3550134
000110 55 5a 74 be 08 e5 83 bd 6a b0 c0 3d 81 73 7d 3c
       -0.23862584 -0.064401686 0.09408648 0.015469433
000120 02 3f b4 3d a0 3f e8 bc b8 a9 ab 3d 70 ff 8b bd
       0.0880108 -0.028350651 0.08381981 -0.0683583
000130 f0 23 4d 3e c8 04 d7 3d 4e 34 9c 3d a2 d8 c9 3c
       0.2003324 0.10498959 0.07627164 0.024639431
000140 80 f0 22 bf 7e f1 71 bd 9d 91 7b bb 95 b6 21 bd
       -0.63648224 -0.059068196 -0.0038386353 -0.039480764
000150 9d ea 5b be 20 f4 45 be c8 69 c8 3a c0 58 60 bc
       -0.21476217 -0.19331408 0.0015290314 -0.013693035
000160 ed 8c 1c 3d ab 71 32 bd 59 e5 79 3b 8d e4 2a 3d
       0.038220335 -0.043565433 0.0038131087 0.04172187
000170 c3 01 bf bd 5b f4 71 3d 47 23 8c 3e da 3d 1f 3c
       -0.09326508 0.059070926 0.27370664 0.009719336
000180 c1 c2 ed bd 1d bb 95 3c 8b 3f e0 bd 5b a5 c6 bb
       -0.11609412 0.0182777 -0.1094962 -0.0060621924
000190 02 86 cb 3d 77 3b 6e 3d 94 09 94 bd 77 16 86 bc
       0.09937669 0.05816218 -0.072283894 -0.016368134
0001a0 82 ec 46 bc 8b 41 d9 3d be f2 21 3d 1b 81 e1 3b
       -0.012141349 0.106082045 0.039538138 0.0068818456
0001b0 b8 2b 04 3e 91 a6 b5 3d 8b c1 18 3e cb 94 8b 3d
       0.12907302 0.08869661 0.14917581 0.068154894
0001c0 fb a7 0d 3d 92 3b 95 3d db 8d c4 bc 66 9f a2 3d
       0.034584027 0.07286753 -0.023993423 0.07940559
0001d0 70 66 90 3c ec e5 31 bd 3a 3a 85 bd 4f 66 99 bd
       0.017626971 -0.04343216 -0.065052465 -0.07490217
0001e0 61 4d 99 bc 5e b7 bb 3c 5a fa 2b bc fa 30 84 bc
       -0.018713655 0.022914585 -0.0104967 -0.016136635
0001f0 1a 24 15 be bb e6 21 3c 84 a4 ea 3d 10 80 90 bd
       -0.14564553 0.009881671 0.1145716 -0.07055676
000200 68 af df 3c e2 83 89 bd 66 d7 11 3e 27 71 b1 3d
       0.02730532 -0.06714608 0.14242324 0.0866416
000210 10 1f dc 3d b9 16 8c bc c0 34 0a be 1d f5 23 bd
       0.10748112 -0.017100679 -0.13496685 -0.04002868
000220 1c 7a 7e 3d 54 cb ac 3b 29 00 03 3c 84 ae c7 3d
       0.06212817 0.005273262 0.007995644 0.09750083
000230 3a ed a9 bd 06 4b 8c 3c e0 63 a1 bd db 24 1a be
       -0.082972005 0.017125618 -0.07880378 -0.15053122
000240 dd 8b 08 be 96 eb 82 3d b3 15 a3 bd d4 b2 03 3b
       -0.13334604 0.06392591 -0.07963123 0.0020095604
000250 3b 94 b8 bb 5d 3f b5 bd f7 dc c7 bc 89 dd 77 bd
       -0.005632905 -0.08849976 -0.024397356 -0.060514007
000260 77 b8 bd 3d 82 d0 2d bd ab ee 67 3d d5 eb ce bd
       0.092636995 -0.042435177 0.056624096 -0.10103575
000270 28 c2 09 bd 3a e9 2e bd b0 6f c0 3d ec da e0 bd
       -0.033632427 -0.04270289 0.09396303 -0.10979256
000280 ef 82 e8 bd 54 9b c6 3d 4e 0e ad bc 1d 79 42 bd
       -0.113530986 0.09697595 -0.021124985 -0.047478784
000290 36 78 85 bd ea b0 09 be 45 3f e9 bd 02 90 91 bb
       -0.06517069 -0.13446394 -0.11389021 -0.004442216
0002a0 f2 56 de bc 1d 03 02 3d ca e3 f5 bd 09 b4 b7 bd
       -0.027141068 0.03174125 -0.12006338 -0.08969886
0002b0 2d 11 89 3d 1e d9 ac 3b f9 8f b4 bd f6 28 09 bc
       0.06692729 0.005274906 -0.08816523 -0.008371582
0002c0 37 1e f1 bd 95 18 7f 3d 43 7d a8 3c 2a ae 80 3d
       -0.11773341 0.062279303 0.020567542 0.06283219
0002d0 30 a1 4c 3d f7 b2 0d be 59 3f 8e bb fd 04 da bc
       0.049958408 -0.13837801 -0.0043410477 -0.026613707
0002e0 5c 74 d8 38 5a 3c 03 be e1 5f 45 bb f6 17 63 3b
       0.00010321356 -0.12815991 -0.0030116963 0.0034651733
0002f0 23 1a c2 bc a6 f5 85 bb e5 57 de 3c a3 28 1d 3d
       -0.023694104 -0.0040881215 0.02714152 0.038368832
000300 65 77 a8 3d 11 b5 08 be a9 b8 9b 3d 1f 24 23 3d
       0.08225898 -0.13350321 0.076035805 0.03982937
000310 74 07 2b bd 6f 2a b7 bd d2 8b 9a 3c f4 7d fb bd
       -0.041755155 -0.089436404 0.0188655 -0.12279883
000320 ec 24 64 3d 6e c5 14 3d 73 cd 71 bd 51 26 b5 bd
       0.055699274 0.036321096 -0.059033822 -0.08845199
000330 bc cd 89 3d 12 c9 43 3d 34 ea 80 bd 2a 96 b4 3c
       0.06728694 0.047799177 -0.06294671 0.02204426
000340 db 54 d3 bb 77 8e 2b 3d 92 34 ea 3e e4 26 8b 3e
       -0.0064493245 0.041883912 0.45743233 0.2717811
000350 0e aa 35 3d 2a 9f ec bd 71 3d bf bd 5c 2e 23 bd
       0.04435163 -0.11553796 -0.09337891 -0.039839134
000360 15 ca 61 be b7 13 a1 3c 43 5b 28 bd 5a 69 2c bc
       -0.22049744 0.019662721 -0.04110266 -0.010523165
000370 5f f2 a7 3e d4 f4 a1 bc e0 2c 90 3d a0 d2 3f bc
       0.32802102 -0.019770063 0.07039809 -0.011707932
000380 75 0f 19 bf cf 45 aa bf 59 d4 34 bd 66 87 5a 3e
       -0.5978921 -1.3302554 -0.044147823 0.21340713
000390 37 ca 12 bd 08 22 d7 bd 4d 41 10 3e 38 0d 09 ba
       -0.03583738 -0.10504538 0.1408741 -0.0005228105
0003a0 27 20 c4 3e a2 74 7f be 6b 56 af 3c f0 44 72 bd
       0.3830578 -0.24946836 0.021403512 -0.059147775
0003b0 6e 74 c2 bd 3c 16 5b 3d 97 3f 97 3d f1 1d 8d bd
       -0.094948635 0.053488 0.07385176 -0.068904765
0003c0 4c 69 3c 3b 31 26 11 be 70 e5 22 be 7c 56 51 3e
       0.0028749285 -0.14174725 -0.15907836 0.20443147
0003d0 55 d1 03 3e f6 4b 09 bf c4 c8 54 bc bc e7 8c be
       0.12872823 -0.5363153 -0.012987319 -0.2752055
0003e0 bf 4a 49 3c 0b 69 67 bd 46 f6 42 ba 62 57 6b be
       0.012285887 -0.05649666 -0.00074372103 -0.22982553
0003f0 d0 7c 7c 3e 7c 55 93 3d 24 e4 3d be 76 b7 8c be
       0.24656987 0.07194039 -0.1854406 -0.2748372

network_critic.2.bias f4 [70]
000000 dc a2 76 3d 8c a7 c5 bd 6c 7a a8 3d 41 e4 0d be
       0.06021391 -0.09651098 0.08226475 -0.13856603
000010 e4 2d 1f bd 93 c4 0f bd 52 e6 8c bd 79 dc e7 bd
       -0.038862124 -0.035099577 -0.068798676 -0.11321349
000020 c7 2e 04 be 18 4f 97 bc 5f e9 c8 bd 28 a0 62 3d
       -0.12908469 -0.018470332 -0.09810137 0.05532852
000030 b5 b4 7f 3d 32 54 52 bd f2 a4 34 bd 63 3e 9b bd
       0.062428195 -0.051349826 -0.044102617 -0.07580259
000040 e4 77 24 bd bf 3e 0a be 8e 5d c1 3d c8 df 9f bd
       -0.0401534 -0.13500498 0.09441672 -0.07806355
000050 e7 88 32 3e 4d ab f2 bd 99 82 e7 bd 28 34 71 3d
       0.17435037 -0.11849079 -0.113042064 0.05888763
000060 bb 04 0e be 2b 32 86 bd c1 6c c4 3d 89 00 32 3e
       -0.13868992 -0.065525375 0.09591056 0.17383017
000070 17 2c 9b bd 8f 3b 86 bd a2 57 c4 bd cd b5 97 3d
       -0.07576769 -0.06554329 -0.09587027 0.074077226
000080 a6 6d a5 bc 8f bb 91 bd ab af a0 3d 53 43 30 bd
       -0.020193886 -0.07115852 0.07846006 -0.043032955
000090 18 99 d5 bc 7d 1c 38 3d c1 32 3d ba c0 31 11 bd
       -0.026073977 0.044949044 -0.0007217341 -0.035447836
0000a0 87 79 58 bd 82 7a 13 be 16 fe 0b 3d 06 a3 20 bc
       -0.052850273 -0.14402202 0.034177862 -0.009804493
0000b0 dd cc 86 bc a9 b8 22 3e a7 ea 53 bc 0a 86 30 bc
       -0.016455108 0.15890755 -0.012934363 -0.010774145
0000c0 0d 4a 14 3d ce fb 85 3c 11 12 0d be d4 99 7e 3d
       0.036203433 0.016355421 -0.13776423 0.06215842
0000d0 e1 ad ab b9 4c 4d 52 3d 65 67 0c 3d f7 02 11 bc
       -0.00032745212 0.051343247 0.034278292 -0.0088508045
0000e0 8c 8e db 3c 78 ad 79 3c 51 af 5a 3c 1a db 33 3d
       0.02680137 0.015239112 0.013347463 0.043910123
0000f0 c9 cf 21 3c 6c c4 05 bc f1 1b e0 bc ed f8 1d 3d
       0.0098762 -0.008164506 -0.027357074 0.038567472
000100 0a ac 54 3d b2 77 46 bd 35 ed 1a 3e b3 50 18 3d
       0.05192188 -0.048453994 0.1512955 0.037186336
000110 c4 a2 f2 bd e1 81 1b 3d
       -0.11847451 0.03796566

network_critic.4.weight f4 [1, 70]
000000 ef 23 37 3e 40 a7 9f 3d 1f 28 72 bc bd 39 1d 3e
       0.17884801 0.07795572 -0.014780073 0.15354057
000010 ee e4 14 bd 63 7c ac 3d bb b5 73 bd 92 25 2b 3e
       -0.036351137 0.084221624 -0.059499484 0.1671355
000020 5a 13 00 3d 6b f8 34 3d 25 eb 3a 3e bc 45 6c 3e
       0.031268455 0.044182222 0.18253763 0.23073477
000030 7a 95 49 be 53 d1 9a 3e a7 59 35 be 66 0d 84 3d
       -0.19685927 0.30237827 -0.17709981 0.06447868
000040 77 cd 6f 3e 38 d5 d2 3d 7e 11 7f bd bb ba db bd
       0.23418222 0.102945745 -0.06227254 -0.107289754
000050 dd 74 e7 bd 20 b1 9b 3d 53 3d a1 bc 40 4c a0 3d
       -0.11301587 0.07602143 -0.019682562 0.078270435
000060 d1 57 4b 3e d2 34 e8 bd ef f0 d2 bd d9 94 e5 bd
       0.19857718 -0.113382 -0.10299861 -0.11210031
000070 d0 0e 27 be 1b a1 1e be 41 2e 12 3e 32 d2 8b bd
       -0.16314244 -0.15491144 0.14275457 -0.06827201
000080 d8 3e 27 bd af 44 26 3e eb 06 19 3e 05 1d 2a be
       -0.040831417 0.16237138 0.14944045 -0.16612633
000090 7f 92 c5 bd c0 ce aa bd 10 4c e9 bd 16 ed 62 3d
       -0.096470825 -0.08340216 -0.11391461 0.055401884
0000a0 2d ae f2 bb 04 01 8e 3d 67 5b f5 bd d0 9f 99 3e
       -0.0074060173 0.069337875 -0.11980324 0.3000474
0000b0 93 51 fa 3d cf 72 ca bd 0d 54 88 be ae de 06 be
       0.1222259 -0.09885179 -0.26626626 -0.13170883
0000c0 9a ae 8d 3d 5e f5 80 3d d9 96 e0 3c de 43 ad bd
       0.06918068 0.062968 0.02741568 -0.0846021
0000d0 c7 35 4c bc 3f 33 f1 bb 9f 9c 93 3e 7c c4 11 bd
       -0.012463993 -0.0073608453 0.2883043 -0.035587773
0000e0 27 84 a1 3e 13 df 0a 3e eb f9 a6 3d 38 5f d8 3c
       0.31546137 0.13561659 0.08153137 0.026412591
0000f0 cd 10 7e 3d ef 7f 54 3d 24 8b 30 be 6b fd e4 bc
       0.06202774 0.05187982 -0.17240578 -0.02795287
000100 f1 7b 20 be 40 38 df bd c3 d4 ad bd bd 79 da bd
       -0.1567228 -0.10899401 -0.08487847 -0.10667751
000110 68 4f db 3d b5 bc 5c be
       0.10708505 -0.21556361
