checkpoint/ddpg-critic_mlp_actor-lr:0.0001_critic-lr:0.0002_gamma:0.99_tau:0.05.pth (torch, 63319 bytes, 5 tensors)

network_critic.0.weight f4 [70, 145]
0	0x38cadbc8	9.673048e-05
1	0x3e831ceb	0.25608
2	0x3c64141f	0.013920813
3	0x3cad15f0	0.021128625
4	0x3e4f6b2e	0.2025573
5	0x3d99605e	0.07489084
6	0x3dd5142e	0.104042396
7	0xbe406718	-0.18789327
8	0x3d83e80d	0.064407445
9	0x3d4dfd13	0.05029018
10	0xbe5f46a4	-0.21804291
11	0xbd8e5a0f	-0.06950771
12	0xbe2b694c	-0.16739386
13	0xbe6cb896	-0.23117289
14	0x3dc03aee	0.0938624
15	0x3df75735	0.1207718
16	0x39fd8aeb	0.00048359422
17	0xbdbb2108	-0.091371596
18	0xbd57bc79	-0.052669976
19	0xbe2fb5fb	-0.17159264
20	0xbdab23c5	-0.08356432
21	0xbdea5445	-0.114418544
22	0xbe910b7d	-0.28329077
23	0x3e9b2fa8	0.30309796
24	0xbe2644e6	-0.1623722
25	0x3cca0ca7	0.024664236
26	0x3dcb78b4	0.09935132
27	0xbe805a0f	-0.2506871
28	0x3dbd3cc6	0.09240107
29	0x3e59bb31	0.21262814
30	0x3dd26eb1	0.10275019
31	0x3df0df6a	0.11761363
32	0x3e13b84b	0.14425771
33	0x3d74e6e3	0.059790503
34	0x3e138d4d	0.1440937
35	0xbe7211ba	-0.23639575
36	0x3d0db9d3	0.034601044
37	0xbd73b678	-0.059500188
38	0xbdc9cb7c	-0.09853265
39	0xbc1bb7bf	-0.009504258
40	0xbd963afb	-0.073354684
41	0xbe6bcf5d	-0.23028322
42	0x3baab215	0.0052092173
43	0xbc058ed0	-0.008151725
44	0x3d54d2b0	0.05195874
45	0xbe1552a5	-0.14582308
46	0xbd9b2da5	-0.075770654
47	0xbd5f6cc8	-0.0545471
48	0x3f3811f0	0.7190237
49	0xbdef1891	-0.116746075
50	0xbf9552d4	-1.1665902
51	0x3ee72452	0.45144898
52	0xbe98cccf	-0.29843757
53	0xbcb63d7b	-0.022246113
54	0x3dff5b90	0.12468636
55	0xbe88696f	-0.2664294
56	0x3d8eb391	0.06967843
57	0x3e3e9415	0.18611176
58	0x3b5eacde	0.0033977549
59	0x3e04c6ed	0.12966509
60	0x3e400084	0.18750197
61	0x3d811857	0.063034706
62	0x3d78caac	0.060740158
63	0xbe2e0a97	-0.16996227
64	0x3d72e8da	0.059304096
65	0x3da54b40	0.080709934
66	0xbd988bfe	-0.074485764
67	0x3d37e0a7	0.04489198
68	0xbe2c2bcf	-0.16813587
69	0xbdf9a1ac	-0.121890396
70	0x3da7667d	0.08173845
71	0x3ddd98f1	0.10820187
72	0xbd547cb4	-0.05187674
73	0xbe1d5694	-0.15365058
74	0xbd9dd6fb	-0.0770702
75	0xbe4ebfa2	-0.2019029
76	0xbf414c67	-0.75507206
77	0xbd6bd03d	-0.05757164
78	0x3feead20	1.8646584
79	0xbf498c2d	-0.78729516
80	0xbe3cceba	-0.18438235
81	0x3d50eed1	0.051009003
82	0x3de79d04	0.11309245
83	0xbe6f91d7	-0.23395477
84	0x3d37227f	0.044710632
85	0x3e80f72b	0.25188574
86	0xbd289ccd	-0.041165162
87	0x3e3794ef	0.17927907
88	0x3debb943	0.11509945
89	0x3e5b69a9	0.21427025
90	0x3d962358	0.0733096
91	0xbe653bfe	-0.22386166
92	0x3d01d601	0.03169823
93	0xbcc2eb6e	-0.023793902
94	0xbe0db89c	-0.13839954
95	0xbd30aec3	-0.043135416
96	0xbdb1f895	-0.086899914
97	0xbe5b77d9	-0.21432437
98	0x3da76234	0.08173028
99	0xbbb1d5c0	-0.0054270923
100	0x3c5b2f06	0.0133779105
101	0xbe5216d2	-0.20516518
102	0xbdc6caa9	-0.09706623
103	0xbdafbb3f	-0.08580636
104	0x3f54cc42	0.8312417
105	0xbdc47d08	-0.0959416
106	0xbf13ddc5	-0.5776027
107	0x3f86f348	1.0542994
108	0xbe823a62	-0.25435168
109	0x3dae62d2	0.08514942
110	0xbc99c090	-0.018768579
111	0xbe583a2a	-0.21115938
112	0x3ba1deb9	0.0049398807
113	0x3e8c064d	0.27348557
114	0x3dbf1537	0.09330218
115	0x3dd9e9b4	0.106402785
116	0x3db16b1d	0.08663008
117	0x3e585459	0.21125926
118	0x3df78ac5	0.12087015
119	0xbe783979	-0.24240674
120	0xbc2fb0f7	-0.010723344
121	0x3d819e5a	0.06329031
122	0xbe0d06f7	-0.13772188
123	0xbdc6835b	-0.09693023
124	0xbda63403	-0.08115389
125	0xbe01165e	-0.12606189
126	0x3d9ab556	0.07554118
127	0x3d2603a9	0.040530834
128	0xbd86adaa	-0.065760925
129	0xbd892197	-0.0669586
130	0x3d416f3d	0.047225226
131	0xbe461be9	-0.19346584
132	0x3f257bfd	0.64642316
133	0xbdff80db	-0.12475749
134	0xbfd89fec	-1.6923804
135	0x3ffa4f8e	1.9555528
136	0xbe85252a	-0.26004916
137	0xbd31a56c	-0.04337065
138	0x3dbe3566	0.09287529
139	0xbeac4b66	-0.33651274
140	0xbda12e26	-0.0787013
141	0xbc1bf47e	-0.009518741
142	0x3db49a1d	0.08818457
143	0xbdc9c1d5	-0.09851424
144	0xbdd7e650	-0.105419755
145	0xbd23107a	-0.039810635
146	0xbc7bc07a	-0.015365714
147	0x3e1c0319	0.15235557
148	0x3d088bec	0.033336565
149	0x3bc2f59e	0.00594969
150	0x3e4cc232	0.19995955
151	0x3add40d4	0.0016880282
152	0x3e814e50	0.2525506
153	0xbe4beedf	-0.19915341
154	0xbe15a005	-0.14611824
155	0x3db35dbc	0.08758113
156	0x3dba11f7	0.09085458
157	0xbdd9ac92	-0.10628618
158	0xbca2d88c	-0.019878648
159	0xbc9f4d31	-0.019445987
160	0xbd93b503	-0.072122596
161	0x3d66faa6	0.05639138
162	0x3d5680ad	0.05236881
163	0x3ceecbe2	0.029149953
164	0x3e90ea95	0.28303972
165	0x3fa0b3d6	1.2554882
166	0xbb8ce857	-0.004300158
167	0xbf83aa5e	-1.0286367
168	0x3fdd925f	1.7310294
169	0xbd9270b7	-0.07150405
170	0xbe206660	-0.15664053
171	0xbcf118dc	-0.0294308
172	0xbe1c1ffb	-0.15246575
173	0x3d3e41dd	0.04644953
174	0x3da24de0	0.0792501
175	0x3e0c7578	0.13716686
176	0x3e285bd3	0.16441278
177	0x3db4c14e	0.088259324
178	0x3da851d7	0.08218735
179	0x3b177e18	0.002311593
180	0x3e8b0f9e	0.27160352
181	0xbe482230	-0.19544291
182	0xbe4c71c6	-0.19965276
183	0x3d6cf90e	0.057854705
184	0x3c067591	0.008206741
185	0x3d0d9ed1	0.034575287
186	0xbd758f2b	-0.05995099
187	0xbd5bf93f	-0.053704496
188	0x3b2df199	0.0026541709
189	0x3cbcb167	0.02303381
190	0xbd249439	-0.04018042
191	0xbc9fa127	-0.019486023
192	0x3e8e66ca	0.27812797
193	0x3f008709	0.5020605
194	0xbe473a5f	-0.1945586
195	0x3fdd5cb8	1.729392
196	0x3f034fb0	0.5129347
197	0xbdbe508c	-0.09292707
198	0xbe4a247a	-0.19740477
199	0xbcc21a37	-0.02369414
200	0xbd588e4a	-0.052870072
201	0x3d8576d6	0.06516807
202	0xbcead6cb	-0.028666874
203	0x3e1277ae	0.14303467
204	0x3cda975f	0.026683507
205	0x3c356eb9	0.011073762
206	0x3e4de9d2	0.20108727
207	0x3d29c559	0.04144797
208	0x3e8a0198	0.2695434
209	0xbd5d4020	-0.054016232
210	0xbe3b78cd	-0.183078
211	0x3e12f705	0.14352043
212	0x3d81de3a	0.063412145
213	0xbcd5d801	-0.026103975
214	0xbc1f4e07	-0.009723193
215	0xbdc1e0e7	-0.09466725
216	0x3c581499	0.013188505
217	0x3bfece22	0.007776038
218	0xbd8263db	-0.06366702
219	0x3d2ab402	0.041675575
220	0x3e57df34	0.21081239
221	0xbfb47020	-1.4096718
222	0xbe076bf5	-0.13224776
223	0xbee8dcb3	-0.4548088
224	0xbfe822ca	-1.8135617
225	0xbe1b607e	-0.15173528
226	0xbdc19221	-0.094517
227	0xbd4b720f	-0.04966932
228	0xbc51dd32	-0.012809085
229	0x3deea706	0.11652951
230	0xbd615cf6	-0.055020295
231	0x3d6444e7	0.055729773
232	0x3ccb11bf	0.024788735
233	0xbce71f1b	-0.028213074
234	0x3e07a5c1	0.13246824
235	0xbcd4fffd	-0.026000971
236	0x3e45b661	0.19307853
237	0xbe24fcf2	-0.16112116
238	0xbe0eee6d	-0.1395814
239	0xbbe5b2bb	-0.0070098317
240	0xbcd7b5e6	-0.026331853
241	0xbdb4ab78	-0.088217676
242	0x3d68f7d7	0.056876983
243	0x3bdc3210	0.006719835
244	0xbd9c9e94	-0.07647434
245	0x3d75a850	0.05997497
246	0x3d4d0706	0.050055526
247	0x3b8ec746	0.0043572513
248	0x3e7184a0	0.23585749
249	0xbf631109	-0.8869787
250	0xbe105928	-0.1409651
251	0x3fb3e228	1.4053392
252	0xbf8a3157	-1.0796307
253	0xbe55ada3	-0.20867018
254	0xbd8666e3	-0.06562593
255	0x3dc0d2a1	0.09415174

network_critic.0.bias f4 [70]
0	0xbcf40007	-0.02978517
1	0xbccbe1bc	-0.024887912
2	0xbd46994b	-0.048486035
3	0xbd0698b0	-0.032860458
4	0x3c440357	0.011963687
5	0xbdd91e74	-0.106015116
6	0x3daf479c	0.0855858
7	0xbc82a0f7	-0.015945895
8	0xbe1867d8	-0.14883363
9	0x3d2987b0	0.041389167
10	0xbdb90090	-0.090333104
11	0xbdaf8993	-0.08571162
12	0xbd04b7a4	-0.032401696
13	0x3d95db5b	0.07317229
14	0xbdb82e12	-0.08993162
15	0x3b404c9e	0.0029342542
16	0x3df3d324	0.11905506
17	0x3d95ec0c	0.07320413
18	0xbd0d145d	-0.034443248
19	0x3dccee1f	0.100063555
20	0xbc319562	-0.010838838
21	0x3b490fe6	0.0030679642
22	0x3d66527d	0.05623101
23	0x3cef52c3	0.029214269
24	0xbdb40eb9	-0.087918706
25	0xbba4c0e5	-0.0050278776
26	0xbc9fb2cf	-0.019494442
27	0x3c862daf	0.016379206
28	0x3d597f40	0.05309987
29	0x3d4991d1	0.049211327
30	0xbdc41a23	-0.09575298
31	0x3d9ff86a	0.07811053
32	0xbbcb8d8e	-0.006211943
33	0xbcb6cc9f	-0.022314368
34	0xbdd81043	-0.10549977
35	0x3cf21920	0.029552996
36	0x3e02f7d7	0.12789856
37	0xbdb6c687	-0.08924585
38	0xbdf2e712	-0.118604794
39	0x3e08b001	0.1334839
40	0x3ce36bec	0.027761422
41	0x3d181c21	0.0371362
42	0xbde68d8f	-0.11257469
43	0x3cb71336	0.022348028
44	0xbc327d30	-0.010894105
45	0xbd956550	-0.072947145
46	0xbda7e173	-0.08197298
47	0x3d2ec10e	0.04266458
48	0xbda698c3	-0.08134606
49	0x3a5e8ac5	0.0008489306
50	0xbd6a2386	-0.057162784
51	0x3ce7d43d	0.028299445
52	0xba6f8dfe	-0.0009138285
53	0xbd9679e3	-0.07347467
54	0xbd3efe85	-0.046629447
55	0x3d7dae6b	0.061933916
56	0x3e463c66	0.19358978
57	0x3b406ba6	0.0029361038
58	0xbc394325	-0.011307512
59	0x3d9e7b9e	0.07738422
60	0x3cbd96d1	0.023143204
61	0xbbbccd0c	-0.005761748
62	0x3cb1f2bd	0.021722192
63	0x3da19ac3	0.078908466
64	0x3cf71e29	0.030165749
65	0x3e36f4bb	0.17866795
66	0xbd3cd6a4	-0.046103135
67	0xbd889505	-0.06669048
68	0x3e2ab022	0.16668752
69	0xbce16e20	-0.027518332

network_critic.2.weight f4 [70, 70]
0	0xbd9877e9	-0.07444746
1	0xbddcc72b	-0.10780176
2	0xbcd8daec	-0.026471578
3	0x3cc78a70	0.024358004
4	0xbddba5ec	-0.107250065
5	0xbd8a7e2d	-0.06762347
6	0xbd29ace9	-0.041424666
7	0xbc69cbeb	-0.014269809
8	0x3cd155d9	0.02555363
9	0x3dfc4480	0.12317753
10	0x3ddcbb96	0.10777967
11	0x3deaeabc	0.11470553
12	0x3e1c7b55	0.15281422
13	0x3c7def8f	0.01549901
14	0xbd8c195c	-0.068407744
15	0xbd6ea43e	-0.058262102
16	0x3ddaa5fe	0.10676192
17	0x3c26b352	0.010174589
18	0x3d840e6a	0.06448062
19	0x3dc6b540	0.097025394
20	0x3d977db1	0.073970206
21	0x3a5d5905	0.0008443746
22	0x3e1b4391	0.15162493
23	0xbec3e35f	-0.38259408
24	0xbbc09cd1	-0.005878069
25	0xbe3fc42d	-0.18727179
26	0x3e045db6	0.12926373
27	0xbd1dfe6f	-0.038572725
28	0xbcad3450	-0.021143109
29	0xbc5f4229	-0.013626614
30	0xbd6e57c6	-0.058189176
31	0xbe6c254f	-0.23061107
32	0x3c91a9cb	0.017781159
33	0xbdff132d	-0.12454829
34	0x3d731d79	0.05935428
35	0x3df6236c	0.12018475
36	0x3dc0f8da	0.09422465
37	0x3d43874c	0.04773645
38	0xbd54a029	-0.051910553
39	0x3ccde38b	0.025132915
40	0x3dd07c4e	0.10179959
41	0x3db18821	0.08668543
42	0x3cb6f7ab	0.022334894
43	0x3d60f1e1	0.054918174
44	0xbe20ec97	-0.15715252
45	0xbdad02cb	-0.08447798
46	0x3cda44ab	0.026644072
47	0x3dfdfe98	0.124020755
48	0xbd7d6706	-0.06186583
49	0x3cfb8a30	0.030705541
50	0x3defedc7	0.11715274
51	0xbaa0f549	-0.0012280132
52	0xbd3273db	-0.04356752
53	0xbdb7079c	-0.08936998
54	0x3d1b5822	0.037925847
55	0x3db0cad5	0.08632437
56	0x3e2484ac	0.16066235
57	0xbd5687e7	-0.0523757
58	0x3cc818ce	0.02442589
59	0x3dd78fcd	0.10525475
60	0x3e1049f1	0.14090706
61	0x3dcf9652	0.10136093
62	0x3c8ff254	0.017571606
63	0xbd6e8790	-0.05823475
64	0xbe458b9c	-0.19291538
65	0xbcf06ed1	-0.029349716
66	0x3ce19595	0.027537147
67	0x3db1b9a5	0.08677987
68	0x3ca92509	0.020647543
69	0xbd64406f	-0.05572551
70	0xbc7b6c0c	-0.015345585
71	0xbbd5775f	-0.0065144743
72	0xbf2279a1	-0.6346684
73	0x3b033972	0.0020023254
74	0x3ccf9a8e	0.025342252
75	0x3e02fcfe	0.12791821
76	0xbe02a364	-0.12757641
77	0xbd2dcc17	-0.042430963
78	0x3e0ba47b	0.13636963
79	0xbbd0bc89	-0.0063701314
80	0x3dfa7c29	0.12230713
81	0xbcc0d190	-0.023537427
82	0x3d8d8ace	0.069112405
83	0x3d426764	0.047461882
84	0xbdffcb5d	-0.1248996
85	0xbf08cb99	-0.53435665
86	0x3ddb4a0b	0.10707482
87	0xbd7afe11	-0.061277453
88	0xbdf90d61	-0.12160755
89	0xbe15d087	-0.14630328
90	0xbcb9e7ee	-0.0226936
91	0xbe981354	-0.29702246
92	0x3e260d5b	0.16216032
93	0xbe988a05	-0.297928
94	0xbddc4daa	-0.10757001
95	0xbc053d6e	-0.008132322
96	0xbdc6a06f	-0.09698569
97	0xbb105cb5	-0.0022027914
98	0x3db01c2d	0.08599124
99	0xbca7ed0f	-0.02049878
100	0xbe8bc226	-0.2729656
101	0x3e77cf27	0.24200116
102	0xbd10684b	-0.03525571
103	0x3ca4881d	0.020084435
104	0x3dfe683b	0.12422224
105	0xbcf333e1	-0.029687824
106	0x3cb8c82a	0.022556383
107	0x3d1b3ef9	0.037901852
108	0xbcff9c82	-0.031202558
109	0x3d21f690	0.03954178
110	0xbd18dcd3	-0.03731997
111	0xbe1fcc7d	-0.1560535
112	0xbd7a1d8b	-0.06106333
113	0x3c9ee074	0.019394137
114	0xbdcd5ab1	-0.10027064
115	0x3e63891b	0.2222027
116	0x3b309406	0.0026943698
117	0xc031525c	-2.7706518
118	0x3e364a76	0.17801842
119	0xbd905a24	-0.07048443
120	0x3db5ec54	0.08882967
121	0xbc60863c	-0.013703879
122	0xbd8f371d	-0.06992934
123	0x3dbe58a8	0.092942536
124	0x3e7f59a1	0.24936534
125	0x3d9057fd	0.070480324
126	0xbdad5d33	-0.08465042
127	0x3d83e61c	0.06440374
128	0xbce43e1e	-0.027861651
129	0x3dc6c314	0.09705177
130	0xbe411786	-0.1885663
131	0xbdf90f4c	-0.12161121
132	0x3db7814c	0.08960208
133	0x3b9df5a3	0.004820542
134	0xbd7ee7cd	-0.06223278
135	0x3b568381	0.003273219
136	0xbcf9b012	-0.030479465
137	0x3d8d9a80	0.06914234
138	0x3d8a8fb0	0.067656875
139	0xbdec2206	-0.11529927
140	0x3c60b027	0.013713873
141	0x3d8f9e33	0.07012596
142	0x3e25890e	0.16165563
143	0xbc039015	-0.008029957
144	0xbdb1de77	-0.0868501
145	0xbdc071c9	-0.09396703
146	0x3d4c25fd	0.049840916
147	0x3d54187a	0.051781155
148	0xbc176540	-0.0092404485
149	0x3dbb5ea0	0.09148908
150	0xbc8e0d3e	-0.017340299
151	0xbf8ba21b	-1.0908846
152	0x3dc67099	0.09689445
153	0x3ce31232	0.027718637
154	0x3cb9cdb5	0.022681097
155	0xbea376d7	-0.31926605
156	0x3d114133	0.03546257
157	0x3e0e915d	0.13922639
158	0xbe3fac50	-0.18718076
159	0x3d094fa7	0.033523228
160	0x3d6383ac	0.055545494
161	0x3dc8248e	0.09772597
162	0xbbc0d559	-0.005884808
163	0xbdfc7186	-0.123263404
164	0xbe574800	-0.2102356
165	0x3e15038d	0.14552136
166	0xbe9a919b	-0.30189213
167	0xbd5e645a	-0.05429492
168	0x3dd6413d	0.10461662
169	0xbdef6875	-0.116898455
170	0xbc65ecfe	-0.014033554
171	0xbd3520d9	-0.04422078
172	0x3bca32d9	0.0061706123
173	0x3d1912f7	0.037371602
174	0x3de1eadf	0.11031126
175	0x3e24f5ec	0.16109437
176	0xbb403b7f	-0.0029332337
177	0x3d7e047d	0.062016
178	0x3d9dbcff	0.07702064
179	0x3d24ddbf	0.040250536
180	0x392b9aa9	0.00016365446
181	0xbd45c3c0	-0.048282385
182	0xbdc29c5f	-0.09502482
183	0x3d975cbb	0.07390734
184	0x3c9bc211	0.019013437
185	0x3e6a785d	0.22897477
186	0xbde47a0b	-0.1115609
187	0x3d675e94	0.05648668
188	0xbd5def30	-0.054183185
189	0x3b5f019c	0.003402806
190	0xbd6724a4	-0.056431428
191	0xbe0fe58c	-0.14052409
192	0x3d9d37d1	0.07676662
193	0x3c8fe746	0.017566334
194	0xbc8de922	-0.01732308
195	0x3d8ad868	0.067795575
196	0x3e2a0356	0.16602835
197	0x3d09dc94	0.033657625
198	0xbdd27916	-0.102770016
199	0x3d9b5131	0.075838454
200	0x3cf7ef85	0.030265579
201	0xbda6a67b	-0.081372224
202	0xbe055f33	-0.13024597
203	0x3db7ce56	0.08974902
204	0xbca428b7	-0.020038946
205	0xbe3c1e69	-0.18370976
206	0x3da512fb	0.08060261
207	0x3c976154	0.018479027
208	0xbce22c00	-0.027608871
209	0x3d9ca791	0.07649148
210	0xbc830750	-0.015994698
211	0xbd529ed2	-0.051420994
212	0xbdcb4708	-0.099256575
213	0xbd493e0f	-0.04913145
214	0x3e1b85cd	0.1518776
215	0xbe738d91	-0.23784472
216	0xbf13d3fe	-0.5774535
217	0xbe9a2b84	-0.30111325
218	0x3dba97ba	0.09110971
219	0x3e0dcda6	0.1384798
220	0xbe71ec2d	-0.2362525
221	0xbd77487c	-0.06037186
222	0xbd5ce11f	-0.05392563
223	0xbc1838e9	-0.009290912
224	0xbe58f113	-0.21185713
225	0x3bfada3a	0.007655409
226	0xbaf1647c	-0.0018416787
227	0xbe2e8ce1	-0.17045929
228	0xbe9ab74c	-0.3021797
229	0x3daf7124	0.08566502
230	0xbf19a589	-0.6001821
231	0xbe25c7bf	-0.16189478
232	0x3cd3512b	0.02579554
233	0x3ddad478	0.106850564
234	0x3b9a77bd	0.004713981
235	0x3dc8b3c4	0.097999126
236	0x3d8b2466	0.06794052
237	0x3ce5deed	0.0280604
238	0xbca2744d	-0.019830847
239	0x3bf9fd15	0.0076290467
240	0x3e029b35	0.1275452
241	0xbe85791b	-0.2606896
242	0x3e449793	0.19198446
243	0xbd2431d1	-0.04008657
244	0xbd1448b5	-0.03620215
245	0x3be67763	0.007033275
246	0x3d065cf6	0.0328035
247	0xbda9fda1	-0.08300329
248	0x3d3d6ae7	0.04624453
249	0xbdf07c42	-0.1174245
250	0xbde784ca	-0.113046244
251	0xbd9069b4	-0.07051411
252	0xbca3b5a2	-0.01998407
253	0xbdfad107	-0.122469
254	0x3e0ec24a	0.13941303
255	0xbe324c84	-0.17412001

network_critic.2.bias f4 [70]
0	0xbc148023	-0.009063753
1	0x3def37c7	0.116805606
2	0xbdd9aa34	-0.10628167
3	0xbb965830	-0.0045881495
4	0x3d160e04	0.03663446
5	0xbd2b4295	-0.041811544
6	0x3d52adae	0.051435165
7	0x3da64710	0.08119023
8	0xbd99fb08	-0.075185835
9	0x3e072cab	0.13200633
10	0xbd949201	-0.072544105
11	0xbd866bc1	-0.06563521
12	0xbda8e51d	-0.08246825
13	0x3de6c6f1	0.11268414
14	0x3e01ee7c	0.12688631
15	0xbd7cb8f0	-0.061699808
16	0xbd4ca3ee	-0.049961023
17	0xbdcc732d	-0.099829055
18	0xbd508fb6	-0.050918303
19	0xbcff6684	-0.031176813
20	0xbdbb7d49	-0.091547556
21	0xbdcff4e8	-0.10154134
22	0xbcd55ad7	-0.026044292
23	0xbd768a23	-0.06019033
24	0x3ca44fb4	0.020057537
25	0xbd428505	-0.04749014
26	0x3dafecc8	0.08590084
27	0x3dd5e8ae	0.10444771
28	0x3d21e063	0.039520632
29	0xbd3af44b	-0.045643132
30	0x3d0dafe6	0.034591578
31	0x3ca43da0	0.020048916
32	0x3e155a08	0.14585125
33	0x3d05b716	0.032645307
34	0x3c96924e	0.01838031
35	0xbdb56962	-0.08857991
36	0x3c9f7820	0.01946646
37	0x3cce2e6a	0.025168616
38	0x3dce1f63	0.1006458
39	0xbda11075	-0.07864467
40	0x3c113fb9	0.00886529
41	0x3d6c224f	0.057649907
42	0xbcd33b4b	-0.025785109
43	0x3da29d39	0.07940144
44	0x3e0f2014	0.1397708
45	0xbe171632	-0.1475456
46	0xbdc33440	-0.0953145
47	0xbe0f3bb4	-0.13987619
48	0xbd954d8d	-0.07290182
49	0xbd9476c5	-0.07249216
50	0xbdcc1c83	-0.09966376
51	0x3a966c5d	0.0011476387
52	0x3d43f6bd	0.04784273
53	0xbe082b9e	-0.13297889
54	0x3de2d7ee	0.110763416
55	0x3c9783c6	0.018495452
56	0x3cfd0ce8	0.030889943
57	0x3de16785	0.11006073
58	0xbc70c551	-0.014695481
59	0x3d8d107c	0.0688791
60	0xbd80c764	-0.06288031
61	0xbd98b15c	-0.074557036
62	0xbd3cffaa	-0.046142258
63	0x3dca6102	0.09881784
64	0xbb83ca78	-0.004021939
65	0x3ca9c2f5	0.020722846
66	0xbd78ef52	-0.06077511
67	0xbd8b81c0	-0.06811857
68	0x3daf5b8d	0.08562384
69	0x3cca6005	0.024703989

network_critic.4.weight f4 [1, 70]
0	0xbd9c3472	-0.07627191
1	0xbdf98afa	-0.12184711
2	0x3da57c44	0.080803424
3	0xbea2ee06	-0.31822222
4	0xbe09eb81	-0.13468744
5	0xbdca9fd5	-0.09893767
6	0x3db4a724	0.08820942
7	0x3d79075f	0.060798045
8	0xbe65382e	-0.22384712
9	0xbeba5819	-0.36395338
10	0xbea5a7c3	-0.32354555
11	0x3d4c399e	0.049859636
12	0x3d64633f	0.05575871
13	0xbd40646c	-0.04697077
14	0xbe8b6a0b	-0.27229342
15	0x3ded27a8	0.115798295
16	0xbe63e726	-0.22256145
17	0x3deb53d9	0.11490602
18	0x3e7789e2	0.24173692
19	0x3e9483a4	0.29006684
20	0xbe0b2bf0	-0.1359098
21	0xbeba5999	-0.36396483
22	0x3dfee35b	0.12445708
23	0x3e03c6cd	0.12868805
24	0x3da95ba8	0.08269435
25	0xbe186620	-0.14882708
26	0xbdf7d474	-0.12101069
27	0x3ec17409	0.3778384
28	0xbd626c1e	-0.05527889
29	0x3e192e56	0.14959082
30	0xbe58310b	-0.21112458
31	0x3dd4fa2a	0.103992775
32	0xbed11b02	-0.40840918
33	0xbdc819ae	-0.09770523
34	0x3e521a6d	0.20517893
35	0x3e750adf	0.23929928
36	0xbe05ba13	-0.13059263
37	0xbd9f7840	-0.07786608
38	0xbdd16dc1	-0.10226012
39	0xbe05d9ed	-0.13071413
40	0xbdf17b4c	-0.11791095
41	0xbde84ca8	-0.11342746
42	0x3e9e30ae	0.30896515
43	0xbdeb930e	-0.11502658
44	0xbe075a8c	-0.13218135
45	0xbed8130c	-0.42202032
46	0x3e1f03b1	0.15528752
47	0x3dca1df2	0.09868993
48	0xbd1d2af8	-0.038371056
49	0xbe992ff2	-0.29919392
50	0xbea0a3cc	-0.31374967
51	0x3d250775	0.040290315
52	0xbd8e2873	-0.06941309
53	0x3dbfb519	0.093607135
54	0xbd952c30	-0.07283819
55	0x3e2e1c93	0.17003088
56	0x3e296618	0.16542852
57	0xbde3704d	-0.11105404
58	0x3dcdd7f7	0.10050958
59	0xbe0804e9	-0.13283123
60	0xbea61b44	-0.32442677
61	0x3e041ba7	0.12901174
62	0x3f2f7271	0.68534
63	0xbd99f95a	-0.07518263
64	0x3e216489	0.15761007
65	0xbe091e96	-0.13390574
66	0xbe5add42	-0.21373466
67	0xbe4cf0c6	-0.20013723
68	0xbd3f771e	-0.04674446
69	0x3ea12fe9	0.31481865
