checkpoint/general_ddpg-actor_mlp_actor-lr:0.0003_critic-lr:0.0003_gamma:0.99_tau:0.05.pth (torch, 46871 bytes, 6 tensors)

network_actor.0.weight f4 [70, 84]
0	0xb8951f74	-7.110732e-05
1	0x3d8c13e8	0.06839734
2	0xbba57ebe	-0.0050505092
3	0x3db95339	0.090490766
4	0x3d1e8679	0.038702462
5	0x3d260f7f	0.040542122
6	0x3d277b3e	0.040889017
7	0xbcdc0e3e	-0.02686226
8	0xbc4c134b	-0.012455772
9	0xbb146d3c	-0.0022648117
10	0xbdc0bb51	-0.09410728
11	0x3dc61263	0.09671476
12	0x3c14be98	0.009078644
13	0xbddcb5e1	-0.10776878
14	0xbdbc19d7	-0.09184616
15	0xbd705a3f	-0.058679815
16	0xbb34b3a7	-0.0027572901
17	0xbd3c9340	-0.046038866
18	0xbde99118	-0.114046276
19	0xbd337615	-0.043813784
20	0xbb64f695	-0.0034937013
21	0x3cfece8c	0.031104349
22	0x3d247bff	0.040157314
23	0x3db0d8c3	0.08635094
24	0xbda528d4	-0.08064428
25	0xbd523b1c	-0.051325902
26	0xbda83e19	-0.08214969
27	0xbd377af3	-0.044794988
28	0xbdd8d523	-0.105875276
29	0x3dc296fa	0.09501453
30	0xbda8938f	-0.082312696
31	0x3d055045	0.032547254
32	0x3ca20be2	0.019781057
33	0xbd6579da	-0.05602441
34	0x3d9d1329	0.0766967
35	0x3dcb8d63	0.09939077
36	0xbd56e15c	-0.052461013
37	0xbd41ef1e	-0.04734718
38	0xbd81be32	-0.06335105
39	0xbdbb66a5	-0.09150437
40	0xbd168bd1	-0.036754433
41	0x3bc4e6aa	0.0060089426
42	0xbd5330d0	-0.051560223
43	0x3dc9cd34	0.098535925
44	0xbca58faf	-0.020210115
45	0xbd37e3b8	-0.044894904
46	0xbded46e0	-0.11585784
47	0xbcf77b5a	-0.030210186
48	0x3dc524e0	0.09626174
49	0xbd2cb815	-0.04216774
50	0x3d23cef1	0.039992277
51	0x3d99b1e6	0.075046346
52	0xbd9fb000	-0.07797241
53	0xbd948b89	-0.07253177
54	0x3d87ed35	0.066370405
55	0x3d55fa91	0.052240912
56	0xbd9cbae9	-0.07652838
57	0x3dce76d4	0.100812584
58	0xbdb848ca	-0.089982584
59	0x3c47b749	0.012189695
60	0xbcb69f2e	-0.0222927
61	0x3ad36df3	0.001613079
62	0x3d12ed35	0.03587075
63	0x3ddbf3a4	0.1073983
64	0x3c3886d0	0.011262611
65	0x3c108c06	0.008822447
66	0x3db70e77	0.08938306
67	0xbde3f7ae	-0.111312255
68	0x3d402914	0.046914175
69	0x3d818582	0.06324293
70	0x3dba1b5c	0.0908725
71	0xbd97ce99	-0.07412452
72	0x3d4bcd46	0.04975631
73	0x3ddbe5f9	0.10737223
74	0xbde185f1	-0.110118754
75	0xbddd27b3	-0.10798588
76	0xbd560d7d	-0.052258957
77	0xbd7c75bc	-0.061635718
78	0xbd38b464	-0.04509391
79	0x3d0e255f	0.03470361
80	0xbd006825	-0.03134932
81	0x3d3c340d	0.045948077
82	0xbdc213a2	-0.09476401
83	0xbcfe33dd	-0.03103059
84	0x3cede153	0.029038107
85	0x3d9e652d	0.077341415
86	0xbd64b2ef	-0.055834707
87	0x3db29ed3	0.087216996
88	0xbd9f6093	-0.07782092
89	0x3d3d5a0f	0.046228465
90	0x3d34ed0e	0.044171385
91	0xbd1229a1	-0.03568423
92	0x3dc29586	0.095011756
93	0x3d657c87	0.05602696
94	0x3c953912	0.01821569
95	0x3d8103a2	0.06299521
96	0x3c2950fd	0.0103342505
97	0xbd0b50e2	-0.034012683
98	0xbda71281	-0.08157826
99	0xbda000c1	-0.07812644
100	0x3b74b16c	0.0037337197
101	0x3c9cc102	0.019135002
102	0xbdcf8387	-0.10132509
103	0x3cab80fd	0.02093553
104	0xbd905532	-0.070475
105	0xbd80b105	-0.06283764
106	0xbd8f393a	-0.06993337
107	0xbc8301ac	-0.015992008
108	0x39a06d0c	0.00030598824
109	0x3d897299	0.06711311
110	0xbd5b0f8f	-0.053481635
111	0xbda3eaf7	-0.080038
112	0x3d1cb4c4	0.03825833
113	0xbd851165	-0.06497458
114	0x3d06d529	0.03291813
115	0x3dc05b22	0.09392382
116	0xbb36bd56	-0.002788385
117	0x3d80d9a6	0.06291513
118	0xbd9080ff	-0.07055854
119	0x3da7c6e7	0.081922345
120	0xbbcf3aed	-0.006324163
121	0x3d1b2adf	0.037882682
122	0x3cfcddba	0.030867446
123	0xbda5bc62	-0.08092572
124	0x3b58289b	0.0032983187
125	0x3d705730	0.0586769
126	0xbd9f90c3	-0.07791283
127	0x3ca00ee7	0.019538356
128	0xbd852002	-0.06500246
129	0xbd8ac107	-0.06775098
130	0xbd2b3773	-0.041800927
131	0xbdf7d3a7	-0.12100916
132	0xbcb22d0c	-0.021749996
133	0xbd41a735	-0.0472786
134	0x3d1eb75c	0.038749084
135	0xbdd88154	-0.105715424
136	0x3db9373e	0.0904374
137	0x3cc1b43f	0.023645518
138	0x3d988c7e	0.07448672
139	0x3d44fca6	0.048092507
140	0x3d728f39	0.05921862
141	0xbc90d4f1	-0.017679663
142	0x3d831e57	0.06402271
143	0xbd442822	-0.047889836
144	0x3dac2e65	0.084072866
145	0xbc14072a	-0.009034911
146	0x3da354d9	0.07975168
147	0xbdd7813b	-0.10522696
148	0xbd349a9c	-0.04409276
149	0xbdf8aec1	-0.12142707
150	0xbd92d658	-0.07169789
151	0xbd44aefd	-0.048018444
152	0xbd221319	-0.039568994
153	0xbd73b232	-0.059496112
154	0x3d97009a	0.073731616
155	0xbd9c3d8d	-0.076289274
156	0xbd068337	-0.03283998
157	0x3d258d91	0.04041821
158	0xbd30f7b1	-0.043204967
159	0xbd0e13b6	-0.034686767
160	0x3934d997	0.00017247196
161	0x3d838135	0.06421129
162	0xbdba92e7	-0.09110051
163	0xbdcf60eb	-0.101259075
164	0xbdbdfc0d	-0.092765905
165	0xbd9b3ae5	-0.075795926
166	0xbd333ff5	-0.043762166
167	0xbca1fe04	-0.019774444
168	0xbd8f2bcf	-0.06990778
169	0xbda9b5af	-0.082866065
170	0x3c7f9fd8	0.015602075
171	0x3deb5438	0.11490673
172	0xbd455bf0	-0.04818338
173	0x3df3532a	0.11881097
174	0xbd50026d	-0.050783563
175	0x3dfcfab9	0.12352509
176	0x3dbead08	0.09310347
177	0xbda690f8	-0.08133119
178	0xbd7d3170	-0.061814725
179	0xbcd87967	-0.026425077
180	0x3dea9a02	0.11455156
181	0xbd5d3fd5	-0.054015953
182	0x3df36b49	0.118856974
183	0x39b3feba	0.00034331327
184	0xbdab4544	-0.08362821
185	0x3d795d78	0.060880154
186	0xbc6cf633	-0.014462995
187	0xbd913dd4	-0.07091871
188	0x3de9b2ac	0.11411032
189	0xbcbb90bb	-0.022896161
190	0x3d6b0c18	0.05738458
191	0x3be06725	0.0068482333
192	0xbd12f76d	-0.035880495
193	0x3c84fac2	0.016232852
194	0x3c995260	0.018716037
195	0x3d90bd49	0.07067353
196	0xbcdd4092	-0.027008329
197	0xbca7d6d9	-0.02048819
198	0x3dc3d14c	0.095614046
199	0xbce75e9e	-0.02824336
200	0xbd07f350	-0.033191025
201	0x3df9367d	0.12168596
202	0x3dede48c	0.116158575
203	0xbcdc9021	-0.026924195
204	0xbce3230d	-0.027726674
205	0x3cd7ccb8	0.026342735
206	0xbc880943	-0.016605979
207	0xbd43d6e1	-0.047812346
208	0xbd8a6606	-0.06757741
209	0xbd893d27	-0.06701117
210	0x3dfafa3c	0.1225476
211	0x3c84ad37	0.016195877
212	0x3cf90eed	0.030402625
213	0x3dd6e4dd	0.10492871
214	0x3dc720d0	0.09723055
215	0x3d567330	0.052355945
216	0x3c9372c3	0.017999059
217	0x3b96da30	0.0046036467
218	0x3dd2e75d	0.10298035
219	0x3dd04cd2	0.10170902
220	0xbd56bdd9	-0.052427147
221	0x3dff9986	0.12480454
222	0x3d3c46ca	0.045965947
223	0x3dafd309	0.08585174
224	0xbd4f8f68	-0.050673872
225	0x3babae7c	0.005239306
226	0x3dbce459	0.09223241
227	0x3cbb0206	0.022828113
228	0xbd8a107d	-0.06741426
229	0x3d0c8b44	0.0343125
230	0x3ccad1d4	0.024758257
231	0xbaa21fd0	-0.00123691
232	0x3d942261	0.0723312
233	0x3da7d814	0.081955105
234	0x3dd70ff1	0.105010875
235	0x3ca220d5	0.019791046
236	0x3d3d663d	0.04624008
237	0x3db6d4b3	0.08927288
238	0xbd6798a9	-0.056542072
239	0xbc790ecb	-0.015201281
240	0x3dafd03a	0.08584638
241	0x3dd29301	0.10281945
242	0x3dd46a3d	0.10371826
243	0x3cc1edf0	0.023673028
244	0xbda81f84	-0.08209136
245	0x3de9b432	0.11411323
246	0xbc37f306	-0.011227375
247	0xbda1a127	-0.078920655
248	0xbda7fedc	-0.082029074
249	0x3e010bc3	0.12602143
250	0xbbac3f46	-0.005256566
251	0x3d89065a	0.066906646
252	0xbd18c15d	-0.03729378
253	0x3d390e4d	0.045179654
254	0xbd025698	-0.031820863
255	0x3c17accb	0.009257506

network_actor.0.bias f4 [70]
0	0x3cd88d66	0.026434612
1	0x3d89f220	0.06735635
2	0xbcc27d1f	-0.023741303
3	0xbdadf4c3	-0.0849395
4	0xbd912866	-0.070877835
5	0xbdc7ce75	-0.097561754
6	0x3da9f9e6	0.082996175
7	0xbcbd0f5c	-0.023078613
8	0x3d83bb68	0.06432229
9	0xbda70970	-0.08156097
10	0xbdbefb1e	-0.093252406
11	0xbd06f902	-0.032952316
12	0xbdac7626	-0.084209725
13	0x3d6d44f6	0.057927094
14	0xbd87afd9	-0.06625337
15	0x3d64f8f9	0.0559015
16	0xbcbb0b57	-0.022832556
17	0xbcc2f18f	-0.023796825
18	0xbd2b895b	-0.04187904
19	0x3d8e8c92	0.069604054
20	0xbd418c40	-0.047252893
21	0xbdc82d14	-0.09774223
22	0x3d83a830	0.064285636
23	0x3d8aca24	0.067768365
24	0x3aa88f3a	0.0012860068
25	0x3cc71e66	0.024306487
26	0xbda356d3	-0.07975545
27	0x3d997170	0.074923396
28	0x3d2197ea	0.039451517
29	0x3ce5599e	0.027996834
30	0xbdd20dea	-0.1025656
31	0xbcbd3e4e	-0.023100998
32	0xbdd1b135	-0.10238878
33	0xbdf39a18	-0.118946254
34	0xbcb1ef59	-0.021720575
35	0xbc3c92c7	-0.011509604
36	0x3d47a603	0.048742305
37	0xbd077157	-0.033067074
38	0xbd745075	-0.059647042
39	0x3dd6d5da	0.10490008
40	0xbd4fa68f	-0.050695952
41	0xbd35bf35	-0.044371802
42	0x3d99cebb	0.07510134
43	0x3d761d3c	0.060086474
44	0x3dc8a87f	0.09797763
45	0xbd46c215	-0.048524935
46	0x3c87b363	0.01656503
47	0xbd8d9ec1	-0.069150455
48	0xbd89afc7	-0.0672298
49	0xbda18430	-0.07886541
50	0xbaf5df72	-0.0018758608
51	0x3d64200b	0.05569462
52	0xbcded73e	-0.027202245
53	0xbc842b26	-0.016133856
54	0x3cb2cc13	0.021825826
55	0xbd1a4dd1	-0.037671868
56	0xbaa1164c	-0.001228997
57	0xbcf92de8	-0.030417398
58	0x3d8d4350	0.068976045
59	0xbdb45a91	-0.08806337
60	0xbd3004a8	-0.04297319
61	0xbd534097	-0.05157527
62	0xbd5a13c9	-0.053241525
63	0x3d57aef5	0.052657086
64	0xbd3cdfde	-0.046111934
65	0x3d5a2fb7	0.05326816
66	0xbc312e8c	-0.01081432
67	0x3c930b4d	0.017949725
68	0x3c9b02e7	0.018922282
69	0x3c8fa7ac	0.017536007

network_actor.2.weight f4 [70, 70]
0	0xbd95d149	-0.073153086
1	0xbd87a3ae	-0.06623016
2	0x3d75bb76	0.05999323
3	0xbc71cc5f	-0.0147581985
4	0xbd836f0f	-0.06417667
5	0xbdc46112	-0.09588827
6	0xbd18bc61	-0.037289027
7	0xbda8d427	-0.0824359
8	0xbd63f4e2	-0.05565346
9	0xbd1e134c	-0.03859262
10	0x3d692bfb	0.05692671
11	0xbd59b414	-0.05315025
12	0xbe00e430	-0.12587047
13	0xbd8324cc	-0.06403503
14	0xbde43c14	-0.111442715
15	0x3c97b57e	0.01851916
16	0x3c5ce81b	0.013483073
17	0x3d3d81d5	0.046266396
18	0xbd6565c6	-0.05600526
19	0x3b6f033e	0.0036470438
20	0xbcac3120	-0.021019518
21	0x3dedef1c	0.11617872
22	0xbc30855a	-0.010773981
23	0xbdcf550e	-0.10123645
24	0xbd5f958b	-0.054585975
25	0xbd92d62f	-0.071697585
26	0x3da6daf1	0.081472285
27	0x3db5006b	0.0883797
28	0x3de6ec8f	0.11275589
29	0x3dad10e4	0.08450487
30	0xbd8ab139	-0.06772084
31	0xbc05e4af	-0.008172198
32	0xbd426e9e	-0.047468774
33	0xbdc5e98a	-0.09663685
34	0x3ddefbc3	0.108878635
35	0xbd64ebd8	-0.05588898
36	0xbdca56ff	-0.098798744
37	0x3dc14b5e	0.09438203
38	0x3d172e11	0.036909167
39	0xbd8518da	-0.06498881
40	0xbcf540be	-0.029938098
41	0x3d9de425	0.07709531
42	0x3cac3ae4	0.021024175
43	0x3d8fdf1e	0.07024978
44	0x3db7acee	0.089685306
45	0xbd8d1c71	-0.068901904
46	0xbceea2c6	-0.02913035
47	0x3d97f4f9	0.07419772
48	0x3dc9bb5d	0.0985019
49	0x3d48511f	0.048905488
50	0x3ca31c4b	0.019910952
51	0xbd40baae	-0.04705303
52	0xbd171aa2	-0.036890633
53	0xbdb0bb76	-0.08629505
54	0xbda28e7f	-0.07937335
55	0xbde7c368	-0.11316568
56	0xbb18e94b	-0.0023332413
57	0x3dc7b1d1	0.09750713
58	0x3cddea16	0.02708916
59	0x3d7ef99e	0.062249772
60	0x3de40366	0.11133461
61	0xbdbc4475	-0.09192745
62	0xbce66c1d	-0.028127724
63	0xbd901aee	-0.070363864
64	0x3d07e0fc	0.033173546
65	0x3cd50476	0.026003104
66	0xbd4fe727	-0.050757553
67	0x3dc12621	0.09431101
68	0xbd9bdbaa	-0.07610257
69	0xbdee0c42	-0.11623432
70	0x3d1e7d94	0.03869398
71	0x3da07cf2	0.078363314
72	0xbd8eb391	-0.06967843
73	0x3de5a0f5	0.11212341
74	0x3ca0b1a5	0.019615958
75	0x3ddae205	0.10687641
76	0x3d6701fd	0.05639838
77	0xbdb086fa	-0.08619495
78	0x3d19d952	0.03756077
79	0xbdb0f559	-0.08640546
80	0x3d9f5900	0.07780647
81	0xbb9364dd	-0.004498108
82	0xbd93570b	-0.071943365
83	0x3da9d6f0	0.08292949
84	0xbd21985b	-0.039451938
85	0x3d85a04b	0.06524714
86	0xbd42b470	-0.04753536
87	0xbd917ebf	-0.07104253
88	0xbcd4e4d4	-0.02598802
89	0xbd041c2b	-0.032253426
90	0x3d643823	0.0557176
91	0xbde7c886	-0.11317544
92	0xbdbd0bbb	-0.09230753
93	0xbd2820f1	-0.04104704
94	0x3de897a2	0.11357047
95	0xbd9791f2	-0.07400884
96	0xbdb0d8ce	-0.08635102
97	0x3dcfb96f	0.101427905
98	0xbb2e60bd	-0.0026607953
99	0x3c1dfd84	0.009642962
100	0xbd45044b	-0.048099797
101	0x3d979adb	0.07402583
102	0xbd685b01	-0.056727413
103	0xbd76673c	-0.060157046
104	0x3d951dae	0.072810516
105	0xbd3b7680	-0.045767307
106	0x3d88df97	0.066832714
107	0x3da66eaa	0.08126576
108	0xbd90fa15	-0.07078949
109	0xbd5a6e92	-0.053328104
110	0x3d8a1959	0.06743116
111	0x3d81aee9	0.063321896
112	0x3c9ced45	0.019156108
113	0x3d5d6de7	0.05405989
114	0x3c8989fd	0.01678943
115	0x3c09b8aa	0.008405844
116	0x3ceb411e	0.028717574
117	0xbd09083a	-0.03345511
118	0x3dd4e62c	0.10395464
119	0x3dce107f	0.1006174
120	0x3cb579d2	0.022152815
121	0x3d213ae6	0.03936281
122	0xba74f6e3	-0.00093446503
123	0xbd2c8c68	-0.04212609
124	0x3de215ef	0.1103934
125	0xbc5459e9	-0.012960889
126	0xbd0a5c04	-0.03377916
127	0x3df32bfe	0.11873625
128	0x3c088545	0.008332555
129	0x3d9016ce	0.070356
130	0x3bb94189	0.0056535644
131	0xbd35cf0d	-0.044386912
132	0x3d1906be	0.037359945
133	0x3dbc3610	0.09189999
134	0x3ddffb8c	0.10936651
135	0xbd2ea5d4	-0.042638615
136	0x3d65d981	0.05611563
137	0x3b6dd8de	0.0036292593
138	0x3db2a5d7	0.08723038
139	0xbba2d7cc	-0.0049695726
140	0xbcabc96c	-0.020970069
141	0xbd140a5b	-0.03614269
142	0x3ce8e469	0.028429227
143	0x3dff3e15	0.12463013
144	0x3c449665	0.0119987475
145	0x3db142ab	0.08655294
146	0xbd602e5d	-0.054731715
147	0x3ded8a76	0.11598675
148	0xbcc4e258	-0.02403371
149	0xbda17d40	-0.07885218
150	0x3cb870c5	0.02251471
151	0x3b9da696	0.0048111184
152	0x3df65ce2	0.12029435
153	0xbcee03ca	-0.029054541
154	0x3d837efb	0.06420704
155	0x3d4f5641	0.050619368
156	0x3dffa2e7	0.12482243
157	0x3d8cfdf8	0.06884378
158	0xbd32e786	-0.04367783
159	0xbba17544	-0.004927309
160	0xbdcd89f6	-0.100360796
161	0xbd80e509	-0.06293685
162	0xbce824b1	-0.028337808
163	0x3e05e95b	0.130773
164	0x3ad561b1	0.0016279725
165	0xbd215354	-0.03938611
166	0xbbc3e9bb	-0.0059787906
167	0x3cf0d5a4	0.029398747
168	0xbcc31082	-0.023811582
169	0x3c7a41aa	0.015274445
170	0x3d8f78a2	0.07005431
171	0x3c6f0203	0.014587882
172	0xbc344556	-0.011002859
173	0xbba7069a	-0.0050972225
174	0x3d590174	0.0529799
175	0xbdd69be2	-0.10478951
176	0x3d8d1a54	0.06889787
177	0xbd9d1917	-0.07670801
178	0xbd46aea5	-0.048506398
179	0x3c4f30f3	0.012645948
180	0xbd9c28fc	-0.07625005
181	0x3df4106e	0.11917196
182	0x3de9c003	0.114135765
183	0xbd57e46f	-0.052708086
184	0x3e08f442	0.13374427
185	0xbd4a174e	-0.04933863
186	0x3dc7c4d5	0.097543396
187	0x3ca7b038	0.02046977
188	0xbdd70236	-0.104984686
189	0x3dcdb6f4	0.10044661
190	0xbcc99b3e	-0.024610158
191	0x3da634ad	0.08115516
192	0xbd218abd	-0.03943895
193	0xbd70860e	-0.058721595
194	0x3dacdee7	0.08440953
195	0xbd073b89	-0.03301576
196	0x3dbb91f7	0.091587
197	0x3cbd4fba	0.023109306
198	0x3ca4a9a1	0.020100417
199	0x3e04a1f8	0.12952411
200	0x3dae69dd	0.085162856
201	0xbd19df6e	-0.037566595
202	0x3dc80a8c	0.09767637
203	0x3d4fc747	0.050727155
204	0x3d5848fa	0.05280397
205	0x3ab955df	0.0014139971
206	0x3dd203c1	0.10254622
207	0x3dcc4481	0.099740036
208	0xbc0f05d3	-0.008729416
209	0xbcc696a8	-0.02424176
210	0xbdc5fa38	-0.09666866
211	0xbd03b2b8	-0.03215286
212	0xbbe13b06	-0.006873491
213	0xbc3ceb91	-0.011530773
214	0xbd517adc	-0.05114256
215	0xbdccdb30	-0.10002744
216	0x3c8d3163	0.017235463
217	0x3d9bd0d0	0.07608187
218	0x3db2766b	0.08713993
219	0x3a32f05c	0.00068259775
220	0x3dece3e4	0.11566904
221	0xbd8ff5b0	-0.07029283
222	0xbdf18912	-0.11793722
223	0x3ceddde1	0.029036464
224	0xbde2e7f9	-0.110794015
225	0xbd746204	-0.059663787
226	0xbd302cd1	-0.04301149
227	0xbcf282b2	-0.029603336
228	0x3da9b94e	0.08287297
229	0x3d273ce3	0.04082955
230	0x3d8264f0	0.063669086
231	0x3d3032f2	0.043017335
232	0xbd0d034a	-0.034426965
233	0xbd717db5	-0.058957774
234	0xbcc2a3a2	-0.023759667
235	0x3dc928b0	0.09822214
236	0x3d6f060b	0.058355372
237	0xbcc8a175	-0.024491051
238	0x3d99e0ec	0.075136036
239	0x3dcde5f2	0.10053624
240	0x3dba7144	0.09103635
241	0xbcb8098e	-0.022465494
242	0x3c2c21cf	0.0105061075
243	0xbdcdcd6c	-0.10048947
244	0x3dbff53c	0.093729466
245	0xbd4fe3b4	-0.050754264
246	0x3daf61f7	0.08563607
247	0x3ddc1dde	0.10747884
248	0x3d823314	0.06357399
249	0x3d928861	0.071549185
250	0x3c5fd3f0	0.01366137
251	0x3d596147	0.053071287
252	0xbd51814d	-0.0511487
253	0xbd90bcb1	-0.0706724
254	0xbd510a92	-0.05103547
255	0xbd5bac5f	-0.053631183

network_actor.2.bias f4 [70]
0	0x3db524b1	0.08844889
1	0x3db8011c	0.089845866
2	0x3e0a0153	0.13477068
3	0x3d8ccde1	0.06875206
4	0xbca8e740	-0.020618081
5	0x3d8dff3b	0.06933447
6	0xbdb814e0	-0.089883566
7	0x3de27063	0.11056592
8	0x3b03bf25	0.0020102945
9	0xbdeafba4	-0.11473778
10	0xbbd7a876	-0.0065813614
11	0xbd0b689a	-0.034035303
12	0x3d9764e6	0.07392292
13	0x3bdfe663	0.006832884
14	0x3d411ae9	0.047144804
15	0xbdfde755	-0.12397639
16	0xbdc668c6	-0.09687953
17	0x3da0b84c	0.07847652
18	0x3d724e09	0.05915645
19	0x3d4ba063	0.049713504
20	0x3c960098	0.01831083
21	0xbd63abce	-0.055583768
22	0x3ca09bdf	0.019605575
23	0x3d89cd34	0.067285925
24	0xbde6ebb0	-0.112754226
25	0xbdabb996	-0.08385007
26	0xbd9b1c75	-0.07573787
27	0xbd855ef5	-0.06512252
28	0x3d0313ae	0.03200119
29	0x3d8bec8d	0.06832228
30	0x3dd3fbad	0.10350738
31	0xbcc8d948	-0.02451767
32	0x3ad51d9e	0.0016259437
33	0xbd322455	-0.04349168
34	0x3d89f5a2	0.06736304
35	0xbc578cf9	-0.013156169
36	0xbc8d941e	-0.017282542
37	0x3de6299b	0.11238404
38	0xbd94548c	-0.072426885
39	0xbdb26ca2	-0.08712126
40	0x3d891ff7	0.0669555
41	0xb924bce0	-0.0001571062
42	0x3d92a47e	0.07160281
43	0xbdcfb3e3	-0.101417325
44	0xbad41ad3	-0.0016182311
45	0xbd8342fe	-0.06409262
46	0x3dd12211	0.10211576
47	0xbcec2eb7	-0.02883087
48	0x3d90c999	0.07069702
49	0xbd977dba	-0.07397027
50	0xbd21a51b	-0.039464097
51	0x3dea0886	0.11427407
52	0x3d9ddf9a	0.07708664
53	0xbc5d72cf	-0.013516142
54	0xbdbac17b	-0.09118935
55	0x3d852a59	0.06502218
56	0xbd32bdda	-0.043638088
57	0xbb841575	-0.004030878
58	0x3de90758	0.11378354
59	0x3d6350a5	0.05549683
60	0xbd4b94a4	-0.0497023
61	0xbdd51548	-0.1040445
62	0xbdf9181c	-0.121628016
63	0xbd6a18f0	-0.05715269
64	0x3e0638a9	0.13107552
65	0xbd99b700	-0.075056076
66	0xbdd14391	-0.102179654
67	0x3cd38711	0.02582124
68	0xbdaba138	-0.083803594
69	0xbd9bb5b9	-0.0760302

network_actor.4.weight f4 [3, 70]
0	0x3c6e70ba	0.014553243
1	0x3c64bbd0	0.013960794
2	0xbd1b7aff	-0.037959095
3	0x3d37e1ac	0.04489295
4	0xbd31551e	-0.043294065
5	0xbd82ad29	-0.06380684
6	0xbddfbfc0	-0.10925245
7	0x3dbaef02	0.09127618
8	0xbd8cff5d	-0.06884644
9	0x3db660d5	0.08905188
10	0x3c43a156	0.011940321
11	0x3d89c211	0.06726468
12	0x3dcd7dab	0.10033735
13	0x3c929af8	0.01789616
14	0x3cbace7c	0.022803538
15	0xbc7f5113	-0.015583294
16	0xbcdddd4c	-0.027083062
17	0xbda0709b	-0.07833978
18	0xbd7c3c5b	-0.061580997
19	0xbdaf2fc6	-0.08554034
20	0xbde77ae0	-0.113027334
21	0xbd114dfe	-0.03547477
22	0x3d70cab1	0.05878705
23	0xbdcb0355	-0.09912745
24	0x3c653928	0.013990678
25	0x3dcf36f9	0.10117907
26	0x3d8d9549	0.069132395
27	0x3d5e0cbe	0.05421137
28	0x3c8b7f96	0.017028611
29	0x3daa6462	0.08319928
30	0xbd6bb823	-0.057548653
31	0xbdea8bde	-0.11452459
32	0x3dd58428	0.104255974
33	0xbdbd774f	-0.09251272
34	0x3d5eac4c	0.054363534
35	0x3cc1b9cc	0.023648165
36	0xbd88d1df	-0.06680655
37	0xbcb84b76	-0.02249692
38	0xbc6b0c5b	-0.0143462075
39	0xbd7c4ad3	-0.061594795
40	0xbd68a165	-0.056794543
41	0x3d80b1dc	0.06283924
42	0x3d538137	0.0516369
43	0xbd8c0683	-0.068371795
44	0x3d7488ec	0.05970089
45	0xbdde62b4	-0.1085867
46	0xbdc6b41c	-0.09702322
47	0x3d9d0ab3	0.07668056
48	0xbbf4c628	-0.007469911
49	0x3d9524f2	0.072824374
50	0xbc92c0f8	-0.01791428
51	0x3d43ac30	0.047771633
52	0xbd9896c6	-0.07450633
53	0x3ba0722e	0.004896424
54	0xbda3294c	-0.07966861
55	0xbb76dcc6	-0.0037668212
56	0x3cf5489a	0.029941846
57	0x3c26dff1	0.010185228
58	0xbdf15774	-0.117842585
59	0xbd1bcf5b	-0.038039546
60	0xbd542531	-0.05179328
61	0x3d7d29c7	0.06180742
62	0x3dc4d127	0.09610205
63	0xbdcdb0a5	-0.10043458
64	0xbd0b97ec	-0.03408043
65	0xbd04842b	-0.032352608
66	0x3d5f8833	0.05457325
67	0xbd679d31	-0.056546394
68	0x3ce417ae	0.027843323
69	0x3c921163	0.017830556
70	0xbba0aaad	-0.0049031586
71	0xbc846c6a	-0.016164977
72	0xbdcdc469	-0.10047228
73	0xbde1d76c	-0.110274166
74	0x3da26296	0.0792896
75	0xba0a7b4b	-0.00052826543
76	0xbde4cbbd	-0.111716725
77	0x3c430da4	0.011905108
78	0xbbf8d9c4	-0.007594319
79	0xbd301750	-0.042990983
80	0xbc7e1933	-0.015508938
81	0x3d04441d	0.03229152
82	0x3d1f6315	0.03891285
83	0xb99d81a7	-0.00030041972
84	0xbd807ea1	-0.062741525
85	0xbcff8fb8	-0.03119646
86	0x3dce8c44	0.10085347
87	0xbd928def	-0.07155978
88	0xbdd684ef	-0.10474574
89	0xbde439f5	-0.11143867
90	0x3d90cd08	0.070703566
91	0xbd56522e	-0.052324466
92	0xbd564514	-0.05231197
93	0x3cb95e26	0.022627901
94	0x3dc7cee4	0.09756258
95	0xbd9a65ba	-0.07538934
96	0xbc174c6f	-0.009234532
97	0xbb3178d4	-0.0027080076
98	0x3d390f1d	0.04518043
99	0xbe066476	-0.1312426
100	0xbd340639	-0.043951247
101	0xbcb827bd	-0.022479886
102	0x3d64b41e	0.055835836
103	0x3d99120d	0.07474146
104	0xbd70880d	-0.058723498
105	0x3d6b4e1d	0.05744754
106	0xbded2aa6	-0.115804
107	0xbd5a3bb5	-0.053279597
108	0xbc1000ae	-0.008789225
109	0xbd96958b	-0.07352742
110	0x3cec2b90	0.028829366
111	0xbcf08334	-0.029359438
112	0x3d0bc1a7	0.03412023
113	0xbca7c3f3	-0.020479178
114	0xbcafb159	-0.02144687
115	0xbae76948	-0.0017655278
116	0xbde882e5	-0.11353091
117	0xbb78c9de	-0.003796212
118	0x3d07da9f	0.033167478
119	0xbe0b786a	-0.13620153
120	0x3d25aafb	0.040446263
121	0xbde6164a	-0.1123472
122	0xbd02fefe	-0.03198146
123	0x3a4bf8d8	0.0007780916
124	0x3c119623	0.008885893
125	0xbd82268c	-0.063550085
126	0xbdd8a45a	-0.105782226
127	0x3dbab1b1	0.09115923
128	0xbcc980b6	-0.024597507
129	0xbd24284c	-0.040077493
130	0xbde4c171	-0.111697085
131	0x3d38f7db	0.04515825
132	0xbd1b9baa	-0.03799025
133	0xbd80835d	-0.062750556
134	0xbdc8123d	-0.09769104
135	0xbd2e3821	-0.042533997
136	0xbd56d9cb	-0.052453797
137	0x3c9d6adb	0.019215992
138	0x3d169938	0.036767215
139	0x3db3bd5e	0.08776353
140	0xbda283ac	-0.07935271
141	0xbd99c660	-0.0750854
142	0xbda3bb0c	-0.07994661
143	0x3d4d384a	0.05010251
144	0xbd98f1cd	-0.07467995
145	0xbd43edd2	-0.047834225
146	0xbb9e77a0	-0.0048360378
147	0xbdb4fe7b	-0.08837601
148	0x3ce06580	0.027392149
149	0x3d4d1caa	0.050076164
150	0xbdd53b6d	-0.10411725
151	0x3d2955c6	0.041341566
152	0xbdc6163e	-0.09672211
153	0x3d7d7e6a	0.061888136
154	0xbd3cdd41	-0.04610944
155	0x3c8551d2	0.016274367
156	0xbdf7e1ed	-0.12103639
157	0xbd774025	-0.060363907
158	0x3cf45156	0.02982394
159	0xbd697b43	-0.057002317
160	0xbda1a1bd	-0.07892177
161	0x3da5cdb0	0.080958724
162	0xbe15d84c	-0.14633292
163	0x3ce13b77	0.027494175
164	0xbc439e78	-0.011939637
165	0x3cf038ac	0.029323898
166	0x3c0f7540	0.008755982
167	0x3d52ffbe	0.051513426
168	0x3cc3640f	0.023851423
169	0xbdbc01a5	-0.09180001
170	0x3dd45ead	0.103696205
171	0x3c6e5af6	0.014548054
172	0x3d802edd	0.062589385
173	0x3dd4981b	0.10380574
174	0x3d9ded03	0.07711222
175	0x3d78ce4a	0.060743608
176	0x3d79d636	0.060995303
177	0xbd5d81bc	-0.054078802
178	0xbdf18f23	-0.11794879
179	0xbc8117b2	-0.01575837
180	0x3da11bdb	0.07866641
181	0xbe035b2e	-0.12827751
182	0x3d7a696d	0.061135698
183	0x3db4165b	0.087933265
184	0x3d00c165	0.031434435
185	0xbdbd8600	-0.09254074
186	0xbdd00ffc	-0.10159299
187	0xbcfcc17a	-0.030853976
188	0xbcbf9670	-0.023387164
189	0xbbb78bff	-0.0056014056
190	0xbd763d49	-0.06011704
191	0xbcd9ae88	-0.02657248
192	0x3d940cee	0.07229029
193	0x3dca8b59	0.0988986
194	0xbdccb0e9	-0.099946804
195	0x3da436ba	0.08018251
196	0xbd9af1e5	-0.07565669
197	0x3da121f0	0.07867801
198	0xbd53ba48	-0.051691324
199	0xbd1e3031	-0.038620178
200	0xbda6d8d1	-0.08146823
201	0x3d984cd0	0.07436526
202	0x3d9c882c	0.0764316
203	0xbc1d8450	-0.009614065
204	0xbd19f88e	-0.037590556
205	0xbdec69d7	-0.11543625
206	0xbdb174be	-0.08664845
207	0x39a2ba6f	0.00031037952
208	0x3db22762	0.08698918
209	0xbd1720f2	-0.036896653

network_actor.4.bias f4 [3]
0	0x3bcbcbe7	0.0062193754
1	0x3daf4a0a	0.08559044
2	0x3d768d11	0.060193125
