checkpoint/td3-critic_mlp_actor-lr:0.0003_critic-lr:0.0003_gamma:0.99_tau:0.05.pth (torch, 126209 bytes, 10 tensors)

network_critic_1.0.weight f4 [70, 145]
0.08320725 -0.033289377 0.0044041136 0.06952747 0.06162929 -0.040325936 -0.012224265 0.0031386267
0.08336781 -0.038515437 -0.05438676 -0.04991841 0.06478494 0.075161345 0.056356397 -0.059512377
-0.019219201 0.019957494 0.0553496 0.037912372 0.009645686 -0.06284747 0.022578647 -0.03135206
0.0366226 0.062188372 0.080057174 0.037899803 0.029024048 0.03571551 -0.048896108 -0.04679659
0.07025105 0.024190722 0.064024836 0.049111057 0.07416338 -0.028921584 0.06323875 0.022104528
-0.038314845 -0.0081776995 -0.019017521 0.049378518 0.06360284 0.010903901 -0.024048584 0.02915153
-0.03126845 0.03628427 -0.09455569 -0.04194228 0.05958696 -0.030391125 -0.009554728 -0.05691476
0.05752278 -0.014932494 0.020499352 0.004945731 0.05562889 -0.03632323 -0.037072215 0.004466485
-0.049338475 0.07185466 -0.052735355 0.051302508 -0.0027272468 -0.03171536 -0.034982964 0.0068133124
-0.067703865 -0.0374668 0.04677744 0.06174025 0.019408725 -0.065903075 -0.028326817 0.031481933
-0.06711078 0.0060330513 0.018021157 -0.054637443 -0.06386191 -0.07389146 -0.057611052 -0.03668892
-0.023386993 0.063381754 0.0054554488 0.0519214 -0.03904669 -0.062340777 0.033751525 -0.051720083
-0.07369634 0.028724803 0.05297597 0.03317685 -0.05379086 0.013290573 0.04617383 0.0011421641
-0.06815377 0.048391916 0.037656415 0.0048858044 0.054653578 -0.00045407983 -0.0038408742 -0.027409697
-0.049363837 0.066717714 -0.004379642 0.02004495 -0.049183924 0.03165444 0.07846837 0.00010686404
0.023613015 -0.07760211 0.0493483 -0.04019135 0.02657564 -0.063825324 -0.07638546 0.06676544
-0.01803361 0.08229631 -0.016292501 0.020776099 -0.015735306 0.07380815 0.061295766 0.008055257
0.050736446 0.01274627 -0.034398403 0.023561684 0.12553497 0.12503743 0.10878379 0.11070331
0.25732067 -0.033291496 0.0125376005 -0.07547354 3.8638973e-05 0.06511249 -0.06620244 -0.028863212
0.024612667 0.057565447 0.06235324 -0.050239697 -0.08457576 -0.016532091 -0.026283218 0.047057837
-0.03459403 -0.02570693 -0.032187622 -0.052766845 -0.0015385225 0.05924484 0.026423184 -0.031097624
0.001571881 0.014520989 0.05984793 0.074759394 -0.08250423 -0.02955242 -0.042935323 -0.054212246
0.007217829 0.053178333 -0.020008884 0.008120351 0.07339178 -0.081158735 0.024827441 -0.0030427743
-0.06901323 -0.08609879 -0.011638288 0.053563267 0.031621594 -0.027220093 -0.013143285 -0.06377558
0.049124744 0.0052974955 0.00072229136 0.06374172 -0.08522983 -0.044170365 -0.08609004 0.05279074
0.08251826 0.030428775 -0.0049962644 0.07255879 -0.018505124 0.024545237 -0.045352045 -0.07003717
0.018887093 -0.060044747 -0.013631731 -0.025302337 -0.015831439 -0.0030857883 -0.041136682 -0.040696196
-0.034719598 -0.034052987 0.061239094 -0.034095094 -0.044736717 0.046674274 0.07954411 -0.08374376
-0.10351793 -0.049165633 -0.011329754 -0.06480219 0.0471655 0.01726572 -0.04860692 -0.013409068
0.06489312 0.020254232 0.065111004 -0.083597414 -0.03238162 0.052469518 -0.013734798 0.07024406
0.027736869 -0.043712415 -0.09160726 0.060963836 0.029305983 0.027652686 0.04104148 0.07092264
-0.026971487 0.055337492 0.057219263 0.02942866 0.0053939275 0.075173005 -0.022084571 -0.031703375
00000000: 9068 aa3d 715a 08bd 6250 903b 6b64 8e3d
00000010: ff6e 7c3d cf2c 25bd 4948 48bc 6bb1 4d3b
00000020: bebc aa3d 5dc2 1dbd a7c4 5ebd 3f77 4cbd
00000030: f7ad 843d 31ee 993d f7d5 663d 40c3 73bd
00000040: 9671 9dbc e67d a33c 43b6 623d 014a 1b3d
00000050: f008 1e3c 2db6 80bd dbf6 b83c 056b 00bd
00000060: 9401 163d 3cb9 7e3d 04f5 a33d d33c 1b3d
00000070: d7c3 ed3c 6d4a 123d 4947 48bd c8ad 3fbd
00000080: c8df 8f3d 9f2b c63c 741f 833d ad28 493d
00000090: f8e2 973d f5ec ecbc 5183 813d 8e14 b53c
000000a0: 07f0 1cbd c2fb 05bc a2ca 9bbc 2141 4a3d
000000b0: 3542 823d 47a6 323c 8901 c5bc 30cf ee3c
000000c0: 5913 00bd d19e 143d 6aa6 c1bd abcb 2bbd
000000d0: 7511 743d cff6 f8bc 6f8b 1cbc 741f 69bd
000000e0: 029d 6b3d 6ba7 74bc 42ee a73c cc0f a23b
000000f0: 1edb 633d abc7 14bd 09d9 17bd 985b 923b
00000100: 2417 4abd 8928 933d 0701 58bd 9422 523d
00000110: 9cbb 32bb f7e7 01bd 4c4a 0fbd 3542 df3b
00000120: 53a8 8abd ca76 19bd b399 3f3d 58e3 7c3d
00000130: 0cff 9e3c 31f8 86bd a40d e8bc 33f3 003d
00000140: 6071 89bd e7b0 c53b 1ba1 933c 83cb 5fbd
00000150: 08ca 82bd 6854 97bd 91f9 6bbd 1f47 16bd
00000160: 1496 bfbc 4bce 813d 9fc3 b23b 89ab 543d
00000170: 6cef 1fbd 0b59 7fbd 0a3f 0a3d 70d8 53bd
00000180: 1bee 96bd 4750 eb3c 55fd 583d 73e4 073d
00000190: ce53 5cbd b4c0 593c c520 3d3d abb4 953a
000001a0: 3494 8bbd 9a36 463d 9d3d 1a3d 1919 a03b
000001b0: 6edc 5f3d 9011 eeb9 2db7 7bbb 4d8a e0bc
000001c0: bc31 4abd 4ca3 883d 1a83 8fbb 4f35 a43c
000001d0: 1575 49bd 16a8 013d 06b4 a03d 321c e038
000001e0: 1570 c13c dbed 9ebd 7121 4a3d af9f 24bd
000001f0: 28b5 d93c dab6 82bd fb6f 9cbd 52bc 883d
00000200: 39bb 93bc f88a a83d da77 85bc a332 aa3c
00000210: 54e7 80bc ba28 973d 4511 7b3d 32fa 033c
00000220: 05d1 4f3d bbd5 503c 57e5 0cbd 6f04 c13c
00000230: 3d8c 003e d009 003e 09ca de3d 6bb8 e23d
00000240: 89bf 833e aa5c 08bd 826a 4d3c df91 9abd
00000250: 4810 2238 b259 853d 2595 87bd 8b72 ecbc
00000260: 81a0 c93c bfc9 6b3d 1c66 7f3d 24c8 4dbd
00000270: 0e36 adbd 4f6e 87bc e74f d7bc b8bf 403d
00000280: 78b2 0dbd 5797 d2bc 2bd7 03bd 0c22 58bd
00000290: 40a8 c9ba b8aa 723d 6f75 d83c 72c0 febc
000002a0: 9307 ce3a 71e9 6d3c 1a23 753d 741b 993d
000002b0: faf7 a8bd eb17 f2bc f3dc 2fbd a90d 5ebd
000002c0: 8a83 ec3b 86d1 593d ace9 a3bc 380b 053c
000002d0: 6e4e 963d 8d36 a6bd eb62 cb3c 4869 47bb
000002e0: cf56 8dbd 9054 b0bd 85ae 3ebc 2865 5b3d
000002f0: a585 013d acfc debc ef56 57bc c59c 82bd
00000300: 0737 493d 9d96 ad3b 2758 3d3a 058b 823d
00000310: fa8c aebd fceb 34bd fa4f b0bd 1a3b 583d
00000320: 55ff a83d c445 f93c b4b7 a3bb b499 943d
00000330: 0f98 97bc 1813 c93c 11c3 39bd a66f 8fbd
00000340: 1bb9 9a3c 7bf1 75bd a057 5fbc d946 cfbc
00000350: efb0 81bc f03a 4abb f07e 28bd 0eb1 26bd
00000360: 2336 0ebd 257b 0bbd d8d5 7a3d 4ca7 0bbd
00000370: d93d 37bd 862d 3f3d 06e8 a23d d981 abbd
00000380: 3501 d4bd e761 49bd 6fa0 39bc 03b7 84bd
00000390: 9c30 413d d770 8d3c 0d18 47bd b5b1 5bbc
000003a0: afe6 843d 34ec a53c eb58 853d 1f35 abbd
000003b0: 97a2 04bd 47ea 563d eb07 61bc 1edc 8f3d
000003c0: 6e38 e33c ca0b 33bd 969c bbbd 37b5 793d
000003d0: 1a13 f03c e387 e23c 1c1b 283d e43f 913d
000003e0: 4ff3 dcbc 91a9 623d bf5e 6a3d 6014 f13c
000003f0: 8bbf b03b 4ef4 993d b4ea b4bc 66db 01bd

network_critic_1.0.bias f4 [70]
-0.019147713 -0.066813335 0.051585913 -0.036078613 0.08708721 0.0021775486 -0.08737661 0.0389172
-0.07919144 0.024340216 -0.051305413 0.0022546386 0.008113936 0.016290592 0.0501624 0.051429525
0.0011034795 0.011833896 0.012871738 -0.009443008 -0.07373384 -0.017636158 0.057024207 -0.010979131
-0.001728717 0.029616175 -0.052334227 0.066652924 -0.016756661 -0.04401084 0.054744564 -0.034238663
-0.018746156 -0.011222554 0.038031906 0.071092315 0.048091553 -0.061597254 -0.08837668 -0.06302534
-0.02261479 -0.07659114 0.06694814 0.030038284 0.023879798 -0.0066204546 0.0545575 0.0060342206
-0.037103787 -0.06980107 0.01833984 0.06777596 0.040537633 0.008755721 0.012430495 -0.057284467
0.010463526 0.01610067 -0.03571243 -0.056361027 -0.041973162 -0.041146085 0.041328046 0.0358284
0.03945839 0.06835801 -0.084226586 0.05527711 0.062140763 -0.027344627
00000000: aadb 9cbc 6ed5 88bd c04b 533d 2bc7 13bd
00000010: c75a b23d 34b5 0e3b 82f2 b2bd a467 1f3d
00000020: 1f2f a2bd 2265 c73c a025 52bd 8fc2 133b
00000030: 50f0 043c d973 853c 1777 4d3d c4a7 523d
00000040: a1a2 903a f5e2 413c fbe3 523c d9b6 1abc
00000050: c401 97bd b479 90bc 3792 693d d0e1 33bc
00000060: 1e96 e2ba 9f9d f23c 6a5c 56bd 5481 883d
00000070: 4445 89bc b644 34bd d63b 603d d73d 0cbd
00000080: 8a91 99bc cede 37bc 58c7 1b3d d998 913d
00000090: a6fb 443d 674d 7cbd d5fe b4bd 6e13 81bd
000000a0: a742 b9bc d1db 9cbd 1b1c 893d d912 f63c
000000b0: 919f c33c 66f0 d8bb af77 5f3d b6ba c53b
000000c0: 24fa 17bd ddf3 8ebd 6f3d 963c 1fce 8a3d
000000d0: ca0a 263d 2874 0f3c 46a9 4b3c 1ea3 6abd
000000e0: 356f 2b3c 8de5 833c 3247 12bd d2da 66bd
000000f0: 0dec 2bbd cc88 28bd 9947 293d cdc0 123d
00000100: 1f9f 213d 49ff 8b3d fd7e acbd 406a 623d
00000110: 5087 7e3d d701 e0bc

network_critic_1.2.weight f4 [70, 70]
0.064975336 -0.06407963 -0.030842759 0.10857665 -0.05992519 0.11080191 0.095240004 0.06364165
-0.043570545 0.09862401 -0.09662051 -0.02429834 0.06512523 -0.023621809 -0.008036077 0.064818665
-0.020041313 0.07712054 -0.07709312 0.059634134 0.07125862 0.063261114 -0.06212899 0.025236486
0.11059801 -0.09643006 0.0025832138 -0.021389375 0.034844365 0.110988125 -0.026693778 -0.005299828
-0.062465116 0.048828695 -0.030675549 0.09339695 0.08772006 0.014275173 0.038780376 0.107136235
0.012070149 -0.07873149 -0.051233735 -0.033251636 0.030942619 -0.047982823 0.037144236 0.00703067
-0.07177372 0.037883196 -0.007046134 0.08277801 -0.03171903 -0.06309994 -0.08963538 -0.024055507
-0.014004242 0.0976024 0.07535983 -0.055330507 -0.07375234 -0.09622878 0.023222223 -0.08044208
0.09580235 -0.115611635 0.07895187 0.018554801 -0.02254192 0.0859386 -0.049110074 0.07611603
0.09734808 -0.021592863 0.036403343 0.038613345 0.025325155 0.10073899 0.03768864 -0.0075156135
0.10607012 -0.036012243 -0.034755234 0.096280865 0.09138587 -0.06458274 0.0033502637 0.0995065
0.034864746 -0.08827555 0.024660252 0.09100399 -0.043669324 -0.06373249 0.020471398 0.038509734
0.046788808 -0.09938512 -0.02308285 -0.04265264 -0.09658068 -0.07582453 0.09434162 0.06501599
0.11674687 0.03436432 0.06731749 0.058919147 0.112769604 -0.07683712 0.023744764 -0.038148254
-0.033565998 0.06393449 -0.057486415 0.09532663 0.06881433 0.07316584 -0.078546174 -0.06978446
0.04831507 -0.10488387 0.10757152 0.11255083 0.02564027 -0.027864253 0.050965436 -0.046094175
0.038180314 -0.004442705 -0.030849596 0.049909938 0.055205405 -0.014686913 0.011209616 0.09555559
-0.038854904 -0.08966775 -0.06172231 0.082368806 0.020837823 0.077176444 0.057994902 0.089259624
0.013860559 -0.079102956 -0.100692056 -0.014894547 0.007942883 0.027663514 0.11736499 -0.09111096
-0.12543447 -0.0079869 -0.0035197595 0.06046466 -0.00079292373 0.07401755 -0.018891282 -0.1250881
-0.0131288 0.06207497 -0.062966146 -0.003502986 0.0731443 -0.046046454 0.07855651 0.062487125
-0.04975343 0.04840018 -0.09189786 0.13295594 0.027761016 0.04307445 -0.086466655 -0.11962346
0.0012241235 0.054905202 0.052884214 0.018834522 -0.12360838 0.04714294 -0.0929306 -0.094368696
-0.045707867 0.07159145 -0.021508621 0.041783154 -0.042186756 0.06587387 0.108125255 -0.19240601
-0.047712367 -0.035810567 -0.0718473 -0.08597821 -0.034591887 -0.0037303525 -0.09441558 0.084497735
0.025696918 -0.08838649 0.063717045 -0.03615639 -0.08576622 -0.07522962 -0.073888235 -0.023291899
0.14167167 -0.07019814 0.0067963297 0.094122775 0.061762758 0.09302283 0.038908843 -0.012735999
-0.03417256 -0.061763473 -0.10415273 0.007176891 0.029074095 -0.08615399 -0.08932005 0.021738533
-0.014843122 -0.113818884 -0.0077776313 0.025103247 0.11395275 -0.025029039 0.10387409 -0.11809236
-0.07576458 0.103063375 -0.09150134 0.0066798027 -0.099228956 0.040505785 -0.032537065 0.02848196
0.0072494876 0.041861095 0.10624416 0.013635765 -0.10789854 0.010022145 -0.017694555 0.10041728
0.0984977 -0.052251376 0.09073518 0.06604902 0.08908041 -0.0013213495 -0.108622454 -0.058933176
00000000: ca11 853d 2e3c 83bd f4a9 fcbc 6f5d de3d
00000010: 1e74 75bd 1dec e23d 310d c33d 8e56 823d
00000020: 0777 32bd 63fb c93d f9e0 c5bd 500d c7bc
00000030: 6060 853d 8682 c1bc c0a9 03bc a6bf 843d
00000040: ae2d a4bc 60f1 9d3d ffe2 9dbd ec42 743d
00000050: 0af0 913d 0b8f 813d f87a 7ebd bfbc ce3c
00000060: 3681 e23d 207d c5bd 234b 293b c538 afbc
00000070: f7b8 0e3d be4d e33d e9ac dabc 2eaa adbb
00000080: 6cdb 7fbd 9900 483d 4a4b fbbc e646 bf3d
00000090: 93a6 b33d 6ae2 693c 2cd8 1e3d 3e6a db3d
000000a0: e0c1 453c fa3d a1bd 77da 51bd de32 08bd
000000b0: 607b fd3c a389 44bd 8e24 183d 8961 e63b
000000c0: 1afe 92bd 692b 1b3d 42e3 e6bb 8487 a93d
000000d0: d0eb 01bd 8b3a 81bd c192 b7bd 0e10 c5bc
000000e0: 0c72 65bc c4e3 c73d 4156 9a3d 3ea2 62bd
000000f0: 780b 97bd 9813 c5bd 883c be3c d1be a4bd
00000100: 0634 c43d cbc5 ecbd 85b1 a13d 3d00 983c
00000110: d5a9 b8bc 9400 b03d a527 49bd b9e2 9b3d
00000120: 6e5e c73d 84e3 b0bc ac1b 153d 0729 1e3d
00000130: b376 cf3c 3e50 ce3d 675f 1a3d 8945 f6bb
00000140: 4b3b d93d 9381 13bd 815b 0ebd e72e c53d
00000150: 8428 bb3d f543 84bd 1990 5b3b 10ca cb3d
00000160: 56ce 0e3d d0c9 b4bd 4c04 ca3c 4d60 ba3d
00000170: 9bde 32bd 2e86 82bd a2b3 a73c 62bc 1d3d
00000180: 9fa5 3f3d 6d8a cbbd 3f18 bdbc 89b4 2ebd
00000190: 17cc c5bd e449 9bbd 2e36 c13d 1a27 853d
000001a0: fc18 ef3d 9ac1 0c3d c1dd 893d 3455 713d
000001b0: c0f3 e63d c85c 9dbd 6184 c23c 5841 1cbd
000001c0: 807c 09bd 16f0 823d e076 6bbd 9c3a c33d
000001d0: 87ee 8c3d f9d7 953d d1dc a0bd 28eb 8ebd
000001e0: 06e6 453d 5bcd d6bd 754e dc3d 0d81 e63d
000001f0: 8b0b d23c 9343 e4bc 22c1 503d 3fcd 3cbd
00000200: f662 1c3d 1c94 91bb 4bb8 fcbc 5d6e 4c3d
00000210: 101f 623d 61a1 70bc 8aa8 373c a6b2 c33d
00000220: 5226 1fbd baa3 b7bd 88d0 7cbd fab0 a83d
00000230: 15b4 aa3c af0e 9e3d 108c 6d3d c0cd b63d
00000240: 6617 633c bb00 a2bd a337 cebd 4208 74bc
00000250: de22 023c 989e e23c 0e5d f03d 6298 babd
00000260: e571 00be 7ddb 02bc c4ab 66bb cba9 773d
00000270: 36dc 4fba 8396 973d e4c1 9abc 1817 00be
00000280: 2e1a 57bc 5342 7e3d 65f4 80bd 5a92 65bb
00000290: aecc 953d 359b 3cbd 3ce2 a03d 80f2 7f3d
000002a0: 41ca 4bbd 443f 463d f234 bcbd 9a25 083e
000002b0: 126b e33c d66e 303d 6e15 b1bd 25fd f4bd
000002c0: c572 a03a 47e4 603d 1e9d 583d db4a 9a3c
000002d0: 6426 fdbd f518 413d 6652 bebd 6044 c1bd
000002e0: 2c38 3bbd 8a9e 923d d932 b0bc d024 2b3d
000002f0: 05cc 2cbd e1e8 863d c670 dd3d 1506 45be
00000300: 0b6e 43bd 1aae 12bd ad24 93bd 5815 b0bd
00000310: 39b0 0dbd ee78 74bb f55c c1bd 260d ad3d
00000320: 5882 d23c fa03 b5bd 157e 823d b918 14bd
00000330: 33a6 afbd fd11 9abd b752 97bd a7ce bebc
00000340: 6112 113e 0bc4 8fbd bfb3 de3b 71c3 c03d
00000350: f2fa 7c3d c182 be3d e15e 1f3d a7aa 50bc
00000360: 87f8 0bbd b2fb 7cbd 074e d5bd 202c eb3b
00000370: cc2c ee3c 8171 b0bd 6eed b6bd 0215 b23c
00000380: 9130 73bc e019 e9bd 80db febb 53a5 cd3c
00000390: 0f60 e93d b309 cdbc f0bb d43d 68da f1bd
000003a0: 762a 9bbd e412 d33d 0e65 bbbd 3fe2 da3b
000003b0: 8d38 cbbd 65e9 253d 9645 05bd 0053 e93c
000003c0: 1c8d ed3b 8a76 2b3d 8a96 d93d 8b68 5f3c
000003d0: e9f9 dcbd ec33 243c 2cf4 90bc 93a7 cd3d
000003e0: 2ab9 c93d 8a05 56bd 5ed3 b93d b544 873d
000003f0: ca6f b63d 2231 adba 7375 debd ea63 71bd

network_critic_1.2.bias f4 [70]
-0.10521355 0.07424195 0.13583274 -0.049204327 -0.09462405 0.09723626 0.0151558975 -0.0195032
-0.0512121 0.082213886 0.059117116 0.0038126963 -0.10513841 0.0053649857 -0.09696662 -0.021119623
0.112997025 0.07392767 -0.01742776 -0.08766612 0.097411186 0.057855174 0.0584568 0.013818993
0.020181647 0.10662508 0.004449952 0.0031009424 -0.10158039 0.036896765 0.029239723 -0.10910642
0.10780122 -0.090233386 -0.055252314 0.047663283 -0.044842083 -0.02860838 -0.017790856 0.10315653
0.11230278 0.047797352 -0.08962269 -0.11439349 0.12601554 0.054629244 0.060456388 -0.02635541
-0.010827068 -0.10712252 0.026799897 -0.11112738 0.060762554 0.14015102 0.008818903 0.07099654
0.08117742 -0.05207201 0.09275029 0.10504662 0.045610294 -0.11818968 -0.05166152 0.10601098
-0.042365987 -0.004336869 -0.052747328 -0.10649356 -0.049697217 0.111144915
00000000: 347a d7bd 2a0c 983d bd17 0b3e 7a8a 49bd
00000010: 41ca c1bd ce23 c73d 7150 783c 2dc5 9fbc
00000020: c7c3 51bd c15f a83d ca24 723d 6ede 793b
00000030: cf52 d7bd c3cc af3b 6f96 c6bd 0f03 adbc
00000040: fc6a e73d 6467 973d a9c4 8ebc 4b8a b3bd
00000050: 847f c73d 8cf9 6c3d 6670 6f3d 0f69 623c
00000060: fb53 a53c 405e da3d e7d0 913b 2e39 4b3b
00000070: 6109 d0bd 1021 173d 2588 ef3c 3073 dfbd
00000080: e3c6 dc3d 48cc b8bd 4050 62bd 933a 433d
00000090: 55ac 37bd 1f5c eabc 21be 91bc bb43 d33d
000000a0: 00ff e53d 28c7 433d 1a8c b7bd 2247 eabd
000000b0: 380a 013e eac2 5f3d 1ea1 773d 4de7 d7bc
000000c0: 0464 31bc 0d63 dbbd 758b db3c c096 e3bd
000000d0: 28e2 783d c083 0f3e 297d 103c a266 913d
000000e0: 5940 a63d 7649 55bd ddf3 bd3d af22 d73d
000000f0: dcd1 3a3d 6e0d f2bd 089b 53bd 491c d93d
00000100: f587 2dbd 4b1c 8ebb 950d 58bd 4c19 dabd
00000110: 4f8f 4bbd f29f e33d

network_critic_1.4.weight f4 [1, 70]
0.09422282 -0.08030953 -0.022380656 0.03578372 -0.061732624 -0.10138691 -0.02114192 0.03562487
0.10729601 0.02377524 -0.03295413 -0.037614573 0.054644335 0.18049927 -0.10403279 0.0766608
0.07797374 -0.031174634 -0.07825567 0.08983442 0.113482535 -0.07238218 0.020137528 0.08143544
0.024594799 0.084823236 0.0052963286 -0.103473976 0.010533777 -0.031616066 0.0065954905 0.0026983782
-0.023462968 -0.04713301 -0.05986217 0.03449883 -0.1005622 -0.05779695 -0.017834034 -0.032525122
0.03847513 -0.11417842 0.032300927 0.05093823 -0.10613811 0.09814092 0.12181216 -0.11663541
0.018470528 0.10682405 -0.11309395 0.05777815 -0.057769254 -0.1888618 0.040007483 -0.10126218
0.069030315 0.00940916 0.0975794 0.19636491 0.058646984 0.045181524 0.013848412 0.057339102
-0.043385126 -0.1481097 0.09788692 0.0851619 -0.028471572 -0.05824868
00000000: e5f7 c03d 5379 a4bd a357 b7bc f391 123d
00000010: 59db 7cbd f1a3 cfbd d231 adbc 62eb 113d
00000020: 03be db3d 4bc4 c23c e9fa 06bd bd11 1abd
00000030: bdd2 5f3d cdd4 383e 250f d5bd 5600 9d3d
00000040: b2b0 9f3d f261 ffbc 8244 a0bd 1cfb b73d
00000050: 8869 e83d 1c3d 94bd 75f7 a43c a0c7 a63d
00000060: 087b c93c ceb7 ad3d d38c ad3b 2aea d3bd
00000070: dd95 2c3c d97f 01bd fc1e d83b 46d7 303b
00000080: 6935 c0bc 8b0e 41bd 0932 75bd a54e 0d3d
00000090: 8ef3 cdbd 7fbc 6cbd ae18 92bc 1039 05bd
000000a0: 1998 1d3d 60d6 e9bd fa4d 043d 9ba4 503d
000000b0: f05e d9bd 1bfe c83d a778 f93d 8cde eebd
000000c0: 814f 973c 91c6 da3d cd9d e7bd c8a8 6c3d
000000d0: 749f 6cbd fd64 41be e3de 233d 8c62 cfbd
000000e0: c45f 8d3d e128 1a3c b5d7 c73d e213 493e
000000f0: d237 703d 4310 393d 73e4 623c 68dc 6a3d
00000100: 9ab4 31bd 12aa 17be f078 c83d 5d69 ae3d
00000110: 373d e9bc 2b96 6ebd

network_critic_2.0.weight f4 [70, 145]
0.010226562 -0.052584924 -0.03476737 -0.045452923 -0.10076588 -0.06362633 -0.103411175 -0.0020910476
-0.016881991 -0.031335607 0.038927436 -0.017749432 -0.061561484 -0.009185378 -0.02437422 -0.017640287
-0.028051218 -0.06216644 0.04511191 -0.027397225 -0.1132812 -0.033858936 0.050937958 0.017379748
-0.036082253 -0.057579435 -0.079016164 -0.07249642 -0.06593773 -0.053723246 0.005015094 0.0055963853
-0.0054905755 -0.084789716 -0.05838406 -0.094717875 -0.1077427 -0.026781889 -0.103468 0.0077967574
0.008226886 0.035536874 -0.058845993 -0.012758739 -0.08145269 -0.0508052 0.015632238 -0.10157496
-0.07005135 0.057546765 -0.010141572 -0.012555223 -0.107497714 -0.0016413897 -0.0008166457 -0.11798609
-0.004009956 0.08329299 -0.09266256 -0.02577831 -0.07236187 -0.035012938 0.021489006 -0.033851158
0.0024526147 -0.094528966 0.02805164 -0.054474812 0.06495071 -0.05623984 0.0200166 0.022094157
-0.06081536 0.07159693 -0.0185674 0.035149835 0.09243865 0.020979624 -0.041264866 0.14406665
-0.08352963 -0.03530285 -0.03988485 -0.02583089 -0.035679255 -0.0027925945 -0.020540765 -0.013406798
-0.09388129 0.04917346 -0.08164799 -0.07510071 -0.062990725 0.03853621 -0.01060016 0.075585954
0.0048118597 0.023059743 -0.029644793 0.052628584 -0.02850849 -0.044904795 0.029330092 -0.061854295
-0.004003799 -0.072074875 -0.07347399 0.09545769 -0.084874555 -0.0024887163 0.038107608 -0.016358707
-0.0289399 -0.039561994 0.02356569 0.03474002 -0.040898874 -0.06691813 -0.01532342 -0.011589164
0.037055127 -0.06826508 -0.10673441 0.06537338 -0.018319983 -0.011470923 0.0052902317 0.022393972
-0.062430598 -0.08296888 0.040643036 -0.1064103 -0.093599126 -0.024898238 -0.009441685 -0.056188777
-0.084826805 0.045303226 -0.072335795 -0.05203727 -0.22299649 -0.25645182 -0.09744734 -0.28657258
-0.18924655 0.07371673 -0.025112439 -0.012445535 0.062455595 0.08116947 -0.019332988 -0.08117106
0.07875034 -0.0012213276 -0.01638686 -0.008915209 0.025633851 -0.063036434 -0.04539541 0.026918765
-0.06340507 -0.066551335 -0.07379945 0.019682243 0.07353034 -0.073160596 0.01654097 0.07934474
-0.0074110744 0.06436927 0.080052756 -0.06286446 0.021645788 -0.03313021 -0.06407366 0.03031488
-0.08103765 -0.008482212 -0.051564436 0.0051421407 -0.048043806 0.014092425 -0.041411992 -0.022711858
0.028777104 0.07293801 0.044654164 -0.06378191 -0.011943348 0.0663721 0.008774246 0.05420981
0.002792395 -0.0055617928 0.080517925 -0.00852891 0.06379031 0.033494417 0.026096389 -0.07739376
0.058475673 0.06482219 0.046901546 -0.0024297556 0.046356138 0.035492588 -0.059365563 0.024832591
-0.024554774 0.025150137 -0.055621136 0.056763247 -0.058176838 -0.06037691 -0.02143224 -0.075484656
0.037724063 0.04773091 0.011319305 -0.054587666 0.03289256 0.005583909 -0.06871846 0.030385187
-0.047146697 -0.021517081 -0.02741221 -0.07001997 0.0024117678 -0.07962342 0.023897378 0.053205922
0.06965337 -0.018476123 0.0058689835 -0.02803152 -0.030143157 -0.03003316 -0.06557943 -0.033605747
-0.0565036 -0.037664298 -0.03185098 0.046841513 -0.00041270256 -0.057821285 0.027855424 0.013723093
0.07313053 0.0063451533 -0.004186296 -0.0360111 0.011855952 0.043866478 0.023846067 -0.03474045
00000000: 4f8d 273c 4a63 57bd 3b68 0ebd d82c 3abd
00000010: 575e cebd 854e 82bd 3dc9 d3bd f509 09bb
00000020: 1a4c 8abc c459 00bd 6072 1f3d 4267 91bc
00000030: e527 7cbd 457e 16bc 72ac c7bc 5d82 90bc
00000040: abcb e5bc 3da2 7ebd 44c7 383d 2570 e0bc
00000050: f9ff e7bd abaf 0abd 52a4 503d f95f 8e3c
00000060: fcca 13bd 6ad8 6bbd 3ad3 a1bd 0179 94bd
00000070: 5c0a 87bd e80c 5cbd a855 a43b e261 b73b
00000080: 49ea b3bb 3ba6 adbd 2024 6fbd 72fb c1bd
00000090: 34a8 dcbd b165 dbbc 08e7 d3bd f17b ff3b
000000a0: 10ca 063c 1d8f 113d 7f08 71bd 080a 51bc
000000b0: abd0 a6bd 1d19 50bd 2e0f 803c 8806 d0bd
000000c0: 1577 8fbd 28b6 6b3d d628 26bc 6cb4 4dbc
000000d0: c327 dcbd e623 d7ba 2a14 56ba b1a2 f1bd
000000e0: f365 83bb 8495 aa3d dec5 bdbd 092d d3bc
000000f0: 7632 94bd ba69 0fbd b609 b03c 83a7 0abd
00000100: 0cbc 203b 6798 c1bd 8ecc e53c fb20 5fbd
00000110: e104 853d bf5b 66bd daf9 a33c cefe b43c
00000120: 8719 79bd 69a1 923d a91a 98bc 46f9 0f3d
00000130: 7a50 bd3d 76dd ab3c 5905 29bd 3586 133e
00000140: 9511 abbd b999 10bd 4c5e 23bd 4d9b d3bc
00000150: 6924 12bd f603 37bb 1b45 a8bc 30a8 5bbc
00000160: d544 c0bd 1c6a 493d 1037 a7bd 67ce 99bd
00000170: 4801 81bd 25d8 1d3d 4bac 2dbc cfcc 9a3d
00000180: ceac 9d3b c9e7 bc3c a3d9 f2bc 1291 573d
00000190: a38a e9bc 17ee 37bd a945 f03c ee5a 7dbd
000001a0: 4d32 83bb fe9b 93bd 8879 96bd 527f c33d
000001b0: b6d2 adbd bb19 23bb b916 1c3d b202 86bc
000001c0: 5f13 edbc c20b 22bd d50c c13c 8d4b 0e3d
000001d0: 9485 27bd 5f0c 89bd 150f 7bbc 7ae0 3dbc
000001e0: 1ec7 173d 90ce 8bbd 9297 dabd 7be2 853d
000001f0: ca13 96bc 8af0 3bbc ae59 ad3b 9073 b73c
00000200: 3ab7 7fbd 97eb a9bd 5079 263d a5ed d9bd
00000210: e6b0 bfbd 64f7 cbbc 4cb1 1abc 3426 66bd
00000220: adb9 adbd e08f 393d ca24 94bd 0825 55bd
00000230: 3159 64be a74d 83be 7992 c7bd a4b9 92be
00000240: d9c9 41be ccf8 963d 9ab8 cdbc 5be8 4bbc
00000250: 70d1 7f3d 2e3c a63d 3760 9ebc 033d a6bd
00000260: dc47 a13d f414 a0ba bc3d 86bc 1911 12bc
00000270: 15fe d13c 3f19 81bd 8af0 39bd be84 dc3c
00000280: 84da 81bd 114c 88bd 2b24 97bd a83c a13c
00000290: 1397 963d 39d5 95bd ee80 873c 7f7f a23d
000002a0: 99d8 f2bb 09d4 833d b3f2 a33d 15bf 80bd
000002b0: 8252 b13c 8bb3 07bd 0d39 83bd e956 f83c
000002c0: 11f7 a5bd faf8 0abc 3b35 53bd 677f a83b
000002d0: 95c9 44bd eae3 663c 9f9f 29bd 380e babc
000002e0: f6bd eb3c 8660 953d 49e7 363d 17a0 82bd
000002f0: 08ae 43bc 18ee 873d dbc1 0f3c 1b0b 5e3d
00000300: 9d00 373b b33f b6bb 95e6 a43d d7bc 0bbc
00000310: 7ea4 823d 7131 093d 18c8 d53c 9f80 9ebd
00000320: 3084 6f3d 7fc1 843d d61b 403d 893c 1fbb
00000330: efdf 3d3d ad60 113d 4e29 73bd b86d cb3c
00000340: 1827 c9bc a907 ce3c fdd2 63bd 9480 683d
00000350: d64a 6ebd c74d 77bd aa92 afbc b397 9abd
00000360: 8c84 1a3d 7d81 433d 9b74 393c 5197 5fbd
00000370: 59ba 063d 39f9 b63b 44bc 8cbd 5bea f83c
00000380: e51c 41bd 9744 b0bc 928f e0bc a166 8fbd
00000390: c00e 1e3b 9b11 a3bd 6fc4 c33c 74ee 593d
000003a0: 6da6 8e3d 3d5b 97bc 9a50 c03b 5ca2 e5bc
000003b0: c8ee f6bc 1a08 f6bc 824e 86bd 2ea6 09bd
000003c0: 5270 67bd e145 1abd 2c76 02bd e3dc 3f3d
000003d0: 0060 d8b9 03d6 6cbd 0f31 e43c d3d6 603c
000003e0: 76c5 953d 01eb cf3b 322d 89bb 6080 13bd
000003f0: 783f 423c 56ad 333d d458 c33c 014c 0ebd

network_critic_2.0.bias f4 [70]
-0.11536933 -0.031156976 -0.01190273 -0.05784473 0.07270648 -0.07858636 -0.060833834 -0.059690338
0.009782115 -0.06288208 -0.000747082 0.019938512 -0.030037094 0.00035198627 -0.016566308 -0.07121666
-0.054409076 -0.004980044 -0.052661553 -0.0132285245 -0.014908429 -0.09102283 0.07442233 0.061512418
0.04911951 -0.06507152 -0.05196359 0.009403355 0.0067662206 -0.038416084 0.01560789 0.057437006
-0.03327779 -0.016863301 -0.038550533 -0.015722241 -0.04784988 -0.011336814 0.01583626 -0.001976891
-0.06845272 0.045347586 0.008076991 0.07253031 0.022972016 0.08514474 -0.0025099749 0.0883119
0.053233404 0.016943553 -0.00391311 0.0781539 -0.0051094526 0.090113424 0.017786367 0.016302062
0.034648877 -0.0781891 0.055180054 0.057335284 -0.032120578 -0.07088915 -0.0281101 0.03476185
-0.032357085 -0.016135454 -0.031294078 0.003265728 0.063981 0.017099246
00000000: c146 ecbd ea3c ffbc ab03 43bc 98ee 6cbd
00000010: 23e7 943d e3f1 a0bd e62c 79bd db7d 74bd
00000020: 2a45 203c 52c8 80bd d3d7 43ba 1756 a33c
00000030: 5a10 f6bc cc8a b839 11b6 87bc 0ada 91bd
00000040: 0ddc 5ebd a32f a3bb a4b3 57bd 74bc 58bc
00000050: 7c42 74bc 2d6a babd bc6a 983d 72f4 7b3d
00000060: 8a31 493d 3844 85bd c6d7 54bd 8810 1a3c
00000070: 2cb7 dd3b 2f5a 1dbd 3cb8 7f3c 1143 6b3d
00000080: 4b4e 08bd e824 8abc 2ae7 1dbd eecb 80bc
00000090: 3cfe 43bd 0bbe 39bc 0bbb 813c ba8e 01bb
000000a0: f130 8cbd 64be 393d 5b55 043c c58a 943d
000000b0: cf2f bc3c 5e60 ae3d 647e 24bb dfdc b43d
000000c0: 450b 5a3d 35cd 8a3c 8c39 80bb 270f a03d
000000d0: 326d a7bb 638d b83d b7b4 913c e78b 853c
000000e0: fbeb 0d3d 9b21 a0bd 7b04 623d 67d8 6a3d
000000f0: de90 03bd 552e 91bd 2747 e6bc 7162 0e3d
00000100: dd88 04bd 802e 84bc 382e 00bd d305 563b
00000110: 7808 833d b813 8c3c

network_critic_2.2.weight f4 [70, 70]
0.025966898 -0.027602067 -0.07294683 -0.077058785 0.05608495 0.04746132 0.009507946 -0.08968709
-0.048779283 -0.07975158 0.10704128 -0.05343651 -0.14465465 -0.1187966 -0.040814552 0.036048178
-0.09358531 -0.013220406 0.04419146 0.006332012 0.04259753 -0.020815875 -0.09316967 0.00045614186
-0.19038136 0.09751769 -0.103076994 0.13157001 -0.05452821 0.11264344 0.0053675044 -0.054401394
-0.018159237 -0.05415415 -0.036248643 0.106498286 0.06364799 -0.11013752 -0.09632585 -0.0052923593
0.090622045 -0.058550883 0.105192356 -0.030998351 -0.10469847 0.051992215 -0.05841188 0.027271373
-0.1008672 0.11164327 -0.006819844 0.098061 0.007941067 0.018822432 -0.1662512 -0.10494453
-0.109674804 0.100421034 0.09336881 0.043086614 0.03925865 -0.061353363 -0.024580792 -0.08843512
0.047316536 0.065383404 0.02048892 -0.09057957 -0.13426954 0.01719129 0.031834234 -0.008789181
-0.10812947 -0.100301504 -0.0872442 0.08160059 -0.059409775 -0.09240572 0.10712865 -0.073002726
-0.035070352 -0.005436557 -0.022813555 0.018787432 -0.085837945 -0.03700127 0.06305349 -0.11345468
-0.09007687 0.012882167 -0.01675767 -0.112736784 -0.07061871 -0.0015074918 -0.09571339 -0.057244197
0.0475396 -0.0122938845 -0.007667037 0.10166338 0.04753012 0.108113065 0.029358005 0.06769928
0.036455 -0.0065910486 -0.095079005 -0.013396521 -0.10149317 0.056948036 0.00096024555 0.11061821
-0.035589598 -0.12038106 0.08549406 -0.020605518 0.090930104 -0.015343278 0.021512156 -0.11867167
0.030433312 -0.09429418 -0.115787804 0.032508317 0.032113113 -0.002897578 0.0864389 0.02541358
-0.11036398 0.08686238 -0.07602807 0.09130702 -0.007627608 0.071022496 -0.12354573 -0.079117686
-0.025633676 0.07283037 0.08422226 0.016686678 -0.0049438905 -0.0992005 0.015265359 0.11369869
0.07719381 0.004279645 0.101114206 -0.016340211 0.0039656083 -0.09694032 -0.04239651 0.0013145652
0.11262797 -0.1109949 0.016169205 0.045389123 -0.08798088 0.039411142 -0.10788003 -0.048862934
0.049501494 0.008150456 -0.015287655 -0.014651065 -0.052021027 0.05263391 0.05101008 -0.08339839
-0.0129400715 -0.08748069 0.10658053 0.09047917 -0.098856755 0.11268896 -0.012472463 0.076244764
-0.100749195 -0.09154662 0.1189853 0.011428161 -0.09135409 -0.065671176 -0.08926293 0.084813096
0.10539443 -0.025929961 0.033863593 -0.018983556 -0.029934037 -0.115912125 0.102641426 0.034119144
0.0692381 -0.011841156 0.0028501388 0.07573654 -0.037944924 0.115003176 -0.11264906 -0.05074692
0.04390032 -0.08289432 -0.020077102 0.10367607 0.07980831 -0.10567059 0.11609692 -0.006367259
-0.017858973 -0.037079163 0.09115015 -0.10266749 -0.038217373 -0.06527926 0.00043092773 0.06667756
0.01548761 -0.015860783 -0.048236944 -0.09353257 -0.04978119 -0.061781637 0.041333944 0.098878205
-0.016594032 0.11088679 0.028988877 -0.0055316067 0.10511764 0.0076028276 0.013662413 0.100179255
-0.11746394 0.0128902495 0.04142142 -0.0367788 0.08439234 0.020012913 0.065747246 -0.07467719
-0.06946709 -0.05267063 -0.057283532 -0.0422991 0.10177887 -0.08199845 0.0012581064 0.06820297
-0.083040886 -0.12722963 -0.057398524 -0.12935856 -0.038968813 0.06405381 -0.021388918 0.040820636
00000000: 88b8 d43c bb1d e2bc 2665 95bd ffd0 9dbd
00000010: 55b9 653d cd66 423d 37c7 1b3c ddad b7bd
00000020: c9cc 47bd cc54 a3bd 7538 db3d 3ee0 5abd
00000030: 5920 14be a24b f3bd 292d 27bd 41a7 133d
00000040: a8a9 bfbd 679a 58bc 1b02 353d c47c cf3b
00000050: bf7a 2e3d 0e86 aabc bdcf bebd 5326 ef39
00000060: 55f3 42be 5bb7 c73d 081a d3bd 4aba 063e
00000070: f958 5fbd 9bb1 e63d e4e1 af3b ffd3 5ebd
00000080: aec2 94bc bed0 5dbd 7579 14bd c61b da3d
00000090: e159 823d c88f e1bd 7d46 c5bd 876b adbb
000000a0: 0d98 b93d 0dd3 6fbd 176f d73d 41f0 fdbc
000000b0: 276c d6bd caf5 543d 4c41 6fbd 3768 df3c
000000c0: 7693 cebd 3aa5 e43d ff78 dfbb 35d4 c83d
000000d0: 401b 023c 8031 9a3c c13d 2abe 28ed d6bd
000000e0: 2f9d e0bd 8ba9 cd3d 2638 bf3d 977b 303d
000000f0: aecd 203d aa4d 7bbd a85d c9bc 791d b5bd
00000100: fcce 413d bce7 853d 61d8 a73c c881 b9bd
00000110: f47d 09be c0d4 8c3c 9d64 023d 7f00 10bc
00000120: fc72 ddbd e06a cdbd 16ad b2bd 361e a73d
00000130: aa57 73bd 363f bdbd 4466 db3d 7482 95bd
00000140: eea5 0fbd 2525 b2bb 7ee3 babc 1ae8 993c
00000150: cecb afbd a58e 17bd 3022 813d ed5a e8bd
00000160: 397a b8bd b90f 533c 6247 89bc 8be2 e6bd
00000170: 8ba0 90bd 0897 c5ba 6205 c4bd e478 6abd
00000180: e2b8 423d 4a6c 49bc c53b fbbb e434 d03d
00000190: f1ae 423d 626a dd3d 3380 f03c eca5 8a3d
000001a0: d751 153d b9f9 d7bb c8b8 c2bd 157d 5bbc
000001b0: a7db cfbd 5842 693d fdb8 7b3a cd8b e23d
000001c0: 66c6 11bd 588a f6bd 8217 af3d e7cc a8bc
000001d0: 9039 ba3d 5f62 7bbc 433a b03c 220a f3bd
000001e0: 484f f93c 4f1d c1bd 2822 edbd 7127 053d
000001f0: 0a89 033d 4be5 3dbb e106 b13d 2430 d03c
00000200: 8306 e2bd e7e4 b13d 9bb4 9bbd 2dff ba3d
00000210: 03f1 f9bb 3e74 913d 8b05 fdbd 7408 a2bd
00000220: b7fd d1bc 1728 953d b87c ac3d 80b2 883c
00000230: 5c00 a2bb a229 cbbd 8e1b 7a3c dcda e83d
00000240: ca17 9e3d 443c 8c3b f714 cf3d e8db 85bc
00000250: eff1 813b a688 c6bd f6a7 2dbd 7d4d ac3a
00000260: 7ea9 e63d 4b51 e3bd 4875 843c f2e9 393d
00000270: 522f b4bd 946d 213d 35f0 dcbd 8024 48bd
00000280: 14c2 4a3d 7d89 053c 1379 7abc 050b 70bc
00000290: 0014 55bd a896 573d f2ef 503d c6cc aabd
000002a0: 9802 54bc 1329 b3bd e546 da3d 254d b93d
000002b0: 6975 cabd 78c9 e63d 4d59 4cbc 3726 9c3d
000002c0: 9855 cebd cb7c bbbd 91ae f33d 2e3d 3b3c
000002d0: da17 bbbd 9c7e 86bd 7ccf b6bd 7db2 ad3d
000002e0: 09d9 d73d 126b d4bc 8db4 0a3d 6783 9bbc
000002f0: 3a38 f5bc 5663 edbd ab35 d23d 84c0 0b3d
00000300: b4cc 8d3d 6801 42bc 65c9 3a3b c21b 9b3d
00000310: 236c 1bbd c986 eb3d 8db4 e6bd 01dc 4fbd
00000320: d2d0 333d 7fc4 a9bd bc78 a4bc 1f54 d43d
00000330: 8a72 a33d d369 d8bd 39c4 ed3d 71a4 d0bb
00000340: fb4c 92bc 52e0 17bd eeac ba3d 5543 d2bd
00000350: d289 1cbd 22b1 85bd 24ee e139 3f8e 883d
00000360: bfbf 7d3c 79ee 81bc 1a94 45bd 018e bfbd
00000370: 5ce7 4bbd be0e 7dbd c84d 293d a880 ca3d
00000380: 35f0 87bc 9d18 e33d 157a ed3c 7b42 b5bb
00000390: eb47 d73d 2421 f93b 50d8 5f3c c82a cd3d
000003a0: ef90 f0bd a031 533c 82a9 293d 5ea5 16bd
000003b0: e4d5 ac3d 1ff2 a33c 7ea6 863d 5bf0 98bd
000003c0: c344 8ebd 29bd 57bd 23a2 6abd d241 2dbd
000003d0: 7171 d03d ceee a7bd 0ce7 a43a 00ae 8b3d
000003e0: 5711 aabd 7c48 02be b71a 6bbd 9276 04be
000003f0: c39d 1fbd a52e 833d d037 afbc 8a33 273d

network_critic_2.2.bias f4 [70]
0.06443873 0.041338652 -0.06172924 -0.018372294 0.10185804 0.021174239 0.07323368 -0.07300326
-0.11689779 0.053161122 0.08047076 -0.10550159 -0.009267026 0.028424153 -0.0450236 0.050750695
0.124196045 0.07792882 -0.09691979 -0.072073214 -0.014581436 -0.066020176 0.12123367 0.059065547
0.08487755 0.07687131 -0.025809389 0.09512438 -0.08621106 0.010287302 0.05494361 0.033858918
-0.12676401 -0.09953568 0.06611445 -0.067932375 -0.059343163 0.04643053 0.0085745575 0.03275108
0.071162075 -0.10579349 0.10188443 0.023130417 0.0153100295 -0.09630807 0.05550852 0.11522007
0.038270995 -0.08372691 0.1052915 -0.03378159 -0.07987718 -0.10527395 0.02567051 0.07303692
-0.04710596 -0.010691391 0.042689566 -0.056567643 0.0073031257 0.11607103 0.12760806 0.069611534
0.045274377 -0.061767317 -0.049863536 0.04221076 0.015207852 -0.030812884
00000000: 74f8 833d b852 293d cdd7 7cbd 7e81 96bc
00000010: f39a d03d 9975 ad3c 8afb 953d bc82 95bd
00000020: 1c68 efbd 7abf 593d dbcd a43d 3811 d8bd
00000030: b9d4 17bc c5d9 e83c ab6a 38bd f6df 4f3d
00000040: 7f5a fe3d 2599 9f3d e27d c6bd 1f9b 93bd
00000050: fae6 6ebc 9635 87bd 5c49 f83d b7ee 713d
00000060: 48d4 ad3d b56e 9d3d 366e d3bc 92d0 c23d
00000070: 6d8f b0bd 128c 283c 8d0c 613d a6af 0a3d
00000080: 6dce 01be 5dd9 cbbd 0367 873d 2120 8bbd
00000090: d111 73bd f02d 3e3d 4d7c 0c3c ff25 063d
000000a0: 6cbd 913d 42aa d8bd c9a8 d03d 007c bd3c
000000b0: ebd6 7a3c 2a3d c5bd e75c 633d 80f8 eb3d
000000c0: 0cc2 1c3d 0479 abbd 12a3 d73d 915e 0abd
000000d0: a696 a3bd de99 d7bd f64a d23c 6194 953d
000000e0: 2ef2 40bd f22a 2fbc 41db 2e3d 79b3 67bd
000000f0: 0f4f ef3b a6b6 ed3d b0ab 023e 7e90 8e3d
00000100: a071 393d baff 7cbd b53d 4cbd 31e5 2c3d
00000110: 5b2a 793c 4d6b fcbc

network_critic_2.4.weight f4 [1, 70]
0.13244592 -0.08092499 0.0734072 0.037889626 -0.05834775 0.006809868 0.10015928 -0.040266193
0.081327625 -0.018477583 0.05993146 0.058462106 -0.075380184 0.043667264 -0.13104826 0.05470965
-0.09564264 -0.06557392 0.0058429805 -0.018910458 0.07772148 -0.11120639 -0.16015865 -0.055439144
0.055994265 0.11316637 -0.103326134 0.009610816 0.09687673 -0.08279963 -0.121937506 -0.07074628
0.00425245 0.093771406 -0.10603939 -0.08075952 0.09272975 0.07124967 0.11829207 0.044754438
-0.030907828 0.04163569 0.0398675 0.029718563 0.09061716 0.055562586 0.046629906 -0.032489657
-0.020966947 0.061642062 -0.10793716 -0.088238284 0.015233141 0.094480254 -0.108908296 0.09895473
0.017146297 0.056570183 -0.052360352 -0.007979951 -0.093358755 -0.027925923 -0.10381057 0.05628519
-0.024582967 0.038037043 -0.14487188 0.075731754 -0.068232834 -0.008340377
00000000: e79f 073e 00bc a5bd 8456 963d 2732 1b3d
00000010: 0dfe 6ebd 5025 df3b 4f20 cd3d 2aee 24bd
00000020: 198f a63d 4d5e 97bc b17a 753d f675 6f3d
00000030: ed60 9abd 72dc 323d 8431 06be 3a17 603d
00000040: 4ae0 c3bd 9f4b 86bd 7976 bf3b 1bea 9abc
00000050: 702c 9f3d 2dc0 e3bd a100 24be 2814 63bd
00000060: 3e5a 653d c5c3 e73d a79c d3bd af76 1d3c
00000070: 4f67 c63d da92 a9bd 5fba f9bd 6de3 90bd
00000080: 2358 8b3b 390b c03d 2e2b d9bd 3f65 a5bd
00000090: 18e9 bd3d 59eb 913d 1d43 f23d 6e50 373d
000000a0: 6a32 fdbc 2f8a 2a3d 1b4c 233d 5874 f33c
000000b0: 7d95 b93d 9895 633d 00ff 3e3d e013 05bd
000000c0: e0c2 abbc 637c 7c3d 280e ddbd 46b6 b4bd
000000d0: 6d94 793c dd7e c13d 500b dfbd c7a8 ca3d
000000e0: 6476 8c3c 23b6 673d cf77 56bd 57be 02bc
000000f0: e032 bfbd e8c4 e4bc a39a d4bd 4d8b 663d
00000100: 3862 c9bc bbcc 1b3d 4b59 14be 4019 9b3d
00000110: a8bd 8bbd 14a6 08bc
