checkpoint/td3-critic_mlp_actor-lr:0.0003_critic-lr:0.0003_gamma:0.99_tau:0.05.pth (torch, 261249 bytes, 10 tensors)

network_critic_1.0.weight f4 [120, 145]
0	0xbeee3e1c	-0.4653176
1	0x401c14b9	2.4387648
2	0x3f1ce453	0.61285895
3	0x3f70cf90	0.94066715
4	0xbfa48181	-1.2852021
5	0xbfcc38c4	-1.5954823
6	0xbed5845e	-0.4170255
7	0x3f182eac	0.59446216
8	0xbe291357	-0.16511284
9	0xbe7458dd	-0.23862024
10	0xbdb72730	-0.08943021
11	0x3d4fe36b	0.050753992
12	0xbe2ae603	-0.16689305
13	0x3d979263	0.07400968
14	0xbf60bff8	-0.8779292
15	0x3e960a8d	0.29304925
16	0x3e84af12	0.25914818
17	0xbdd86a4d	-0.1056715
18	0xbd80ea86	-0.06294732
19	0xc058a5d5	-3.3851216
20	0x40892aa3	4.2864547
21	0xc0ed178d	-7.409125
22	0xc0168798	-2.352026
23	0x40b9f696	5.811351
24	0xbfc4a4ae	-1.5362756
25	0xc0a93842	-5.2881174
26	0xc0df2b93	-6.974069
27	0xbfcceee5	-1.6010405
28	0xbf0df3bf	-0.5545005
29	0x401b6d1d	2.4285347
30	0x3f0f02c0	0.5586357
31	0x3f62926e	0.88504684
32	0xbfa36d0e	-1.2767656
33	0xbfce807e	-1.6132963
34	0xbf05ae80	-0.5221939
35	0x3f0be86d	0.5465153
36	0xbe31d024	-0.17364556
37	0xbe0c8788	-0.13723576
38	0xbd49f34b	-0.049304288
39	0x3d488900	0.04895878
40	0xbde2c5c7	-0.11072879
41	0x3d588d54	0.052869156
42	0xbf5bb171	-0.8581763
43	0x3e3f5908	0.18686306
44	0x3e3b31ad	0.18280669
45	0xbd9fd0f5	-0.07803527
46	0x3d4fd557	0.050740566
47	0xc061f44e	-3.5305362
48	0x405af5da	3.4212556
49	0x3f50aa03	0.8150942
50	0xc00a11d3	-2.157338
51	0x407a81ea	3.9141793
52	0xbfb4d214	-1.4126611
53	0xc0ab76d5	-5.358256
54	0xc0e0fd28	-7.030903
55	0xbfc91738	-1.5710211
56	0xbefcd362	-0.49380022
57	0x4015675e	2.334434
58	0x3f274d12	0.65351975
59	0x3f64075e	0.8907374
60	0xbf9ee5bd	-1.241386
61	0xbfbe6323	-1.4874004
62	0xbf0fc049	-0.5615278
63	0x3f0ce2a8	0.5503335
64	0xbd8ac266	-0.0677536
65	0xbe1c8d48	-0.1528827
66	0xbd0d3016	-0.034469686
67	0x3c33ce22	0.010974439
68	0xbe55e7f8	-0.2088927
69	0x3e1fa222	0.15589193
70	0xbf5b5ecc	-0.85691524
71	0x3e9c511b	0.3053063
72	0x3ea3a244	0.31959736
73	0xbd84459d	-0.0645859
74	0xbce51572	-0.027964327
75	0xc061b479	-3.5266402
76	0xc10de861	-8.869233
77	0xbfa138df	-1.2595481
78	0x3ee3c4d1	0.44486097
79	0xc1047336	-8.278128
80	0xbfc5a336	-1.5440433
81	0xc0a7d700	-5.244995
82	0xc0df7c3d	-6.983916
83	0xbfc938a3	-1.5720409
84	0xbeee5931	-0.46552423
85	0x4013e589	2.3108847
86	0x3f2a6c89	0.6657186
87	0x3f71cc49	0.9445234
88	0xbfa81bd9	-1.3133498
89	0xbfccbcf7	-1.5995167
90	0xbf101985	-0.5628894
91	0x3f147853	0.579961
92	0xbdf6346e	-0.12021719
93	0xbe5aa5ff	-0.21352385
94	0xbd50122c	-0.05079858
95	0xbb97cf78	-0.0046328865
96	0xbd767121	-0.060166482
97	0x3e0850cb	0.1331207
98	0xbf63de61	-0.890112
99	0x3e6f94f1	0.2339666
100	0x3eac8508	0.33695245
101	0xbe29887d	-0.16555972
102	0x3dadbb12	0.084829465
103	0xc0619e26	-3.5252776
104	0x3f74cfd0	0.95629597
105	0xbe822f90	-0.25426912
106	0xc014b161	-2.3233263
107	0x3fc80af0	1.5628338
108	0xbfb53fcb	-1.4160093
109	0xc0ac1b81	-5.3783574
110	0xc0deb40f	-6.95948
111	0xbfd1dbef	-1.6395243
112	0xbed3d0a3	-0.41370115
113	0x4018db45	2.3883832
114	0x3f14a379	0.5806194
115	0x3f648ada	0.8927437
116	0xbfa4e9cb	-1.2883848
117	0xbfcec9c4	-1.6155324
118	0xbf11fb7a	-0.5702435
119	0x3f1cd571	0.61263186
120	0xbe32de0e	-0.1746752
121	0xbe387fd5	-0.18017514
122	0xbe15aed0	-0.14617467
123	0xbd1b505a	-0.037918426
124	0xbe1819dd	-0.14853616
125	0x3e4829cf	0.19547199
126	0xbf57c654	-0.84287
127	0x3e70b1e6	0.23505363
128	0x3e9e74c4	0.3094846
129	0xbd8d2abc	-0.068929166
130	0xbcdef56b	-0.027216634
131	0xc0614df6	-3.5203834
132	0xc15c513c	-13.769833
133	0xbf763377	-0.9617228
134	0x3c6d36e4	0.014478419
135	0xc1587ce5	-13.530492
136	0xbfc4c913	-1.5373863
137	0xc0aa3c70	-5.3198776
138	0xc0e29497	-7.0806384
139	0xbfd19a8a	-1.6375287
140	0x3ec68550	0.38773584
141	0x3eea0ecf	0.45714423
142	0xbe999da2	-0.30003077
143	0x3e5c99cb	0.21543042
144	0xbe7cb8a3	-0.24679808
145	0xc0d982ba	-6.797208
146	0xc041e4a9	-3.0295813
147	0x3f457404	0.7713015
148	0x4004f67d	2.0775445
149	0x3d5853f1	0.052814428
150	0x3f64e134	0.8940613
151	0x3f883e5a	1.0644028
152	0xbeaff0d1	-0.34363416
153	0x3d288062	0.04113806
154	0xbe672b41	-0.22575094
155	0xbe768405	-0.24073799
156	0xbd91040c	-0.0708085
157	0x3dc9cec4	0.098538905
158	0x3eae858d	0.34086266
159	0x3e503bc7	0.20335303
160	0xbd67c375	-0.056582887
161	0xbe22b3da	-0.1588892
162	0xbe5a8bef	-0.21342443
163	0xbcbfe761	-0.02342576
164	0x40807d6f	4.0153117
165	0xbfc29ba1	-1.5203744
166	0x4003ba19	2.0582335
167	0x40674b08	3.6139545
168	0xc00d82dd	-2.2111123
169	0xc0be4f0b	-5.947149
170	0xbed95128	-0.4244473
171	0x3ed183e6	0.40920943
172	0xbfbb3157	-1.4624432
173	0xc0d5642f	-6.6684794
174	0xc047e97f	-3.1236265
175	0x3f4d4663	0.80185527
176	0x400b5cc6	2.1775374
177	0xbca576ca	-0.020198245
178	0x3f4c9558	0.7991538
179	0x3f8df1ca	1.1089413
180	0xbe7d5b36	-0.24741825
181	0x3d1ff724	0.03905405
182	0xbe8c0813	-0.2734991
183	0xbeb6dd55	-0.35715738
184	0xbdda89f2	-0.10670842
185	0x3d3429c6	0.04398515
186	0x3ea409a3	0.32038602
187	0x3ea9e9ff	0.33186337
188	0xbd5bc8c7	-0.053658273
189	0xbdc67941	-0.09691096
190	0xbe3cbb13	-0.18430738
191	0xbe180d39	-0.14848794
192	0x408284be	4.078704
193	0x4004a373	2.0724761
194	0x3f3a8d6c	0.7287204
195	0x406d7e89	3.710848
196	0x408954f1	4.291619
197	0xc0c1a890	-6.0518265
198	0xbec5324e	-0.38514942
199	0x3ef2c082	0.47412497
200	0xbfbc464d	-1.4708954
201	0xc0d80783	-6.750917
202	0xc0466e9b	-3.1005008
203	0x3f327ccc	0.69721675
204	0x400997bd	2.1498864
205	0xbd88fbe1	-0.06688667
206	0x3f698df1	0.9123221
207	0x3f882952	1.063761
208	0xbe78d0db	-0.24298422
209	0x3d89c769	0.067274876
210	0xbe89d835	-0.26922765
211	0xbe97bd43	-0.29636583
212	0xbade9a87	-0.0016983309
213	0x3d2e08cf	0.04248887
214	0x3e9ab1ca	0.30213767
215	0x3e946847	0.28985807
216	0xbb4ecba5	-0.0031554487
217	0xbe193155	-0.14960225
218	0xbdf7d424	-0.121010095
219	0xbd0fabcb	-0.035075944
220	0x408457d4	4.135721
221	0x3d07860b	0.033086818
222	0x3f9a17e9	1.2038547
223	0x3dbc9629	0.09208328
224	0xbfc0dc6a	-1.5067265
225	0xc0c158dd	-6.0420976
226	0xbed78b1f	-0.42098328
227	0x3ed8f576	0.42374772
228	0xbfbc5a26	-1.4715011
229	0xc0d78063	-6.734422
230	0xc042bdb8	-3.0428295
231	0x3f526d91	0.82198435
232	0x400a6162	2.1621938
233	0xbd279455	-0.040912945
234	0x3f4cd76f	0.80016226
235	0x3f83a69b	1.0285219
236	0xbea02323	-0.31276807
237	0xbcc9abd6	-0.02461807
238	0xbe65ad3c	-0.22429365
239	0xbeb377c3	-0.35052308
240	0xbe160757	-0.14651237
241	0x3d9717b3	0.07377567
242	0x3ebc38c6	0.36762065
243	0x3e914fe3	0.2838126
244	0xbdbe1816	-0.09281938
245	0xbe16c7a5	-0.14724596
246	0xbe1ef412	-0.15522793
247	0xbd868949	-0.06569154
248	0x408377f5	4.108393
249	0xbfcddc97	-1.6082944
250	0x3f3a5fe3	0.7280256
251	0x407997a5	3.8998806
252	0xbfe5f6ef	-1.7965983
253	0xc0be1d2a	-5.94106
254	0xbed93bc1	-0.424284
255	0x3ed52cb6	0.41635674

network_critic_1.0.bias f4 [120]
0	0xc049651c	-3.1467962
1	0x4078fe7b	3.8905323
2	0xbfddba0f	-1.7322406
3	0xc0ded66b	-6.963674
4	0x4009f40f	2.1555212
5	0xbfadfaed	-1.3592201
6	0xbfef6d50	-1.8705235
7	0xc0682cab	-3.6277263
8	0xbea33c3b	-0.3188189
9	0xbff44949	-1.9084865
10	0x40a4b5e1	5.147202
11	0xc04fff85	-3.2499707
12	0xc09aec55	-4.841349
13	0xc099fe6d	-4.812308
14	0x4089e3c1	4.309052
15	0xbf0ba1ec	-0.5454395
16	0x3e12f122	0.14349797
17	0xc0e70c31	-7.220238
18	0xc039ad91	-2.9012187
19	0x3fed356a	1.8531926
20	0xbf18a9ba	-0.5963398
21	0x4011ad95	2.2762196
22	0x3f2a7954	0.6659138
23	0x3f44efcc	0.769284
24	0xc0256965	-2.5845578
25	0xbf4642c8	-0.7744565
26	0x40323b80	2.7848816
27	0x408bf8b5	4.3741097
28	0xc0895c5e	-4.2925253
29	0x403de4cc	2.9670897
30	0x4085942b	4.174337
31	0xbf8d29ab	-1.1028341
32	0x3f8148a5	1.0100294
33	0x3ffc7403	1.9722904
34	0x406dde8c	3.7167082
35	0x40e4a270	7.144829
36	0x3d8e92eb	0.06961616
37	0xc00467b3	-2.0688293
38	0x400615fe	2.0950923
39	0x3f0477bf	0.5174522
40	0x400559e3	2.0836112
41	0x3fed995a	1.8562424
42	0xbfa79c25	-1.3094527
43	0xbffa4680	-1.9552765
44	0xbf1ada02	-0.60488904
45	0x3eb192d7	0.34682342
46	0xc02ee11e	-2.73249
47	0x3f6b211a	0.91847384
48	0xbf591902	-0.84803784
49	0x4009f873	2.1557891
50	0xc035dfe3	-2.84179
51	0x3ca3d58c	0.019999288
52	0x3fc253ec	1.5181861
53	0x4094616b	4.636892
54	0x40640b63	3.563195
55	0xc0252473	-2.5803497
56	0x3fd92b13	1.696627
57	0xbe8d85d0	-0.27641153
58	0x3f5f9077	0.8732981
59	0x3fd576db	1.6676897
60	0x3ffb86b1	1.965048
61	0xc101c75b	-8.111171
62	0x3fb21a34	1.3914247
63	0x40d184fe	6.5474844
64	0x3f2cde35	0.6752656
65	0xbfdebb29	-1.7400867
66	0x3ffa32dc	1.9546771
67	0x403ec6a0	2.980873
68	0xbdabd439	-0.08390088
69	0xbf126b1c	-0.57194686
70	0xc0827cae	-4.0777197
71	0x3f9aa993	1.2083
72	0xbf94b756	-1.161845
73	0x3f1329bd	0.5748556
74	0x3f707aa5	0.9393714
75	0xc04072bf	-3.0070035
76	0x40090983	2.1412055
77	0x3fc470b6	1.5346897
78	0xc091c14c	-4.554846
79	0xbf420d5e	-0.75801647
80	0xc00b1daf	-2.1736867
81	0xbfe32a70	-1.7747326
82	0xbcd21400	-0.025644302
83	0xbf43b41f	-0.7644672
84	0xbfd92e31	-1.6967221
85	0xbfc2bb0d	-1.5213333
86	0xbeb307e3	-0.34966955
87	0xbfaa6a42	-1.3313677
88	0xbfd350ae	-1.6508996
89	0x3f94d054	1.1626077
90	0xbedfb3a9	-0.43691757
91	0x40a91f97	5.285106
92	0x3ee9872b	0.45610937
93	0x40cea243	6.4573073
94	0x3f315224	0.6926596
95	0x3fce5ff0	1.6123028
96	0xc0a477bf	-5.1396174
97	0xbf6a6ce6	-0.91572416
98	0xc05cd42f	-3.4504507
99	0xbfbe8489	-1.4884197
100	0xbf82d5c0	-1.0221481
101	0xbf3b61b7	-0.73195976
102	0x402b0ea9	2.6727698
103	0xbec76375	-0.38943067
104	0xc04af26e	-3.1710467
105	0x3cb0905b	0.021553209
106	0x3fdbf187	1.7183083
107	0xc0adf2c9	-5.435887
108	0xbf3ec727	-0.7452263
109	0xc0250d12	-2.5789227
110	0xc06b71fe	-3.6788325
111	0xbfcc15af	-1.5944117
112	0x404ab26d	3.1671402
113	0x3e9d7f6f	0.30761287
114	0xc0963db8	-4.695034
115	0xbf28938b	-0.6585013
116	0x3f581c03	0.8441774
117	0xc0a0130a	-5.002324
118	0x401c31f2	2.4405484
119	0xc0e82eb4	-7.255701

network_critic_1.2.weight f4 [120, 120]
0	0x3ee533a8	0.44765973
1	0xbe09ec07	-0.13468944
2	0xbe597209	-0.21234907
3	0xbf031f09	-0.5121923
4	0xbe5bff10	-0.21484017
5	0xbe23a8a3	-0.15982299
6	0x3e4805a6	0.19533405
7	0x3e9e85d1	0.3096147
8	0xbdda18f4	-0.10649291
9	0xbe173cbe	-0.14769265
10	0x3e63717f	0.22211264
11	0x3ece30bd	0.4027156
12	0x3f03cebd	0.5148733
13	0x3edb205f	0.42798135
14	0xbc6b5e15	-0.014365693
15	0x3dec75e3	0.115459226
16	0x3d6996ce	0.057028584
17	0x3e151e80	0.14562416
18	0x3e017783	0.12643246
19	0x3e52deda	0.20592824
20	0x3dacda33	0.08440056
21	0x3da0e84e	0.078568086
22	0x3e106970	0.14102721
23	0xbda252b4	-0.079259306
24	0x3ec209cf	0.37898108
25	0xbe0a8a63	-0.13529353
26	0x3eac0c11	0.33602956
27	0xbec7d0a5	-0.3902637
28	0xbefa4ef1	-0.48888353
29	0x3e47e638	0.19521415
30	0xbe20fff6	-0.15722641
31	0x3ea8b795	0.32952562
32	0xbf08b631	-0.53403
33	0x3c92e349	0.017930644
34	0xbe931189	-0.28724316
35	0x3d4911ca	0.04908923
36	0xbd060884	-0.032722965
37	0x3e0cf17a	0.13763991
38	0x3dbf70c3	0.093476795
39	0x3c00d378	0.007862918
40	0xbeb080ac	-0.3447317
41	0x3e07f4a8	0.13276923
42	0x3e498bb8	0.19682205
43	0x3eff4022	0.49853617
44	0xbd8cc8b3	-0.06874218
45	0xbe634a57	-0.22196327
46	0x3e3c8bec	0.18412751
47	0xbe075e13	-0.1321948
48	0xbe2738c2	-0.16330245
49	0x3cd298e8	0.025707677
50	0xbdc2fe88	-0.09521204
51	0xbda2f29b	-0.079564296
52	0x3ebdac49	0.37045506
53	0xbd035c7c	-0.03207062
54	0xbdd1289c	-0.10212824
55	0x3eac10ca	0.3360656
56	0x3da1f672	0.07908334
57	0xbde1404f	-0.10998594
58	0x3e84e48a	0.2595561
59	0xbcf812aa	-0.030282337
60	0xbe0256d5	-0.12728436
61	0xbed0cf96	-0.40783376
62	0x3eba0a23	0.3633586
63	0xbd73795d	-0.059441913
64	0xbe1b8bb1	-0.15190007
65	0xbea21c0b	-0.3166202
66	0x3eda02f5	0.4258038
67	0x3de45cfc	0.11150548
68	0x3cb3c7b6	0.021945816
69	0x3ea3939e	0.3194856
70	0x3ef91da4	0.48655427
71	0x3e4ca7c3	0.19985871
72	0x3cc01363	0.023446744
73	0xbe8c203b	-0.2736834
74	0x3ed58858	0.41705585
75	0xbcc4ba23	-0.024014538
76	0x3e8be5d8	0.27323794
77	0xbdb3b6ac	-0.08775076
78	0xbe295d0d	-0.16539402
79	0xbe2d5d3f	-0.16930102
80	0xbdffce4a	-0.124905184
81	0xbe67fe44	-0.22655588
82	0x3d7cd2ae	0.061724357
83	0xbefba337	-0.4914796
84	0x3e330bfd	0.17485042
85	0x3d17bd24	0.037045613
86	0x3f398a37	0.72476524
87	0x3d6d5b87	0.057948615
88	0xbce371c6	-0.027764212
89	0xbdbadccd	-0.09124146
90	0x3e2ca7ea	0.16860929
91	0xbea84e71	-0.32872346
92	0x3e2fd7b9	0.17172135
93	0x3e615a34	0.22007066
94	0xb9f99cd1	-0.00047609818
95	0xbda865ae	-0.08222519
96	0x3d64e3b3	0.055881213
97	0xbe8ceb54	-0.2752329
98	0x3e821ff0	0.2541499
99	0x3e8b7040	0.27234077
100	0x3f0b504e	0.5441941
101	0x3d8cff5a	0.06884642
102	0x3cd00888	0.025394693
103	0xbe1b5838	-0.15170372
104	0xbddf8227	-0.109134965
105	0xbd9be33c	-0.07611701
106	0x3e7b6a68	0.2455231
107	0xbe62a08d	-0.22131558
108	0xbe460216	-0.19336733
109	0xbe3dc376	-0.18531594
110	0x3e8055e7	0.25065538
111	0x3eb675d4	0.3563677
112	0xbe6db009	-0.23211683
113	0x3d605326	0.054766797
114	0xbebbfdd3	-0.3671709
115	0xbdd53e01	-0.10412217
116	0xbe9a6b73	-0.30160102
117	0x3e337fd4	0.17529231
118	0x3dac2688	0.08405787
119	0x3dbd8c94	0.09255329
120	0xc004bb9f	-2.0739515
121	0xbe2dc89f	-0.16971062
122	0x3dd4bdd7	0.103877716
123	0xbe71ed7c	-0.2362575
124	0x3c4c90a7	0.01248566
125	0xbdbaa65b	-0.09113761
126	0x3f0c991c	0.54921126
127	0xbf8590fc	-1.0434871
128	0xbdf5bfe7	-0.11999493
129	0x3f4280dd	0.7597788
130	0xbe311cdc	-0.17296165
131	0xbf16e476	-0.58942354
132	0xbf142b54	-0.57878613
133	0x3dd1747f	0.10227298
134	0xbfc23524	-1.5172467
135	0x3dc12b35	0.09432069
136	0x3dc7e57d	0.09760568
137	0x3c34bb43	0.011030975
138	0x3ecd6c73	0.40121803
139	0xbec76735	-0.38945928
140	0xbf3548bd	-0.70814115
141	0xc00eb52c	-2.2298079
142	0x3e55e4c1	0.20888044
143	0xbd8836e8	-0.066510975
144	0xbeff2d44	-0.49839222
145	0x3d9d3ce0	0.076776266
146	0x3dddb99a	0.10826416
147	0x3eacec34	0.3377396
148	0xbee6befd	-0.45067587
149	0x3ef8003b	0.48437676
150	0x3e1f4571	0.15553834
151	0xbd1dcc3c	-0.03852485
152	0x3ca7fc99	0.02050619
153	0xbcedf6c9	-0.02904834
154	0x3e8e8190	0.27833223
155	0x3eb8f26b	0.3612245
156	0xbcda2ff2	-0.02663419
157	0xbebce465	-0.36893
158	0xbe66ac05	-0.22526558
159	0x3dc94078	0.098267496
160	0xbe940e9d	-0.289174
161	0xbed336c1	-0.4125271
162	0xbe92f903	-0.28705606
163	0x3dcca9b4	0.09993306
164	0x3f1b7bfc	0.6073606
165	0xbe3d921c	-0.18512768
166	0xbec9ba81	-0.39400104
167	0x3cc1d80e	0.023662593
168	0xbe90c467	-0.28274843
169	0x3e29c414	0.16578704
170	0xbe79c608	-0.24391949
171	0x3db51a4f	0.088429086
172	0x3ec8b384	0.3919946
173	0xbf237e12	-0.63864243
174	0xbd65ecfe	-0.056134216
175	0x3e8e2821	0.2776499
176	0x3eefdf64	0.4685012
177	0x3f2b1701	0.66831976
178	0x3f2ed7c5	0.6829799
179	0xbd3379a8	-0.043817192
180	0xbebf2b3f	-0.37337682
181	0x3f63898b	0.8888175
182	0x3e1e7da9	0.15477623
183	0x3ee7af66	0.45251006
184	0x3ea621aa	0.3244756
185	0x3eb9b5fb	0.36271653
186	0xbfb7f627	-1.4371995
187	0x3eb0d372	0.3453632
188	0x3b129816	0.0022368482
189	0x3d8a39bd	0.06749294
190	0xbf2ff61d	-0.68734914
191	0x3f3f5601	0.74740607
192	0x3f151185	0.5822986
193	0xbe0afd21	-0.13573124
194	0xbf4f3b5c	-0.8094995
195	0x3e9e148f	0.3087506
196	0xbebb1860	-0.36542034
197	0xbeaebf56	-0.34130353
198	0xbe57752b	-0.2104079
199	0xbd9cfa19	-0.0766489
200	0x3da3ea5f	0.08003687
201	0x3e8eacfb	0.2786635
202	0xbc8322ce	-0.016007807
203	0x3edbab89	0.42904308
204	0xbd48bc9e	-0.049008004
205	0xbe7d225e	-0.24720141
206	0xbf00526b	-0.5012576
207	0x3ed899f5	0.4230496
208	0xbf0851e9	-0.53249985
209	0xbdc6d1ee	-0.0970801
210	0xbefa04bd	-0.4883174
211	0x3f803f28	1.0019274
212	0xbdaa01ac	-0.083011
213	0xbf652795	-0.8951352
214	0xbcd33b72	-0.025785182
215	0x3e718c81	0.23588754
216	0xbe504df7	-0.20342241
217	0x3eaf56f7	0.34246036
218	0xbe9bab78	-0.30404258
219	0x3e91f2e0	0.2850561
220	0x3eecbf79	0.46239832
221	0xbe9a9ae8	-0.3019631
222	0xbedfac6a	-0.4368623
223	0xbf06d669	-0.52670914
224	0xbe76ab65	-0.2408882
225	0xbd4ce952	-0.0500272
226	0xbec75e2d	-0.38939038
227	0x3e48f992	0.19626454
228	0xbed0c825	-0.40777698
229	0xbed86221	-0.42262366
230	0xbe1d70e8	-0.15375102
231	0x3eb05de0	0.3444662
232	0xbf1f9561	-0.6233731
233	0xbf4ae026	-0.79248273
234	0xbcbe522a	-0.023232538
235	0x3edf09e0	0.43562222
236	0x3f0383ec	0.5137317
237	0x3e3c6f99	0.18401946
238	0xbf0c6770	-0.54845333
239	0x3de69d05	0.11260418
240	0x3eade322	0.3396235
241	0xbc173368	-0.009228565
242	0xbe491e58	-0.19640481
243	0x3f51775d	0.8182276
244	0xbe0181ba	-0.12647143
245	0x3ef33061	0.47497848
246	0xbe35b4a0	-0.17744684
247	0x3defadf7	0.11703103
248	0x3e986c3c	0.29770076
249	0x3f535476	0.8255075
250	0x3e084fde	0.13311717
251	0x3e77f3f0	0.24214149
252	0xbe8ee7e2	-0.27911288
253	0x3d1685fd	0.036748875
254	0x3b51695b	0.0031953666
255	0x3dc25a60	0.09489894

network_critic_1.2.bias f4 [120]
0	0x3ff30da6	1.898854
1	0x3f6050be	0.876232
2	0x3fa20d32	1.2660277
3	0xbddebe30	-0.10876119
4	0xc065266c	-3.58047
5	0x4003886b	2.0552013
6	0x3fada28d	1.3565232
7	0x3ffd44b2	1.9786589
8	0x3fd1f647	1.6403283
9	0x3ffd3ca8	1.9784136
10	0xbdaa67b6	-0.083205625
11	0x3f00f579	0.5037456
12	0x3fb604aa	1.4220173
13	0x3feb7f43	1.8398212
14	0x3fe020ca	1.7510006
15	0xc0587154	-3.381917
16	0x3f5693ee	0.8381947
17	0xbf8dd7a7	-1.1081437
18	0xc0204e21	-2.5047686
19	0x3f485341	0.78252035
20	0xc013b3cd	-2.3078492
21	0x3fab3fe9	1.3378879
22	0xbfce92c4	-1.6138539
23	0x40b0dec7	5.5271945
24	0x3fc7d4ea	1.5611851
25	0x3d8504b9	0.064950414
26	0xc01985ed	-2.3987992
27	0xbcc66ab8	-0.02422081
28	0x4016292b	2.3462627
29	0x3fd70eda	1.6801407
30	0xc001c9da	-2.027945
31	0x402f4ca7	2.7390535
32	0xbff2d50e	-1.8971269
33	0x3fec0de3	1.8441738
34	0x3d6802c5	0.056643266
35	0xbfdd9681	-1.7311555
36	0xc01ebd6b	-2.4803112
37	0xbf4a316d	-0.7898167
38	0x3faaaa8e	1.3333299
39	0xbdf164b8	-0.11786789
40	0xc02ba662	-2.6820302
41	0xc086c8ba	-4.2120028
42	0x3ffb58a3	1.9636425
43	0x3fd4093a	1.6565316
44	0xbf3ede9e	-0.74558437
45	0x403fd076	2.9970984
46	0xbfac34e6	-1.3453643
47	0x4013967b	2.3060596
48	0xbf98e7ab	-1.19457
49	0x3fd1ef73	1.6401199
50	0x3fefc156	1.8730876
51	0xc0395cf9	-2.8962996
52	0x3fb577ae	1.4177148
53	0xc04919b6	-3.1421943
54	0x4083092a	4.0948687
55	0xbe2cd671	-0.16878678
56	0xc05758a9	-3.3647864
57	0x3d75db53	0.060023617
58	0x3fb27703	1.394257
59	0xbff3c6f0	-1.9045086
60	0xbd366c0b	-0.04453663
61	0x3ef6b671	0.48186067
62	0xbfa4d6a2	-1.2878001
63	0xbfbb0dcb	-1.4613584
64	0x3f269340	0.65068436
65	0x3fd09915	1.6296717
66	0xbef2c549	-0.47416142
67	0xc0047a41	-2.0699618
68	0x3fe20420	1.7657509
69	0x3fdef41b	1.7418245
70	0x3fd86361	1.6905328
71	0x3fcc2a9f	1.5950507
72	0x3fd9ae98	1.7006407
73	0x4038f5d7	2.8900049
74	0x400aa5b8	2.1663647
75	0xbd493c55	-0.049129803
76	0xc045147d	-3.0793755
77	0x3f99a6c3	1.2004017
78	0xbf77342b	-0.96563977
79	0xbfb49a95	-1.4109675
80	0xbf4fb10b	-0.8112952
81	0xc07f1a60	-3.9859848
82	0x3f19a139	0.6001163
83	0x3faa235a	1.3292038
84	0xbc5305b5	-0.012879779
85	0x3eeef2f2	0.46669728
86	0x3fd31650	1.6491184
87	0x40989145	4.767733
88	0x3c0337f7	0.0080089485
89	0xbc469905	-0.012121444
90	0xbf2475f8	-0.64242506
91	0x3fd85dba	1.6903603
92	0x3fe43a15	1.7830225
93	0xbdae2e98	-0.08504981
94	0x40087086	2.131868
95	0xc00dc205	-2.214967
96	0xc0243c90	-2.5661964
97	0xc0237a4c	-2.5543394
98	0xbffda116	-1.9814785
99	0x3c500b04	0.012697939
100	0xbfe1797f	-1.7615203
101	0x402a0abe	2.6569057
102	0xbfac9635	-1.348334
103	0xbfe3b999	-1.7791015
104	0xbd4f73a8	-0.050647408
105	0x3fd42d99	1.6576415
106	0xbfb6c5a3	-1.4279064
107	0xc01135bc	-2.2689047
108	0x3f5c4f53	0.8605854
109	0x403cec0a	2.9519067
110	0xbd542d2c	-0.05180089
111	0xc00c8536	-2.1956306
112	0x3f7ffeaf	0.9999799
113	0x402d1625	2.7044766
114	0x3fe28900	1.7698059
115	0x40918678	4.5476646
116	0xbfc56fcf	-1.5424746
117	0xbfa5dd58	-1.2958174
118	0xc031b96f	-2.776943
119	0xc05ddff8	-3.466795

network_critic_1.4.weight f4 [1, 120]
0	0xbd9f4889	-0.07777507
1	0xbdb81f70	-0.08990371
2	0xbd906bce	-0.07051812
3	0x3c1b735c	0.009487953
4	0x3dd56369	0.104193516
5	0xbde2fe5b	-0.11083671
6	0x3e1502b0	0.14551806
7	0xbd2b1c72	-0.041775174
8	0xbd8e3294	-0.06943241
9	0xbd274796	-0.040839754
10	0xbc6d3629	-0.014478245
11	0xbdec683a	-0.11543317
12	0xbd8dfc77	-0.069329195
13	0xbd580bda	-0.052745678
14	0xbda366fe	-0.079786286
15	0x3db3e538	0.087839544
16	0xbddfed9e	-0.10933994
17	0x3daf6d48	0.085657656
18	0x3db953fe	0.09049223
19	0xbda897c7	-0.08232074
20	0x3dc064a4	0.09394196
21	0xbdbe6986	-0.09297471
22	0x3dd2b582	0.10288526
23	0xbe067b5b	-0.13132994
24	0xbd78561b	-0.06062899
25	0x3c8466c6	0.016162287
26	0x3de57940	0.11204767
27	0xbd4b74bd	-0.049671877
28	0xbdb85728	-0.09000999
29	0xbd1da029	-0.03848282
30	0x3dc5b483	0.096535705
31	0xbdbdea4e	-0.09273206
32	0x3e52c328	0.20582259
33	0xbd503f3f	-0.050841566
34	0xba80b9e8	-0.0009821029
35	0x3dc66934	0.09688035
36	0x3dd23c2c	0.10265383
37	0x3d95c268	0.07312471
38	0xbe1dfd9a	-0.15428773
39	0xbb58a0bf	-0.0033054797
40	0x3dc28425	0.09497861
41	0x3df4c9aa	0.11952527
42	0xbe11ad0b	-0.14226167
43	0xbdbc7e0a	-0.092037275
44	0x3de1c8ce	0.110246286
45	0xbe0b8cbe	-0.13627908
46	0x3dc3c48c	0.09558973
47	0xbda98ecd	-0.0827919
48	0x3de76aa3	0.11299636
49	0xbd7c68e5	-0.061623473
50	0xbdafebba	-0.08589883
51	0x3e12bc61	0.14329673
52	0xbdd23156	-0.10263316
53	0x3e0c3a3e	0.13694093
54	0xbde0eeb3	-0.10983028
55	0x3e0a66d8	0.13515794
56	0x3e0988a0	0.13431025
57	0x3d8491ce	0.064731225
58	0xbd670eb1	-0.056410495
59	0x3db63f87	0.08898836
60	0xbdcd93a9	-0.100379296
61	0xbd9fd858	-0.07804936
62	0x3dce6b86	0.10079102
63	0x3dc84358	0.0977847
64	0xbe1518e1	-0.14560272
65	0xbdd16916	-0.10225122
66	0x3e3aefcb	0.18255536
67	0x3dcd0044	0.10009816
68	0xbd5f9de2	-0.05459393
69	0xbdd8df31	-0.105894454
70	0xbd6ca2c1	-0.0577724
71	0xbd865932	-0.065599814
72	0xbdafb63e	-0.08579682
73	0xbdb4b9b6	-0.08824484
74	0xbd066b4e	-0.032817177
75	0x3d4be4ca	0.049778737
76	0x3dda36fc	0.10655019
77	0xbd8f3f78	-0.069945276
78	0x3df809cd	0.12111244
79	0x3dc3e672	0.09565438
80	0x3dd80848	0.105484545
81	0x3dba2c42	0.09090473
82	0x3dd8b0bd	0.10580585
83	0xbe0e9581	-0.13924219
84	0xbd5a9273	-0.05336232
85	0xbded9577	-0.11600774
86	0xbdbe4824	-0.092911035
87	0xbde0b003	-0.109710716
88	0x3d55cf24	0.052199498
89	0xbdaf2892	-0.0855266
90	0x3e01f8db	0.12692587
91	0xbdab4002	-0.08361818
92	0xbd8867c9	-0.066604204
93	0xbcd36c3e	-0.02580845
94	0xbd6ffa45	-0.058588285
95	0x3dafac1b	0.085777484
96	0x3e0a7cb0	0.13524127
97	0x3dc6b219	0.09701938
98	0x3dac9a64	0.08427885
99	0x3c4700dc	0.012146201
100	0x3dcb7f05	0.099363364
101	0xbd9f88f0	-0.07789791
102	0x3dd1045e	0.10205911
103	0x3da0f4d0	0.07859194
104	0xba78f1c2	-0.0009496474
105	0xbd6ff602	-0.05858422
106	0x3ddb9f98	0.107237995
107	0x3dca8a2a	0.09889634
108	0xbdce64ad	-0.10077796
109	0xbd90ab0a	-0.07063873
110	0x3c27aeef	0.0102345785
111	0x3dcc76a2	0.09983565
112	0xbda44d3a	-0.08022542
113	0xbe3b1245	-0.18268688
114	0xbd51d866	-0.051231764
115	0xbdbdf60a	-0.09275444
116	0x3df3b6a3	0.119000696
117	0x3e056465	0.13026579
118	0x3dd67d9e	0.10473178
119	0x3e130aaa	0.14359537

network_critic_2.0.weight f4 [120, 145]
0	0x3ea49435	0.32144323
1	0x3dd2fbe3	0.1030195
2	0xbfc87764	-1.5661435
3	0x3f9df489	1.2340251
4	0x3f7f6e53	0.99777716
5	0x3eab80c4	0.33496678
6	0xbe6d9048	-0.2319957
7	0x3f204f84	0.6262133
8	0x3e2690e7	0.16266213
9	0xbd7aeb4e	-0.06125956
10	0x3e624f60	0.22100592
11	0x3cff61a4	0.031174488
12	0x3cfdc241	0.030976417
13	0x3d75f890	0.0600515
14	0xbe2778b6	-0.16354641
15	0x3ceb6a3b	0.028737178
16	0xbe33507d	-0.17511173
17	0xbd990530	-0.074716926
18	0x3c8df300	0.017327785
19	0x405f2ade	3.4869914
20	0x407891e1	3.8839037
21	0x3fb629a4	1.4231458
22	0xbe555223	-0.20832114
23	0x40364b14	2.8483324
24	0xc0bc31a2	-5.8810587
25	0xbe6f0ba3	-0.23344283
26	0xbf8b3e33	-1.0878357
27	0xc0cffae0	-6.4993744
28	0x3ed190b3	0.4093071
29	0xbc137d05	-0.009001975
30	0xbfbd7954	-1.4802651
31	0x3f9e41f4	1.2363877
32	0x3f8a7caa	1.0819294
33	0x3e90d844	0.28289998
34	0xbe1ccf5a	-0.15313473
35	0x3f0e45dd	0.5557535
36	0x3dfadd9d	0.12249301
37	0xbad4708a	-0.0016207856
38	0x3e689d40	0.22716236
39	0x3e07fcb7	0.13279997
40	0x3e036934	0.128331
41	0xbb44ee14	-0.0030049132
42	0xbde32950	-0.11091864
43	0xbcbc6a50	-0.022999913
44	0xbe09e96b	-0.13467948
45	0xbe104440	-0.14088535
46	0x3da07d81	0.07836438
47	0x405801ec	3.3751173
48	0xc0d69f1b	-6.706922
49	0xbf8790ba	-1.0591042
50	0xbe006527	-0.12538587
51	0xc103d220	-8.2388
52	0xc0bbf8fe	-5.8741446
53	0xbeaeecfa	-0.34165174
54	0xbf88c988	-1.0686502
55	0xc0d28e8c	-6.5799007
56	0x3ebaea7e	0.36507028
57	0x3d913579	0.07090277
58	0xbfc6d0d7	-1.5532483
59	0x3fb0046b	1.3751348
60	0x3f8342ac	1.0254722
61	0x3e88f747	0.26751158
62	0xbe94de91	-0.29076055
63	0x3f098519	0.53718716
64	0x3dce677d	0.100783326
65	0xbddff47c	-0.109353036
66	0x3e8ec109	0.2788165
67	0x3da8fc8b	0.08251294
68	0xbc15bc31	-0.009139107
69	0x3d6387e7	0.05554953
70	0xbdd7ff28	-0.10546714
71	0xbdccc9ad	-0.09999404
72	0xbe2f5c7d	-0.17125125
73	0xbd0b8d95	-0.03407057
74	0x3daac581	0.08338452
75	0x4061df14	3.5292406
76	0x407aae70	3.9168968
77	0xbfab9078	-1.3403463
78	0xbecd9132	-0.40149838
79	0x40b780d8	5.734478
80	0xc0bbac2b	-5.8647666
81	0xbeb626ff	-0.35576627
82	0xbf832648	-1.0246058
83	0xc0d0221e	-6.5041647
84	0x3ee11e81	0.43968585
85	0x3c408b1a	0.011751914
86	0xbfc69c23	-1.5516399
87	0x3faa9eef	1.3329753
88	0x3f90431c	1.127048
89	0x3ec5c0a2	0.3862353
90	0xbe613b37	-0.21995245
91	0x3f1ccbd4	0.6124852
92	0x3e6aa9aa	0.22916284
93	0xbdd791f9	-0.10525889
94	0x3e9def13	0.30846462
95	0x3d869b5b	0.065726005
96	0xbd04b21b	-0.032396417
97	0x3e09ee36	0.13469777
98	0xbe114583	-0.14186673
99	0xbdfd673e	-0.123732075
100	0xbdaef305	-0.08542446
101	0xbe1e8aec	-0.15482682
102	0x3ca875a8	0.020563915
103	0x40593ef5	3.3944676
104	0xc0b3a0d2	-5.6133814
105	0xbfc25ec0	-1.5185165
106	0xbe880de8	-0.2657311
107	0xc1007b54	-8.030109
108	0xc0ba2ac3	-5.81772
109	0xbe7189fe	-0.23587796
110	0xbf8845ba	-1.0646279
111	0xc0d20d12	-6.5640955
112	0x3ee345fa	0.44389325
113	0x3e0222ae	0.12708542
114	0xbfc25869	-1.5183231
115	0x3fa43c7b	1.2830957
116	0x3f873749	1.0563747
117	0x3ecb201d	0.39672938
118	0xbe8bafe1	-0.27282622
119	0x3f1c46b1	0.61045367
120	0x3e06d8cc	0.13168639
121	0xbc360a3c	-0.0111108385
122	0x3e97ebfd	0.29672232
123	0x3d90a358	0.07062405
124	0x3db6938d	0.08914862
125	0x3db9891d	0.090593554
126	0xbe0a51dc	-0.1350779
127	0xbc6edecf	-0.014579489
128	0xbe0bef2c	-0.13665456
129	0xbd719a85	-0.058985252
130	0x3e343d3f	0.17601489
131	0x405c07b0	3.4379692
132	0xc0a48fd8	-5.142559
133	0x3ff35fa0	1.9013557
134	0xbe90a089	-0.2824748
135	0xc130df59	-11.054528
136	0xc0ba5e84	-5.8240376
137	0xbe9f8776	-0.31158036
138	0xbf7de99a	-0.9918457
139	0xc0d0fb96	-6.530711
140	0xbf33ab57	-0.7018332
141	0xbf41d3fd	-0.75714093
142	0x3f2745fa	0.6534115
143	0xbf1dc26b	-0.61624783
144	0x3f3424bb	0.70368546
145	0x401b3e43	2.4256752
146	0x40d31be5	6.597155
147	0xbebd5a4a	-0.36982948
148	0x3edd2dce	0.4319901
149	0xbf1c5ee9	-0.6108232
150	0x3eda2c24	0.42611802
151	0xc0324ff0	-2.786129
152	0xbebabdba	-0.36472875
153	0x3e8c9f72	0.27465397
154	0xbf200aa5	-0.6251624
155	0xbdb1a0e5	-0.08673266
156	0xbc28481f	-0.010271101
157	0xbe4a4335	-0.197522
158	0x3e3f17fe	0.18661496
159	0xbdb89b25	-0.090139665
160	0xbf52912c	-0.82252765
161	0xbc315395	-0.01082315
162	0x3ca47c43	0.020078784
163	0x3ef53b2c	0.47896707
164	0xc19bdf3f	-19.484007
165	0xbe91f4a2	-0.28506953
166	0x4024928e	2.571445
167	0xc0f253f5	-7.5727487
168	0xbfe1562f	-1.7604426
169	0xc06a90b6	-3.6650825
170	0xc12268fe	-10.150633
171	0xc0a309ff	-5.09497
172	0xc08b6650	-4.3562393
173	0x402314b6	2.548139
174	0x40d32b49	6.599034
175	0xbee335d9	-0.4437702
176	0x3f08c4b8	0.5342517
177	0xbf190a02	-0.59780896
178	0x3f116a26	0.56802595
179	0xc03159e5	-2.7711117
180	0xbec05e87	-0.3757212
181	0x3e803cb4	0.25046313
182	0xbf2d6718	-0.67735434
183	0xbd9e274e	-0.077223405
184	0x3dae08d5	0.08497778
185	0xbea5dd17	-0.3239524
186	0x3d43b738	0.047782153
187	0x3c85c08d	0.016327167
188	0xbf3c1628	-0.7347131
189	0xbd29ef33	-0.041487884
190	0x3e0ce1fc	0.13758081
191	0x3ee647cb	0.4497665
192	0xc19b8819	-19.441454
193	0xc0fc17e3	-7.877916
194	0x404628fe	3.096252
195	0xc0e6146d	-7.1899934
196	0xc113f0b8	-9.246269
197	0xc06beb4e	-3.6862369
198	0xc120ccc4	-10.049992
199	0xc0a44710	-5.1336746
200	0xc0885b46	-4.261142
201	0x401a9895	2.4155629
202	0x40d0ca94	6.524729
203	0xbed58324	-0.41701615
204	0x3f007a25	0.5018638
205	0xbf0e33a5	-0.55547553
206	0x3ef15e63	0.47142324
207	0xc0334713	-2.801213
208	0xbea23561	-0.3168135
209	0x3eb270b6	0.34851617
210	0xbf473b36	-0.77824724
211	0xbdc98d42	-0.09841396
212	0x3d8b70eb	0.06808647
213	0xbe85a1cf	-0.26100013
214	0x3e12f96a	0.14352956
215	0xbd1cf31a	-0.038317777
216	0xbf445a94	-0.7670071
217	0xbe08c62b	-0.13356845
218	0x3e37c4cb	0.17946164
219	0x3edcd4a8	0.43130994
220	0xc19b9c8f	-19.451445
221	0x404ff906	3.2495742
222	0x4048d8ce	3.1382327
223	0xbe36ba3c	-0.1784448
224	0x3f68140a	0.9065558
225	0xc06a9b2c	-3.665721
226	0xc121e99f	-10.119536
227	0xc0a56d73	-5.1696105
228	0xc08653df	-4.197738
229	0x40209878	2.509306
230	0x40ce999c	6.456251
231	0xbeedc717	-0.46440956
232	0x3ef78ac0	0.48348045
233	0xbf15b5d8	-0.58480597
234	0x3eea9959	0.4582012
235	0xc030b152	-2.7608228
236	0xbe8e9f0a	-0.27855712
237	0x3e5a2659	0.21303691
238	0xbf3da2a0	-0.7407627
239	0xbd94418f	-0.07239067
240	0x3dc37a32	0.09544791
241	0xbeaf3a13	-0.34223995
242	0x3d939c2e	0.07207523
243	0x3bf4eaec	0.007474294
244	0xbf52176a	-0.8206698
245	0xbdd9f73b	-0.106428586
246	0x3d9c346f	0.076271884
247	0x3eaf7143	0.342661
248	0xc19b91c8	-19.446182
249	0xc17a74fa	-15.653559
250	0x404fcfcd	3.2470582
251	0xc0ffb3cf	-7.9906993
252	0xc1957700	-18.683105
253	0xc06d853c	-3.711257
254	0xc1215d5b	-10.085292
255	0xc0a47797	-5.1395984

network_critic_2.0.bias f4 [120]
0	0x3cf5b26a	0.029992301
1	0xc104fb46	-8.311346
2	0x3fb03811	1.376711
3	0xbe044b9a	-0.12919465
4	0xc03e3aa5	-2.9723294
5	0x404846e1	3.129326
6	0x402f7266	2.7413573
7	0x40b1eddb	5.560285
8	0xc067eee2	-3.6239552
9	0xc0178cf4	-2.367978
10	0x3fa22377	1.2667073
11	0xbfdd43bb	-1.7286295
12	0xc0b5aca8	-5.677326
13	0xc06f55c3	-3.7396095
14	0x402fe47f	2.7483213
15	0x3faad2de	1.3345602
16	0xbf43233f	-0.76225656
17	0x3f6f2487	0.9341511
18	0xbeed924f	-0.46400687
19	0xbf5d0510	-0.8633585
20	0xc060be54	-3.5116167
21	0xc02efe9f	-2.7342908
22	0x3f9bdf32	1.2177489
23	0xc0cc296e	-6.3800573
24	0x40184496	2.3791862
25	0x40332228	2.7989597
26	0xc001c645	-2.0277264
27	0xc003bf93	-2.0585678
28	0xc06a6bdc	-3.6628332
29	0x400efd22	2.2342
30	0x40325edf	2.7870405
31	0xc08aa8e7	-4.333118
32	0x3f32ba29	0.6981531
33	0x401228a5	2.2837307
34	0x3d62394f	0.055230435
35	0xbd51a9d4	-0.05118735
36	0x3f3eedc4	0.7458155
37	0xbf72b271	-0.9480353
38	0xc04d1ee8	-3.2050114
39	0x3fb03367	1.3765687
40	0xc04fbd48	-3.2459278
41	0x3e2fbda4	0.17162186
42	0x4003d4f5	2.0598729
43	0x3af05f0a	0.0018338871
44	0xbfd9ab4a	-1.7005398
45	0xc012120f	-2.2823522
46	0xc0bf984e	-5.987342
47	0xc0124eb5	-2.286054
48	0xbfd8c462	-1.6934931
49	0xbe115f32	-0.1419647
50	0xc0975623	-4.7292647
51	0xbfd52e50	-1.6654758
52	0x402ed781	2.7319033
53	0x3e961993	0.29316387
54	0xc0b027b0	-5.5048447
55	0xc0a00b6a	-5.0013933
56	0x40f4bc83	7.6480117
57	0x400ce0f6	2.2012305
58	0x401e685d	2.4751198
59	0xbda03a55	-0.07823626
60	0xc0310bcf	-2.7663457
61	0xbf3c4c98	-0.7355437
62	0xc09bac14	-4.8647556
63	0xbf8dce38	-1.1078558
64	0x3f8ebb90	1.115099
65	0xbe0539ea	-0.13010374
66	0xc0094338	-2.1447277
67	0xbc07dfe3	-0.008293125
68	0x40bc965a	5.8933535
69	0xbfdebd57	-1.7401532
70	0x3fde011b	1.7344087
71	0xbd511edc	-0.05105482
72	0x3ec62ac9	0.38704517
73	0x4096aa8f	4.70832
74	0xbfcca2ad	-1.5987145
75	0x3fb88a67	1.4417237
76	0xc076d635	-3.8568242
77	0xbf96234f	-1.1729525
78	0xbf8f3c61	-1.1190301
79	0x4012f3e3	2.2961357
80	0x3fe4ff09	1.789033
81	0x3fcd30b0	1.6030483
82	0xbf3dfb76	-0.74211824
83	0xc079e0a2	-3.9043355
84	0xbe8ed31c	-0.2789544
85	0xbda75e4b	-0.08172282
86	0x40119d93	2.2752426
87	0xbfe4aef0	-1.7865887
88	0xc0e55a6e	-7.167289
89	0x3ff51351	1.914652
90	0xbfde8397	-1.7383908
91	0x4007f727	2.12446
92	0xbf1917b7	-0.5980181
93	0xbf96a65e	-1.1769521
94	0xbf1da3e2	-0.6157819
95	0x4062d4ab	3.5442302
96	0xc0f8e3b2	-7.777795
97	0x4064d2f3	3.5753753
98	0x3fc028f2	1.5012496
99	0xbe8450bc	-0.25842845
100	0xbc0e85e7	-0.008698917
101	0x3f4be776	0.79650056
102	0xbf5cc816	-0.86242807
103	0xbfbc2f6a	-1.470197
104	0xbfe0b089	-1.7553874
105	0x4012d48d	2.294223
106	0xbfb7289d	-1.4309269
107	0x4018453a	2.3792253
108	0xbfdc169c	-1.71944
109	0xbf8bf583	-1.0934299
110	0x3f9c6b65	1.2220274
111	0xc0cd95e5	-6.4245477
112	0xbfcbe0c2	-1.5927966
113	0x3fbfb7d9	1.4977981
114	0x3f999309	1.1997997
115	0x409d6988	4.919132
116	0xc05611d8	-3.344839
117	0x3f16b775	0.58873683
118	0xbf16476b	-0.58702725
119	0x3e0330d9	0.12811603

network_critic_2.2.weight f4 [120, 120]
0	0xbdccc4d8	-0.099984825
1	0xbe83d963	-0.2575179
2	0x3cf67a13	0.030087506
3	0xbda4307b	-0.080170594
4	0x3e4698b2	0.19394186
5	0xbd07492e	-0.033028774
6	0x3d85bbe9	0.06529982
7	0xbbb8025c	-0.0056155156
8	0xbd025e8e	-0.031828456
9	0x3f2e406a	0.6806704
10	0x3f73dc10	0.95257664
11	0x3dc9b5b8	0.09849113
12	0x3b8054ca	0.0039163576
13	0x3e90e967	0.28303072
14	0x3e9e5a30	0.30928183
15	0x3dc86d97	0.097865276
16	0xbe0d3adb	-0.13791983
17	0x3d3c4827	0.045967247
18	0xbd9a7508	-0.07541853
19	0xbee5491a	-0.44782335
20	0xbd45b12e	-0.048264675
21	0x3eff6cd7	0.49887726
22	0x3e32b1e4	0.17450672
23	0xbe758860	-0.23977804
24	0x3e0bbd3b	0.13646404
25	0x3ec93d8e	0.39304775
26	0xbe61cfab	-0.22051875
27	0x3e995271	0.2994571
28	0xbe238bd5	-0.1597131
29	0xbe9b79f2	-0.30366474
30	0x3e2afd76	0.1669825
31	0x3e4c08e3	0.19925265
32	0xbd663001	-0.056198124
33	0x3d0ebc8b	0.034847777
34	0x3d97fb56	0.074209854
35	0xbcd34c22	-0.025793139
36	0xbe646f5b	-0.22308104
37	0xbe988f4b	-0.29796824
38	0x3c318b84	0.010836486
39	0x3d4dd414	0.05025108
40	0xbea53f39	-0.32274798
41	0xbde440ee	-0.11145197
42	0x3eefc62b	0.46830878
43	0x3cb6d781	0.022319557
44	0xbd837a70	-0.064198375
45	0x3e83bf7b	0.25732026
46	0x3e25eaa6	0.16202793
47	0xbc95d397	-0.01828937
48	0xbf378bc5	-0.71697646
49	0x3e59a64e	0.21254846
50	0x3ea7201c	0.32641685
51	0x3e32c5fc	0.17458338
52	0xbe52f6f3	-0.20602016
53	0xbe7f314d	-0.2492115
54	0xbe624659	-0.22097148
55	0xbe3e85f0	-0.1860578
56	0x3f1068f5	0.5641015
57	0xbdee2750	-0.11628592
58	0x3e816396	0.2527129
59	0x3b455bbe	0.0030114497
60	0xbe814048	-0.25244355
61	0xbdd06264	-0.101750165
62	0x3dbcabe5	0.09212474
63	0x3d5875f5	0.052846868
64	0x3e82ef5e	0.25573248
65	0xbd6b317a	-0.05742023
66	0xbeb1ce6a	-0.34727794
67	0xbd4d2e72	-0.05009312
68	0xbe642088	-0.22278035
69	0x3eb33fb8	0.3500955
70	0x3c578647	0.013154573
71	0xbd61b6fb	-0.055106144
72	0x3dd813a4	0.10550621
73	0xbe997f0c	-0.29979742
74	0x3c9fbd4b	0.019499442
75	0x3d810f71	0.06301773
76	0xbe50416f	-0.20337461
77	0x3e365318	0.17805135
78	0xbe42dde5	-0.19029959
79	0x3e2c38a3	0.1681848
80	0x3e21af6c	0.15789574
81	0x3e8ac8f0	0.27106428
82	0xbdcce205	-0.10004047
83	0x3e343777	0.17599283
84	0x3e73a948	0.23795044
85	0x3cce1276	0.025155287
86	0x3dc11fae	0.094298705
87	0x3eebefc8	0.46081376
88	0xbd32e57c	-0.043675885
89	0x3f1c977e	0.6116866
90	0xbde5b3ae	-0.11215912
91	0x3e1a1f3f	0.15050982
92	0xbe6e503f	-0.23272799
93	0x3d2b558d	0.041829634
94	0xbe841137	-0.25794384
95	0xbdffa520	-0.12482667
96	0x3f1c1cfa	0.60981715
97	0xbe425d82	-0.18980983
98	0x3ea86eb4	0.3289696
99	0xbcfc25c7	-0.030779732
100	0x3e5222fa	0.20521155
101	0xbd681eb9	-0.056669924
102	0xbea70d87	-0.32627508
103	0xbe8aa9e8	-0.27082753
104	0x3f48da40	0.78458023
105	0x3e406c8f	0.18791412
106	0xbe648549	-0.22316469
107	0xbe48e129	-0.19617142
108	0xbf008a60	-0.50211143
109	0xbeb9a4ef	-0.36258647
110	0x3de14abe	0.11000584
111	0xbccdfbec	-0.02514454
112	0xbd35c85e	-0.04438054
113	0x3e375d8d	0.1790678
114	0xbe843880	-0.25824356
115	0xbdcf63bc	-0.10126445
116	0x3d874d49	0.06606538
117	0x3bd8edb5	0.0066201338
118	0x3e3395b9	0.17537583
119	0xbe5c1479	-0.21492185
120	0xbe5e08bf	-0.21683024
121	0x3d94cfff	0.072662346
122	0xbcd36df0	-0.025809258
123	0x3e9460f5	0.28980222
124	0xbeaa941d	-0.33316126
125	0xbf7876a4	-0.9705603
126	0xbeefc7ce	-0.46832126
127	0x3e1eb403	0.15498357
128	0xbf576704	-0.84141564
129	0xc0cc38b9	-6.381924
130	0x3f855351	1.0416051
131	0xc01104e3	-2.2659233
132	0xbe908f80	-0.28234482
133	0x3ea10840	0.31451607
134	0xbf2994a7	-0.6624245
135	0xbf0d1095	-0.5510343
136	0xbe902cfb	-0.28159317
137	0x3e203f02	0.15649036
138	0xbf077965	-0.5291961
139	0x3e96358b	0.29337725
140	0xbfb8d6d3	-1.4440559
141	0x3e0ca58e	0.13735029
142	0xbfc82e36	-1.5639102
143	0xbcfbe53f	-0.030748961
144	0xbc9cbb06	-0.019132148
145	0xbf407ce8	-0.7519059
146	0x3c437324	0.011929307
147	0x3dca15e9	0.0986746
148	0x3e4cb1a6	0.19989643
149	0xbfe95f22	-1.8232157
150	0x3f01d9ef	0.50723165
151	0x3dd71927	0.10502844
152	0x3eb09321	0.3448725
153	0xbeb33945	-0.3500463
154	0x3be56513	0.0070005744
155	0x3f80f79e	1.0075567
156	0xbd995b51	-0.0748812
157	0x3e441b6e	0.19151089
158	0x3eb0ce41	0.3453236
159	0x3b311a62	0.0027023782
160	0xbe23a9f4	-0.159828
161	0x3e58facc	0.21189421
162	0xbf813651	-1.0094701
163	0x3fa6ae87	1.3022012
164	0xbe42cde6	-0.19023857
165	0x3f11622b	0.5679042
166	0x3f273c7b	0.6532666
167	0xbf9f3954	-1.243937
168	0x3effd863	0.49969777
169	0x3eabf82e	0.33587784
170	0x3f0d6327	0.5522942
171	0xbd91356b	-0.07090267
172	0xbc89e098	-0.016830727
173	0xbd9a851d	-0.075449206
174	0x3f845fa8	1.0341692
175	0xbf4035c7	-0.7508206
176	0x4000df21	2.0136187
177	0x3c83216c	0.016007148
178	0xc05e56a2	-3.4740376
179	0xbc6502c4	-0.01397771
180	0xbf304264	-0.68851304
181	0x3f9592b9	1.1685401
182	0xbf826fc7	-1.0190362
183	0xbfabb858	-1.3415632
184	0xbf8f52dd	-1.1197163
185	0xc062baec	-3.5426588
186	0xbe1601f7	-0.14649187
187	0x3d9fd907	0.078050666
188	0xc02c85aa	-2.6956582
189	0x3e4c0afd	0.19926067
190	0x3f03e2e6	0.51518095
191	0xbe80a8ff	-0.25128934
192	0x3e133c7d	0.14378543
193	0xbf88c628	-1.0685472
194	0xbeccfbe6	-0.40035933
195	0xbea1411c	-0.31494987
196	0xbe476061	-0.1947036
197	0x3f05f886	0.5233234
198	0x3e8a2229	0.26979187
199	0xbef02cf7	-0.46909305
200	0x3fd417bc	1.6569743
201	0xbe8108bf	-0.25201985
202	0xbed8ab6a	-0.4231828
203	0xbe827789	-0.25481823
204	0xbdacf1ca	-0.08444555
205	0xbb89e525	-0.0042082244
206	0x3f4ba947	0.7955517
207	0x3dfff9de	0.1249883
208	0xbd32571c	-0.043540105
209	0x3d0e6bf8	0.034770936
210	0x3ebe3805	0.37152115
211	0x3eb0b26f	0.34511134
212	0x3f3a0d96	0.7267698
213	0x3ebf8f8b	0.37414202
214	0xbe9c36a4	-0.30510437
215	0xbf5b349b	-0.85627145
216	0x3e931d02	0.2873307
217	0xbe38dcd4	-0.18052989
218	0xbdbca995	-0.09212033
219	0xbf4ac50c	-0.7920692
220	0x3f1ddec6	0.6166805
221	0xbe80c31c	-0.25148857
222	0xbd0d6700	-0.034522057
223	0x3d487e4e	0.04894858
224	0x3ea9f870	0.33197355
225	0x3e508787	0.203642
226	0xbcfdfc30	-0.031004041
227	0x3f803f2f	1.0019282
228	0x3d85f20f	0.0654031
229	0x3eba6944	0.36408436
230	0x3b51c960	0.0032010898
231	0xbf0d7d8d	-0.552697
232	0x3f05493e	0.52064884
233	0x3e32411f	0.17407654
234	0xbde26509	-0.11054427
235	0x3f41ccd3	0.7570316
236	0xbeda8b58	-0.42684436
237	0xbfc5b87f	-1.5446929
238	0xbd02848a	-0.03186468
239	0x3fa9d4e6	1.3268096
240	0xbef41c55	-0.47677866
241	0x3deacc28	0.11464721
242	0xbecff10a	-0.40613586
243	0x3d959986	0.07304673
244	0x3f304b2c	0.68864703
245	0x3dc8a5ab	0.09797224
246	0x3e4748da	0.19461384
247	0x3ea3160f	0.31852767
248	0x3f72e330	0.9487791
249	0xbdfd30e4	-0.12362841
250	0xbf54024c	-0.82816005
251	0xbf173f81	-0.59081274
252	0x3dae5294	0.08511844
253	0xbde2bfde	-0.11071752
254	0x3e079cd3	0.13243417
255	0x3e91cb82	0.28475577

network_critic_2.2.bias f4 [120]
0	0x3faddc51	1.358286
1	0xc0571288	-3.360506
2	0xbff47181	-1.9097139
3	0xbf21d458	-0.63214636
4	0x40357d28	2.835764
5	0x3fedecc8	1.8587885
6	0x405a9729	3.415476
7	0x3fb2330a	1.3921826
8	0xbf340d13	-0.7033245
9	0xc02f87a0	-2.742653
10	0xbfad0cd0	-1.3519535
11	0x3f62b38b	0.8855521
12	0xbfd29242	-1.6450884
13	0x3fa47b0a	1.2850049
14	0x40211347	2.5168016
15	0x3fa574b2	1.2926238
16	0x4003756b	2.0540416
17	0x3fbc24a7	1.4698685
18	0xbea7ed75	-0.32798353
19	0xbe1b15f6	-0.15145096
20	0x40294bf3	2.6452606
21	0x3f57ba9d	0.84269124
22	0x3ff42e2c	1.907659
23	0x3f01f45d	0.50763494
24	0x3fad1487	1.352189
25	0x3fe10d7f	1.7582244
26	0x3fbff8fe	1.4997861
27	0x3fa93c7d	1.3221585
28	0x3fe1d671	1.7643567
29	0xbeb6a234	-0.35670626
30	0xc0177d5f	-2.367027
31	0xc01d52d5	-2.4581807
32	0xc01f8002	-2.492188
33	0x3c5c7d10	0.013457552
34	0xbd811a51	-0.063038476
35	0xbfeee92e	-1.8664911
36	0x406b89b1	3.680279
37	0x3e8edf65	0.27904812
38	0x3fd595ad	1.6686302
39	0xbf1a49dd	-0.60268956
40	0xbf74bf38	-0.95604277
41	0xbf185e86	-0.5951923
42	0xbf919b2b	-1.1375479
43	0x3f34b325	0.7058585
44	0xbff7f69d	-1.9372135
45	0xbfaaf9a9	-1.335744
46	0xbf7ecef4	-0.99534535
47	0x3f240b7c	0.64080024
48	0x4021da3b	2.5289447
49	0x3fe7ef5f	1.8119925
50	0x3fe9db12	1.826998
51	0x3fd8198d	1.6882797
52	0x3f8e6fe0	1.1127892
53	0x3f9b8b53	1.2151893
54	0x3fdaec5e	1.7103384
55	0x3ff5eb98	1.9212523
56	0xc01eeec6	-2.4833236
57	0xbd978ac9	-0.07399518
58	0x3f86dc33	1.053595
59	0x404924ca	3.1428704
60	0x3f238024	0.638674
61	0x3f8e04a8	1.1095171
62	0x4007cfdf	2.1220624
63	0xbf94524f	-1.1587619
64	0xbf8bbdf8	-1.0917349
65	0xbfaa70a0	-1.331562
66	0x402bbc80	2.6833801
67	0xbdefb523	-0.11704471
68	0xbff3f34c	-1.9058623
69	0xc01fab4a	-2.4948297
70	0xbebd568e	-0.36980098
71	0x3e1a7fd6	0.15087828
72	0xbfedc50f	-1.8575763
73	0x3fbe29e4	1.4856534
74	0x3fef22ee	1.8682535
75	0x3e543a87	0.20725451
76	0x3fd2965d	1.6452137
77	0x3fd969a9	1.698537
78	0xbf0a6b55	-0.54070026
79	0x3fdd5adf	1.7293357
80	0xbfc7bb59	-1.5604049
81	0xbf6926d7	-0.9107489
82	0x403bd206	2.9346938
83	0xbf00b36f	-0.50273794
84	0x400ba180	2.1817322
85	0xc03223b8	-2.78343
86	0x3f89c5ba	1.0763466
87	0x4062cebc	3.543868
88	0xbfcfdfbf	-1.6240157
89	0xbfdc607c	-1.7216945
90	0x3f5da4f4	0.86579823
91	0xbf8b1c8a	-1.0868084
92	0xbe7f6f02	-0.2494469
93	0x3fdaf103	1.7104801
94	0xbee10488	-0.4394877
95	0x3fb4c0b2	1.4121306
96	0xbf89779a	-1.0739625
97	0xbfec7e00	-1.8475952
98	0x405d6e7b	3.4598682
99	0x3ff2a005	1.8955084
100	0x3f9b1dec	1.2118506
101	0x3fcd4664	1.6037107
102	0x3d377a82	0.044794567
103	0xbf509d3f	-0.8148994
104	0x3fb087be	1.3791425
105	0xc01f6c36	-2.4909797
106	0x3f95328a	1.1656048
107	0x3fe0f53f	1.7574843
108	0x3fed9f44	1.8564229
109	0x40225e9a	2.537024
110	0x3fc944a8	1.5724077
111	0x4013fae6	2.3121886
112	0x3f46c482	0.776436
113	0x3fca96f8	1.5827322
114	0xc01f9b0e	-2.4938388
115	0x3f430ef0	0.7619467
116	0x3d801325	0.062536515
117	0x3fbc1453	1.4693702
118	0x3f36c08b	0.7138755
119	0xbdd9df6e	-0.10638319

network_critic_2.4.weight f4 [1, 120]
0	0xbce1a8bb	-0.027546277
1	0x3dc76090	0.09735215
2	0x3dbf658a	0.09345539
3	0x3da7bd4c	0.081904024
4	0xbd8f87bb	-0.070083104
5	0xbd53e9f7	-0.0517368
6	0xbdb5ff25	-0.088865556
7	0xbd2ba9db	-0.041910034
8	0x3df5b7fd	0.119979836
9	0x3daef956	0.08543651
10	0x3dcf1332	0.10111083
11	0xbd563861	-0.05229986
12	0x3da52dba	0.08065362
13	0xbd56c817	-0.052436914
14	0x3e2c183d	0.16806121
15	0xbd230e7f	-0.039808746
16	0xbd5d0d86	-0.053967975
17	0xbd7e914f	-0.062150296
18	0x3d84d390	0.06485665
19	0xbd93bb51	-0.07213462
20	0xbdb42bb8	-0.08797401
21	0x3da6146f	0.08109366
22	0xbcc984a6	-0.024599385
23	0xbe00ae51	-0.12566496
24	0xbd36e019	-0.04464731
25	0xbcde34c4	-0.02712477
26	0xbd40bba9	-0.047053967
27	0xbda3112b	-0.07962259
28	0xbd7b0e6a	-0.061293043
29	0x3db89e7b	0.09014603
30	0x3da00e82	0.07815267
31	0x3d99276e	0.07478224
32	0x3dbbbed6	0.091672584
33	0xbc8b3f7d	-0.016998047
34	0xbd434e84	-0.0476823
35	0x3dc09fc5	0.094054736
36	0xbda1024a	-0.07861765
37	0x3dc0dc25	0.09416989
38	0xbdb8aa38	-0.09016842
39	0x3da9b218	0.08285922
40	0x3de28036	0.110596105
41	0x3daf144a	0.08548792
42	0x3da913a5	0.082557
43	0xbd6a27b8	-0.057166785
44	0x3db5df00	0.088804245
45	0x3db15761	0.08659244
46	0x3e1440e8	0.14477885
47	0xbd92e5f1	-0.07172764
48	0xbdd226f5	-0.10261337
49	0xbdcc2771	-0.0996846
50	0xbd82a943	-0.0637994
51	0xbd2dd681	-0.042440895
52	0xbd53cd1f	-0.05170929
53	0xbd48c3a5	-0.049014706
54	0xbd972a78	-0.07381147
55	0xbd54ac5b	-0.051922183
56	0x3d99b307	0.0750485
57	0x3d0d8aeb	0.03455631
58	0xbda897aa	-0.082320526
59	0xbdb68a1a	-0.089130595
60	0xbdb68120	-0.089113474
61	0xbd62f9fc	-0.055414185
62	0xbd0b04fd	-0.033940304
63	0x3dd4e3cc	0.10395011
64	0xbe1c5c43	-0.1526957
65	0x3dafedaa	0.08590253
66	0xbde4b887	-0.11168008
67	0x3c29f84e	0.010374142
68	0x3dde577a	0.108565286
69	0x3db9b699	0.09068031
70	0x3dcbfa6a	0.09959872
71	0xbd946e6c	-0.07247624
72	0x3dc0a7a5	0.09406976
73	0xbd3749fa	-0.044748284
74	0xbd539570	-0.051656187
75	0xbdaa1a34	-0.08305779
76	0xbd638a4b	-0.05555181
77	0xbdf0e971	-0.117632754
78	0x3dba25be	0.0908923
79	0xbd20c5df	-0.039251205
80	0x3db17b78	0.08666128
81	0x3da0b3b8	0.07846779
82	0xbddf3799	-0.10899276
83	0x3deca296	0.11554448
84	0xbd8c093c	-0.06837699
85	0x3dada1a6	0.084780976
86	0xbd409260	-0.047014594
87	0xbda5fe0d	-0.08105097
88	0x3dae5053	0.085114144
89	0x3db65007	0.08901983
90	0xbd70d184	-0.05879356
91	0x3ddf18a7	0.10893374
92	0xbe0c92ff	-0.1372795
93	0xbd1e0705	-0.038580913
94	0x3dc7ecd6	0.0976197
95	0xbd99c67e	-0.075085625
96	0x3da2fba3	0.07958152
97	0x3da48a36	0.08034174
98	0xbdbb5c10	-0.09148419
99	0xbd3e34ab	-0.046436947
100	0xbd91bc6a	-0.07116015
101	0xbd479178	-0.048722714
102	0xbd148d37	-0.036267485
103	0xbdd1aa2a	-0.10237534
104	0x3e28061c	0.1640858
105	0x3da40b8a	0.080100134
106	0xbd9a1cdc	-0.07525036
107	0xbda121dd	-0.07867787
108	0xbdb34660	-0.08753657
109	0xbd880fde	-0.066436514
110	0xbd0b23b0	-0.03396958
111	0xbdb67850	-0.089096665
112	0xbd6f3796	-0.05840262
113	0xbd53500a	-0.051590003
114	0x3da8e5f6	0.082469866
115	0xbdb9fb1f	-0.09081101
116	0xbbad7907	-0.0052939686
117	0xbd54c4a6	-0.05194535
118	0xbd4e4479	-0.05035827
119	0xbcdb4033	-0.026764011
