checkpoint/td3-actor_mlp_actor-lr:0.0003_critic-lr:0.0003_gamma:0.99_tau:0.05.pth (torch, 63063 bytes, 6 tensors)

network_actor.0.weight f4 [70, 140]
0	0x3ad539eb	0.0016267871
1	0x3d579445	0.052631635
2	0xbb8a872b	-0.004227539
3	0x3d932c81	0.07186223
4	0x3d02bfbb	0.03192113
5	0x3d084f42	0.03327871
6	0x3d094b06	0.033518814
7	0xbc9e27b5	-0.019306043
8	0xbc0674f9	-0.008206599
9	0xb986c167	-0.00025702568
10	0xbd924db4	-0.07143727
11	0x3da52002	0.08062746
12	0x3c6e548e	0.014546527
13	0xbda05bec	-0.07830033
14	0xbd8485f6	-0.064708635
15	0xbd2e92f8	-0.04262063
16	0x3bdca310	0.0067333058
17	0xbcf40360	-0.029786766
18	0xbdac1292	-0.084019795
19	0xbd06f0f7	-0.032944646
20	0xbaed52d8	-0.0018106354
21	0x3d0079f7	0.031366315
22	0x3cfe458f	0.031039027
23	0x3d8726ff	0.06599235
24	0xbd7e85ea	-0.06213943
25	0xbd1bd305	-0.03804304
26	0xbd77306a	-0.060348906
27	0xbd0daab8	-0.03458664
28	0xbda4833c	-0.080328435
29	0x3d9603cc	0.07324943
30	0xbd833956	-0.0640742
31	0x3cdd0311	0.026979001
32	0x3c8d6e2c	0.017264448
33	0xbd2a1258	-0.0415214
34	0x3d7ae6e6	0.06125536
35	0x3da0bf13	0.078489445
36	0xbd208a45	-0.039194364
37	0xbd101644	-0.035177484
38	0xbd4306ab	-0.04761378
39	0xbd8575fc	-0.06516644
40	0xbcabab2d	-0.020955646
41	0x3c211498	0.00983157
42	0xbd093aaa	-0.033503212
43	0x3da21dae	0.07915817
44	0xbbde59c6	-0.006785604
45	0xbcecc111	-0.028900655
46	0xbdaef244	-0.08542302
47	0xbcb7902f	-0.02240762
48	0x3d98e1fc	0.07464978
49	0xbcda57ec	-0.026653253
50	0x3d04ffc5	0.032470483
51	0x3d707f1e	0.05871498
52	0xbd760bc0	-0.0600698
53	0xbd5f1aea	-0.054469027
54	0x3d60071b	0.054694276
55	0x3d263426	0.040577076
56	0xbd6bea63	-0.057596575
57	0x3d9f3674	0.07774058
58	0xbd8f642b	-0.070015274
59	0x3c37aaf8	0.011210196
60	0xbc7b18b6	-0.015325716
61	0x3b4cbf9b	0.0031242135
62	0x3cf2bdbf	0.029631494
63	0x3dad7307	0.08469205
64	0x3c268d87	0.010165579
65	0x3c087f46	0.008331126
66	0x3d90c7df	0.070693724
67	0xbda4e233	-0.080509566
68	0x3d339fff	0.043853756
69	0x3d5ddbe9	0.0541648
70	0x3d9d563a	0.07682462
71	0xbd5f938f	-0.054584082
72	0x3d423129	0.047410164
73	0x3db65d21	0.08904482
74	0xbda5d78e	-0.080977544
75	0xbda94580	-0.08265209
76	0xbd2791ec	-0.040910646
77	0xbd2d9452	-0.042377777
78	0xbd104730	-0.03522414
79	0x3cccf35e	0.02501839
80	0xbcc43f39	-0.023955928
81	0x3d18cd30	0.037305057
82	0xbd8f9b01	-0.070119865
83	0xbcc3fe2a	-0.023924906
84	0x3d06f7ef	0.03295129
85	0x3d8d1381	0.06888486
86	0xbd067060	-0.032822013
87	0x3d9fc3ba	0.07801004
88	0xbd4b26c4	-0.049597517
89	0x3d3df483	0.046375763
90	0x3d376f87	0.044784095
91	0xbc8cefc4	-0.017204173
92	0x3dabc084	0.08386329
93	0x3d5c2590	0.05374676
94	0x3cc8bf84	0.024505384
95	0x3d66a597	0.056310263
96	0x3c7ace9a	0.015308047
97	0xbc672b73	-0.01410948
98	0xbd5f8a1d	-0.054575074
99	0xbd73e137	-0.059540953
100	0x3c217171	0.009853707
101	0x3cd37d45	0.02581657
102	0xbd9d8f3d	-0.07693336
103	0x3cd5ee59	0.02611463
104	0xbd3a5059	-0.04548678
105	0xbd28c8a6	-0.04120698
106	0xbd3905b3	-0.04517145
107	0xbb5824d7	-0.0032980943
108	0x3c1ada59	0.009451472
109	0x3d7f8e1e	0.062391393
110	0xbcf317c8	-0.029674426
111	0xbd594997	-0.053048696
112	0x3d2438d4	0.040093258
113	0xbd2961a3	-0.04135288
114	0x3d1326c2	0.035925634
115	0x3daa6773	0.083205126
116	0x3c0ba0e7	0.008522249
117	0x3d72e5c9	0.05930117
118	0xbd3492d2	-0.04408533
119	0x3d97559f	0.07389378
120	0x3bafeb37	0.005368616
121	0x3d22944a	0.0396922
122	0x3d0c83f5	0.03430553
123	0xbd61fa5d	-0.055170406
124	0x3c2183a0	0.009858042
125	0x3d6c49ce	0.057687573
126	0xbd53e8f6	-0.05173584
127	0x3c83f8db	0.016109874
128	0xbd31b8cb	-0.043389123
129	0xbd29ec3b	-0.041485053
130	0xbcfc86a0	-0.030825913
131	0xbdabb1a5	-0.083834924
132	0xbc150d02	-0.00909734
133	0xbce1f987	-0.027584804
134	0x3d205bed	0.039150167
135	0xbd99f5eb	-0.07517608
136	0x3da256e9	0.07926733
137	0x3ceb490e	0.028721359
138	0x3d8e3ba5	0.0694497
139	0x3d3d3d09	0.046200786
140	0x3d713dcb	0.05889682
141	0xba1dc218	-0.0006017997
142	0x3d840b62	0.064474836
143	0xbcc431e7	-0.023949577
144	0x3d9fe765	0.07807807
145	0x3bbfb587	0.005850497
146	0x3d996717	0.07490366
147	0xbd8c97b1	-0.0686487
148	0xbcac38d0	-0.021023184
149	0xbda573d4	-0.08078733
150	0xbd2e6298	-0.042574495
151	0xbcf2ad14	-0.029623546
152	0xbce63127	-0.02809961
153	0xbd254b23	-0.04035486
154	0x3d870830	0.065933585
155	0xbd6793b0	-0.05653733
156	0xbca2da3b	-0.019879451
157	0x3d16deaa	0.036833443
158	0xbce279f0	-0.027646035
159	0xbc5cd085	-0.013477449
160	0x3c66c32e	0.01408462
161	0x3d6f110b	0.058365863
162	0xbd7425f2	-0.0596065
163	0xbd8ebf3c	-0.06970069
164	0xbd6eca1f	-0.058298226
165	0xbd3ab578	-0.04558322
166	0xbcb040a6	-0.021515202
167	0xbaeb3226	-0.0017944023
168	0xbd8d22cc	-0.068914026
169	0xbd9f00ec	-0.07763848
170	0xbb5f7c35	-0.0034101133
171	0x3d9738ca	0.073838785
172	0xbd559b6c	-0.052150175
173	0x3d9e8669	0.077404805
174	0xbd5ff720	-0.054679036
175	0x3da68745	0.08131269
176	0x3d6a276c	0.057166502
177	0xbd9feed0	-0.07809222
178	0xbd7e2550	-0.062047303
179	0xbcefc1b2	-0.029267166
180	0x3d9ad14f	0.07559454
181	0xbd649269	-0.05580369
182	0x3da7c5db	0.08192035
183	0xbc1699d6	-0.009191951
184	0xbd9ab8d1	-0.07554782
185	0x3d134a59	0.035959575
186	0xbcb89f7f	-0.022536991
187	0xbd8ff31c	-0.07028791
188	0x3d97ff0a	0.07421692
189	0xbcdc594e	-0.026898053
190	0x3ced1156	0.02893893
191	0xbc07ba5a	-0.008284176
192	0xbd3162f6	-0.043307267
193	0xbb468703	-0.0030292876
194	0x39ca306f	0.00038564528
195	0x3d21d0cc	0.039505765
196	0xbd1229b4	-0.035684302
197	0xbcf0320d	-0.029320741
198	0x3d6fe3fa	0.058567025
199	0xbd17bc29	-0.037044678
200	0xbd260a38	-0.04053709
201	0x3da315fb	0.07963177
202	0x3d98d996	0.07463376
203	0xbd1047a4	-0.03522457
204	0xbd15359c	-0.03642808
205	0x3bae0d7f	0.0053116675
206	0xbcdd6b64	-0.027028747
207	0xbd3bbc29	-0.04583374
208	0xbd861b65	-0.06548194
209	0xbd86e6ac	-0.06586966
210	0x3dada0aa	0.0847791
211	0x3b4a5635	0.0030874137
212	0x3c5163eb	0.01278017
213	0x3d8f85d2	0.07007946
214	0x3d83083f	0.06398057
215	0x3cce70d4	0.025200285
216	0x3a4fef9a	0.0007932127
217	0xbbb29b30	-0.0054506287
218	0x3d80f6d8	0.06297082
219	0x3d7a0c71	0.06104702
220	0xbd65e284	-0.056124225
221	0x3da60826	0.08107023
222	0x3cb012c8	0.02149333
223	0x3d51f8df	0.051262733
224	0xbd5d3f63	-0.05401553
225	0xbc19e231	-0.009392307
226	0x3d652954	0.055947617
227	0x3b24d45c	0.002515099
228	0xbd894f9b	-0.06704637
229	0x3c43d51b	0.011952664
230	0x3b7b5b2c	0.0038353903
231	0xbc7b1fb8	-0.015327387
232	0x3d283fc9	0.041076455
233	0x3d46334a	0.048388757
234	0x3d899317	0.06717508
235	0x3bd60784	0.0065316577
236	0x3cb9cd19	0.022680806
237	0x3d620c2d	0.055187393
238	0xbd5cf3bd	-0.053943384
239	0xbcadf042	-0.021232728
240	0x3d64419b	0.05572663
241	0x3d8c2d3a	0.06844564
242	0x3d8d52fb	0.06900593
243	0x3b437756	0.0029825768
244	0xbda19b7d	-0.07890985
245	0x3da1f121	0.0790732
246	0xbcd685a8	-0.02618678
247	0xbda23c14	-0.07921615
248	0xbda1e6f5	-0.0790538
249	0x3da7f654	0.0820128
250	0xbc94f571	-0.018183442
251	0x3d15dd3f	0.03658795
252	0xbc955948	-0.01823105
253	0x3d331b4e	0.04372721
254	0xbc7816c2	-0.015142145
255	0x3c9990a2	0.018745724

network_actor.0.bias f4 [70]
0	0xbd0fe5c7	-0.035131242
1	0x3d995d8f	0.07488548
2	0xbd30dfa7	-0.04318204
3	0x3d379189	0.044816528
4	0x3d7758a1	0.060387257
5	0x3c4411c4	0.011967126
6	0xbcda5371	-0.026651116
7	0x3c29f092	0.010372298
8	0x3d20217a	0.039094426
9	0x3c225de9	0.009910085
10	0xbcae36c2	-0.021266345
11	0xbd615c6f	-0.055019792
12	0x3d90f0f7	0.070772104
13	0xbd736da2	-0.059430726
14	0xbd2c191a	-0.042016126
15	0x3d9ad78c	0.075606436
16	0xbce74192	-0.028229509
17	0xbda53faa	-0.080687836
18	0xbbc01998	-0.005862426
19	0x3cc5fe09	0.024168985
20	0x3d898d16	0.06716363
21	0xbd3374ec	-0.043812677
22	0xbc336404	-0.010949139
23	0x3c1dee33	0.009639311
24	0xbbd37c2b	-0.006454011
25	0x3d86ffd9	0.06591768
26	0x3d7e4d3d	0.06208538
27	0x3d0477fc	0.03234099
28	0x3d906436	0.07050364
29	0x3d00fe9b	0.03149281
30	0x3d87c22d	0.06628833
31	0x3d4fc880	0.05072832
32	0x3d56cdaa	0.05244223
33	0xbd4b7c06	-0.049678825
34	0xbda54a3a	-0.08070798
35	0xbd8f11d1	-0.0698582
36	0xbca50fb8	-0.020149097
37	0x3cbfb88c	0.023403428
38	0x3c6261f4	0.013817299
39	0xbc091280	-0.008366227
40	0x3d686778	0.0567393
41	0xbce1b9dd	-0.027554447
42	0x3c068bb4	0.008212019
43	0xbd6c53d9	-0.05769715
44	0x3d2ad13f	0.04170346
45	0x3da8905f	0.082306616
46	0x3da17fde	0.07885717
47	0xbd2181e0	-0.0394305
48	0x3da3dc2e	0.0800098
49	0xbcc59b3e	-0.024121877
50	0x3d1bb5a0	0.038015008
51	0xbdaa4a64	-0.0831497
52	0xbd4973c1	-0.049182657
53	0x3d5e9e71	0.05435032
54	0xbda42d73	-0.08016481
55	0x3c40aa67	0.011759377
56	0xbd0a986e	-0.033836775
57	0xbcb5c74b	-0.022189757
58	0xbd2a0193	-0.041505408
59	0x3cfa0572	0.030520175
60	0xbd66407a	-0.056213833
61	0xbda7eeb3	-0.08199825
62	0xbc25e3c0	-0.010125101
63	0x3d967269	0.07346041
64	0x3db7c557	0.089731865
65	0xbb8a8067	-0.0042267325
66	0x3d489bd7	0.048976745
67	0x3d8881e7	0.06665402
68	0xbdb39353	-0.08768334
69	0x3cede985	0.029042015

network_actor.2.weight f4 [70, 70]
0	0xbd2b0ffb	-0.041763287
1	0x3dc84e70	0.09780586
2	0x3daacbb5	0.08339635
3	0xbda914b3	-0.08255901
4	0xbdead3bd	-0.11466167
5	0x3dc99ac9	0.09843976
6	0x3dc6e9b4	0.09712544
7	0xbd16db97	-0.03683051
8	0xbd4378e2	-0.047722705
9	0xbda6b7d0	-0.08140528
10	0xbd1975a7	-0.037465718
11	0x3dcbd813	0.09953322
12	0x3d8a1c51	0.06743682
13	0x3c85e16c	0.016342841
14	0x3d163a7a	0.03667686
15	0x3d653093	0.055954527
16	0xbd4d9e5f	-0.050199863
17	0xbd09be07	-0.03362849
18	0x3d42bd4a	0.0475438
19	0xbd527d19	-0.051388834
20	0xbd521577	-0.05129
21	0xbc597b04	-0.013273958
22	0xbde7ae10	-0.11312497
23	0x3d410c1e	0.047130696
24	0xbad4b22f	-0.0016227419
25	0x3cccd16f	0.02500221
26	0x3de165e5	0.11005763
27	0x3ca1a371	0.019731255
28	0xbccf99ee	-0.025341954
29	0xbcfc215f	-0.030777631
30	0xbd384265	-0.044985194
31	0xbcca8ec8	-0.024726287
32	0xbca55e90	-0.020186692
33	0x3c3a9854	0.011388857
34	0x3dd52fcf	0.104095094
35	0x3c4e893d	0.012605962
36	0xbd3c0983	-0.04590751
37	0xbc0b7aaf	-0.008513137
38	0x3d134403	0.035953533
39	0x3d018677	0.031622376
40	0xbcbae170	-0.022812575
41	0xbdc50b08	-0.09621245
42	0xbdadc856	-0.08485477
43	0x3dc7a345	0.09747938
44	0x3dd8fba3	0.10594871
45	0x3de3c644	0.111218005
46	0xbdcca9ee	-0.09993349
47	0x3c13bf76	0.009017816
48	0xbdd863a1	-0.10565878
49	0x3d9b6392	0.07587351
50	0xbb251d19	-0.0025194346
51	0x3d58686a	0.052833952
52	0xbcfcdc4c	-0.030866764
53	0x3dc782fd	0.09741781
54	0x3d79a92d	0.060952354
55	0x3d8e9c93	0.06963458
56	0xbdcb6373	-0.09931078
57	0xbda4a6cb	-0.08039626
58	0xbcb40e9c	-0.021979623
59	0xbcd293b0	-0.025705189
60	0xbd64cece	-0.055861287
61	0xbd627a04	-0.055292144
62	0x3cb69647	0.022288455
63	0xba156c59	-0.0005700044
64	0x3dcc17f2	0.09965505
65	0x3dd59fde	0.10430883
66	0xbd241ac3	-0.040064584
67	0xbd786e53	-0.06065209
68	0x3c85653a	0.01628362
69	0x3d805291	0.06265748
70	0xbcd86303	-0.0264144
71	0x3d37dc62	0.044887908
72	0x3df5eac3	0.12007668
73	0xbd8ab864	-0.06773451
74	0xbdc3a5de	-0.09553121
75	0xbded364f	-0.11582624
76	0xbd8c95b2	-0.068644896
77	0x3d4eb44c	0.050464913
78	0x3d60b671	0.05486149
79	0xbd7b7be2	-0.06139744
80	0x3d531349	0.051532064
81	0x3d7e771f	0.06212532
82	0x3d6a267d	0.05716561
83	0xbd66bbe0	-0.056331515
84	0x3db92b07	0.0904141
85	0xbd891881	-0.06694127
86	0x3ac4d073	0.0015015736
87	0xbdeead8a	-0.11654194
88	0xbd99377c	-0.07481286
89	0xbddf7f9e	-0.10913013
90	0xbd712b85	-0.058879394
91	0xbd8e38c8	-0.06944424
92	0xbdf263e5	-0.118354596
93	0xba9867fe	-0.0011627672
94	0x3df23292	0.11826052
95	0xbd626da8	-0.055280358
96	0x3dd031ef	0.10165774
97	0xbd10e384	-0.035373226
98	0x3deff9f3	0.11717596
99	0x3d24aeb8	0.040205687
100	0xbd6e493b	-0.058175307
101	0x3c172608	0.009225376
102	0x3d8a5779	0.06754965
103	0xbd8e074d	-0.06934986
104	0xbd140e27	-0.03614631
105	0x3d2ed1e9	0.042680655
106	0x3d6e1bff	0.058132168
107	0xbde518d7	-0.111863784
108	0x3c047d10	0.008086458
109	0x3cddb90b	0.027065774
110	0xbde5914d	-0.112093545
111	0x3cd43c24	0.025907584
112	0xbc249a3f	-0.010046541
113	0xbdd22c11	-0.10262311
114	0x3d3d725a	0.046251632
115	0x3db9a1ac	0.090640396
116	0xbde27b6b	-0.11058696
117	0x3d1f55ee	0.03890031
118	0xbd1a318d	-0.03764491
119	0xbd778fdb	-0.060439926
120	0x3dd5836d	0.10425458
121	0x3dcfc925	0.10145787
122	0x3ce0881e	0.027408656
123	0x3cd06287	0.025437606
124	0xbc19881e	-0.009370832
125	0x3c3f2e28	0.011668719
126	0x3d928cc6	0.07155757
127	0xbd8b0818	-0.06788653
128	0xbc84f906	-0.016232025
129	0x3dd8b936	0.10582201
130	0x3d0bc368	0.0341219
131	0xbd6cbe09	-0.05779842
132	0xbd98c6e1	-0.07459808
133	0x3debd7b7	0.11515754
134	0xbd7b4e11	-0.061353747
135	0xbdd37cdb	-0.10326549
136	0x3df6770e	0.12034427
137	0xbdad2185	-0.08453659
138	0xbdd73bcf	-0.105094545
139	0xbbc784e6	-0.006088841
140	0x3d00b9b8	0.031427115
141	0x3ca40d15	0.02002577
142	0xbd9f9d9f	-0.07793736
143	0xbc075a93	-0.008261341
144	0x3cc1264a	0.023577828
145	0x3d9c7b93	0.076407574
146	0xbd8971c7	-0.067111544
147	0xbdf8cca6	-0.121484086
148	0xbc7fb7b8	-0.015607767
149	0xbd2f5c03	-0.04281236
150	0xbd45a128	-0.048249394
151	0x3be4f67b	0.0069873906
152	0x3cc03ce8	0.023466542
153	0x3d469d01	0.048489574
154	0xbd68b60e	-0.056814246
155	0x3d45224a	0.048128404
156	0xbd3b2c2c	-0.045696422
157	0xbc12b84c	-0.008955073
158	0xbd3c15de	-0.04591929
159	0x3d95e3b2	0.0731882
160	0xbc190db0	-0.009341642
161	0x3daadbee	0.083427295
162	0xbb1247ef	-0.0022320708
163	0xbd86548b	-0.06559094
164	0x3d95789a	0.072983935
165	0x3d06913b	0.032853346
166	0x3cbf24b6	0.023332935
167	0xbd43f939	-0.0478451
168	0x3cd9d8dd	0.026592666
169	0xbd3df5a7	-0.04637685
170	0xbbddd25e	-0.0067694625
171	0xbd00eceb	-0.031475943
172	0xbd8d0f6f	-0.06887709
173	0x3bdb2333	0.0066875457
174	0xbd2b1a53	-0.04177315
175	0xbcf8c3f7	-0.03036688
176	0xbdf389ab	-0.118914925
177	0xbb0233a7	-0.0019867213
178	0x3d9ef441	0.077614315
179	0xbcb32964	-0.021870323
180	0xbce2f0a2	-0.027702633
181	0xba078bb6	-0.000517066
182	0x3da8d90c	0.082445234
183	0xbb12c777	-0.0022396722
184	0xbdf3d287	-0.11905389
185	0x3d6150b3	0.0550086
186	0x3c2eecf9	0.010676616
187	0xbd7dbf1f	-0.061949845
188	0xbcb3ea48	-0.0219623
189	0x3abc6949	0.0014374639
190	0xbdcb3365	-0.09921912
191	0xbd3f3d8b	-0.04668955
192	0x3dcab123	0.098970674
193	0x3da9f187	0.08298021
194	0xbcec50b0	-0.028847069
195	0xbdcc0c15	-0.09963242
196	0xbdbb5187	-0.091464095
197	0xbd51ed80	-0.05125189
198	0xbc0aec0d	-0.00847913
199	0x3dc4b4ef	0.09604823
200	0xbc4bdba6	-0.012442505
201	0x3c67af06	0.01414085
202	0xbc337e75	-0.010955443
203	0x3d284517	0.041081514
204	0xbd7428aa	-0.059609093
205	0xbdc6e842	-0.097122684
206	0x3dcdd679	0.10050673
207	0x3d65379b	0.055961233
208	0xbd636f92	-0.055526324
209	0x3cd35d31	0.025801273
210	0x3d9498cc	0.07255706
211	0xbd33e2bd	-0.043917406
212	0xbde209de	-0.11037038
213	0xbc02ba1b	-0.007978941
214	0x3d95d4e4	0.07315996
215	0x3d91bc45	0.07115988
216	0xbdde73d9	-0.1086194
217	0x3dce91d0	0.10086405
218	0xbd6464c8	-0.055760175
219	0xbd0693de	-0.03285586
220	0xbb902187	-0.004398528
221	0x3c225c6d	0.009909731
222	0xbd085709	-0.03328613
223	0xbd9edc41	-0.07756854
224	0x3ccb4a96	0.024815839
225	0x3cd1863f	0.025576709
226	0xbc24e9cb	-0.010065506
227	0xbd1a964e	-0.037740998
228	0x3d83490f	0.06410419
229	0x3d45a22c	0.048250362
230	0x3cc7d79c	0.024394803
231	0xbdc0e810	-0.094192624
232	0x3d1a35a7	0.037648823
233	0xbcceb472	-0.025232527
234	0x3bd07988	0.006362144
235	0x3bed8cc6	0.0072494475
236	0xbc0b759e	-0.008511929
237	0x3cd3ad1e	0.025839385
238	0x3dc0a74f	0.094069116
239	0x3db231e0	0.08700919
240	0xbd54a95f	-0.051919337
241	0x3d148ae3	0.036265265
242	0x3da8cb18	0.08241862
243	0xbdbb1e17	-0.091365986
244	0xbdf247d4	-0.118301064
245	0xbdd9d3b6	-0.10636084
246	0xbd5d534e	-0.054034524
247	0xbdba6f12	-0.09103216
248	0xbdbd89cd	-0.09254799
249	0xbdc37564	-0.09543875
250	0xbbc25fe3	-0.0059318407
251	0x3da79aa3	0.081837915
252	0x3de075c6	0.109599635
253	0x3ced321e	0.028954562
254	0xbb87dfe7	-0.0041465643
255	0xbd9ad4be	-0.075601086

network_actor.2.bias f4 [70]
0	0x39014b9b	0.00012330564
1	0xbcf2f86b	-0.02965947
2	0xbd5a14bb	-0.053242426
3	0xbdd48035	-0.10376016
4	0xbdcb9dbc	-0.09942195
5	0xbd109ef8	-0.035307854
6	0x3cb6eb78	0.022329077
7	0x3d3e7cc3	0.0465057
8	0xbd60911a	-0.05482588
9	0x3dcd570b	0.10026368
10	0x3c700b7c	0.014651176
11	0x3d34eb81	0.044169907
12	0xbcd5b29b	-0.026086142
13	0x3ccc00d7	0.024902744
14	0x3bcee6cf	0.0063141356
15	0xbd2482e3	-0.040163886
16	0xbdb8be63	-0.090206884
17	0xbd5df21f	-0.054185983
18	0x3c45f531	0.012082384
19	0xbda79222	-0.081821695
20	0x3ddde1f8	0.10834116
21	0xbdb5256d	-0.08845029
22	0xbdd8bd10	-0.10582936
23	0x3cc1bf2b	0.023650726
24	0x3b1f0229	0.0024262762
25	0xbdeadf44	-0.11468366
26	0x378af227	1.6563643e-05
27	0x3b6a7c57	0.0035779679
28	0x3cb487ee	0.022037473
29	0xbd8e7fec	-0.06957993
30	0x3db2f0c1	0.087373264
31	0x3d607aae	0.054804496
32	0x3dbfed33	0.09371414
33	0x3caba31e	0.020951804
34	0xbde43526	-0.1114295
35	0x3d38dd3c	0.04513286
36	0xbd17125a	-0.036882736
37	0x3db8dfc4	0.09027055
38	0xbdd6288b	-0.10456952
39	0xbdba04ff	-0.09082984
40	0x3dbc3a13	0.09190764
41	0x3d67924b	0.056536
42	0x3df40b85	0.1191626
43	0xbdacd92b	-0.08439859
44	0x3d415b23	0.047206055
45	0xbd90084a	-0.07032831
46	0x3d118f26	0.035536908
47	0x3de7906b	0.113068424
48	0x3d2eb704	0.042655006
49	0x3d87dec7	0.06634288
50	0xbd7befe9	-0.061508093
51	0x3d9355e8	0.0719412
52	0x3d6b6283	0.057466995
53	0xbdae64e6	-0.085153386
54	0x3d61a2f5	0.05508705
55	0x3bd5fa67	0.0065300944
56	0x3db67531	0.08909071
57	0x3c3eaa3e	0.011637269
58	0xbdc95974	-0.09831515
59	0x3ccbeed7	0.024894161
60	0xbd1c973f	-0.038230177
61	0xbd2a60d9	-0.041596267
62	0xbddb3f49	-0.1070543
63	0xbdb85e72	-0.09002389
64	0x3ddb5c1d	0.107109286
65	0xbcf0665f	-0.02934569
66	0x3d6cb37b	0.057788353
67	0x3c9c8057	0.019104166
68	0xbda66f0a	-0.08126648
69	0x3ddcf6d5	0.10789267

network_actor.4.weight f4 [5, 70]
0	0x3de93f47	0.11389022
1	0x3d7e7254	0.06212075
2	0x3c84c8b4	0.016208984
3	0xbd61ce4e	-0.055128388
4	0x3d666a22	0.05625356
5	0xbde4470c	-0.111463636
6	0xbdd21687	-0.10258203
7	0xbd88cb89	-0.06679446
8	0x3d638367	0.055545237
9	0xbce86c85	-0.028372059
10	0x3cef161b	0.029185345
11	0xbdd494e5	-0.10379962
12	0xbc8c286c	-0.017109118
13	0x3d7a6ac9	0.061136995
14	0xbd2f3184	-0.04277183
15	0xbc7a9e67	-0.015296555
16	0xbccc75be	-0.024958488
17	0xbdccbe99	-0.09997291
18	0x3d410683	0.04712535
19	0xbd2f2003	-0.042755138
20	0xbd942781	-0.07234097
21	0xbd48123a	-0.048845507
22	0xbddfcccb	-0.10927733
23	0x3de5a0a8	0.112122834
24	0x3d049c37	0.03237554
25	0x3cba56b3	0.02274642
26	0x3c782f5a	0.015148008
27	0x3d25f6c5	0.04051854
28	0x3d2f3753	0.04277737
29	0x3d884d08	0.066553175
30	0xbdbbedfd	-0.09176252
31	0xbdcf25ba	-0.10114618
32	0xbdda115a	-0.10647841
33	0x3dd8abb4	0.10579625
34	0xbd0d13d2	-0.03444273
35	0x3c66abb8	0.014079027
36	0x3c6bd377	0.014393679
37	0x3d42406a	0.04742471
38	0x3d42f886	0.04760029
39	0xbdc386d8	-0.09547204
40	0xbc9e55be	-0.019327994
41	0x39b5e545	0.0003469383
42	0x3cd56a24	0.026051588
43	0xbc361c8e	-0.011115206
44	0xbd86d149	-0.06582887
45	0x3dce09c4	0.100604564
46	0x3cdca481	0.02693391
47	0xbde71c3c	-0.11284682
48	0xbd3a3267	-0.045458224
49	0x3da192a2	0.07889296
50	0xbcc7d564	-0.024393745
51	0x3cfed601	0.031107904
52	0xbd413ead	-0.047178913
53	0xbd90184e	-0.07035886
54	0x3d00a0ff	0.031403538
55	0xbcf519e6	-0.029919576
56	0xbdc7364e	-0.09727155
57	0x3d6a71ea	0.057237543
58	0x3d95a88f	0.073075406
59	0xbdd87ce6	-0.105706975
60	0xbd155e5f	-0.036466952
61	0x3dbbdd34	0.091730505
62	0x3dcb292a	0.09919961
63	0xbdcdd0db	-0.10049602
64	0xbd773108	-0.060349494
65	0xbdc78028	-0.09741241
66	0x3d0954b8	0.03352806
67	0xbd944097	-0.07238882
68	0xbc828dfe	-0.015936848
69	0x3db7d4de	0.08976148
70	0xbd27cb9f	-0.040965673
71	0xbdba6170	-0.09100616
72	0xbdcbcf55	-0.09951655
73	0x3d5b7fca	0.053588666
74	0x3ca3a296	0.019974988
75	0xbdd64044	-0.104614764
76	0xbcd12977	-0.025532467
77	0xbe006e52	-0.12542084
78	0xbd28274d	-0.041053105
79	0xbd9da573	-0.076975726
80	0x3cc99462	0.024606887
81	0xbd7f27bf	-0.062293764
82	0x3cca223b	0.024674525
83	0x3da217dc	0.07914707
84	0x3d2e68b7	0.042580333
85	0x3d261ea5	0.04055657
86	0xbd8e9f92	-0.06964029
87	0x3c546eae	0.012965841
88	0x3d96d8b4	0.073655516
89	0xbdd75441	-0.10514117
90	0x3d64311f	0.055710908
91	0x3d65d568	0.056111723
92	0xbd9cc177	-0.07654088
93	0x3c9cab05	0.019124517
94	0x3d87e4f8	0.06635469
95	0xbdcfa529	-0.10138924
96	0x3cefef4b	0.029288908
97	0xbcd27d76	-0.02569459
98	0xbdb2ad6b	-0.08724483
99	0xbde81deb	-0.113338314
100	0xbdc730c9	-0.09726102
101	0xbddcf3f0	-0.10788715
102	0xbddd38e2	-0.10801865
103	0x3dc990d0	0.09842074
104	0xbde84d83	-0.11342909
105	0x3c77927e	0.01511061
106	0x3ce4c5e8	0.0279264
107	0x3dad61ce	0.084659204
108	0xbcc8258c	-0.024431966
109	0xbdeae513	-0.11469474
110	0xbca6931a	-0.020333815
111	0x3d35e5c4	0.044408575
112	0x3d54ab9f	0.051921483
113	0xbde09cca	-0.10967405
114	0x3d117fb1	0.035522167
115	0xbdb78ece	-0.08962785
116	0x3d42b011	0.04753119
117	0x3dc625b7	0.09675162
118	0x3c5a7e38	0.013335757
119	0xbd897632	-0.06711997
120	0x3d3ba4d0	0.045811474
121	0xbd339cab	-0.043850582
122	0xbd04ab12	-0.032389708
123	0xbce46004	-0.027877815
124	0x3a1e8bbe	0.0006048045
125	0xbdebcae6	-0.11513309
126	0xbdbf9677	-0.09354871
127	0x3d57864c	0.05261831
128	0xbd8eb411	-0.06967939
129	0x3dc5bf50	0.096556306
130	0xbd829eba	-0.06377931
131	0xbd3e3647	-0.04643848
132	0xbd5d87ed	-0.054084707
133	0x3da42f57	0.08016842
134	0xbd84bdcf	-0.064815156
135	0xbd0e24ab	-0.034702938
136	0xbd10a8b9	-0.035317156
137	0x3da711fa	0.08157726
138	0x3bf6c2ae	0.007530532
139	0xbdce3c0b	-0.10070046
140	0xbbff8d31	-0.0077988137
141	0xbdba5eaf	-0.09100091
142	0x3cf62c98	0.03005056
143	0xbd4dbad7	-0.050227012
144	0x3da212b3	0.07913723
145	0x3d1a0d4f	0.03761035
146	0x3de11004	0.10989383
147	0x3c4ab7b7	0.012372903
148	0xbd2bebbd	-0.041972864
149	0x3dd8f8da	0.1059434
150	0xbdc2e5ec	-0.0951651
151	0xbc441d5d	-0.011969891
152	0xbd6dc6de	-0.058050983
153	0xbdce7381	-0.10080624
154	0xbd9bc244	-0.076054126
155	0x3d3403d4	0.043948963
156	0x3dae0063	0.084961675
157	0xbdebafdd	-0.11508153
158	0xbce32c61	-0.027731122
159	0x3d72444d	0.059147168
160	0x3d0d81ea	0.034547724
161	0x3da5f49c	0.08103296
162	0x3d87275c	0.06599304
163	0xbb16e56e	-0.0023024934
164	0x3dd466f8	0.10371202
165	0xbd11fdca	-0.035642423
166	0x3c66136c	0.0140427165
167	0xbd2a9cae	-0.041653328
168	0xbd9cd53a	-0.07657857
169	0xbd1b0414	-0.037845686
170	0xbdfefadd	-0.12450192
171	0xbd807472	-0.0627221
172	0xbcefa24f	-0.0292522
173	0x3bc79233	0.0060904264
174	0xbd67608d	-0.056488562
175	0x3dd486f2	0.10377301
176	0xbdd89c4c	-0.10576686
177	0x3de81e6d	0.11333928
178	0x3d34bac3	0.044123422
179	0x3bd87462	0.006605671
180	0xbd312bbb	-0.043254595
181	0xbcfc750e	-0.030817535
182	0x3caa3b8f	0.020780353
183	0xbc84ace8	-0.01619573
184	0xbbd7ea1e	-0.0065891882
185	0x3dbd5c06	0.09246068
186	0xbdda2c1d	-0.10652945
187	0xbdb6aa63	-0.089192174
188	0x3cf53c09	0.029935854
189	0xbd993705	-0.07481197
190	0x3ddc6149	0.10760743
191	0x3d644487	0.055729415
192	0xbc89fda9	-0.016844587
193	0xbdc6cfcc	-0.09707603
194	0xbdb77c62	-0.08959271
195	0x3dd51d1f	0.10405945
196	0x3db606de	0.088880286
197	0x3dded91c	0.10881254
198	0x3d6ce6db	0.05783735
199	0x3cb61552	0.022226963
200	0xbcdedaa9	-0.027203875
201	0xbdbf4d86	-0.09340958
202	0x3d24fc72	0.040279813
203	0x3da099e5	0.07841853
204	0xbc28bed0	-0.0102993995
205	0x3d9cced0	0.07656634
206	0x3c96adcd	0.018393422
207	0x3d827a5d	0.06370995
208	0xbd5541fd	-0.052064884
209	0x3dd8d2b6	0.10587065
210	0xbd3bad74	-0.045819715
211	0xbbb254d8	-0.005442243
212	0x3aac59a0	0.0013149269
213	0x3be0a087	0.006855074
214	0xbd9334e8	-0.071878254
215	0x3df807bc	0.1211085
216	0xbd574103	-0.052552234
217	0xbde1bfa4	-0.11022881
218	0xbd854375	-0.06507007
219	0xbdb25b3b	-0.08708807
220	0x3dbb59c8	0.09147984
221	0x3dd808a3	0.10548522
222	0xbd5f0531	-0.05444831
223	0x3ca1d90c	0.019756816
224	0xbd5fc891	-0.054634634
225	0xbd911ed5	-0.07085959
226	0xbded8b70	-0.11598861
227	0xbd4676c2	-0.0484531
228	0xbce91a24	-0.028454848
229	0xbd841388	-0.06449038
230	0xbd9c8188	-0.076418936
231	0xbdd78c95	-0.10524861
232	0x3dda9f34	0.10674897
233	0xbdac0cfa	-0.084009126
234	0xbd4db96c	-0.05022566
235	0x3d45f2ae	0.04832714
236	0x3d590105	0.052979488
237	0xbc10aad2	-0.008829789
238	0x3d6e812d	0.05822866
239	0x3db072a6	0.086156175
240	0x3cedf26f	0.029046265
241	0xbd6bce10	-0.057569563
242	0x3da76a03	0.08174517
243	0xb87228d4	-5.773532e-05
244	0x3db3b3ec	0.08774552
245	0xbc64c817	-0.013963721
246	0xbd43a74f	-0.04776698
247	0xbdd76e22	-0.10519053
248	0xbd6bcfa0	-0.057571054
249	0xbcf829d9	-0.030293392
250	0x3d156cf4	0.03648086
251	0x3dc8158a	0.09769733
252	0xbdb42266	-0.087956235
253	0x3da12b35	0.07869569
254	0xbdcef2e4	-0.101049215
255	0xbd87baf1	-0.06627453

network_actor.4.bias f4 [5]
0	0xbd467c0a	-0.048458137
1	0xbddf85a5	-0.109141625
2	0xbd8f23e1	-0.06989265
3	0x3d091fe7	0.03347769
4	0xbd4b1402	-0.049579628
