checkpoint/td3-actor_mlp_actor-lr:0.0003_critic-lr:0.0003_gamma:0.99_tau:0.05.pth (torch, 130391 bytes, 6 tensors)

network_actor.0.weight f4 [120, 140]
00000000: a77e d13d d09d bbbd c75d 11bd 802c 4d3c
00000010: 2906 2d3d 0cb1 89bc 475d debd 4aca 6bbd
00000020: 3ee5 99bc 4234 f739 78c7 51bd 9250 803c
00000030: e139 553d 6872 debd c1b4 e0bc ff3a 0bbd
00000040: 9a86 5abc 8e5d 323d 20de b43d 828b 96bd
00000050: 9743 d4bb 2fb8 b73c 7184 e73c 8778 80b9
00000060: a5a3 95bd c833 bdbd 58a7 ca3b 313e 83bd
00000070: bf9c 9c3d 3792 93bd a101 c1bd 1d1a 453d
00000080: 0be7 053c 5a8e 1d3c 4110 58bd eca6 cd3d
00000090: 49b8 783d 9859 88bb 56b7 c53c 3a21 113d
000000a0: 87fd 9bbb dca3 f2bc a76f 993d d22e 113c
000000b0: 22dc 523d e82b 6bbd 4196 50ba 7fec 033d
000000c0: 9961 e13c 7a61 423d f0ed 223e 5fbb 9fbd
000000d0: 5dfe 253d 5338 6ebd 8989 583c a24e 243d
000000e0: a173 0c3e f905 05bd 8a78 a4ba d7fa 89bd
000000f0: f5a6 7bbd 287d 0f3d c93a dd3c 2032 443d
00000100: 6a48 b33d 2dfb 323d 808c 653c 1957 153d
00000110: ba09 6e3d 8c58 ddbd bd10 68bd 5e9d 07bd
00000120: a18b 29bd c0a5 f53c a168 3ebd 9f36 99bd
00000130: 0092 0abd 8ea8 e5bd 88bd 28bd 07a7 f43d
00000140: dfed 6e3c 0413 4b3d 898a 003d 411b c7bd
00000150: 0bf1 a43d 3fa5 cbbd 36bd d8bc cfa7 66bd
00000160: 0485 9dbd 7f73 c9bc e328 9bbd c996 01bd
00000170: 3394 b83d c56c febc 879d 053d 2db3 a93d
00000180: 0549 813d 97e8 cbbd daf1 c43c 7b33 17bc
00000190: 63b3 7fbc 15f8 ab3d 6da2 30bd f3d8 883c
000001a0: cdd6 8bbd aa1c 57bd 5064 043e 9ffb aabd
000001b0: fd2b abbd 8363 2a3d 3b96 8fbd 59b1 5e3d
000001c0: 0a04 3e3e 9c77 8bbd 8373 bebd a100 d1bd
000001d0: f8ac 203b 29a2 843d 3b70 96bc 9bdb 293d
000001e0: 8396 7d3d c414 013d 5eeb 193d c540 1bbd
000001f0: 0ec4 c3bd 8905 5a3b 3d45 5dbd 5572 953d
00000200: 100d b63d 7ffb 3fbd 436f 213c b07b 8038
00000210: ae9d 17be 3614 f0bd 586f 8bbc e50a dabb
00000220: 30bb 97bc 6475 77bd 96ec 20bd 0756 92bd
00000230: 0de7 893d dba0 e23b 89b6 5abd dcca 3b3d
00000240: b9c5 9b3c 7073 6d3d 9fed 403d 721b 86bd
00000250: 8ca0 863c 3347 7dbd 0959 7bbb f8cf f3bc
00000260: 2ffb bb3c 911d b33c 40ac 8ebd aea4 97bd
00000270: dbd2 7fbd 7bb8 e7bc a0f3 5cbd aa5b 5dbd
00000280: 30f4 44bc de90 f03b c167 e83c aaeb 94bc
00000290: effc 6bbd db4d 04bd e053 3fbd afee b0bd
000002a0: a811 473d e8ca 87bd 1dca 9ebd 6fee 2fbd
000002b0: 5b41 83bd b7e9 8cbd bdf5 d1bc acac a0bd
000002c0: 4759 01bc 5b4a 27bd d0c1 09bd d42b 47bd
000002d0: 963e f63c 4667 72bc aa9e 0dbc f3bf 92bb
000002e0: 3073 83bd fdfb 3f3c c438 7d3d 228b c53c
000002f0: ac17 02bd e01d 7fbd 002f a03d 10c0 2f3c
00000300: 5597 dbbc f3f9 0abd 65a8 07bd 79ff 933d
00000310: 3b7c 5e3d dd45 ba3c 1537 48bd 01de d3bc
00000320: 02b0 953d 3404 86bd 0de0 e43b fbea 89bd
00000330: 03de b9bd 6276 0c3d ba1e 1abb 9ebd 6dbd
00000340: 0145 983d aaa8 5a3d 2679 5e3d e8ea 253d
00000350: 2b64 20bd 23e0 3f3d b77a a7bc 0571 dcbc
00000360: f3fb adbd 8b22 783d cf16 253d 502f 8d3d
00000370: 4aa1 8a3d 01a8 243d f1a6 08bc 2497 37bd
00000380: 5777 04bd 8011 9bbd dd63 b13c d583 91bc
00000390: 5893 d43c c536 f63c 5497 223d b833 3abd
000003a0: ba87 4fbc 6022 0bbd 0035 47bd 5069 97bd
000003b0: a411 86bd 4c31 b0bd c22d a9bb 868a 413d
000003c0: 56ed a1bd 6336 7cbd 5dc2 98bd bed7 1d3d
000003d0: 1c0e 68bd 937c bebc 2fe2 11bd 20ca 5abd
000003e0: a55f 573b c166 2bbb f767 15bd f937 8ebd
000003f0: 3511 673d 6210 a4bd ad98 cfbc cc95 5b3d
0.10229235 -0.0916096 -0.035489824 0.012522817 0.042242203 -0.016808055 -0.10857635 -0.057565965
-0.018786069 0.00047150446 -0.05121562 0.015663419 0.05205715 -0.10861665 -0.02742994 -0.03399181
-0.013337756 0.043546252 0.088314295 -0.07350828 -0.006477784 0.022426693 0.028261395 -0.00024503862
-0.07306603 -0.09238392 0.0061844997 -0.064083464 0.076470844 -0.07205623 -0.09424139 0.048120607
0.008172761 0.009616459 -0.052749876 0.100416034 0.060722623 -0.004161071 0.024135273 0.035432078
-0.0047604474 -0.02961915 0.07491999 0.0088612605 0.051479466 -0.05741492 -0.000795696 0.032207962
0.027512359 0.047456242 0.15911078 -0.0779941 0.040525783 -0.058159184 0.013216385 0.040114053
0.13715984 -0.0324764 -0.001254813 -0.06737297 -0.06143852 0.035031468 0.02700557 0.047899365
0.08754046 0.04369657 0.014010549 0.036460016 0.058114745 -0.108079046 -0.056656588 -0.03310906
-0.041392926 0.029986262 -0.0464865 -0.07481121 -0.033830643 -0.1121379 -0.041196376 0.119459204
0.01458308 0.04957868 0.031382117 -0.09721995 0.08053788 -0.099436276 -0.02645741 -0.05631238
-0.07691386 -0.024591206 -0.07576158 -0.03163794 0.09012642 -0.031057725 0.032620933 0.08286128
0.063127555 -0.09956472 0.024041105 -0.0092285825 -0.015606734 0.08396927 -0.04312365 0.016705012
-0.068280794 -0.05251757 0.12928891 -0.08348774 -0.083579995 0.041598808 -0.07011076 0.05436835
0.18556228 -0.06809923 -0.09299376 -0.10205198 0.002451716 0.06476242 -0.018364063 0.041469198
0.061911117 0.031513944 0.03757798 -0.037903566 -0.09558879 0.003326746 -0.05402111 0.07297198
0.0888921 -0.046870705 0.009853187 6.126554e-05 -0.14806244 -0.11722605 -0.017020866 -0.0066541308
-0.018521875 -0.060414687 -0.039288126 -0.07145315 0.067335226 0.006916148 -0.053396735 0.04584776
0.01901518 0.057971418 0.047101613 -0.065482035 0.016433977 -0.06183548 -0.003835263 -0.029762253
0.022946922 0.021864684 -0.06966448 -0.07404457 -0.062456947 -0.02828621 -0.053943276 -0.054042496
-0.012021109 0.0073414883 0.028369786 -0.01817878 -0.057614263 -0.03230081 -0.04671085 -0.08639275
0.048600823 -0.06630498 -0.07753394 -0.042951997 -0.0640895 -0.06880515 -0.025629872 -0.078454345
-0.0078948205 -0.040842395 -0.0336321 -0.048625782 0.03005914 -0.01479513 -0.0086437855 -0.0044784485
-0.06418455 0.0117177935 0.061821714 0.024114195 -0.031760857 -0.06228435 0.078214645 0.010726944
-0.02680556 -0.033929776 -0.033119578 0.07226462 0.054317694 0.022738392 -0.048880655 -0.025862696
0.073089615 -0.065437704 0.0069847167 -0.06734272 -0.090755485 0.034292586 -0.002351685 -0.05804216
0.074350365 0.053383507 0.054314755 0.040507227 -0.039158028 0.046844613 -0.020444257 -0.02690936
-0.08495321 0.060579818 0.040304955 0.0689379 0.06769045 0.040199284 -0.008340583 -0.044821873
-0.032340374 -0.07571697 0.021654064 -0.017763058 0.025949165 0.030055413 0.0396951 -0.04545948
-0.012666637 -0.03396833 -0.04863453 -0.07393134 -0.065463334 -0.08603153 -0.0051629255 0.047251247
-0.07906596 -0.061575305 -0.07458947 0.038535826 -0.05665408 -0.023252761 -0.035616096 -0.053415418
0.0032863405 -0.0026153775 -0.0364761 -0.0694427 0.056412894 -0.08010937 -0.025341356 0.053609654

network_actor.0.bias f4 [120]
00000000: a3e8 e9bc b704 743d d472 4d3d 6491 b53c
00000010: 21a2 93bd 9447 c0bd 7ea9 acbc 60bc 6c3d
00000020: 99d4 f3bb 956b 973d 491d 13be e741 5abd
00000030: c501 f53b e8dc e1bd c880 493d 105a 9e3d
00000040: d0dd f2bc e675 87bd 9645 00bd 1ec1 54bc
00000050: b52f 563d c846 b3bd 80a7 203d b7b1 6d3c
00000060: 90ea 97bd 6352 ebbc 81fa f33d 5fdf 8f3c
00000070: 5a3a 173e 121b 10be 4d4f a8bd cdfb 403d
00000080: 503b f73d 4cf6 f4bc 2f66 123d c7e9 e33c
00000090: ec54 1d3e 79c4 cfbd e367 3f3d 2c8c cabc
000000a0: bfc8 8cbd 8a4f 923d c030 ccbd 9669 50bc
000000b0: c777 043d 05c0 67bd 6529 02be b122 34bd
000000c0: 932e 34bd cd5d 9bbc 8228 5cbd 3990 1a3e
000000d0: ec93 d13c cd08 89bd e781 5abd 0016 bdbc
000000e0: c3ef d43c c68d bdbd d897 053d f9b8 bfbd
000000f0: 1174 aabd 43b7 d4bd 7eb6 3fbd 0dc7 af3b
00000100: aa4a fa3d 3c3b cb3c 9bce c3bc a123 293d
00000110: ebf3 9abd 796d 5f3d 180c 46bd 0ef8 5ebc
00000120: 4e0c 00bc 85ae 2cbd eab9 b6bd 9504 a73b
00000130: b853 233d 269a 04bb 1766 bc3d 577b cebd
00000140: a4b1 173d e857 01bd e7e4 e63b 27fa 50bd
00000150: 8cf9 72bd ed5d 5b3d ecf0 a9bb 85ec 86bd
00000160: a309 a03c 8a6b b3bd 208f c6bc dd0e 3c3d
00000170: daa3 ccbc 91e3 2ebd 2760 123c ef1b d03c
00000180: df8c b03c 58a5 f3bd 418d 99bd 2b28 5ebd
00000190: 43f3 5a3d 8600 8cbd be57 a63c 84aa 51bc
000001a0: fd87 84bd 2678 e2bd 6611 19bd e946 3e3d
000001b0: f9b4 d5bd 6992 b8bd afea c4bd e1b3 143e
000001c0: f59c cabc e29a 33bd 08a8 46bd 2bb2 a0bd
000001d0: c8a9 94bd 8b70 763d 2531 4abd fc9d 2cbd
-0.028553313 0.05957481 0.050158337 0.022164054 -0.07208658 -0.093886524 -0.021076914 0.057796836
-0.007441115 0.073935665 -0.1436664 -0.053285506 0.0074770176 -0.11028463 0.04919508 0.07732022
-0.029646784 -0.06614284 -0.031316362 -0.012985496 0.05229159 -0.08753735 0.03922224 0.014507703
-0.07417786 -0.028725808 0.11913014 0.017562566 0.14768353 -0.14072827 -0.082182504 0.047115136
0.1207186 -0.0299026 0.03574198 0.027821435 0.15364426 -0.10144896 0.046729933 -0.024725042
-0.06874227 0.07144077 -0.09970236 -0.012720486 0.03234079 -0.05657961 -0.12711103 -0.043978397
-0.04398973 -0.018965626 -0.05374957 0.15094079 0.02558323 -0.06691132 -0.05334654 -0.02308178
0.025993234 -0.09255557 0.032615513 -0.093614526 -0.08322919 -0.10386517 -0.046804897 0.005364305
0.12221272 0.024808519 -0.023902228 0.041293744 -0.07566055 0.05454776 -0.048351377 -0.0136089455
-0.007815434 -0.042158622 -0.08922179 0.005096982 0.039874762 -0.0020233481 0.091991596 -0.10082119
0.037034646 -0.031577975 0.0070463303 -0.051019814 -0.059320018 0.05355637 -0.005186191 -0.06588081
0.019535845 -0.08760746 -0.02423817 0.045912612 -0.024980474 -0.042697493 0.008934057 0.025403945
0.021551548 -0.11896771 -0.07497645 -0.054237526 0.05345465 -0.06836037 0.02030551 -0.012797002
-0.0647125 -0.11058073 -0.037370108 0.046454344 -0.104349084 -0.090123005 -0.09615075 0.14521743
-0.024733046 -0.04384888 -0.04850009 -0.07846483 -0.07258946 0.060165923 -0.049363274 -0.042142853

network_actor.2.weight f4 [120, 120]
00000000: a161 dfbd 5e78 1cbd 7abf 53bd 4971 47bd
00000010: e9f0 4cbd 9d68 a53c 9ba0 133d f924 92bc
00000020: e267 5b3d 7277 8dbd 86f5 a1bd 95ec af3c
00000030: f0bc 5c3c 5cd7 9abc 4b27 a43c 1a53 9a3c
00000040: e091 813a 5a4a 6d3d d468 20bd 3212 2b3d
00000050: 98ee 55bc 37a8 43bd 19b2 71bc 6d27 b23d
00000060: 154b 2bbd 8b6d 95bd c5ff 93bd 684e 633c
00000070: 4124 413d 6a58 c4bd 12f0 213d 3d25 5e3d
00000080: 9a27 a03b 9395 6bbd d386 fdbc 1f1c 6ebd
00000090: 0a3e 6abd c9d2 ccbc 08c2 86bd 3bc0 afbc
000000a0: 2302 0ebc 3a8a 963d 1014 a2bb 376e 303d
000000b0: 94fa 80bd 1ccc 0fbc 1516 d139 39df fa3c
000000c0: 39c4 8d3d 05fb 2fbd 494e 133d aa6a 72bd
000000d0: f5ce a6bd 224c 9ebc 0160 86bd 04d4 a73c
000000e0: 04e6 523c 51bc bfbc 41bf 41bd a099 773d
000000f0: 2973 4539 d2ea 013d 0b6c a23d 7a31 9f3b
00000100: eb9a 36bd 23ee 7fbc 7eff acbd 0183 c73c
00000110: 01fd 60bd 1ab8 9f3d 40af 5ebc ddf3 693d
00000120: 3ff5 94bd 81f9 1f3c a0d1 013d d6e8 cebd
00000130: 580f 3fba 82ba 8e3d 160e 6abd f882 5d3d
00000140: 7ca6 81bd 7d77 3bbc 7034 dc3c c0ed 4bbd
00000150: e736 563d 94c6 3e3d 14ce 3b3d 62f2 df3c
00000160: 4459 ae3d 45cc b6bd 077c b2bd 9067 05bc
00000170: 8f15 48bb c548 473c 27e7 603d 5992 fb3a
00000180: 82a4 82bc a122 873c 9582 47bd 67ae 7c3c
00000190: 74b7 7c3d 4670 6a3c 6869 8abd c3e3 23bd
000001a0: 62d7 ed3b 0807 a03d 2daa 6c3d d7e6 833d
000001b0: 6e68 bd3d 76be 58bd 0ad0 2e3d ebff babd
000001c0: 0ff3 b1bd 2e08 e0ba d759 34bd 87b0 883c
000001d0: 0e30 b03c c9e5 81bd 82f2 a4bd 42e5 153c
000001e0: 78d7 8f3c 592c 06bd 1d66 9cbd 756c 01bd
000001f0: 7f40 f8bc 6d77 ad3d efa8 1dbc 53d6 a8bd
00000200: 0b34 aabd 1af1 dcbd b5ff 49bd eb0c 8e3d
00000210: afce 353d f33b 2c3d 4898 7cbd fa17 f1bc
00000220: 9ae9 9f3c bb24 6dbb 72ec 51bd a347 92bd
00000230: 8699 853d 9745 47bb 562e 51bd 25aa 413d
00000240: 130a 873d 69bd 8f3d a851 ab3d 283d 82bd
00000250: 8f0a 70bd f70a 773d 96df e2bd fd4d f2bb
00000260: 7947 12be a309 bfbc c5e0 fcbd 5819 2a3d
00000270: d8bd b3bd f2d6 873d fffa a6bd a589 723d
00000280: e5a3 d23b 372c 74ba 7824 f7bc 62db 63bd
00000290: f2d6 b3bd 291c fb3b d89b debd dce9 923d
000002a0: 13b7 17bd 4079 8cbd 9a30 adbd b6ba 26bd
000002b0: 48aa 85bd 7669 84bd 6a78 b4bd 63ef bb3d
000002c0: 9572 b13c afe0 443c aca3 a33c 3578 5f3d
000002d0: 0d45 0d3d 45df 01bd dd84 3ebd 2088 24bd
000002e0: 9a61 473d 119b 753d 5b82 0fbd 9ecf 953c
000002f0: ce50 52bd 38ab c5bd 45f7 15bd a3eb 893d
00000300: 977e 903d 1fcb 2d3b 0f0b 753c 3775 c8bb
00000310: cc74 bc3d a80b 103d 6cb0 8cbd 3d9b 14bb
00000320: 8bcb d3bd 71a5 94bc 5481 9f3d 155d 1cbc
00000330: 659a 473d ad38 8b3d 4489 14bc ffb0 233d
00000340: aab2 203d 672e 70bd 0fc2 67bd bd13 e3bc
00000350: ef2b 753d 1579 afbd 470a 043d 80ae 3a3d
00000360: dda2 2dbc 5885 843d 6b3a 123c 0d76 a9bb
00000370: dc08 a03d c26a 273d fded c7bc 9c80 a13d
00000380: cf88 7f3d d005 34bd 84eb bd3c f27f 8dbd
00000390: 0725 283d c6c8 8dbd afdd 363d 9703 efbc
000003a0: 35f1 afbd 6e78 3e3d 1099 87bd 13d2 a1bd
000003b0: b9f9 7bbd 9bf5 c6bd 3412 9c3a 1a12 cbbc
000003c0: 2a33 33bd 9442 6b3d da67 acbc 89ee a13d
000003d0: 390c 9abd aafd 98bc 2dce b7bd 5e81 7c3d
000003e0: 3c6b 223c b93f dc3a ba5a dcbd 5bf9 a8bd
000003f0: 46b3 783d da27 4bbd ee72 7bbd 32a3 0ebd
-0.10907293 -0.03820073 -0.05169628 -0.04869202 -0.050034437 0.020191485 0.036041837 -0.017839896
0.053565867 -0.06907548 -0.07908158 0.021475116 0.013472781 -0.01890152 0.020038268 0.018838454
0.0009885393 0.057932235 -0.039162472 0.0417654 -0.013057373 -0.047767844 -0.014751934 0.08698926
-0.04181965 -0.07296284 -0.072265185 0.013873674 0.047153715 -0.09587176 0.03953559 0.054234732
0.0048875334 -0.057515692 -0.030948078 -0.058132287 -0.05718807 -0.025002854 -0.06579977 -0.021453967
-0.008667502 0.073505834 -0.0049462393 0.04307386 -0.06297794 -0.008776691 0.0003988004 0.030624019
0.06922192 -0.042964 0.03596333 -0.059183754 -0.08144943 -0.019323412 -0.0656128 0.02048684
0.012872223 -0.023405226 -0.047301535 0.060449243 0.00018830285 0.031718083 0.07930764 0.004858193
-0.044581335 -0.015620741 -0.08447169 0.02435446 -0.054928783 0.077987865 -0.013591588 0.05711733
-0.072733395 0.009764076 0.031694055 -0.10103004 -0.0007288358 0.06969167 -0.05714234 0.05407998
-0.063305825 -0.011442062 0.026880473 -0.049787283 0.052298453 0.046576098 0.04585083 0.027337257
0.0851312 -0.0892568 -0.087150626 -0.008142367 -0.0030530428 0.012163346 0.054907944 0.0019193395
-0.015947584 0.016496005 -0.048708517 0.01542244 0.061698392 0.014308995 -0.06758386 -0.040012132
0.0072583416 0.07813841 0.05777948 0.064405136 0.09248434 -0.052916013 0.04267887 -0.09130844
-0.08688938 -0.0017092281 -0.04403099 0.016685737 0.02150729 -0.06342656 -0.08054067 0.009148898
0.017558798 -0.032757137 -0.07636664 -0.031597573 -0.030304192 0.08470044 -0.009622796 -0.08244004
-0.08310708 -0.10788174 -0.049316127 0.06936058 0.044386562 0.04204936 -0.061668664 -0.029430378
0.01952057 -0.0036185223 -0.051250882 -0.0714257 0.06523423 -0.003040647 -0.05106958 0.047281403
0.065937184 0.07018549 0.08365184 -0.06359321 -0.05860382 0.06031319 -0.11077802 -0.007394551
-0.14285077 -0.023320025 -0.12347559 0.041528076 -0.08776444 0.066327944 -0.081533425 0.0592133
0.006428229 -0.000931445 -0.030168757 -0.05562914 -0.08781232 0.007663269 -0.108695686 0.071735114
-0.037039828 -0.06859064 -0.08456536 -0.040705405 -0.06526619 -0.064654276 -0.0881203 0.09176519
0.021661082 0.012016459 0.019975506 0.054557998 0.03448968 -0.031707067 -0.046513427 -0.04016888
0.048677064 0.059962336 -0.035036426 0.018287476 -0.051346593 -0.09651798 -0.036612768 0.06734397
0.07055395 0.0026518775 0.01495625 -0.0061174887 0.09201965 0.035167366 -0.06869587 -0.0022675537
-0.10341557 -0.018145295 0.07788339 -0.009543677 0.048731226 0.067979194 -0.00906593 0.03996372
0.039232887 -0.058638003 -0.056581553 -0.027719373 0.05985635 -0.085680164 0.032236364 0.045576572
-0.010597912 0.06470746 0.008925061 -0.0051715435 0.0781419 0.040873297 -0.024405474 0.078858584
0.06238633 -0.043950856 0.023183592 -0.06909169 0.041050937 -0.0692306 0.044645008 -0.029176516
-0.085909285 0.04650157 -0.06620991 -0.079013966 -0.06151745 -0.09714814 0.001190728 -0.024788905
-0.043749966 0.05743654 -0.021045614 0.07906825 -0.075218625 -0.018675644 -0.08974872 0.06164681
0.009913262 0.0016803659 -0.10759492 -0.08250686 0.060717843 -0.049598552 -0.061388902 -0.034823604

network_actor.2.bias f4 [120]
00000000: 6d78 5fbc 6b2f c03c 45fa 573d 9c22 083c
00000010: cf43 5e3d 5aaf 483d 67e7 6a3c cff6 9a3b
00000020: 330e 95bd 7928 8cbc e8cd 35bc 1a1d 223b
00000030: a626 fabb f0d2 8dbc 137b 6d3d 4807 06bd
00000040: a86d 1fbd f0e7 f83c d0cf 87bd 5a56 173d
00000050: aef4 b1bc 6161 d7bc 0f7e 5bbd 5385 a5bd
00000060: 5dcf 84bc 50b0 9dbd ce78 233c 0603 b1bd
00000070: 6dd2 3cbc 3864 05be 583f 883d 5285 cc3c
00000080: 8b88 203e 50bd 8abd 8fa2 ccbc c32a a0bd
00000090: 82ea 0a3d ed2a d0bd ad9a a03d c40f 7ebd
000000a0: 2a5f e6bd f7c1 adbd 09ea 4cbd 70ad 19bd
000000b0: d7c0 16be 4dc8 f7bc 9b25 af3c c86b c43c
000000c0: 5aa3 783d b9bf 07bd fae6 40bd ab65 cb3c
000000d0: 2896 133d fcfc 98ba 7eaf 943c 3b9f 6f3d
000000e0: 4fb5 7ebc 5f94 0e3e c12d c13a b95c 88bd
000000f0: e791 8cbc 4298 043c 1023 cbbc 74c9 6dbd
00000100: 2907 e73c e772 df3c a78c 633c 4a85 9c3d
00000110: 0b66 ae3d 1d09 31bb c678 7cbd 77ff a4bd
00000120: 9ddf a83d f5ca 133b 172d 823d 74ad f23c
00000130: 3bb0 04bd 7254 acbd 4614 70bd 89e6 c3bd
00000140: 22b1 263d 3234 9cbd 61a3 32bc a572 203d
00000150: c4d9 e4bd fa6a 173d 9460 5ebb f0b1 753d
00000160: 3d35 403d 5a33 70bb 3425 a6bc 21e8 cdbc
00000170: c20c 423c 6b71 ad3c 8322 a6bd 0346 c13c
00000180: 8ad0 79bd 9339 b2bd 7dad 72bd d7fa f23c
00000190: 279c db3c 0ed3 8ebd 4e0c 4ebd a60e eebb
000001a0: c942 603c f6ee 093c 29ad 84bd 635c dcbc
000001b0: e5f5 513c 6a70 74bc 2be1 e9bd 1b25 4d3d
000001c0: 5ad6 4cbd 8159 f93d e7a6 4dbc 6b17 9b3c
000001d0: 176e 43bd eceb 723d 8828 7bbb 8933 063d
-0.013639552 0.02346011 0.05272891 0.008309033 0.054263886 0.048995353 0.014337397 0.004729129
-0.07278099 -0.017109143 -0.011096455 0.0024736584 -0.007634002 -0.017312497 0.0579787 -0.032721788
-0.038922936 0.030384034 -0.06631434 0.036947586 -0.021723118 -0.026291551 -0.053587016 -0.0808207
-0.01621216 -0.076996446 0.009977533 -0.08643155 -0.011524779 -0.13026512 0.06652707 0.024965916
0.15677087 -0.0677439 -0.024979858 -0.07820656 0.03391505 -0.101644374 0.07842002 -0.062026754
-0.1124862 -0.084842615 -0.05002788 -0.03751892 -0.14722 -0.030246878 0.021380236 0.023977175
0.06070266 -0.033141825 -0.047095276 0.024828753 0.036031872 -0.0011672075 0.018150087 0.058501463
-0.015546157 0.13923787 0.0014738367 -0.066583104 -0.017159415 0.008092942 -0.024796993 -0.05805345
0.028201656 0.02727647 0.013888515 0.0764261 0.08515557 -0.0027013489 -0.061638616 -0.080565386
0.08245776 0.0022551392 0.063562565 0.029623725 -0.03239463 -0.08414544 -0.058613084 -0.095654555
0.04069627 -0.07627143 -0.01090321 0.039171834 -0.11174348 0.036967255 -0.0033932077 0.059984148
0.046925772 -0.0036651702 -0.020281412 -0.025135102 0.011843862 0.021172246 -0.08112051 0.023592955
-0.060989894 -0.08702388 -0.059247483 0.029660625 0.026807858 -0.06973849 -0.050304703 -0.00726493
0.013687798 0.008418789 -0.0647834 -0.026899522 0.0128149735 -0.01491938 -0.114199005 0.050084215
-0.05000911 0.12175275 -0.012552 0.018932065 -0.04771241 0.059307024 -0.003832372 0.03276399

network_actor.4.weight f4 [5, 120]
00000000: c53f f9bb 1db5 6c3d e0d1 b1bb c316 e93c
00000010: a551 813c 056b 7b3d 0418 63bd b3a5 d53b
00000020: fc4d 233d b10c a4bd 4ff5 abbb cbd0 383c
00000030: 9851 f83c 6422 083d b5d8 b3bd 181e a0bd
00000040: 11e4 193d 8264 8d3d c65f e9bb 911c 493c
00000050: 79b4 8dbc a38c 8d3c 663d a2bd 6698 92bd
00000060: cf0a bd3b 4098 a03d 1fc9 4e3d 61ea 02bd
00000070: e423 1abd 12c5 76bd b866 f4ba 2df7 2b3d
00000080: dd9e 8d3d c3c1 ab3b bd95 82bd 543c bfbc
00000090: 57f6 803d 4e2f 5f3c 610a 9c3c 2035 a53d
000000a0: bc3c 9a3d 1c24 743c d2dc 943c 438c 41bd
000000b0: 5bc0 403c 3b50 893c 9433 993c b4c3 a53d
000000c0: a23a 03bd 906b c93d 3631 573d 50b6 3f3d
000000d0: a4c4 a9bd 3748 fe3c 89a7 623a badd 943d
000000e0: 6af8 c23c d003 7e3d 8295 d33d 7cef 8ebc
000000f0: 6682 1b3d abb8 9f3d a88c 95bd 73d2 9dbc
00000100: d669 b03d 4c5c 1cbc 0765 b4bd c201 263d
00000110: c3b8 b6bc 70fb 193c 9a68 f0bc 9dfe 6ebd
00000120: c252 c33d c56b ae3d 5c08 7abd de51 b2bb
00000130: f503 8f3d d206 7dbd a05a 63bd 6715 2e3a
00000140: 0068 4e3d 78b0 9d3d da15 88bd 843c 233d
00000150: a24a 22bd 2a69 83bd d895 b93b 1dfb 983d
00000160: f1dc bd3d 9818 643d e0ff 6cbd e058 513d
00000170: d5a8 61bd 8f96 88bd 7e87 9c3d 712c 253d
00000180: 5aab de3c 1d2b 0f3c 5861 30bd c871 9a3d
00000190: 18f1 a6bc c7ea ab3d 153a 16bc e538 733c
000001a0: 179f 5fbc b070 54bd db31 733d cc4f dbbb
000001b0: 17bc ef3a c561 45bd 915e f4bc e6c6 263d
000001c0: d70c 833c fb27 983d 1643 c63d 1ae8 7f3d
000001d0: 04ee 87bd 0a70 0dbc aab5 39bd b694 c13d
000001e0: 37da 40b9 0d2a a0bd 1c1e 11bd da3d 80bc
000001f0: 4e5d a8bc c3b4 34bd 942e 63bd 1c7c 6d3c
00000200: 02ae 0bba 381b 0bbd a860 53bb b77c 533d
00000210: fb07 e5bc 5b8d a6bc 4d29 64bd 066f 0dbd
00000220: c87c 6abc 645c e33c 6273 533d 9476 5f3d
00000230: 63cc d33d c9f6 8e3d fd96 82bd fa97 ac3d
00000240: 7dd5 6f3d e9a2 2f3c 3773 6f3d b55e 543d
00000250: 799b 673d 0d14 893c 8bd6 08bd e1e4 c33d
00000260: d6c8 4a3d 0abb 4e3d 86d9 a83d 9ff3 9b3c
00000270: edcb cf3d d508 8e3d 771a 503d a7bb 9ebc
00000280: 97c7 29ba 60d8 193d cc9a 52bd e34e a93d
00000290: 5d3e af3d 5de0 95bd cbf2 f43d 475a 3a3d
000002a0: c23c 3fbd e2a6 3ebd cfd5 553d ce71 5dbc
000002b0: 8258 e03a d2de 353c 3c32 90bd 402c 9dbc
000002c0: cd42 d33b 8628 d53d 2d23 55bd 119f 29bd
000002d0: f431 323d 537e a4ba ac0e 0c3c ec33 86bc
000002e0: d29d 06bd bbaa 3dbd 2f10 5cbd bea5 693d
000002f0: 41e3 a13d dcc6 64bd bde7 8d3c 5376 92bd
00000300: faf1 9cbc 61af 393d 25c6 1c3d d480 88bc
00000310: 64ea fa3c 61ca 133d 263e 923d 480e c5bc
00000320: fb4a 353d 6809 c439 c719 5bbc adc7 85bd
00000330: 8db0 fcbb 47ae 733c bd6f f83d 49d5 273d
00000340: 2194 883d 0e73 6c3d bbdf b0ba 5a62 d0ba
00000350: 8e10 2cbd 71c5 e3bc 3784 53bd cf66 5c3b
00000360: 2fa9 67bb ff1e 28bd bcb9 d5bc 205f 37bd
00000370: 5e37 00bd 5de5 c03c 9115 47bc 4193 833d
00000380: 11d5 5cba 8841 7b3c e4b6 083d ab67 48bd
00000390: 4693 8f3d cf05 4abd fcfb e93b e6d4 f03c
000003a0: 8c13 d43d a392 a93d 90b2 1d3d 3f50 a9bc
000003b0: e40e 8a3c 348f bcbd 2bc8 eb3d 0045 9cbd
000003c0: f39e 7d3c b73a 88bd 2a57 b43c 2521 85bd
000003d0: 0cac a0bd ebc9 79bd 47ac 323d 99b1 423d
000003e0: da7f a0bd 713c b3bd 965a 513d 5ac7 30bd
000003f0: 7b0d 253d 66e0 4fbd ab13 f63c 19b9 413d
-0.007606479 0.05778991 -0.0054266304 0.028453236 0.015786001 0.06138136 -0.055442825 0.006519997
0.039869294 -0.08010233 -0.005247749 0.011280249 0.030312344 0.033235922 -0.08781568 -0.0781824
0.037571017 0.06903936 -0.007122013 0.012274877 -0.01729797 0.017278975 -0.07921867 -0.07157974
0.0057691108 0.078415394 0.050484773 -0.031961802 -0.037631884 -0.060246535 -0.0018646335 0.041983772
0.069150664 0.005241604 -0.063762166 -0.023344196 0.062969856 0.013622118 0.019047918 0.080667734
0.075311154 0.014901187 0.018171702 -0.047252905 0.011764611 0.01676189 0.018701352 0.08093968
-0.03203834 0.09834969 0.052537166 0.046804726 -0.08289459 0.031040294 0.00086461805 0.072688535
0.023800094 0.062015355 0.10331251 -0.01744818 0.037966155 0.077988945 -0.07302219 -0.01926539
0.086139366 -0.00954349 -0.08808332 0.04052902 -0.022304898 0.009398326 -0.029346753 -0.058348287
0.09537269 0.08516649 -0.06104313 -0.0054418882 0.069831766 -0.061774082 -0.05550635 0.00066407624
0.05039215 0.07699674 -0.06644793 0.039852634 -0.039621957 -0.06416543 0.0056636147 0.07469771
0.09270657 0.055687517 -0.05786121 0.05111015 -0.05509265 -0.06669342 0.076430306 0.040325586
0.027181316 0.008738306 -0.043061584 0.07541233 -0.020378634 0.083943896 -0.009169121 0.014845108
-0.01364877 -0.05186528 0.059373718 -0.006692862 0.0018290308 -0.048188943 -0.029830249 0.040717028
0.015997333 0.07429501 0.096807644 0.06247721 -0.06637195 -0.008632669 -0.045339264 0.094521925
-0.00018391838 -0.078205206 -0.035429105 -0.015654493 -0.020552304 -0.0441177 -0.055464342 0.014494922
-0.00053283584 -0.033961505 -0.0032253657 0.05163261 -0.027957907 -0.020331075 -0.05570345 -0.03452971
-0.014311977 0.027754016 0.05162371 0.054556444 0.10341718 0.06980664 -0.06376455 0.08427425
0.058553208 0.010719993 0.058459487 0.051848132 0.056544755 0.016733194 -0.03340773 0.095651396
0.04950794 0.050471343 0.08244614 0.019037066 0.10146318 0.06935278 0.05080649 -0.019376589
-0.00064765796 0.037559867 -0.051417157 0.082669996 0.08556817 -0.073181845 0.119603716 0.04549625
-0.046688803 -0.04654587 0.052205857 -0.013515903 0.0017116221 0.011100488 -0.070408314 -0.01918614
0.0064471723 0.1040812 -0.0520355 -0.041411463 0.04350467 -0.0012549855 0.00854842 -0.01638218
-0.032865353 -0.0463054 -0.05372637 0.05704283 0.07904673 -0.05585371 0.017322415 -0.07151475
-0.019158352 0.04533327 0.038274903 -0.016662993 0.030629344 0.036081675 0.0714076 -0.024054661
0.04426096 0.0003739104 -0.013372845 -0.06532226 -0.007711476 0.014873094 0.121306874 0.04097489
0.06668878 0.057726912 -0.0013494411 -0.0015898452 -0.042007975 -0.027804108 -0.05163976 0.0033630615
-0.0035348644 -0.041045185 -0.026089542 -0.044768453 -0.031302802 0.023546869 -0.012151138 0.06424571
-0.00084240834 0.015335448 0.033377543 -0.04892699 0.07010512 -0.049321946 0.0071406346 0.029398393
0.10355291 0.08279922 0.03850037 -0.020668147 0.016852804 -0.09207001 0.115127884 -0.07630348
0.015479791 -0.06651824 0.02201422 -0.065004624 -0.07845315 -0.06098358 0.043621328 0.04753265
-0.07836886 -0.08751763 0.05111178 -0.043158866 0.04029606 -0.050751112 0.030038675 0.047295664

network_actor.4.bias f4 [5]
00000000: 9bf2 a4bc 575a 183d e50d 0d3d 945f e23c
00000010: 15e6 e3bc
-0.020135215 0.03719553 0.03443708 0.027633466 -0.027819673
